dl/experiments/cnn_max_pool/runs/2024-05-19-17-43-23/checkpoints/epoch-045_0.889042.ckpt (torch, 786108 bytes, 8 tensors)

model.embedding.weight f4 [2049, 64]
000000 79 bd ed 3e d4 e0 28 bf 47 9e 65 bf 67 46 12 3e
       0.4643362 -0.6596806 -0.8969464 0.14284669
000010 dc e1 9f 3e 07 77 11 bf 90 35 27 bf b4 c7 64 be
       0.31227005 -0.56822246 -0.65316105 -0.22341806
000020 67 69 93 be 0a be 92 3f ae 19 f6 be 56 c5 c9 be
       -0.28791353 1.1464245 -0.48066467 -0.39408368
000030 2e f7 8f be fc 24 9f 3f 27 db 86 bf 51 25 86 be
       -0.2811827 1.2433162 -1.053563 -0.26200345
000040 a7 04 9c 3d e4 21 29 bf db fb 29 3f 7e 7e 5f bf
       0.07618075 -0.6606734 0.66399926 -0.87302387
000050 06 a6 17 3f 79 e2 6e bd e2 fc 27 3d 95 01 2c bf
       0.59237707 -0.05832145 0.041012652 -0.67189914
000060 3f cd 22 bf b5 f5 cb 3e 03 61 d1 3e 8f 60 ad 3e
       -0.6359443 0.39835897 0.40894327 0.3386273
000070 85 4f 3b bf 05 1c 84 3f ba ea 00 3f 11 c0 8e 3d
       -0.7316821 1.0321051 0.50358164 0.069702275
000080 30 6f 17 3f 03 7c bc bd 84 20 3c 3f 9b 94 bc 3d
       0.59154034 -0.09203341 0.73487115 0.09208032
000090 d7 1e 0e 3e 0c 4a 97 3e e9 07 a0 bf 78 00 49 be
       0.13878952 0.2954868 -1.2502414 -0.19629085
0000a0 b4 ae 8b 3e a0 85 b2 3b 7f d0 a7 3e 11 99 82 3f
       0.27281725 0.0054480582 0.32776257 1.0202962
0000b0 b7 e1 42 be 8a a2 73 be 15 9e 3d 3f 8c 0d 7e 3e
       -0.19031416 -0.23792472 0.7406934 0.24809855
0000c0 9c cb b6 bd 8f 71 e7 be ec c4 20 bf 04 91 76 bd
       -0.08925554 -0.45203826 -0.6280048 -0.06019689
0000d0 c9 25 ac 3e 10 2a 73 be d3 d9 74 be 81 7b 25 bf
       0.33622578 -0.23746514 -0.23911218 -0.64641577
0000e0 9f e8 c6 be e5 8f aa 3e d6 a8 7a bf d7 7e b7 3e
       -0.3884935 0.33312908 -0.97913873 0.3583896
0000f0 81 73 8d be 28 83 9c be f1 44 fa 3e 20 8d c1 be
       -0.27627185 -0.30568814 0.48880723 -0.37802982
000100 c5 ec 66 3f ba d1 74 bf 8d 66 f6 bf 11 2a c2 3e
       0.9020503 -0.9563252 -1.9250046 0.3792272
000110 86 ed f9 3e ed 62 15 bf 93 6a 5e 3f 95 54 c9 3e
       0.48814029 -0.58354074 0.8688137 0.39322343
000120 18 27 4d 3f 65 d9 95 3f d9 c4 86 3f 9e 73 88 3f
       0.8013778 1.1706969 1.0528823 1.0660284
000130 40 22 01 3f 8b 80 4d 3f 1e 9b e3 bd 5b 16 84 bf
       0.50442886 0.80274266 -0.11113571 -1.0319322
000140 7a 66 b9 bf 34 de 3a be a0 20 db be 8d 07 fb 3e
       -1.4484398 -0.18248826 -0.42798328 0.49029198
000150 0a cf 7c 3f eb 35 f2 bd 51 9d b8 be b2 eb 72 3f
       0.98753417 -0.1182669 -0.36057523 0.9489089
000160 ab ac 56 3f cf 3d 9a bf 18 f2 a0 3e ba 36 09 bd
       0.8385722 -1.2050112 0.31434703 -0.033499457
000170 c3 fd 2a 3f e0 18 d0 be 3d 91 01 bf 1a 55 f9 3f
       0.6679346 -0.40643978 -0.5061224 1.9479096
000180 1f e5 13 c0 b1 01 a3 bf 07 ee af 3e 56 11 58 be
       -2.3108594 -1.2734891 0.34361288 -0.21100363
000190 de 8d e2 bf 6f 80 28 3f 8e 1e c3 3e 78 87 89 3f
       -1.7699544 0.65820974 0.3810925 1.0744467
0001a0 43 a9 83 bf b9 67 8f bd 37 37 87 bf a3 2c 2e 3f
       -1.028603 -0.070022054 -1.0563725 0.6803686
0001b0 c8 10 b4 bf 56 0b 41 3f 18 d5 3f be fc 47 e1 be
       -1.4067621 0.7540792 -0.18733633 -0.44000232
0001c0 19 08 2a bf 1f d8 0b 3f 51 2a 9a bf e5 11 34 bf
       -0.66418606 0.5462665 -1.2044164 -0.70339805
0001d0 37 72 7c 3f cf 51 cc bb 95 02 5b bf 4d 0c 8b 3e
       0.9861178 -0.0062353383 -0.85550815 0.27157822
0001e0 77 73 87 bf 5c 72 03 3b 8b e2 a7 bc 06 ec a0 3f
       -1.0582112 0.0020057177 -0.020493766 1.2572029
0001f0 10 dc b0 bf 98 e0 eb bf 5d d9 59 3e a7 88 55 bf
       -1.3817158 -1.8427916 0.21274324 -0.8341164
000200 1f 21 ed be df 6b b4 bf df 1f c7 3f ee b8 be 3d
       -0.46314332 -1.409542 1.5556601 0.09312616
000210 67 b6 39 3f b5 c7 ea 3f ae 58 83 bf 85 f8 ea 3f
       0.7254395 1.8342196 -1.0261438 1.8357092
000220 d9 2b a0 bf 38 87 f1 be d1 8c af bf c2 88 0d be
       -1.2513381 -0.47173476 -1.3714849 -0.138217
000230 3c 08 73 bf 4f 40 ed 3e ee cf 42 3f 3d 93 53 3f
       -0.9493444 0.46338126 0.76098526 0.8264654
000240 90 e4 e6 be 04 44 3e bf 81 38 1f bd ed 43 0d 40
       -0.45096254 -0.74322534 -0.038872246 2.2072709
000250 b1 44 b4 3f 04 ab 6b 3f 89 58 fe 3e 65 d8 43 3e
       1.4083463 0.92057824 0.49676922 0.19125517
000260 f3 bc ad 3f b7 49 63 bf d3 78 48 3f 38 01 b0 be
       1.3573288 -0.88784355 0.78309363 -0.3437593
000270 e5 51 e3 be 96 91 c6 bf 4f 67 8e 3f 42 78 fc bf
       -0.44398418 -1.5513179 1.1125277 -1.97242
000280 e8 6a ac bf 94 3e 69 bf 49 cf 27 bf 7c 06 00 3e
       -1.3470125 -0.9111111 -0.6555067 0.12502474
000290 71 1e 9a 3f fe b0 2d 3d 0d 02 4b bc 10 4e 9a bf
       1.204054 0.04240512 -0.012390626 -1.2055073
0002a0 96 be c8 3b 19 f5 f4 bf 63 8c a3 3f 59 80 4a 3f
       0.0061262352 -1.9137298 1.2777218 0.79102093
0002b0 8b 23 0b 3f 03 a8 80 3f d4 10 83 bf 54 c2 09 c0
       0.5435111 1.0051273 -1.023951 -2.1524858
0002c0 64 3e d5 bf 05 d4 9b 3f c7 3b a0 3f 68 33 dd bf
       -1.6659665 1.2174078 1.2518243 -1.7281313
0002d0 a9 58 3e bf b9 86 00 c0 7d 2e 81 3f 08 d1 a4 3e
       -0.74354035 -2.0082228 1.0092312 0.32190728
0002e0 81 c4 0e bf 78 84 0a bf fc 1e 50 bf c1 91 4e bf
       -0.5576859 -0.5410838 -0.8129728 -0.8069115
0002f0 48 23 06 3f f1 15 c3 3f 4c e4 ea 3e f4 a3 0c bf
       0.52397585 1.5241071 0.45877302 -0.5493767
000300 a6 98 d4 bf 6b 30 78 3f 2d 86 d3 bf bd ec af bb
       -1.6609085 0.9694888 -1.6525322 -0.0053687976
000310 fb b7 6b 3f 87 e1 e6 be 95 bb 9a 3f f8 a9 2e 3f
       0.92077607 -0.4509394 1.2088495 0.682281
000320 bf 58 08 bf 17 73 2e 3e 32 d1 5e bf 7a b0 20 bf
       -0.53260416 0.17036091 -0.87037957 -0.6276928
000330 56 85 01 3f 6c ce 2d 3f 80 c1 90 3d ea eb 59 bf
       0.5059408 0.678931 0.07068157 -0.851256
000340 e5 78 27 3e 4f ef 73 3e 71 d4 82 bf e3 2f a9 3f
       0.16354711 0.23821758 -1.0221082 1.3217739
000350 49 4b b0 bf af f1 27 3f 19 3d c0 bd aa ba ae 3e
       -1.3772975 0.65603155 -0.093866535 0.34126788
000360 93 02 d6 3e bc 5b 9b bd d2 81 74 3f b8 d8 ef be
       0.4179884 -0.07585856 0.9551059 -0.4684503
000370 49 8d 7d bf 7a a0 8f be f2 c4 b5 bf 3e b7 ce bf
       -0.9904371 -0.2805212 -1.4200728 -1.6149671
000380 7e d4 81 be d6 e8 c5 3f c8 3b 94 be 20 2a 32 3f
       -0.2535743 1.5461681 -0.2895186 0.6959553
000390 08 22 18 3f 2f ad 12 3f 91 bc b7 bf 10 93 af be
       0.5942693 0.5729551 -1.4354421 -0.34291887
0003a0 13 99 1d 3e da a3 17 bf 08 1e b4 bd 3a d1 31 be
       0.15390424 -0.5923439 -0.087947905 -0.1736497
0003b0 40 10 0a bf 1c 01 34 3f 72 0a 13 bf 87 c2 1b bf
       -0.53931046 0.7031419 -0.57437813 -0.608437
0003c0 c3 95 8e 3f 94 85 4c be d3 ec 41 3f 7d c4 ea 3e
       1.1139454 -0.19972831 0.7575199 0.45853034
0003d0 8a 3d 1c bf b9 57 d0 3e 88 6c a4 3e 38 06 11 bf
       -0.610314 0.40691927 0.32114053 -0.56650114
0003e0 a9 eb cf be 80 59 a4 3e a4 ab 77 bf 7f 7a ab bf
       -0.40609482 0.32099533 -0.9674628 -1.3396758
0003f0 96 1b 74 be 6d 73 27 be be bf 10 be 8c d8 25 3f
       -0.23838648 -0.16352625 -0.14135644 0.6478355

model.layers.block_0.conv.weight f4 [256, 64, 3]
000000 8a f6 3e 3e be b7 58 3d 3b 03 9b be 5d 9e b9 be
       0.18648735 0.052909605 -0.30275902 -0.36253634
000010 8d 16 14 bd 38 51 7b be 9e 50 b4 be 3d 98 f6 3e
       -0.03615432 -0.24542701 -0.35217756 0.48163024
000020 e2 11 14 bd 5d b3 80 3e 12 b6 db 3e ee 92 a0 3e
       -0.036149867 0.25136843 0.42912346 0.31362098
000030 e5 02 c4 3e 08 8e 43 3e 21 44 e0 3e 0a ef 3e 3e
       0.38283458 0.1909715 0.43801978 0.18645874
000040 09 20 9a bf 4f ce cc bd 8b 41 80 3e 44 f8 de be
       -1.2041026 -0.10000288 0.25050005 -0.43548787
000050 f9 a7 f1 bc ca e9 8d be 12 c4 23 3f 52 4c ca be
       -0.02949904 -0.2771743 0.63971055 -0.39511353
000060 5f 04 6d 3c d5 21 33 bf 52 50 61 bc 81 3d 1e 3f
       0.014466374 -0.699735 -0.01375206 0.618126
000070 aa a2 3b 3e cf fe 8c 3f 11 7b bc bc 54 16 dc be
       0.1832377 1.1015261 -0.023007901 -0.42985785
000080 95 28 16 3e 12 65 27 3f 21 93 f6 bd 59 a0 06 3f
       0.14663918 0.65388596 -0.12039781 0.5258842
000090 2f e2 fc 3e aa 0c be be 6b d2 28 3f 03 24 12 be
       0.49391314 -0.37119037 0.6594607 -0.1427155
0000a0 11 47 4e be 36 65 a9 3d bd ae 88 3d 25 9c 05 3f
       -0.20144297 0.082712576 0.06673954 0.5219138
0000b0 f1 63 f6 3c 5e a7 e4 3e e6 bd 11 be ed 2d 84 3e
       0.030076953 0.4465894 -0.14232597 0.2581629
0000c0 f9 d1 50 bf 8c 81 27 bf 76 f5 03 bf 69 c6 e1 3e
       -0.8157039 -0.6543205 -0.5154642 0.44096687
0000d0 c9 da 9a 3e 91 c8 c4 3e 94 6e 04 be c3 cc 64 3c
       0.30245045 0.3843427 -0.12932807 0.013964835
0000e0 b3 82 ae be ea 6f ad 3e e1 62 ae be b0 ac f4 bd
       -0.3408409 0.33874446 -0.34059814 -0.11947
0000f0 ee a9 92 bf 17 1b 16 bd 09 31 68 bf ac f5 0b 3d
       -1.1458108 -0.03664693 -0.9069982 0.034169838
000100 c6 4e a9 3e a4 f6 02 3f a5 52 53 3e 38 9a 9f 3e
       0.33067912 0.51157594 0.20636995 0.31172347
000110 45 9d 90 3e 9e e4 d0 be 5e 3c ef 3d 7e 6b b2 3c
       0.28244987 -0.4079942 0.11681436 0.021779772
000120 87 f8 14 3e e8 27 2d be 46 42 1f be 6b 76 26 3d
       0.1454793 -0.16909754 -0.15552625 0.040640276
000130 2f c1 2d 3e 69 ad d1 bd c6 5f 56 3e ab 5b 28 3e
       0.16968225 -0.102381535 0.20934972 0.16441219
000140 b6 fd b9 bd 9c db 82 be 3b 5d ac 3e 2a f7 ba be
       -0.09081595 -0.25558174 0.3366488 -0.36516696
000150 53 9d 2c 3e f1 ba b3 3e e7 cf ad 3e 4d 47 f4 bd
       0.1685689 0.35103562 0.3394768 -0.11927662
000160 c8 83 6b 3c 03 af 4f bc a6 31 5d bd 78 d6 af bd
       0.014374681 -0.012676003 -0.054002427 -0.085858285
000170 b3 70 b2 3e 12 d8 b0 3d 2d 25 5c be f4 ae c6 be
       0.34851608 0.08634962 -0.21498556 -0.38805354
000180 a1 e3 19 3e 02 32 f8 3e 27 98 6d 3e 88 e1 b4 be
       0.1502824 0.48475653 0.23202573 -0.35328317
000190 4a 55 dc be d5 0d 80 be a8 14 a4 be a9 db 23 3e
       -0.4303382 -0.25010553 -0.3204701 0.16001762
0001a0 50 c2 14 bf 09 24 45 bf 38 f9 9b bd e4 2c bc 3c
       -0.58109 -0.7700811 -0.07615894 0.022970624
0001b0 b6 d5 16 be c1 ee a0 be 68 a1 6e be 20 23 32 3f
       -0.14729962 -0.31432155 -0.23303759 0.69584846
0001c0 01 6f 7e 3e 78 2b c3 3c fe 90 8e 3f 1a 91 ce bc
       0.24847032 0.023824438 1.1137998 -0.025215674
0001d0 4c 64 67 3f 14 7b 83 3e 81 51 47 be a0 9d 35 3f
       0.90387416 0.2567984 -0.19464685 0.7094364
0001e0 6a 3c 54 bf ea 9c 9b 3d ee 84 06 bf 6e 1a dd bd
       -0.82904685 0.07598288 -0.52546585 -0.10796057
0001f0 fb de a1 bd cc 60 0b 3f be e0 06 bf e7 72 6c 3e
       -0.07903858 0.54444575 -0.5268668 0.23090707
000200 fe 93 63 bf fb e6 57 3e 3d c6 f5 be f0 4b 9f bd
       -0.88897693 0.21084206 -0.48002806 -0.07778156
000210 c9 20 0d 3f 35 35 09 bf 4b ad ed 3d a8 89 bd be
       0.5512815 -0.5359681 0.11605319 -0.37019086
000220 8b 3e f7 3e 98 30 eb bd 3e c9 0c 3f 62 11 3d 3f
       0.48289904 -0.11483878 0.5499457 0.7385465
000230 14 04 b6 3e f6 11 44 bf 6a fc 2d 3f 26 50 e1 be
       0.35549986 -0.76589906 0.6796328 -0.4400646
000240 ab 92 9e 3f 6c e9 65 3e 6d d8 9e 3e 18 b8 45 3f
       1.238851 0.22452325 0.31024495 0.7723403
000250 9c ef 34 bf 80 63 1f 3e e6 97 b7 be 14 f3 7c 3e
       -0.70678115 0.155653 -0.35858077 0.24702102
000260 af 2f e6 be a1 2b dd 3e 7f 8e ea bd ed 1e 7d 3d
       -0.44958255 0.4319735 -0.1145296 0.06179707
000270 87 7d d8 bd 69 f6 13 bd ae c5 18 3b ef b6 de be
       -0.105708174 -0.036123667 0.0023311186 -0.43498942
000280 ad 75 3b bf 89 a5 37 bf 61 17 8e 3e 7e d6 38 bf
       -0.73226434 -0.7173696 0.27752212 -0.7220229
000290 d9 03 5c 3e 96 41 6d bf 1b c6 8b 3e af 52 81 be
       0.21485843 -0.926782 0.2729958 -0.25258395
0002a0 b6 88 37 bf 84 e9 90 bc 45 2e 14 bf 43 4e 19 bf
       -0.7169298 -0.017689474 -0.578831 -0.5988504
0002b0 29 66 9c 3c 7a 0a fc bd 88 a5 c2 3e a1 66 d6 be
       0.019091683 -0.12306686 0.38016915 -0.41875175
0002c0 3b 30 82 be 6b 6f 19 3e 4a 6f 0b 3e a0 e3 91 3e
       -0.25427422 0.14983909 0.13616672 0.28493977
0002d0 3a 79 76 3f fb 61 f7 be 21 f0 ee 3e 74 70 fa bc
       0.9627873 -0.4831694 0.4666758 -0.0305712
0002e0 4a 69 46 bf 8e c2 0d 3f 30 08 91 3e 8c ab 00 3f
       -0.7750441 0.5537499 0.2832656 0.5026176
0002f0 ae e2 95 be af ee 84 3e f7 5e 03 3f e0 fb c8 3d
       -0.29274505 0.2596335 0.5131678 0.09813666
000300 22 03 9b 3e 01 bd ff 3e a8 fb 3d 3f db 06 19 bf
       0.30275828 0.49948886 0.7421212 -0.59776086
000310 df ba 95 bf 9c 02 26 bf 06 26 5d 3d 03 9e e4 be
       -1.1697654 -0.6484773 0.05399134 -0.44651803
000320 7c 36 14 bf e2 5a 3b be 91 ae c2 3e 32 18 30 3f
       -0.57895637 -0.18296388 0.3802381 0.6878692
000330 17 d3 dc bd 4a c6 bc be b2 1a 24 bf 71 f6 f2 3d
       -0.1078245 -0.36870033 -0.64103234 0.11863411
000340 22 70 fa be 68 54 51 3e d8 6a 73 3e b1 cc 19 be
       -0.48913676 0.20442355 0.23771226 -0.1501949
000350 2b d2 13 3e a0 8f 41 3e e4 1c 51 3d 45 d6 9e 3e
       0.14435641 0.18902445 0.051052943 0.3102285
000360 e9 1f 16 bf 51 c4 8c bf f1 ad e7 3e 60 09 42 3f
       -0.5864244 -1.0997411 0.45249894 0.75795555
000370 7e b1 66 3f 99 f3 ee be d4 b6 d4 3e c6 76 b3 3e
       0.9011458 -0.46670225 0.41545737 0.35051554
000380 f8 20 63 be a7 14 ef 3e 5a a8 3e bd 16 86 56 3e
       -0.22180545 0.46695444 -0.04654727 0.20949587
000390 b5 8b 98 3e 4d c3 d3 3e c0 26 9d 3e 33 0b 61 3d
       0.29794088 0.4135994 0.30693626 0.05494232
0003a0 fd 08 22 be 87 e6 72 3e 0a 01 77 3e 65 ed fc 3d
       -0.15823741 0.23720752 0.2412149 0.12349967
0003b0 48 81 fc be 9b 02 fe bd 1b d3 8f 3e f0 aa 61 3e
       -0.49317384 -0.12402841 0.28090748 0.22037864
0003c0 12 52 c6 be 79 47 24 be 8e 9c 7c 3d 01 f1 09 bf
       -0.3873449 -0.1604289 0.06167274 -0.5388337
0003d0 72 20 f1 be 9e 6b 12 bf 9a 12 c5 3e ff ba c1 bd
       -0.47095066 -0.5719546 0.38490754 -0.09459495
0003e0 a1 46 1f 3f 4f a5 a7 3e 5d 11 55 bd 04 1b 52 3f
       0.62217146 0.32743308 -0.052018512 0.8207247
0003f0 d4 9c bb 3e 09 44 6c be 60 a4 0d 3e 3a 2c bf 3d
       0.36643088 -0.23072828 0.13832235 0.093346074

model.layers.block_0.norm.weight f4 [256]
000000 85 42 82 40 ee aa 83 40 80 5f 6f 40 c4 ed 75 40
       4.07062 4.1146154 3.7402039 3.842637
000010 10 1d 84 40 74 a1 7e 40 fb e7 68 40 5d 7e 76 40
       4.1285477 3.9786043 3.639159 3.8514626
000020 34 a6 89 40 c5 4d 89 40 8d 0e 8c 40 8e 3d 84 40
       4.3015385 4.2907434 4.376776 4.132514
000030 a4 5d a2 40 1d 4d 9a 40 4d 8e 8b 40 6f 30 63 40
       5.0739307 4.8219132 4.3611207 3.5498312
000040 67 82 82 40 75 13 76 40 eb 4e 8f 40 12 84 6e 40
       4.0784183 3.8449376 4.4783835 3.726811
000050 5d 7f 74 40 80 2e 76 40 ee b9 7b 40 b1 cb 7a 40
       3.8202736 3.8465881 3.9332232 3.9186823
000060 b4 bb 94 40 22 b8 96 40 9d 1d 58 40 6b 67 75 40
       4.647913 4.709977 3.3768075 3.8344371
000070 de 95 7e 40 55 7d 8c 40 36 00 7a 40 dd 40 92 40
       3.9778972 4.3902993 3.9062629 4.570418
000080 32 a9 75 40 fe 42 78 40 96 62 80 40 fc 60 83 40
       3.8384519 3.8790889 4.0120344 4.105589
000090 59 9a 68 40 68 81 9e 40 b4 26 90 40 eb a2 97 40
       3.6344206 4.9532967 4.5047245 4.7386374
0000a0 92 f2 8f 40 ad 3d 85 40 96 47 82 40 28 a9 8a 40
       4.4983606 4.163779 4.0712385 4.333149
0000b0 50 3c 88 40 95 91 8b 40 b4 a3 6f 40 de 9b 88 40
       4.2573624 4.3615212 3.7443666 4.2690268
0000c0 9f 21 8f 40 f9 05 90 40 6a 20 82 40 9a aa a1 40
       4.472854 4.500729 4.066457 5.0520754
0000d0 32 43 8c 40 0b f2 91 40 03 4d 9a 40 18 5c 6f 40
       4.3832026 4.5607963 4.821901 3.739996
0000e0 b0 23 8b 40 0f 29 8d 40 f9 31 92 40 e0 de 8e 40
       4.3481064 4.411262 4.5686 4.4647064
0000f0 ed ca 59 40 43 c8 93 40 44 18 8b 40 b8 2b 8f 40
       3.4030106 4.618196 4.346712 4.4740868
000100 a1 eb 87 40 ba 7d 8b 40 2f 36 89 40 f7 d8 8a 40
       4.2475133 4.3590975 4.287864 4.338985
000110 cd 13 8f 40 f1 e0 86 40 7c 99 7d 40 86 c4 88 40
       4.471167 4.2149587 3.962493 4.2739897
000120 b8 dd 90 40 b7 65 85 40 14 73 94 40 5f 2d 8d 40
       4.5270653 4.1686664 4.6390476 4.4117885
000130 94 e5 65 40 70 9d 81 40 b2 56 7b 40 bb 0d 90 40
       3.5921373 4.0504684 3.9271665 4.501676
000140 f4 7c 88 40 f1 31 5b 40 43 c8 8e 40 b6 02 80 40
       4.265253 3.4249232 4.461946 4.000331
000150 d8 81 5e 40 67 60 7e 40 79 6d 74 40 0b 99 93 40
       3.476675 3.974634 3.8191817 4.612432
000160 46 14 8b 40 e9 14 82 40 6b 21 89 40 34 81 97 40
       4.346225 4.0650525 4.2853293 4.734522
000170 45 3d 93 40 68 ef 85 40 d9 b4 84 40 15 12 8c 40
       4.601229 4.1854744 4.147076 4.3772073
000180 5f 35 81 40 50 90 73 40 ee bc 85 40 d3 a2 6f 40
       4.037765 3.8056831 4.1793127 3.744313
000190 63 d1 8b 40 8d 15 8c 40 51 41 7f 40 2c 95 8d 40
       4.36931 4.3776307 3.9883616 4.4244595
0001a0 68 35 8b 40 7f 65 91 40 d7 8b 8a 40 62 e9 86 40
       4.3502693 4.5436397 4.3295703 4.215989
0001b0 6e 42 85 40 85 0d 6b 40 ec 0a 73 40 49 9e 89 40
       4.164359 3.6727002 3.7975416 4.300572
0001c0 f7 94 94 40 0f 41 5e 40 7a 8a 4e 40 ba 57 8a 40
       4.643184 3.4727209 3.227202 4.323209
0001d0 73 ac 51 40 fa 94 84 40 b5 0c 7b 40 90 ad 93 40
       3.2761505 4.1431856 3.9226506 4.614937
0001e0 74 c1 91 40 c2 ed 86 40 d1 37 8b 40 85 7a 59 40
       4.554865 4.216523 4.3505635 3.398103
0001f0 15 d5 82 40 76 0c 8d 40 c5 03 85 40 57 c6 8b 40
       4.088511 4.407771 4.15671 4.3679614
000200 75 c4 83 40 75 4f 79 40 ef a3 59 40 cf d0 87 40
       4.1177316 3.8954747 3.4006307 4.2442393
000210 d8 a1 89 40 8b e3 83 40 39 9d 7e 40 4a 15 85 40
       4.3010063 4.1215262 3.978346 4.158849
000220 ff a5 60 40 8c ed 79 40 be 5d 86 40 55 27 64 40
       3.5101316 3.9051237 4.198943 3.5649006
000230 f7 21 a1 40 2a c3 8f 40 d8 16 8b 40 cf 5c 7e 40
       5.035396 4.4925737 4.3465385 3.9744146
000240 e4 c7 93 40 55 ed 8c 40 b2 a8 92 40 52 b7 70 40
       4.6181507 4.403971 4.5830927 3.761189
000250 8c 12 6d 40 7f d7 87 40 e1 c1 8f 40 13 66 8a 40
       3.704257 4.2450557 4.492417 4.32496
000260 4e e6 81 40 5a cb 82 40 23 1a 8e 40 e7 d8 a7 40
       4.0593634 4.087323 4.4406905 5.2452273
000270 bc f2 90 40 d5 cc 7f 40 7d d4 94 40 1c e8 90 40
       4.5296307 3.996877 4.6509385 4.5283337
000280 25 91 86 40 bd b6 88 40 7f 13 7a 40 75 37 93 40
       4.205218 4.272307 3.90744 4.6005197
000290 16 d3 83 40 82 99 56 40 bd a0 92 40 30 ec 80 40
       4.1195173 3.3531194 4.5821214 4.0288315
0002a0 89 fd 81 40 26 7f 9b 40 c7 a3 87 40 b1 6d 7c 40
       4.062199 4.859271 4.2387424 3.944195
0002b0 21 dd 86 40 2d ff 97 40 fe 7b 8e 40 e7 d6 93 40
       4.2144933 4.7498994 4.452636 4.619983
0002c0 00 7e 93 40 f4 0c 82 40 a1 b4 71 40 31 36 8d 40
       4.609131 4.064081 3.7766497 4.412865
0002d0 1a 47 82 40 c7 86 80 40 76 2d 8f 40 e1 77 90 40
       4.0711794 4.0164523 4.4742994 4.5146337
0002e0 13 74 7c 40 74 56 85 40 87 7a 87 40 79 e1 8e 40
       3.9445846 4.1668034 4.233707 4.4650235
0002f0 23 a3 89 40 aa c3 82 40 93 7a 85 40 17 c2 8e 40
       4.301164 4.086385 4.1712127 4.4611926
000300 dc ec 73 40 b3 6a 85 40 7b ef 8b 40 0e 1a 97 40
       3.8113317 4.169275 4.3729835 4.7219305
000310 b2 c5 82 40 0a 59 6c 40 79 12 88 40 79 2e 81 40
       4.0866327 3.6929345 4.252255 4.036923
000320 70 2b 99 40 32 6b 91 40 52 4f 8b 40 b5 01 71 40
       4.7865524 4.5443354 4.3534327 3.7657292
000330 36 5c 5a 40 90 cc 8a 40 15 01 87 40 cf f2 74 40
       3.411878 4.337471 4.218882 3.8273199
000340 8a 5a 8a 40 da c3 8c 40 ea 5b 91 40 34 53 97 40
       4.323552 4.3989077 4.54247 4.7289066
000350 6d 91 62 40 b8 cd 90 40 5b 44 8c 40 af 99 47 40
       3.540126 4.525112 4.383344 3.118755
000360 63 6c 94 40 33 61 83 40 81 6b 83 40 92 09 4b 40
       4.638231 4.105615 4.106873 3.1724591
000370 ed 17 75 40 cb 64 8b 40 a5 ef 83 40 44 0d 54 40
       3.8295853 4.356054 4.1230035 3.3133097
000380 16 60 89 40 7a d5 9a 40 27 54 78 40 0d 14 66 40
       4.2929792 4.838559 3.8801363 3.5949738
000390 49 45 73 40 8a 74 8b 40 cc d3 2d 40 15 92 5e 40
       3.8011038 4.357976 2.716052 3.4776661
0003a0 b9 6d 83 40 f4 8e 6d 40 03 e9 87 40 b6 ef 91 40
       4.107144 3.7118502 4.247194 4.5605116
0003b0 87 79 5d 40 51 d8 97 40 47 e4 7c 40 3e 70 94 40
       3.4605424 4.745156 3.951433 4.6387014
0003c0 09 8f 72 40 c3 26 91 40 25 d0 73 40 2e 2d 91 40
       3.7899802 4.5359817 3.8095791 4.536765
0003d0 e3 0d 87 40 37 c7 6a 40 2e 9f 89 40 ae dd 87 40
       4.220445 3.668409 4.300681 4.2458105
0003e0 d3 dc 86 40 1c 7e 87 40 1f ca 9b 40 9c 16 93 40
       4.214456 4.234144 4.868423 4.59651
0003f0 63 a7 91 40 ac 7e 99 40 38 bd 83 40 e8 a1 7d 40
       4.551683 4.796713 4.116848 3.963007

model.layers.block_0.norm.bias f4 [256]
000000 47 ee 59 bf 8e 56 4c bf be b1 2d bf 75 0e 53 bf
       -0.8512921 -0.7981957 -0.6784934 -0.82443935
000010 39 8d 19 bf d5 5f 33 bf 10 3d 69 be aa 63 32 bf
       -0.59981114 -0.70068103 -0.227772 -0.69683325
000020 ab 63 3c bf 6c 10 68 bf a0 c5 35 bf fa 4f 51 bf
       -0.7358958 -0.9065006 -0.71004677 -0.8176266
000030 30 2d 87 bf e9 2e 92 bf 32 f5 79 bf 57 d7 e9 be
       -1.0560665 -1.1420566 -0.97639763 -0.45672104
000040 b0 df 41 bf 98 e8 7e bf ce f4 5a bf c1 aa 54 bf
       -0.75731945 -0.9957366 -0.8552979 -0.8307305
000050 4f ac 1f bf 76 43 46 bf 4c 37 48 bf 1c 4c 27 bf
       -0.623723 -0.7744669 -0.78209376 -0.6535051
000060 65 07 4d bf 03 ad 82 bf 20 3e 1e bf 98 ad 2d bf
       -0.8008941 -1.0209049 -0.61813545 -0.6784301
000070 75 96 41 bf 72 f9 3d bf c8 77 4a bf 9c 09 1b bf
       -0.75620204 -0.7420875 -0.7908902 -0.6056154
000080 2c cb 32 bf 16 bb 51 bf c8 f2 84 bf 47 10 85 bf
       -0.69841266 -0.81926095 -1.0386591 -1.0395592
000090 2f b7 23 bf c4 a5 86 bf 62 a6 41 bf 68 c5 81 bf
       -0.6395139 -1.0519338 -0.75644505 -1.0138369
0000a0 05 68 5d bf 4c 04 5b bf 20 d8 44 bf ec 7c 44 bf
       -0.86486846 -0.8555343 -0.7689228 -0.76753116
0000b0 aa 00 86 bf 65 b7 7e bf 38 47 5d bf 76 76 34 bf
       -1.0468953 -0.9949859 -0.86436796 -0.7049326
0000c0 d5 f1 4d bf 85 a2 8a bf 6d f5 66 bf 30 b4 64 bf
       -0.8044713 -1.0830847 -0.9021824 -0.89337444
0000d0 bf d0 67 bf 13 66 53 bf 07 34 8d bf 49 02 2b bf
       -0.90552896 -0.8257763 -1.1031502 -0.6680036
0000e0 a5 71 2b bf e1 03 08 bf a6 44 3d bf 8d 69 54 bf
       -0.6697028 -0.5313092 -0.73932874 -0.8297356
0000f0 14 c9 4d bf bf 53 51 bf 5b af 86 bf 79 40 f1 be
       -0.80384946 -0.8176841 -1.0522264 -0.471195
000100 eb 4c 6b bf ed f6 50 bf e9 95 5f bf 0c 99 49 bf
       -0.9191424 -0.8162678 -0.8733812 -0.78749156
000110 c9 f9 21 bf b7 f2 dd be a1 9c 83 bf 49 f4 80 bf
       -0.63271767 -0.4334924 -1.0282174 -1.007455
000120 fc 55 49 bf 63 3c 65 bf c5 5a 6b bf fd a4 4e bf
       -0.78646827 -0.8954527 -0.9193538 -0.807205
000130 2f 00 9f bd 3f f3 47 bf ba 7b 27 bf de 16 71 bf
       -0.07763707 -0.7810554 -0.65423167 -0.9417552
000140 a8 e4 5d bf 1b 4b 0f bf 99 6c 8e bf b6 b4 34 bf
       -0.86677027 -0.55973977 -1.1126891 -0.70588243
000150 94 b3 19 bf 6e f0 4e bf 4b a5 4e bf 9d d7 5c bf
       -0.6003964 -0.80835617 -0.8072097 -0.862665
000160 dc 52 73 bf 03 10 66 bf 07 ea 5a bf 1b de 52 bf
       -0.9504831 -0.8986818 -0.8551335 -0.82370156
000170 f6 a6 57 bf 32 87 7d bf c3 0d 1b bf 6a b3 76 bf
       -0.8423914 -0.99034417 -0.60567874 -0.96367514
000180 29 c4 4a bf 3e f0 21 bf fc 29 41 bf 38 79 42 bf
       -0.79205567 -0.63257205 -0.7545469 -0.75966215
000190 de 8d 6a bf bc 70 7c bf 66 b0 37 bf 2a de 4a bf
       -0.9162272 -0.9860952 -0.7175354 -0.79245245
0001a0 ee 4f 77 bf bb e2 74 bf 35 2f 32 bf 04 35 36 bf
       -0.9660634 -0.95658463 -0.6960328 -0.71174645
0001b0 73 c6 42 bf 07 32 8c be a3 34 19 bf eb cc 2a bf
       -0.7608406 -0.27381918 -0.5984594 -0.6671893
0001c0 43 a1 78 bf 0d 5a af be 06 ab 00 bf 18 28 78 bf
       -0.97121066 -0.3424839 -0.5026096 -0.9693618
0001d0 2e c6 fd be 62 8d 57 bf 4f c2 28 bf 66 75 72 bf
       -0.49565262 -0.8420011 -0.6592149 -0.94710386
0001e0 1d d4 5d bf 46 b1 52 bf a3 65 54 bf 4f af 1b bf
       -0.86651784 -0.8230175 -0.82967585 -0.60814375
0001f0 12 ab 38 bf f5 f8 41 bf 98 ad 50 bf 1e e1 8c bf
       -0.7213603 -0.75770503 -0.81514883 -1.10062
000200 a6 e9 3a bf 05 04 c9 bd f3 2a 11 bf 24 a1 42 bf
       -0.7301277 -0.0981522 -0.5670616 -0.7602713
000210 3f 1e 57 bf b6 cf 88 be e8 94 3f bf aa ed 57 bf
       -0.84030527 -0.2672097 -0.7483659 -0.8434702
000220 cb 6f 2e bf 59 c5 5d bf 87 87 4a bf b7 79 1d bf
       -0.6813933 -0.86629254 -0.7911305 -0.6151385
000230 96 8d 7b bf 99 0e 82 bf e3 63 45 bf dc ca 07 bf
       -0.9826292 -1.0160705 -0.7710554 -0.53043914
000240 1f 1e 6c bf 66 73 71 bf 28 f4 95 bf 4a e4 a8 be
       -0.9223346 -0.9431671 -1.1715136 -0.3298667
000250 37 16 3e bf b0 b5 15 bf 9a 40 74 bf 0c eb 4c bf
       -0.7425265 -0.5848036 -0.95411074 -0.80046153
000260 92 e3 19 bf 58 42 21 bf c7 dc 3a bf 91 c0 99 bf
       -0.6011287 -0.6299186 -0.7299313 -1.2011892
000270 76 5b 49 bf 32 d8 23 bf 9d ce 50 bf 91 71 40 bf
       -0.78655183 -0.6400176 -0.81565267 -0.7517329
000280 e5 b6 48 bf 31 ac 3b bf 86 4a 4b bf 64 eb 54 bf
       -0.78404075 -0.7330962 -0.7941059 -0.8317168
000290 16 c6 09 bf 30 97 32 bf 09 35 61 bf 43 77 80 bf
       -0.5381788 -0.69761944 -0.8797155 -1.0036396
0002a0 4a 57 4a bf 36 a9 a2 bf a9 2f 75 bf af 95 64 bf
       -0.7903944 -1.2707889 -0.9577585 -0.892909
0002b0 b5 6f 3e bf 50 69 6a bf 60 30 1f bf 38 38 77 bf
       -0.743892 -0.91566944 -0.6218319 -0.9657016
0002c0 7d 44 5f bf cd b4 85 bf d8 c3 15 bf 9b d9 93 bf
       -0.8721388 -1.0445801 -0.5850196 -1.1550783
0002d0 a3 af 32 bf 68 93 3d bf 97 b4 7d bf 51 b9 4c bf
       -0.6979925 -0.7405305 -0.99103683 -0.7997027
0002e0 12 10 1d bf cf e3 53 bf 9f 38 83 bf 3c be 80 bf
       -0.61352646 -0.82769483 -1.0251654 -1.0058055
0002f0 7e e3 87 bf ae 6b 44 bf 87 a0 22 bf ee 05 89 bf
       -1.06163 -0.76726806 -0.63526195 -1.0704935
000300 2b e0 41 bf 87 0d 1c bf ab e2 47 bf 5b d8 7d bf
       -0.7573268 -0.6095814 -0.7808024 -0.9915826
000310 45 53 52 bf 2b 7a 27 bf f2 55 43 bf 1d 46 84 bf
       -0.8215831 -0.6542079 -0.7630302 -1.0333897
000320 6b 61 91 bf f5 a1 8b bf 51 49 64 bf 14 86 34 bf
       -1.1357855 -1.09088 -0.8917437 -0.70517087
000330 e4 72 05 bf b2 b2 68 bf 5e 23 1c be 48 12 66 bf
       -0.52128434 -0.9089767 -0.15247867 -0.89871645
000340 79 5a 37 bf 1d 26 64 bf 86 5b 3d bf 18 74 8e bf
       -0.71622425 -0.89120656 -0.7396778 -1.1129179
000350 b7 84 a5 be f4 27 24 bf b5 0e 59 bf 40 1e 0a bf
       -0.32327816 -0.64123464 -0.84788066 -0.5395241
000360 8f bb 98 bf 10 62 49 bf 09 86 14 bf 6c 3f 04 bf
       -1.1932238 -0.78665257 -0.5801702 -0.51659274
000370 03 b1 5f bf 51 88 42 bf 46 b7 4f bf db 4e 05 bf
       -0.87379473 -0.7598925 -0.8113903 -0.5207345
000380 9d 54 38 bf 91 f2 67 bf 6b 89 37 bf da 65 5a bc
       -0.7200411 -0.906045 -0.7169406 -0.013329947
000390 32 54 48 bf 9b 07 69 bf e5 74 c9 be 50 e0 28 bf
       -0.7825347 -0.9102723 -0.39346996 -0.65967274
0003a0 3d a5 45 bf 98 fe 38 bf 0a d2 5a bf fa 59 82 bf
       -0.7720526 -0.7226348 -0.85476744 -1.0183709
0003b0 2c 52 06 bf 6f 1d 82 bf df 3e 58 bf bc 9c 94 bf
       -0.52469134 -1.0165232 -0.84470934 -1.1610332
0003c0 d6 07 0e bf 08 d4 5b bf 52 37 4a bf 15 00 2a bf
       -0.55480707 -0.8587041 -0.7899066 -0.66406375
0003d0 78 17 41 bf c0 fa 4b bf 1b c9 50 bf 67 e0 5f bf
       -0.75426435 -0.7967949 -0.8155686 -0.87451786
0003e0 ae e0 52 bf e0 0d 38 bf 85 fa 5a bf 95 65 77 bf
       -0.82374084 -0.7189617 -0.8553851 -0.96639377
0003f0 bd 36 67 bf 99 58 74 bf 0e 89 1c bf 32 2e 0a bf
       -0.903179 -0.9544769 -0.6114663 -0.5397674

model.layers.block_0.norm.running_mean f4 [256]
000000 37 2d f6 be c7 9d ea be 6c fd bc be 75 f8 f7 be
       -0.4808137 -0.458235 -0.36912096 -0.48431745
000010 6e f8 72 be dc a0 74 be ab 0e c4 be 9c f5 93 be
       -0.23727581 -0.23889488 -0.3829244 -0.28898323
000020 f3 00 89 be e4 16 00 bf d4 82 c0 be 46 74 bd be
       -0.26758537 -0.5003493 -0.37599814 -0.37002772
000030 53 17 02 bf b9 92 1c bf 86 d0 11 bf cf 35 4e be
       -0.5081684 -0.6116138 -0.56958807 -0.20137714
000040 8c da c5 be 85 96 cf be 7a 73 a6 be ad 01 8c be
       -0.386433 -0.40544525 -0.32509977 -0.2734503
000050 4b 5a a1 be 98 f5 01 bf 6a be a9 be 60 10 93 be
       -0.315142 -0.5076537 -0.33153087 -0.2872343
000060 94 c6 d8 be 98 c8 0d bf cf f4 8a be de 26 a6 be
       -0.42339003 -0.55384207 -0.271399 -0.32451528
000070 47 59 eb be 76 1e 9a be ac 6d bf be ac 3f 4e be
       -0.4596655 -0.30101365 -0.3738836 -0.20141476
000080 86 fb 83 be 2e c4 d6 be 49 c9 11 bf f7 c1 d8 be
       -0.25777835 -0.41946548 -0.5694776 -0.42335483
000090 59 a0 a2 be fc 58 2c bf 11 00 a3 be 9a 4e bb be
       -0.3176296 -0.6732328 -0.31835988 -0.36583406
0000a0 0d 5c d5 be 6a d2 04 bf a1 32 b3 be 65 6c c1 be
       -0.41671792 -0.51883566 -0.34999564 -0.3777801
0000b0 44 91 f4 be 7b a0 f3 be 12 01 d2 be f3 e6 8c be
       -0.4776708 -0.47583374 -0.41016442 -0.2751995
0000c0 31 43 c5 be d8 9b fc be 8b 63 fb be 56 cc d4 be
       -0.38527825 -0.4933765 -0.49099383 -0.41562146
0000d0 9e 15 a1 be 8b 07 9e be 2e 66 12 bf e2 db d4 be
       -0.31461805 -0.3086513 -0.57187164 -0.41574007
0000e0 1c 5f 88 be 72 4f 4b be 3e 31 b4 be 5a f9 a4 be
       -0.26635063 -0.19854525 -0.3519382 -0.3222149
0000f0 9b 1b 04 bf 64 ce d2 be 34 da 02 bf 2e d4 02 be
       -0.5160462 -0.4117309 -0.511142 -0.12776253
000100 c6 1d e3 be 15 cd b4 be 1f 9b da be 75 ae ca be
       -0.44358653 -0.35312715 -0.42696473 -0.39586225
000110 8d 1b 6c be ec 84 27 be 15 c2 0e bf 2d 59 dc be
       -0.23057385 -0.163593 -0.55764896 -0.43036786
000120 f3 f0 ba be d9 75 19 bf f1 4d c0 be 06 4d db be
       -0.36511955 -0.59945446 -0.37559465 -0.42832202
000130 25 84 72 be 3e 69 d8 be e9 aa af be 47 7b 06 bf
       -0.23683222 -0.42267793 -0.34310082 -0.52531856
000140 d1 07 c6 be 32 82 b1 be 26 46 fe be 18 03 8d be
       -0.38677838 -0.34669644 -0.49662894 -0.27541423
000150 13 0f ce be ff a1 d0 be 9a 32 9c be 61 64 b6 be
       -0.40245876 -0.40748593 -0.30507356 -0.35623458
000160 48 73 f0 be 52 66 c8 be f7 ea 11 bf c4 b7 e5 be
       -0.46962953 -0.39140564 -0.5699915 -0.44866765
000170 59 9b b2 be 1f b1 bb be 7a 82 62 be 24 1b d3 be
       -0.34884146 -0.3665857 -0.22120085 -0.41231644
000180 e5 6c f6 be a6 2c 88 be 04 b5 b0 be 8f 24 d3 be
       -0.48129955 -0.26596564 -0.34513104 -0.4123883
000190 0b cb b5 be 5f a3 14 bf e7 d0 aa be 85 da cd be
       -0.35506472 -0.58061785 -0.33362505 -0.4020578
0001a0 12 79 f5 be 2e fc 0a bf aa 03 b7 be bb 82 73 be
       -0.47943932 -0.54291046 -0.35744983 -0.23780338
0001b0 6b d0 ec be 3a 3f 25 be a5 69 92 be d4 42 81 be
       -0.4625276 -0.161374 -0.28596225 -0.25246298
0001c0 fa f0 12 bf 29 e1 80 be ab 65 2d be 4e a8 f3 be
       -0.5739895 -0.25171784 -0.16933315 -0.47589344
0001d0 d0 89 a2 be af bd b1 be dc 5d 82 be 92 73 dd be
       -0.31745768 -0.3471503 -0.25462234 -0.43252236
0001e0 be 9f f4 be cd 10 01 bf 20 d6 8b be b7 c1 85 be
       -0.47778124 -0.5041626 -0.27311802 -0.26124355
0001f0 24 c5 86 be 51 32 e7 be be 27 d7 be 82 6e 0a bf
       -0.2632228 -0.45155576 -0.42022508 -0.5407487
000200 a8 a4 f6 be ea bf bb be 80 4d 47 be 6f 1d b5 be
       -0.48172498 -0.36669856 -0.19463158 -0.3537402
000210 62 93 d4 be a9 21 d8 be 1c a8 9d be 30 09 f7 be
       -0.41518694 -0.4221318 -0.3079232 -0.48249197
000220 19 d0 e5 be 14 46 08 bf 3e 47 d8 be 99 ce b1 be
       -0.44885328 -0.5323193 -0.42241853 -0.34727934
000230 9c 97 98 be 15 8e 04 bf 36 f2 cf be 0e 5f 55 be
       -0.2980317 -0.517793 -0.4061448 -0.20837042
000240 04 60 c7 be ec b1 e3 be 20 41 07 bf 9e 5c 03 be
       -0.38940442 -0.4447168 -0.5283375 -0.128283
000250 4b a9 cf be b6 1d 96 be 51 13 de be 46 7f da be
       -0.40558848 -0.29319543 -0.43374112 -0.42675227
000260 2a 97 a8 be 6c d5 9a be 18 bb b2 be 4d a0 13 bf
       -0.3292783 -0.30240953 -0.34908366 -0.57666475
000270 a9 f4 ee be 5c a8 94 be 9d ef b1 be dc 11 a0 be
       -0.46671036 -0.29034698 -0.34753123 -0.31263626
000280 6a 8c d5 be d9 18 b6 be ab b3 d1 be 06 bc b0 be
       -0.4170869 -0.35565832 -0.40957388 -0.3451845
000290 0e e7 85 be 75 f7 e0 be 8e 55 e8 be 46 b4 1d bf
       -0.26152843 -0.43938795 -0.45377773 -0.616032
0002a0 4c 67 b6 be 07 07 2c bf 3b df f9 be 62 d0 f2 be
       -0.35625684 -0.6719822 -0.48803124 -0.47424608
0002b0 29 4e bb be 38 54 ce be e8 81 a7 be 1e 4f f8 be
       -0.3658307 -0.4029863 -0.32716298 -0.48497862
0002c0 8b db e8 be 4d 7a 17 bf 92 71 a0 be 93 6a 2f bf
       -0.45479998 -0.5917099 -0.31336647 -0.68521994
0002d0 b8 a8 9b be ea e1 b4 be af 56 fb be 4c 6e b3 be
       -0.3040216 -0.3532861 -0.49089572 -0.35045087
0002e0 3d a1 1f be c8 62 e2 be e9 4c 33 bf 8b 8d 05 bf
       -0.15588851 -0.4421599 -0.7003923 -0.521691
0002f0 ae de 18 bf 0d c3 a7 be 3a 5d 95 be b0 a2 26 bf
       -0.5971478 -0.32766 -0.2917269 -0.6509199
000300 70 e7 c2 be f0 e9 9e be 23 22 ea be 8a 4b dc be
       -0.38067198 -0.31037855 -0.4572917 -0.43026382
000310 d7 00 c4 be 2b d9 90 be 01 42 b6 be 99 50 15 bf
       -0.3828189 -0.28290686 -0.35597232 -0.5832611
000320 3e a5 dc be ac 8a d3 be 20 3e d8 be 10 dd ba be
       -0.4309482 -0.41316736 -0.42234898 -0.36496782
000330 e3 12 a7 be 92 71 c3 be fc 81 ba be 89 98 e3 be
       -0.32631597 -0.38172585 -0.36427295 -0.44452313
000340 3f 42 8b be b5 1d ee be 40 58 92 be cc 0c 02 bf
       -0.2719898 -0.4650704 -0.28582954 -0.50800776
000350 94 97 09 bf ca e5 7c be d6 1c d6 be 65 e9 9b be
       -0.53746915 -0.24697033 -0.41818875 -0.30451503
000360 c3 8c 05 bf 68 d5 ca be d3 83 90 be 6a 39 94 be
       -0.5216791 -0.3961594 -0.28225574 -0.28950053
000370 0e 78 fe be 37 b3 c0 be ba cb f8 be 97 2d 87 be
       -0.4970097 -0.3763673 -0.4859293 -0.2640197
000380 cf f3 9e be d1 39 e7 be 41 6d bc be 3a 2d 45 be
       -0.31045386 -0.45161298 -0.36802104 -0.19255534
000390 ca df c5 be 69 34 da be da 5c 74 bd e1 cf 54 be
       -0.386473 -0.4261811 -0.059658863 -0.20782425
0003a0 1b c8 fe be ad 1d a0 be 18 6b 16 bf 02 82 09 bf
       -0.49762043 -0.3127264 -0.5875716 -0.53714
0003b0 78 a4 74 be ed 8d 05 bf 35 ac 97 be 7a 3b 05 bf
       -0.23890865 -0.52169687 -0.2962357 -0.5204388
0003c0 d3 6c 90 be 03 65 be be eb af 0e bf 94 46 80 be
       -0.28208026 -0.3718644 -0.5573718 -0.25053847
0003d0 b0 ab c9 be fa 3b 9e be 37 e1 d1 be c9 fe f8 be
       -0.393888 -0.30905133 -0.40992138 -0.48631886
0003e0 bc 7b 98 be 1a 9d df be c7 b7 a5 be 59 72 07 bf
       -0.29781902 -0.43674546 -0.32366773 -0.52908856
0003f0 67 87 f3 be b5 ad ef be 2f 5b 3c be 60 c1 94 be
       -0.4756424 -0.46812215 -0.18394159 -0.29053783

model.layers.block_0.norm.running_var f4 [256]
000000 6d ff 32 41 22 c5 4b 41 73 8c 2c 41 66 62 27 41
       11.18736 12.735628 10.784289 10.461523
000010 44 a6 20 41 04 16 42 41 1e ad 3f 41 b4 39 20 41
       10.040592 12.130375 11.979765 10.014088
000020 ae e9 36 41 3e 80 3b 41 2f 4a 4a 41 a6 c3 3f 41
       11.432051 11.718809 12.643111 11.985266
000030 d1 36 51 41 68 7a 42 41 db e8 47 41 03 6e 36 41
       13.075883 12.154884 12.4943495 11.401858
000040 47 35 2e 41 41 cb 3a 41 5a 55 26 41 ea 0c 34 41
       10.888007 11.674623 10.395838 11.253153
000050 b0 70 1c 41 fd 67 58 41 49 22 29 41 4d b7 0b 41
       9.777512 13.525388 10.57087 8.732251
000060 c8 ae 48 41 85 d0 50 41 93 0b 25 41 1e 54 45 41
       12.542671 13.050908 10.315326 12.333036
000070 2d 54 58 41 4b 17 1a 41 70 48 3c 41 6c 62 20 41
       13.520551 9.630687 11.767685 10.024029
000080 08 ee 30 41 a6 e2 3c 41 b3 e4 31 41 3c 00 3c 41
       11.058113 11.805334 11.118335 11.750057
000090 38 9a 1d 41 d0 ef 8a 41 25 c4 35 41 b3 ad 40 41
       9.850151 17.367096 11.360387 12.042407
0000a0 c4 90 2e 41 07 83 52 41 b2 78 0e 41 97 eb 41 41
       10.910343 13.156989 8.904467 12.120017
0000b0 53 e4 42 41 24 7a 35 41 30 be 32 41 ca 85 2c 41
       12.180743 11.3423195 11.1714325 10.782663
0000c0 9a 80 34 41 94 19 37 41 15 10 41 41 bf bb 6e 41
       11.281397 11.443745 12.066426 14.920836
0000d0 97 a7 23 41 6d 32 24 41 25 1a 33 41 fb 5c 42 41
       10.2284155 10.262311 11.193883 12.1477
0000e0 8f 44 1d 41 03 67 28 41 b9 1f 4a 41 6e 53 24 41
       9.829238 10.525149 12.632745 10.270369
0000f0 04 58 23 41 ff 8a 61 41 3a 49 3c 41 7f 72 18 41
       10.208988 14.096435 11.767878 9.527953
000100 09 47 17 41 bd 96 1f 41 11 98 2a 41 bb ae 41 41
       9.454843 9.974301 10.662126 12.105159
000110 7f d8 20 41 eb 2b 48 41 42 01 1f 41 85 ca 32 41
       10.0528555 12.510722 9.937807 11.174443
000120 bc 0b 36 41 79 cb 5a 41 87 90 44 41 c0 a8 43 41
       11.377865 13.674676 12.285285 12.228699
000130 22 40 14 41 61 2f 45 41 4e 67 36 41 f9 64 51 41
       9.265657 12.324067 11.400221 13.087152
000140 89 ff 2e 41 26 6b 31 41 f6 92 3d 41 ef b8 24 41
       10.9373865 11.088659 11.848379 10.29515
000150 1a 0c 30 41 1f d1 2c 41 8b ce 27 41 d4 11 3b 41
       11.0029545 10.801055 10.487926 11.691853
000160 16 3a 2b 41 62 0d 49 41 0b a4 78 41 bd dd 4a 41
       10.701681 12.565767 15.54005 12.679135
000170 db 4b 4b 41 02 2d 36 41 f7 ec 2b 41 d2 ae 27 41
       12.706019 11.385988 10.745353 10.480181
000180 d4 14 35 41 7d 0c 56 41 15 25 35 41 7e b0 34 41
       11.317585 13.378049 11.321553 11.293089
000190 74 01 42 41 8f 1b 5d 41 7d 28 28 41 11 b0 21 41
       12.125355 13.819228 10.509885 10.105485
0001a0 1c 19 59 41 7d 7d 68 41 e5 58 1e 41 3d 8a 27 41
       13.56863 14.530637 9.896703 10.47125
0001b0 f5 ba 44 41 8f cf 39 41 52 ba 26 41 4a 66 0d 41
       12.295644 11.6131735 10.420488 8.837473
0001c0 74 0a 61 41 ce 64 57 41 c3 dd 30 41 04 5f 41 41
       14.065052 13.4621105 11.054141 12.085697
0001d0 dd 94 10 41 43 d3 25 41 ac c9 2d 41 db 1a 36 41
       9.036344 10.364078 10.861736 11.3815565
0001e0 2d cc 45 41 0d 42 5c 41 16 15 1b 41 f2 2b 4c 41
       12.362348 13.766126 9.692648 12.760729
0001f0 fd 8e 28 41 ad 14 40 41 92 ef 31 41 73 10 2f 41
       10.534909 12.005048 11.120989 10.941516
000200 14 32 42 41 08 24 18 41 e0 e7 4c 41 43 39 41 41
       12.137226 9.508797 12.80661 12.07648
000210 b5 63 2a 41 7b 9f 37 41 9e d2 3d 41 45 e0 43 41
       10.649343 11.476436 11.86392 12.242253
000220 ab 5f 48 41 fc 7f 2b 41 20 2a 33 41 d5 23 32 41
       12.523356 10.718746 11.197784 11.133748
000230 cb c3 82 41 c1 a4 47 41 65 2a 33 41 c1 c0 39 41
       16.345602 12.477723 11.19785 11.609559
000240 05 9d 3b 41 aa 8e 3b 41 d7 92 39 41 3e 27 1d 41
       11.725835 11.72233 11.59835 9.822081
000250 60 ad 1e 41 30 9b 25 41 5c 4b 4a 41 d6 fb 4f 41
       9.917328 10.350388 12.643398 12.998983
000260 a4 72 33 41 0f 37 26 41 68 d3 1f 41 9b e5 41 41
       11.215488 10.388442 9.989113 12.118556
000270 24 85 42 41 b6 bb 28 41 18 31 23 41 c6 27 2b 41
       12.157505 10.545828 10.199486 10.69721
000280 a4 b6 3b 41 3b 62 29 41 50 19 2e 41 8b ac 22 41
       11.73209 10.586482 10.88118 10.167125
000290 5c b0 42 41 d1 2e 32 41 09 dd 48 41 ec 89 53 41
       12.1680565 11.13643 12.553964 13.221172
0002a0 5e 64 1d 41 a8 6e 5e 41 7d a9 23 41 bb ad 4d 41
       9.837004 13.902016 10.228879 12.854915
0002b0 26 d9 47 41 36 be 2c 41 6b 13 2f 41 24 d7 38 41
       12.490515 10.796438 10.942241 11.552525
0002c0 40 e0 4b 41 bf f7 42 41 e2 ab 46 41 15 00 69 41
       12.742249 12.185485 12.416964 14.56252
0002d0 48 8f 49 41 bf c4 31 41 b6 57 49 41 c6 ce 49 41
       12.597481 11.110534 12.583914 12.612982
0002e0 b3 9c 0a 41 fe a2 1e 41 fc f1 6b 41 3d 8b 63 41
       8.663257 9.914793 14.746578 14.221494
0002f0 fa 7a 58 41 26 92 3f 41 2f 97 20 41 63 36 52 41
       13.530024 11.973181 10.03691 13.138278
000300 f9 f4 29 41 dc 2c 52 41 ad 71 43 41 8f 68 2e 41
       10.622308 13.135952 12.215253 10.900527
000310 ee d2 35 41 5f df 3c 41 30 87 30 41 66 cb 32 41
       11.3639965 11.804534 11.033005 11.174658
000320 c4 4d 50 41 8a 08 44 41 2f d2 2f 41 c3 4d 35 41
       13.018986 12.252085 10.988814 11.331485
000330 c7 0f 33 41 9f 6f 28 41 ef 5e 35 41 99 2b 45 41
       11.191352 10.527251 11.335677 12.323144
000340 01 bc 1b 41 a8 ce 33 41 7f 15 4b 41 5a 03 52 41
       9.733399 11.237953 12.692748 13.125818
000350 40 4e 33 41 5a 61 26 41 6c 8a 39 41 1d 0e 34 41
       11.206604 10.398767 11.596294 11.253446
000360 2e 7d 42 41 7e 20 38 41 63 2d 28 41 a6 ee 21 41
       12.155561 11.507933 10.511081 10.120764
000370 52 30 2b 41 47 6d 4a 41 a7 2e 44 41 7c cf 1f 41
       10.699297 12.651679 12.26139 9.988155
000380 76 b3 25 41 d4 be 52 41 a5 57 2e 41 cc ce 21 41
       10.356314 13.171589 10.896398 10.1129875
000390 6c fa 1d 41 4c 15 34 41 ce 0b 2d 41 69 63 50 41
       9.873638 11.255199 10.815382 13.02427
0003a0 fa 8e 69 41 94 de 19 41 b0 43 5c 41 a7 73 36 41
       14.597406 9.61684 13.766525 11.403235
0003b0 97 e3 2c 41 05 fe 3d 41 62 fa 1f 41 22 c6 78 41
       10.805564 11.8745165 9.998629 15.548372
0003c0 44 6d 2f 41 c6 40 40 41 2a a0 45 41 be 3e 1c 41
       10.964176 12.015814 12.351603 9.765318
0003d0 c6 de 30 41 e9 f0 0a 41 b0 03 26 41 4b c2 56 41
       11.054388 8.683816 10.3759 13.422435
0003e0 07 aa 2e 41 12 0c 53 41 67 eb 36 41 81 a3 4f 41
       10.916511 13.190447 11.432471 12.977418
0003f0 8c c2 42 41 14 c2 39 41 d5 d4 48 41 07 af 4b 41
       12.172497 11.609882 12.551961 12.730231

model.classifier.weight f4 [54, 256]
000000 06 73 4d be 75 e3 bc bc 1b 0a 13 3f e8 cf fa 3c
       -0.20063409 -0.023057679 0.57437295 0.030616716
000010 d1 36 9c 3f 2a 3a 6f 3e 87 d3 39 3f b3 e3 b0 be
       1.2204229 0.23362032 0.7258839 -0.3454872
000020 7b b5 23 3f d7 2a 0b 3d 7a 5f 3c bf 20 e5 27 3e
       0.6394879 0.033976402 -0.73583186 0.16395998
000030 9e c6 5e bf 33 e8 8b 3d 0a 36 b6 3d f1 ed 00 3e
       -0.87021816 0.06831398 0.08897026 0.12590767
000040 2b 12 fa 3d 1e 35 18 be dd 66 94 3f f4 bf 9f be
       0.122104965 -0.14864013 1.1593891 -0.31201136
000050 58 c1 02 bf 40 bc d8 be 34 0d 1e be ff 93 af be
       -0.5107627 -0.42331123 -0.15434724 -0.342926
000060 f4 f9 96 3e 1a eb 91 3e 9e a2 ed 3e 1a 46 da 3e
       0.29487574 0.2849968 0.4641313 0.42631608
000070 0c 03 6a 3d 0d 3e 61 bf 06 b9 5f bf 46 01 8b 3e
       0.057131812 -0.87985307 -0.873917 0.2714941
000080 ca eb 2f 3f 36 37 5d 3f 5c 05 d0 be 24 33 26 bf
       0.6871916 0.8641237 -0.4062909 -0.64921784
000090 41 2c 29 3f 14 ad 85 bf d8 7b 6e 3e 6f 78 35 bf
       0.6608315 -1.0443444 0.2328943 -0.7088689
0000a0 67 66 29 bf 23 40 b3 3e f7 6b 35 bf 0e ce 20 be
       -0.6617188 0.3500987 -0.70867866 -0.15703604
0000b0 d9 04 41 3f 90 96 8d bf a6 f4 85 3e e4 44 94 3e
       0.7539802 -1.1061573 0.26163214 0.2895881
0000c0 c0 fd 45 3f e7 69 56 be 7a c2 29 3e eb ed 14 bf
       0.77340317 -0.20938836 0.16578093 -0.58175534
0000d0 51 76 5c 3f a4 4d 98 3e 52 0c a1 bd 9a 60 02 be
       0.86118037 0.29746735 -0.07863678 -0.12732163
0000e0 04 5e 99 bd 6b 96 a3 bd df ac 1e bf 43 aa 9c bd
       -0.07488635 -0.07987674 -0.6198253 -0.07649662
0000f0 82 2f 47 3d 0c ea 24 3f 51 bb 8e be b9 e3 67 bf
       0.04862929 0.6441963 -0.27877286 -0.9058185
000100 8e 93 d6 bf d5 6f a9 be 22 45 d9 bf 55 1a d1 bf
       -1.676378 -0.33093134 -1.6974223 -1.6336161
000110 ba 67 d7 be 3d ad 01 bf 83 72 56 bd 65 75 17 bf
       -0.42071325 -0.50654966 -0.0523553 -0.59163505
000120 b2 df 5e 3f f5 cf 8c be 0b ba f6 be a3 f7 89 bf
       0.8706008 -0.2750241 -0.48188815 -1.0778698
000130 ce f9 29 3f 18 d8 48 3d 3c 0d c8 3e fa 86 9d be
       0.66396797 0.049034208 0.39072597 -0.3076704
000140 3c 2c 27 bf bd ab 06 3e a1 16 56 bf 4f e9 a6 bd
       -0.6530187 0.1315145 -0.8362828 -0.08149969
000150 55 57 38 3e 07 c8 09 3f de 68 4b be 69 58 8d bf
       0.18002065 0.5382084 -0.19864222 -1.1042606
000160 ed c3 b6 bb 68 2e 7e bf a9 46 c7 bf b0 c8 5e bf
       -0.0055775554 -0.9928956 -1.5568439 -0.87024975
000170 dc 40 ab 3e ed 73 2a bf 3d f5 88 3f bf 6f 83 bf
       0.3344792 -0.6658314 1.0699841 -1.0268477
000180 01 fc 9d 3d ef dc de 3d a1 13 3b bf ec 54 72 3c
       0.077140816 0.108819835 -0.73076826 0.014790755
000190 0d 27 b4 bf 88 35 a3 bd 16 15 11 3d f8 d5 17 bf
       -1.4074417 -0.07969195 0.0354205 -0.59310865
0001a0 f7 8f 03 bf 19 64 0f bf 9b b6 8d be a9 0b 18 be
       -0.5139155 -0.5601211 -0.2767838 -0.14848198
0001b0 a4 d7 0d bd a6 1e 03 bf 11 58 19 3f 7e 90 ee bf
       -0.03462948 -0.5121864 0.59900004 -1.8637846
0001c0 a7 7a 90 bf 4b 02 2e 3f 4a ba 21 3f 01 ef aa 3c
       -1.128743 0.6797225 0.6317488 0.020865919
0001d0 80 d6 8b bb b4 60 9b 3d ad 1e 6a 3e f5 0a c0 3f
       -0.0042675138 0.07586804 0.22863264 1.5003344
0001e0 c9 e0 3a 3e 57 8e 2e 3f b6 fb 12 3e 24 6e 3b bf
       0.18249811 0.68185943 0.14353833 -0.73214936
0001f0 d4 a8 c4 bf 4b 03 60 3f 5d 21 c9 bd 73 fa f1 be
       -1.5364022 0.87505025 -0.09820817 -0.4726139
000200 d2 e2 3d 3f 0d cd 23 3d d1 b6 59 3e 0e f0 9f 3f
       0.74174225 0.039990474 0.21261145 1.2495134
000210 9b cd a2 bd 03 71 a7 3e 1e 5f e8 3e 7c 61 26 bf
       -0.079493724 0.3270341 0.4538507 -0.649925
000220 62 5b 88 3d b4 0b 90 3e 0f 75 e9 3b 72 93 59 3e
       0.06658055 0.2813393 0.00712455 0.21247652
000230 d5 ca fa bd 4c c9 d7 3e 30 b1 09 be f7 4a e0 bd
       -0.122457184 0.42145765 -0.13446498 -0.109517984
000240 72 98 09 be ee e4 11 bf 21 ab 94 3f e2 0d 92 3e
       -0.1343706 -0.56989944 1.1614724 0.28526217
000250 f8 e2 72 bd c4 71 da 3e ba 44 23 3f ee 88 01 3e
       -0.059298486 0.4266492 0.63776743 0.12649891
000260 56 7d 39 3e c7 dc 0a 3f 91 07 31 be 10 e9 8d 3e
       0.18114218 0.5424313 -0.17288043 0.27716875
000270 94 80 9c be cb 42 ad 3e 56 5c 10 c0 fa 6d 1b 3f
       -0.30566847 0.33840021 -2.2556357 0.60714686
000280 a8 cc 4b 3f 33 a3 2c 3f 2d 52 b4 3e 2a a7 f9 bd
       0.79609156 0.6743652 0.35218945 -0.12190087
000290 99 05 8c be e5 56 26 3e 66 d9 f5 bf 6e fd 22 bf
       -0.2734802 0.16244085 -1.920697 -0.63667953
0002a0 9f 73 c9 be ee c1 31 3f 19 11 37 3f 87 6f 3d bf
       -0.39346024 0.6943654 0.71510464 -0.739983
0002b0 ee aa 54 3f b3 95 fc be 13 ad 8a bd e5 f6 4e bf
       0.8307332 -0.4933296 -0.067712925 -0.8084548
0002c0 9a 4b 1a be 33 de 3d 3f 37 45 e6 bd 3c c2 29 bf
       -0.15067902 0.74167174 -0.112436704 -0.66312003
0002d0 f8 fb 8f bf 60 5a 86 3e ae 38 45 3e b9 f5 34 bf
       -1.124877 0.26240826 0.19259903 -0.70687443
0002e0 77 67 bb 3e dc e6 40 bf 89 6c 6a bf d8 43 54 bf
       0.36602375 -0.75352263 -0.9157186 -0.8291602
0002f0 04 85 a5 bf 2c 28 05 3f 2d 27 7f be 87 f3 56 bf
       -1.2931218 0.5201442 -0.24917288 -0.83965343
000300 d0 75 2c 3f a9 fe 11 3f 39 31 b8 bf 5d 6b fe be
       0.6736727 0.57029206 -1.4390022 -0.49691287
000310 32 66 5a 3f 50 2c d8 be d1 f6 ae 3e eb e3 7e be
       0.8531219 -0.42221308 0.3417268 -0.24891631
000320 36 84 ff be e8 f7 26 be ca 22 fc 3e 2b 5c 8c 3f
       -0.49905556 -0.16305506 0.49245292 1.0965627
000330 a0 13 b6 3e 70 fc ef be ef 7c f4 be 1e 47 b1 bd
       0.35561848 -0.46872282 -0.47751567 -0.08656143
000340 bc 91 3b 3e 58 50 b3 3c 75 57 c3 be 2c d2 74 bf
       0.18317312 0.021888897 -0.38152662 -0.95633197
000350 f9 f3 e2 3d ff 56 73 3f 6b ed 15 3d 32 7f 14 be
       0.1108169 0.9505462 0.036603373 -0.14501646
000360 c7 8a 90 bf 5c f9 08 3f 34 b4 ed 3e 9d 16 f1 3e
       -1.1292351 0.5350549 0.46426547 0.47087565
000370 8b 7d 82 bf 8b 3d dc 3e 6a 68 69 be 30 7d 45 3f
       -1.0194563 0.43015704 -0.22793737 0.77144146
000380 c7 91 0a bf f0 b0 d2 be 1a 46 c5 bd e4 ed 2b 3e
       -0.5412869 -0.41150618 -0.096325114 0.16789967
000390 a9 49 4a bf 2b ba 57 3f 7e 11 94 be f4 b1 8d 3e
       -0.79018646 0.84268445 -0.28919595 0.2767483
0003a0 43 8e d8 3e 19 21 25 3f 31 b3 93 3e c8 57 68 bf
       0.42296037 0.6450363 0.2884765 -0.90758944
0003b0 29 e0 23 3f 87 49 28 bf 95 08 76 be 2e 28 2e bf
       0.64013916 -0.65737194 -0.24026711 -0.6803006
0003c0 37 ce 8f 3f 6b 37 9e bf fc de be be 7a 0f 9b 3f
       1.1234807 -1.2360662 -0.372795 1.2114098
0003d0 90 53 63 bf c4 ea d7 3e 9d bc 14 3f 9b 52 b7 3e
       -0.8879938 0.421713 0.581003 0.3580521
0003e0 6d e2 3a 3f af 18 aa 3d 97 79 85 bf a9 ab f2 be
       0.7300175 0.08305489 -1.0427731 -0.4739659
0003f0 d2 16 45 bf 52 ec 16 3f 77 4b 99 3e 5f b7 83 3e
       -0.76987946 0.58954346 0.29940388 0.2572584

model.classifier.bias f4 [54]
000000 c2 71 b6 3e a7 42 c4 3e a8 1d 36 3d 1f 53 c2 bd
       0.35633665 0.38332102 0.044461876 -0.0948851
000010 c7 72 c6 be 64 4d 87 3d c4 a7 62 3d 8c d5 f4 be
       -0.38759443 0.06606558 0.055335775 -0.47819173
000020 ea 3f ae 3d 3d 72 a2 3e 9c 0e 49 3f 36 c3 30 be
       0.085082844 0.31727782 0.7853792 -0.17261967
000030 e2 ed b2 3d 93 4d 85 3e 39 71 09 be ab 2c 20 bd
       0.08736779 0.26035747 -0.13422097 -0.0391051
000040 e2 45 4f be ad 45 1f bf 40 60 0e 3e 10 1b 7b be
       -0.20241502 -0.6221569 0.13903904 -0.24522042
000050 dc ca a1 be 62 d8 24 3f 92 a2 15 bf 74 2e 3d 3e
       -0.31600082 0.64392674 -0.5845119 0.18474752
000060 07 df 2f 3d 44 28 d9 3d 0f 23 19 bf fd 6a a4 be
       0.042937305 0.10603383 -0.5981912 -0.32112876
000070 39 a5 dc 3c f6 25 96 3e 17 ba 8d bd e8 6b 15 3f
       0.026934253 0.29325837 -0.069202594 0.58367777
000080 c9 7b 93 3c c9 97 1d bf 70 7d 8f be 72 b4 a5 be
       0.018003361 -0.6155973 -0.2802539 -0.3236423
000090 da b3 3f be d4 98 fa 3d d9 fc ff 3e 8e 5e f8 bc
       -0.18720952 0.12236181 0.49997595 -0.030318525
0000a0 dd 55 fc 3d f9 a8 15 3e f9 3b ef be 3d 94 33 3d
       0.123210646 0.14615239 -0.46725443 0.043842543
0000b0 37 8d 84 bd 85 34 01 3f 64 55 51 be 0a 0d 02 bd
       -0.06472247 0.50470763 -0.2044273 -0.031750716
0000c0 4a d5 0f 3e 8f c3 bb be 6e 09 55 3e ab fb dd 3e
       0.14046207 -0.36672637 0.20804378 0.4335607
0000d0 76 2f ad be 33 ba bc 3e
       -0.33825272 0.3686081
