dl/experiments/cnn_max_pool/runs/2024-05-19-17-43-23/checkpoints/last.ckpt (torch, 786108 bytes, 8 tensors)

model.embedding.weight f4 [2049, 64]
0	0x3eedbd7f	0.46433637
1	0xbf28e152	-0.6596881
2	0xbf659ddd	-0.89694005
3	0x3e1245f1	0.14284493
4	0x3e9fe2e6	0.31227797
5	0xbf1176d9	-0.5682197
6	0xbf2735cd	-0.6531647
7	0xbe64cb1a	-0.22343102
8	0xbe9367e7	-0.2879021
9	0x3f92bdbf	1.1464156
10	0xbef61a9e	-0.48067182
11	0xbec9c57d	-0.39408484
12	0xbe8ff77a	-0.28118497
13	0x3f9f250e	1.2433183
14	0xbf86db40	-1.053566
15	0xbe862531	-0.2620025
16	0x3d9c0952	0.07618965
17	0xbf2921fa	-0.6606747
18	0x3f29fbc7	0.66399807
19	0xbf5f7e93	-0.8730251
20	0x3f17a5b8	0.5923724
21	0xbd6eda90	-0.058313906
22	0x3d27fd3b	0.041012984
23	0xbf2c0117	-0.6718916
24	0xbf22cd36	-0.6359438
25	0x3ecbf656	0.39836377
26	0x3ed16063	0.4089385
27	0x3ead5f3a	0.33861715
28	0xbf3b4f19	-0.7316757
29	0x3f841bb9	1.032096
30	0x3f00ea2c	0.5035732
31	0x3d8ebfd6	0.069701836
32	0x3f176eee	0.5915364
33	0xbdbc7f1f	-0.09203934
34	0x3f3c2099	0.7348724
35	0x3dbc910d	0.09207354
36	0x3e0e1ef0	0.13878989
37	0x3e974925	0.29547992
38	0xbfa007cf	-1.2502383
39	0xbe48fe20	-0.19628191
40	0x3e8bae65	0.2728149
41	0x3bb2929a	0.005449605
42	0x3ea7cf44	0.3277532
43	0x3f82994f	1.0203036
44	0xbe42e136	-0.19031224
45	0xbe73a3bd	-0.2379293
46	0x3f3d9e20	0.74069405
47	0x3e7e0cea	0.24809614
48	0xbdb6cace	-0.08925401
49	0xbee771dd	-0.45204058
50	0xbf20c4f8	-0.6280055
51	0xbd769372	-0.06019921
52	0x3eac2519	0.33622053
53	0xbe732938	-0.23746192
54	0xbe74d9e8	-0.2391125
55	0xbf257b8e	-0.64641654
56	0xbec6e808	-0.388489
57	0x3eaa9037	0.33313152
58	0xbf7aa87d	-0.9791334
59	0x3eb77d37	0.3583772
60	0xbe8d7374	-0.27627146
61	0xbe9c83fc	-0.30569446
62	0x3efa44d2	0.4888063
63	0xbec18cfb	-0.37802872
64	0x3f66ecc5	0.9020503
65	0xbf74d1ba	-0.9563252
66	0xbff6668d	-1.9250046
67	0x3ec22a11	0.3792272
68	0x3ef9ed86	0.48814029
69	0xbf1562ed	-0.58354074
70	0x3f5e6a93	0.8688137
71	0x3ec95495	0.39322343
72	0x3f4d2718	0.8013778
73	0x3f95d965	1.1706969
74	0x3f86c4d9	1.0528823
75	0x3f88739e	1.0660284
76	0x3f012240	0.50442886
77	0x3f4d808b	0.80274266
78	0xbde39b1e	-0.11113571
79	0xbf84165b	-1.0319322
80	0xbfb9667a	-1.4484398
81	0xbe3ade34	-0.18248826
82	0xbedb20a0	-0.42798328
83	0x3efb078d	0.49029198
84	0x3f7ccf0a	0.98753417
85	0xbdf235eb	-0.1182669
86	0xbeb89d51	-0.36057523
87	0x3f72ebb2	0.9489089
88	0x3f56acab	0.8385722
89	0xbf9a3dcf	-1.2050112
90	0x3ea0f218	0.31434703
91	0xbd0936ba	-0.033499457
92	0x3f2afdc3	0.6679346
93	0xbed018e0	-0.40643978
94	0xbf01913d	-0.5061224
95	0x3ff9551a	1.9479096
96	0xc013e51f	-2.3108594
97	0xbfa301b1	-1.2734891
98	0x3eafee07	0.34361288
99	0xbe581156	-0.21100363
100	0xbfe28dde	-1.7699544
101	0x3f28806f	0.65820974
102	0x3ec31e8e	0.3810925
103	0x3f898778	1.0744467
104	0xbf83a943	-1.028603
105	0xbd8f67b9	-0.070022054
106	0xbf873737	-1.0563725
107	0x3f2e2ca3	0.6803686
108	0xbfb410c8	-1.4067621
109	0x3f410b56	0.7540792
110	0xbe3fd518	-0.18733633
111	0xbee147fc	-0.44000232
112	0xbf2a0819	-0.66418606
113	0x3f0bd81f	0.5462665
114	0xbf9a2a51	-1.2044164
115	0xbf3411e5	-0.70339805
116	0x3f7c7237	0.9861178
117	0xbbcc51cf	-0.0062353383
118	0xbf5b0295	-0.85550815
119	0x3e8b0c4d	0.27157822
120	0xbf877377	-1.0582112
121	0x3b03725c	0.0020057177
122	0xbca7e28b	-0.020493766
123	0x3fa0ec06	1.2572029
124	0xbfb0dc10	-1.3817158
125	0xbfebe098	-1.8427916
126	0x3e59d95d	0.21274324
127	0xbf5588a7	-0.8341164
128	0xbeed211f	-0.46314332
129	0xbfb46bdf	-1.409542
130	0x3fc71fdf	1.5556601
131	0x3dbeb8ee	0.09312616
132	0x3f39b667	0.7254395
133	0x3feac7b5	1.8342196
134	0xbf8358ae	-1.0261438
135	0x3feaf885	1.8357092
136	0xbfa02bd9	-1.2513381
137	0xbef18738	-0.47173476
138	0xbfaf8cd1	-1.3714849
139	0xbe0d88c2	-0.138217
140	0xbf73083c	-0.9493444
141	0x3eed404f	0.46338126
142	0x3f42cfee	0.76098526
143	0x3f53933d	0.8264654
144	0xbee6e490	-0.45096254
145	0xbf3e4404	-0.74322534
146	0xbd1f3881	-0.038872246
147	0x400d43ed	2.2072709
148	0x3fb444b1	1.4083463
149	0x3f6bab04	0.92057824
150	0x3efe5889	0.49676922
151	0x3e43d865	0.19125517
152	0x3fadbcf3	1.3573288
153	0xbf6349b7	-0.88784355
154	0x3f4878d3	0.78309363
155	0xbeb00138	-0.3437593
156	0xbee351e5	-0.44398418
157	0xbfc69196	-1.5513179
158	0x3f8e674f	1.1125277
159	0xbffc7842	-1.97242
160	0xbfac6ae8	-1.3470125
161	0xbf693e94	-0.9111111
162	0xbf27cf49	-0.6555067
163	0x3e00067c	0.12502474
164	0x3f9a1e71	1.204054
165	0x3d2db0fe	0.04240512
166	0xbc4b020d	-0.012390626
167	0xbf9a4e10	-1.2055073
168	0x3bc8be96	0.0061262352
169	0xbff4f519	-1.9137298
170	0x3fa38c63	1.2777218
171	0x3f4a8059	0.79102093
172	0x3f0b238b	0.5435111
173	0x3f80a803	1.0051273
174	0xbf8310d4	-1.023951
175	0xc009c254	-2.1524858
176	0xbfd53e64	-1.6659665
177	0x3f9bd405	1.2174078
178	0x3fa03bc7	1.2518243
179	0xbfdd3368	-1.7281313
180	0xbf3e58a9	-0.74354035
181	0xc00086b9	-2.0082228
182	0x3f812e7d	1.0092312
183	0x3ea4d108	0.32190728
184	0xbf0ec481	-0.5576859
185	0xbf0a8478	-0.5410838
186	0xbf501efc	-0.8129728
187	0xbf4e91c1	-0.8069115
188	0x3f062348	0.52397585
189	0x3fc315f1	1.5241071
190	0x3eeae44c	0.45877302
191	0xbf0ca3f4	-0.5493767
192	0xbfd498a6	-1.6609085
193	0x3f78306b	0.9694888
194	0xbfd3862d	-1.6525322
195	0xbbafecbd	-0.0053687976
196	0x3f6bb7fb	0.92077607
197	0xbee6e187	-0.4509394
198	0x3f9abb95	1.2088495
199	0x3f2ea9f8	0.682281
200	0xbf0858bf	-0.53260416
201	0x3e2e7317	0.17036091
202	0xbf5ed132	-0.87037957
203	0xbf20b07a	-0.6276928
204	0x3f018556	0.5059408
205	0x3f2dce6c	0.678931
206	0x3d90c180	0.07068157
207	0xbf59ebea	-0.851256
208	0x3e2778e5	0.16354711
209	0x3e73ef4f	0.23821758
210	0xbf82d471	-1.0221082
211	0x3fa92fe3	1.3217739
212	0xbfb04b49	-1.3772975
213	0x3f27f1af	0.65603155
214	0xbdc03d19	-0.093866535
215	0x3eaebaaa	0.34126788
216	0x3ed60293	0.4179884
217	0xbd9b5bbc	-0.07585856
218	0x3f7481d2	0.9551059
219	0xbeefd8b8	-0.4684503
220	0xbf7d8d49	-0.9904371
221	0xbe8fa07a	-0.2805212
222	0xbfb5c4f2	-1.4200728
223	0xbfceb73e	-1.6149671
224	0xbe81d47e	-0.2535743
225	0x3fc5e8d6	1.5461681
226	0xbe943bc8	-0.2895186
227	0x3f322a20	0.6959553
228	0x3f182208	0.5942693
229	0x3f12ad2f	0.5729551
230	0xbfb7bc91	-1.4354421
231	0xbeaf9310	-0.34291887
232	0x3e1d9913	0.15390424
233	0xbf17a3da	-0.5923439
234	0xbdb41e08	-0.087947905
235	0xbe31d13a	-0.1736497
236	0xbf0a1040	-0.53931046
237	0x3f34011c	0.7031419
238	0xbf130a72	-0.57437813
239	0xbf1bc287	-0.608437
240	0x3f8e95c3	1.1139454
241	0xbe4c8594	-0.19972831
242	0x3f41ecd3	0.7575199
243	0x3eeac47d	0.45853034
244	0xbf1c3d8a	-0.610314
245	0x3ed057b9	0.40691927
246	0x3ea46c88	0.32114053
247	0xbf110638	-0.56650114
248	0xbecfeba9	-0.40609482
249	0x3ea45980	0.32099533
250	0xbf77aba4	-0.9674628
251	0xbfab7a7f	-1.3396758
252	0xbe741b96	-0.23838648
253	0xbe27736d	-0.16352625
254	0xbe10bfbe	-0.14135644
255	0x3f25d88c	0.6478355

model.layers.block_0.conv.weight f4 [256, 64, 3]
0	0x3e3ef5b9	0.18648423
1	0x3d58ae4e	0.052900605
2	0xbe9b0556	-0.30277508
3	0xbeb99e33	-0.3625351
4	0xbd1410a2	-0.036148675
5	0xbe7b4e4c	-0.24541587
6	0xbeb45150	-0.35218287
7	0x3ef69872	0.48163182
8	0xbd1418d9	-0.03615651
9	0x3e80b401	0.25137332
10	0x3edbb663	0.42912588
11	0x3ea0947d	0.31363288
12	0x3ec40304	0.3828355
13	0x3e438f63	0.19097666
14	0x3ee04266	0.43800658
15	0x3e3ef0a8	0.1864649
16	0xbf9a2075	-1.2041155
17	0xbdcccddd	-0.10000203
18	0x3e804129	0.25049713
19	0xbedef8bf	-0.43549153
20	0xbcf1b49d	-0.029505068
21	0xbe8de9d2	-0.27717453
22	0x3f23c377	0.6397013
23	0xbeca4d0f	-0.39511916
24	0x3c6cbfdf	0.0144500425
25	0xbf3322d9	-0.6997505
26	0xbc6177d8	-0.013761483
27	0x3f1e3de4	0.6181319
28	0x3e3ba18c	0.18323344
29	0x3f8cfe65	1.1015135
30	0xbcbc8392	-0.023011956
31	0xbedc1579	-0.42985132
32	0x3e16279f	0.14663552
33	0x3f27645f	0.6538753
34	0xbdf696bc	-0.12040469
35	0x3f06a00c	0.5258796
36	0x3efce283	0.49391565
37	0xbebe0c2f	-0.3711867
38	0x3f28d31e	0.6594714
39	0xbe122166	-0.14270553
40	0xbe4e472e	-0.2014434
41	0x3da96799	0.08271713
42	0x3d88b468	0.06675035
43	0x3f059c4b	0.5219161
44	0x3cf67ad1	0.03008786
45	0x3ee4a827	0.4465954
46	0xbe11ba8f	-0.14231323
47	0x3e842c93	0.25815257
48	0xbf50d1ae	-0.81569946
49	0xbf27822f	-0.6543302
50	0xbf03f558	-0.5154624
51	0x3ee1c5f9	0.44096354
52	0x3e9ad8fd	0.30243674
53	0x3ec4c7aa	0.38433582
54	0xbe046c48	-0.12931931
55	0x3c64bad8	0.013960563
56	0xbeae820d	-0.34083596
57	0x3ead6fd8	0.33874393
58	0xbeae6218	-0.34059215
59	0xbdf4aba2	-0.11946799
60	0xbf92a9ce	-1.145807
61	0xbd161fa5	-0.036651272
62	0xbf683084	-0.9069903
63	0x3d0bed74	0.034162
64	0x3ea94e8c	0.3306774
65	0x3f02f5d4	0.51156354
66	0x3e535261	0.20636894
67	0x3e9f9abe	0.31172746
68	0x3e909c46	0.28244227
69	0xbed0e533	-0.40799865
70	0x3def3d1c	0.116815776
71	0x3cb26dbf	0.021780847
72	0x3e14f857	0.14547859
73	0xbe2d2a04	-0.16910559
74	0xbe1f421e	-0.15552565
75	0x3d267861	0.040642146
76	0x3e2dbf47	0.16967498
77	0xbdd1b237	-0.1023907
78	0x3e5660f4	0.20935422
79	0x3e285aad	0.1644084
80	0xbdb9f832	-0.090805426
81	0xbe82dc27	-0.25558588
82	0x3eac5e95	0.3366591
83	0xbebaf6a4	-0.36516297
84	0x3e2c9f79	0.16857709
85	0x3eb3bac7	0.35103437
86	0x3eadd0d3	0.33948383
87	0xbdf44333	-0.1192688
88	0x3c6b8898	0.014375828
89	0xbc4fb045	-0.012676303
90	0xbd5d3014	-0.05400093
91	0xbdafd1c2	-0.0858493
92	0x3eb26fd3	0.3485094
93	0x3db0dee7	0.08636265
94	0xbe5c2387	-0.21497928
95	0xbec6acfc	-0.38803852
96	0x3e19e478	0.1502856
97	0x3ef8337d	0.48476782
98	0x3e6d97dd	0.23202462
99	0xbeb4e0ee	-0.35327858
100	0xbedc5876	-0.4303624
101	0xbe800ce6	-0.2500984
102	0xbea41322	-0.32045847
103	0x3e23dad3	0.16001444
104	0xbf14c266	-0.5810913
105	0xbf45240e	-0.7700814
106	0xbd9bf61a	-0.076152995
107	0x3cbc4c4b	0.022985598
108	0xbe16d909	-0.1473123
109	0xbea0edbc	-0.31431377
110	0xbe6ea651	-0.23305632
111	0x3f322378	0.6958537
112	0x3e7e7068	0.24847567
113	0x3cc3314e	0.023827221
114	0x3f8e90e7	1.1137971
115	0xbcce95b9	-0.025217878
116	0x3f6764a9	0.9038797
117	0x3e837a78	0.25679374
118	0xbe475278	-0.19465053
119	0x3f359e3d	0.7094458
120	0xbf543c53	-0.8290455
121	0x3d9b9a66	0.075978085
122	0xbf068472	-0.52545846
123	0xbddd1aeb	-0.1079615
124	0xbda1dab8	-0.079030454
125	0x3f0b6094	0.5444424
126	0xbf06e05f	-0.52686113
127	0x3e6c70c9	0.23089899
128	0xbf6393bf	-0.8889732
129	0x3e57e825	0.2108465
130	0xbef5c572	-0.480022
131	0xbd9f4853	-0.077774666
132	0x3f0d1ff9	0.5512691
133	0xbf0934e7	-0.5359635
134	0x3deda98e	0.116046056
135	0xbebd88dc	-0.37018478
136	0x3ef73f92	0.48290688
137	0xbdeb2ae0	-0.11482787
138	0x3f0cc938	0.54994535
139	0x3f3d1132	0.7385436
140	0x3eb60334	0.3554932
141	0xbf44125f	-0.7659053
142	0x3f2dfd93	0.6796505
143	0xbee152e4	-0.44008553
144	0x3f9e92ba	1.2388527
145	0x3e65eb90	0.22453141
146	0x3e9ed87a	0.31024534
147	0x3f45b833	0.7723419
148	0xbf34efc9	-0.70678383
149	0x3e1f6559	0.15566005
150	0xbeb7988f	-0.3585858
151	0x3e7cf075	0.24701102
152	0xbee6300e	-0.44958538
153	0x3edd2c10	0.4319768
154	0xbdea8fff	-0.11453246
155	0x3d7d1d33	0.061795425
156	0xbdd87b0b	-0.105703436
157	0xbd13e1d8	-0.036104053
158	0x3b18e3d5	0.0023329158
159	0xbedeb647	-0.43498442
160	0xbf3b75b9	-0.73226506
161	0xbf37a541	-0.7173653
162	0x3e8e1799	0.2775238
163	0xbf38d69a	-0.72202456
164	0x3e5c057c	0.21486467
165	0xbf6d41a0	-0.9267826
166	0x3e8bc50d	0.27298775
167	0xbe8150a1	-0.25256827
168	0xbf378840	-0.71692276
169	0xbc90c4ee	-0.017672028
170	0xbf142dac	-0.5788219
171	0xbf194e7d	-0.5988539
172	0x3c9c8708	0.019107357
173	0xbdfc08db	-0.123063765
174	0x3ec2a63c	0.38017452
175	0xbed66705	-0.41875473
176	0xbe8230a1	-0.25427726
177	0x3e196dc8	0.14983284
178	0x3e0b70b2	0.13617209
179	0x3e91e246	0.28492945
180	0x3f767976	0.96279085
181	0xbef76512	-0.48319298
182	0x3eeef085	0.46667877
183	0xbcfa7abc	-0.030576102
184	0xbf466902	-0.7750398
185	0x3f0dc2c1	0.55375296
186	0x3e910655	0.28325143
187	0x3f00ab7d	0.5026167
188	0xbe95e3f9	-0.29275492
189	0x3e84ee44	0.25963032
190	0x3f035f71	0.5131751
191	0x3dc8fb90	0.09813607
192	0x3e9b01f9	0.30274943
193	0x3effbbd1	0.4994798
194	0x3f3dfb99	0.7421203
195	0xbf190715	-0.5977643
196	0xbf95bae4	-1.169766
197	0xbf260325	-0.6484855
198	0x3d5d2897	0.053993788
199	0xbee49ce6	-0.44650954
200	0xbf143624	-0.5789511
201	0xbe3b5dde	-0.18297526
202	0x3ec2ad9e	0.38023084
203	0x3f30188c	0.68787456
204	0xbddcda52	-0.10783829
205	0xbebcc62a	-0.36869937
206	0xbf241b48	-0.6410413
207	0x3df2ffe0	0.118652105
208	0xbefa6f36	-0.48912972
209	0x3e51578e	0.20443556
210	0x3e736b3e	0.23771378
211	0xbe19c92c	-0.15018147
212	0x3e13d020	0.14434862
213	0x3e418cd5	0.1890138
214	0x3d5111f3	0.05104251
215	0x3e9ed569	0.31022194
216	0xbf161ff4	-0.58642507
217	0xbf8cc436	-1.0997379
218	0x3ee7ae83	0.4525033
219	0x3f420901	0.7579499
220	0x3f66b0b8	0.901134
221	0xbeeef460	-0.46670818
222	0x3ed4b742	0.41546065
223	0x3eb37560	0.35050488
224	0xbe6322af	-0.221812
225	0x3eef1546	0.46695918
226	0xbd3eb1d2	-0.0465563
227	0x3e5684bf	0.20949076
228	0x3e988c3f	0.297945
229	0x3ed3c25f	0.4135923
230	0x3e9d2515	0.30692354
231	0x3d61078a	0.05493883
232	0xbe2206c2	-0.1582289
233	0x3e72e4be	0.2372007
234	0x3e76fc16	0.241196
235	0x3dfcf780	0.123518944
236	0xbefc80a4	-0.49316895
237	0xbdfe0823	-0.12403896
238	0x3e8fd286	0.28090304
239	0x3e61a80d	0.22036763
240	0xbec65243	-0.38734636
241	0xbe244618	-0.16042364
242	0x3d7ca3c7	0.061679628
243	0xbf09f14f	-0.5388383
244	0xbef11fd1	-0.47094586
245	0xbf126b62	-0.57195103
246	0x3ec50f2d	0.3848814
247	0xbdc1cd99	-0.09463043
248	0x3f1f4683	0.6221697
249	0x3ea7a6cd	0.32744446
250	0xbd5511d7	-0.052018967
251	0x3f521aeb	0.82072324
252	0x3ebb9c01	0.3664246
253	0xbe6c471f	-0.23074006
254	0x3e0da31b	0.13831751
255	0x3dbf310d	0.093355276

model.layers.block_0.norm.weight f4 [256]
0	0x408242e0	4.0706635
1	0x4083ab50	4.114662
2	0x406f6029	3.7402442
3	0x4075ee7f	3.8426816
4	0x40841d5f	4.1285853
5	0x407ea20d	3.9786408
6	0x4068e881	3.639191
7	0x40767eff	3.8515012
8	0x4089a696	4.301585
9	0x40894e0e	4.290778
10	0x408c0ee5	4.376818
11	0x40843df4	4.1325626
12	0x40a25e0e	5.0739813
13	0x409a4d7f	4.82196
14	0x408b8eaa	4.361165
15	0x4063310e	3.549869
16	0x408282dd	4.0784745
17	0x40761430	3.8449821
18	0x408f4f4d	4.4784303
19	0x406e84d7	3.726858
20	0x40747ffe	3.820312
21	0x40762f54	3.8466387
22	0x407bba82	3.9332585
23	0x407acc50	3.9187202
24	0x4094bc00	4.647949
25	0x4096b875	4.7100167
26	0x40581e58	3.376852
27	0x40756831	3.8344843
28	0x407e96b0	3.9779472
29	0x408c7da4	4.390337
30	0x407a00e9	3.9063056
31	0x40924125	4.570452
32	0x4075a9dc	3.8384924
33	0x407843de	3.8791423
34	0x408062e1	4.01207
35	0x40836158	4.105633
36	0x40689b21	3.6344683
37	0x409e81d5	4.9533486
38	0x40902712	4.5047693
39	0x4097a345	4.7386804
40	0x408ff2da	4.498395
41	0x40853e05	4.1638207
42	0x408247fc	4.071287
43	0x408aa98f	4.333198
44	0x40883cb3	4.2574096
45	0x408b91e8	4.361561
46	0x406fa48e	3.7444186
47	0x40889c2f	4.2690654
48	0x408f21f7	4.472896
49	0x4090064a	4.5007677
50	0x408220cf	4.066505
51	0x40a1aaf9	5.0521207
52	0x408c438c	4.3832455
53	0x4091f23d	4.56082
54	0x409a4d74	4.8219547
55	0x406f5cc6	3.7400374
56	0x408b2400	4.3481445
57	0x408d2961	4.411301
58	0x4092326a	4.568654
59	0x408edf2d	4.464743
60	0x4059cba7	3.403055
61	0x4093c8b2	4.618249
62	0x408b189e	4.346755
63	0x408f2c0f	4.4741282
64	0x4087ebf5	4.2475533
65	0x408b7e2d	4.3591523
66	0x4089367b	4.2879004
67	0x408ad948	4.3390236
68	0x408f142b	4.471212
69	0x4086e15a	4.2150087
70	0x407d9a28	3.962534
71	0x4088c4eb	4.274038
72	0x4090de11	4.5271077
73	0x40856626	4.1687193
74	0x4094736d	4.63909
75	0x408d2dc1	4.411835
76	0x4065e621	3.592171
77	0x40819dbe	4.0505056
78	0x407b5771	3.927212
79	0x40900e24	4.501726
80	0x40887d4e	4.265296
81	0x405b329f	3.4249647
82	0x408ec891	4.461983
83	0x4080030d	4.0003724
84	0x405e828c	3.476718
85	0x407e6110	3.9746742
86	0x40746e24	3.8192225
87	0x40939978	4.612484
88	0x408b14b1	4.346276
89	0x40821540	4.065094
90	0x408921c4	4.285372
91	0x409781ac	4.734579
92	0x40933d9a	4.6012697
93	0x4085efc1	4.185517
94	0x4084b541	4.1471257
95	0x408c126c	4.377249
96	0x408135a6	4.037799
97	0x407390f4	3.8057222
98	0x4085bd39	4.1793485
99	0x406fa38b	3.7443569
100	0x408bd1ab	4.369344
101	0x408c15ee	4.377677
102	0x407f4224	3.988412
103	0x408d9570	4.424492
104	0x408b35db	4.350324
105	0x409165c9	4.543675
106	0x408a8c32	4.3296137
107	0x4086e9c8	4.2160378
108	0x408542bb	4.164396
109	0x406b0e48	3.6727467
110	0x40730bb6	3.7975898
111	0x40899ea8	4.300617
112	0x40949555	4.643229
113	0x405e41be	3.4727626
114	0x404e8b1a	3.22724
115	0x408a5819	4.323254
116	0x4051ad2c	3.2761946
117	0x4084954a	4.143224
118	0x407b0d4b	3.9226863
119	0x4093adf3	4.614984
120	0x4091c1ba	4.5548983
121	0x4086ee21	4.2165685
122	0x408b381e	4.3506002
123	0x40597b08	3.3981342
124	0x4082d53c	4.0885296
125	0x408d0cdf	4.407821
126	0x40850411	4.1567464
127	0x408bc6bf	4.368011
128	0x4083c4d6	4.117778
129	0x40795001	3.895508
130	0x4059a4a4	3.4006739
131	0x4087d11e	4.244277
132	0x4089a22a	4.3010454
133	0x4083e3d3	4.1215606
134	0x407e9dec	3.9783888
135	0x408515a9	4.158894
136	0x4060a69e	3.5101695
137	0x4079ee32	3.9051633
138	0x40865e0c	4.1989803
139	0x4064282d	3.5649521
140	0x40a1224d	5.035437
141	0x408fc385	4.492617
142	0x408b172e	4.3465796
143	0x407e5d99	3.9744627
144	0x4093c849	4.618199
145	0x408cedb4	4.4040165
146	0x4092a91e	4.583144
147	0x4070b80a	3.7612329
148	0x406d134b	3.7043025
149	0x4087d7d0	4.2450943
150	0x408fc249	4.4924664
151	0x408a6681	4.3250127
152	0x4081e69c	4.0594006
153	0x4082cbb7	4.0873675
154	0x408e1a90	4.4407425
155	0x40a7d94a	5.2452745
156	0x4090f31b	4.529676
157	0x407fcd92	3.996922
158	0x4094d4d8	4.650982
159	0x4090e877	4.528377
160	0x40869184	4.205263
161	0x4088b719	4.272351
162	0x407a1429	3.9074805
163	0x409337df	4.60057
164	0x4083d378	4.119564
165	0x40569a37	3.3531625
166	0x4092a118	4.582165
167	0x4080ec90	4.0288773
168	0x4081fde7	4.062244
169	0x409b7fad	4.8593354
170	0x4087a41d	4.2387834
171	0x407c6e52	3.9442334
172	0x4086dd75	4.2145333
173	0x4097ff7d	4.7499375
174	0x408e7c45	4.4526696
175	0x4093d750	4.6200333
176	0x40937e6f	4.609184
177	0x40820d5f	4.064132
178	0x4071b53b	3.7766864
179	0x408d368b	4.412908
180	0x4082477e	4.071227
181	0x40808724	4.0164967
182	0x408f2dc2	4.4743357
183	0x40907848	4.514683
184	0x407c74a9	3.9446204
185	0x408556df	4.1668544
186	0x40877ae3	4.233751
187	0x408ee1da	4.46507
188	0x4089a364	4.301195
189	0x4082c40b	4.086431
190	0x40857aeb	4.1712546
191	0x408ec277	4.4612384
192	0x4073ed88	3.8113728
193	0x40856b00	4.1693115
194	0x408befe0	4.3730316
195	0x40971a7b	4.7219825
196	0x4082c604	4.086672
197	0x406c59d7	3.6929834
198	0x408812df	4.2523036
199	0x40812ec2	4.0369577
200	0x40992be5	4.786608
201	0x40916b8d	4.5443788
202	0x408b4fa1	4.3534703
203	0x40710275	3.765775
204	0x405a5cfb	3.411925
205	0x408acce4	4.337511
206	0x40870174	4.2189274
207	0x4074f383	3.8273628
208	0x408a5ae9	4.3235974
209	0x408cc457	4.3989673
210	0x40915c56	4.5425215
211	0x40975393	4.728952
212	0x40629209	3.5401633
213	0x4090ce21	4.525162
214	0x408c44bf	4.383392
215	0x40479a45	3.1187909
216	0x40946ccf	4.6382823
217	0x4083618b	4.105657
218	0x40836bb7	4.106899
219	0x404b0a12	3.1724896
220	0x40751878	3.8296185
221	0x408b653e	4.3561087
222	0x4083f004	4.123049
223	0x40540dee	3.3133502
224	0x40896056	4.2930098
225	0x409ad5ca	4.8385973
226	0x407854f0	3.8801842
227	0x4066149c	3.595008
228	0x407345fe	3.801147
229	0x408b74e9	4.3580213
230	0x402dd457	2.7160852
231	0x405e92ac	3.4777021
232	0x40836e01	4.107178
233	0x406d8fad	3.7118943
234	0x4087e968	4.247242
235	0x4091f01f	4.5605617
236	0x405d7a32	3.4605832
237	0x4097d8ab	4.7451987
238	0x407ce4f1	3.9514735
239	0x4094709d	4.6387467
240	0x40728f97	3.790014
241	0x40912725	4.5360284
242	0x4073d0c1	3.8096163
243	0x40912d80	4.536804
244	0x40870e3e	4.2204885
245	0x406ac811	3.668461
246	0x40899f90	4.300728
247	0x4087de0e	4.2458563
248	0x4086dd32	4.2145014
249	0x40877e86	4.2341948
250	0x409bca7a	4.8684664
251	0x409316ea	4.596547
252	0x4091a7c9	4.5517316
253	0x40997f02	4.796754
254	0x4083bd91	4.1168904
255	0x407da2b3	3.9630554

model.layers.block_0.norm.bias f4 [256]
0	0xbf59eee9	-0.8513017
1	0xbf4c565b	-0.7981927
2	0xbf2db1ed	-0.6784962
3	0xbf530f05	-0.82444793
4	0xbf198cf7	-0.5998072
5	0xbf335fe0	-0.7006817
6	0xbe693956	-0.22775778
7	0xbf326388	-0.6968312
8	0xbf3c6334	-0.7358887
9	0xbf681059	-0.90649945
10	0xbf35c505	-0.7100375
11	0xbf515012	-0.817628
12	0xbf872d44	-1.0560689
13	0xbf922f0d	-1.1420609
14	0xbf79f598	-0.9764037
15	0xbee9d6b8	-0.4567163
16	0xbf41df98	-0.757318
17	0xbf7ee870	-0.9957342
18	0xbf5af463	-0.85529155
19	0xbf54aa2b	-0.83072156
20	0xbf1fac19	-0.62371975
21	0xbf46432e	-0.7744626
22	0xbf4836a0	-0.7820835
23	0xbf274c4a	-0.6535078
24	0xbf4d0727	-0.8008904
25	0xbf82ad2e	-1.02091
26	0xbf1e3e3f	-0.6181373
27	0xbf2dacd2	-0.6784183
28	0xbf41964a	-0.7561995
29	0xbf3df8ed	-0.74207956
30	0xbf4a7769	-0.79088455
31	0xbf1b0943	-0.6056101
32	0xbf32cb09	-0.6984106
33	0xbf51bac5	-0.8192561
34	0xbf84f32a	-1.0386708
35	0xbf851069	-1.0395633
36	0xbf23b6be	-0.6395072
37	0xbf86a5e8	-1.051938
38	0xbf41a628	-0.7564416
39	0xbf81c541	-1.0138322
40	0xbf5d6882	-0.8648759
41	0xbf5b0417	-0.85553116
42	0xbf44d879	-0.7689281
43	0xbf447d40	-0.76753616
44	0xbf860086	-1.046891
45	0xbf7eb7ac	-0.9949901
46	0xbf5d47a0	-0.86437416
47	0xbf3475ed	-0.7049244
48	0xbf4df218	-0.8044753
49	0xbf8aa2c0	-1.0830917
50	0xbf66f4d9	-0.9021736
51	0xbf64b420	-0.8933735
52	0xbf67d02a	-0.9055201
53	0xbf5365fc	-0.8257749
54	0xbf8d33c6	-1.1031425
55	0xbf2b0227	-0.6680016
56	0xbf2b71a9	-0.66970307
57	0xbf0803c3	-0.5313074
58	0xbf3d4440	-0.73932266
59	0xbf546975	-0.82973415
60	0xbf4dc9e0	-0.8038616
61	0xbf515368	-0.8176789
62	0xbf86af53	-1.0522255
63	0xbef13fef	-0.4711909
64	0xbf6b4d3a	-0.91914713
65	0xbf50f68d	-0.81626207
66	0xbf5f960a	-0.87338316
67	0xbf499948	-0.78749514
68	0xbf21f9f6	-0.63272035
69	0xbeddf126	-0.43348044
70	0xbf839d0f	-1.0282305
71	0xbf80f3ff	-1.0074462
72	0xbf495646	-0.7864727
73	0xbf653bf4	-0.89544606
74	0xbf6b5acb	-0.91935414
75	0xbf4ea4cb	-0.80720204
76	0xbd9efc16	-0.07762925
77	0xbf47f369	-0.7810579
78	0xbf277b35	-0.65422374
79	0xbf711659	-0.94174725
80	0xbf5de45e	-0.86676586
81	0xbf0f4b2c	-0.5597408
82	0xbf8e6ce0	-1.1126976
83	0xbf34b4c6	-0.7058834
84	0xbf19b394	-0.6003964
85	0xbf4ef084	-0.8083575
86	0xbf4ea5a1	-0.8072148
87	0xbf5cd75d	-0.8626612
88	0xbf735303	-0.9504854
89	0xbf660fff	-0.8986816
90	0xbf5aea02	-0.8551332
91	0xbf52dd7e	-0.8236922
92	0xbf57a718	-0.8423934
93	0xbf7d86e0	-0.9903393
94	0xbf1b0d33	-0.60567015
95	0xbf76b365	-0.96367484
96	0xbf4ac476	-0.79206026
97	0xbf21f014	-0.63256955
98	0xbf412a53	-0.75455207
99	0xbf427961	-0.7596646
100	0xbf6a8df4	-0.91622853
101	0xbf7c710b	-0.9860999
102	0xbf37afbe	-0.71752536
103	0xbf4ade30	-0.7924528
104	0xbf774fce	-0.9660615
105	0xbf74e2fe	-0.9565886
106	0xbf322f37	-0.69603294
107	0xbf3634ba	-0.71174204
108	0xbf42c690	-0.7608423
109	0xbe8c3198	-0.27381587
110	0xbf1933eb	-0.59844846
111	0xbf2acc61	-0.6671811
112	0xbf78a114	-0.97120786
113	0xbeaf5973	-0.34247932
114	0xbf00aaf4	-0.50260854
115	0xbf782857	-0.96936554
116	0xbefdc553	-0.4956461
117	0xbf578d86	-0.8420032
118	0xbf28c253	-0.65921515
119	0xbf72752b	-0.94710034
120	0xbf5dd453	-0.86652106
121	0xbf52b133	-0.82301635
122	0xbf5465c5	-0.8296779
123	0xbf1baed7	-0.6081366
124	0xbf38ab34	-0.72136235
125	0xbf41f8dd	-0.7577036
126	0xbf50ad84	-0.81514764
127	0xbf8ce175	-1.1006304
128	0xbf3ae974	-0.7301247
129	0xbdc8ffc8	-0.098144114
130	0xbf112a69	-0.5670534
131	0xbf42a11e	-0.76027095
132	0xbf571ea3	-0.8403112
133	0xbe88ce0e	-0.26719707
134	0xbf3f9489	-0.7483602
135	0xbf57edb4	-0.8434708
136	0xbf2e6fc9	-0.6813932
137	0xbf5dc522	-0.86628926
138	0xbf4a8794	-0.79113126
139	0xbf1d795a	-0.6151329
140	0xbf7b8dca	-0.9826323
141	0xbf820e84	-1.016068
142	0xbf4563dd	-0.77105504
143	0xbf07caa7	-0.530436
144	0xbf6c1e49	-0.9223371
145	0xbf71733b	-0.9431645
146	0xbf95f44a	-1.1715176
147	0xbea8e33c	-0.32985866
148	0xbf3e1639	-0.7425266
149	0xbf15b56b	-0.58479947
150	0xbf74406a	-0.9541079
151	0xbf4ceadf	-0.80045885
152	0xbf19e3bc	-0.6011312
153	0xbf214211	-0.62991434
154	0xbf3adc3b	-0.72992295
155	0xbf99c09f	-1.2011908
156	0xbf495b35	-0.78654796
157	0xbf23d7a2	-0.64000905
158	0xbf50cea5	-0.81565315
159	0xbf4071af	-0.7517347
160	0xbf48b67f	-0.78403467
161	0xbf3babf2	-0.7330924
162	0xbf4b4ab6	-0.79410875
163	0xbf54eb5d	-0.83171636
164	0xbf09c5a5	-0.53817207
165	0xbf329754	-0.6976216
166	0xbf613546	-0.87971914
167	0xbf8077aa	-1.0036519
168	0xbf4a5723	-0.7903921
169	0xbfa2a93e	-1.2707899
170	0xbf752fab	-0.9577586
171	0xbf6495c8	-0.8929105
172	0xbf3e6fb0	-0.7438917
173	0xbf6a693c	-0.91566825
174	0xbf1f3074	-0.6218331
175	0xbf7738a8	-0.96570826
176	0xbf5f44c8	-0.87214327
177	0xbf85b4c2	-1.0445788
178	0xbf15c3af	-0.58501714
179	0xbf93d992	-1.1550772
180	0xbf32afdb	-0.69799584
181	0xbf3d92e6	-0.74052274
182	0xbf7db4ac	-0.9910381
183	0xbf4cb92e	-0.7997006
184	0xbf1d1041	-0.61352926
185	0xbf53e32a	-0.827685
186	0xbf83387f	-1.0251616
187	0xbf80be59	-1.005809
188	0xbf87e3b7	-1.0616368
189	0xbf446b34	-0.7672608
190	0xbf22a04e	-0.63525856
191	0xbf89061b	-1.0704988
192	0xbf41e03d	-0.75732785
193	0xbf1c0d6c	-0.6095798
194	0xbf47e221	-0.7807942
195	0xbf7dd829	-0.9915796
196	0xbf5252d6	-0.8215765
197	0xbf2779b5	-0.65420085
198	0xbf4355f8	-0.7630305
199	0xbf844671	-1.0333997
200	0xbf91616f	-1.1357859
201	0xbf8ba1b4	-1.0908723
202	0xbf6449b7	-0.8917498
203	0xbf3485be	-0.70516574
204	0xbf057234	-0.52127385
205	0xbf68b2bc	-0.90897727
206	0xbe1c1fdd	-0.1524653
207	0xbf66121d	-0.8987139
208	0xbf375ab2	-0.71622765
209	0xbf64253a	-0.89119303
210	0xbf3d5af0	-0.73966885
211	0xbf8e7459	-1.1129256
212	0xbea58348	-0.32326722
213	0xbf242777	-0.6412272
214	0xbf590e43	-0.84787387
215	0xbf0a1eb5	-0.53953105
216	0xbf98bbe6	-1.1932342
217	0xbf496229	-0.78665406
218	0xbf1485ff	-0.5801696
219	0xbf043f3d	-0.51658994
220	0xbf5fb18e	-0.873803
221	0xbf428804	-0.75988793
222	0xbf4fb77c	-0.8113935
223	0xbf054ebb	-0.5207326
224	0xbf3854b3	-0.7200424
225	0xbf67f2e0	-0.9060497
226	0xbf378988	-0.7169423
227	0xbc5a3c14	-0.013319988
228	0xbf485471	-0.7825385
229	0xbf690807	-0.91027874
230	0xbec974d0	-0.39346933
231	0xbf28e0c2	-0.65967953
232	0xbf45a566	-0.77205503
233	0xbf38febb	-0.7226369
234	0xbf5ad1e1	-0.854765
235	0xbf825a0a	-1.0183728
236	0xbf0651e3	-0.524687
237	0xbf821daa	-1.0165303
238	0xbf583eb7	-0.84470695
239	0xbf949d15	-1.1610438
240	0xbf0e072d	-0.554797
241	0xbf5bd3db	-0.8587014
242	0xbf4a372e	-0.7899045
243	0xbf29ff99	-0.66405636
244	0xbf4116f7	-0.75425667
245	0xbf4bfa86	-0.79679143
246	0xbf50c904	-0.81556726
247	0xbf5fe05d	-0.87451726
248	0xbf52e0ac	-0.8237407
249	0xbf380d49	-0.7189527
250	0xbf5afa79	-0.8553844
251	0xbf776584	-0.96639276
252	0xbf673676	-0.90317476
253	0xbf745879	-0.954475
254	0xbf1c884b	-0.61145467
255	0xbf0a2e19	-0.5397659

model.layers.block_0.norm.running_mean f4 [256]
0	0xbeff3b5f	-0.49849984
1	0xbee9106a	-0.45520335
2	0xbec0a3a1	-0.3762484
3	0xbefb9f22	-0.49144846
4	0xbe7a53b4	-0.24445993
5	0xbe7706e7	-0.24123727
6	0xbec9e369	-0.39431313
7	0xbe958993	-0.29206523
8	0xbe8b105f	-0.27160928
9	0xbf00d4bb	-0.503246
10	0xbec46e78	-0.3836553
11	0xbec2e67c	-0.3806647
12	0xbf04591e	-0.5169848
13	0xbf215f98	-0.6303649
14	0xbf14cfc9	-0.58129555
15	0xbe4a8ce6	-0.19780311
16	0xbeca353a	-0.39493734
17	0xbed513ed	-0.41616765
18	0xbeac32fc	-0.33632648
19	0xbe8c3b88	-0.2738917
20	0xbea48036	-0.32129067
21	0xbf047053	-0.51733893
22	0xbead87d7	-0.338927
23	0xbe9670a9	-0.29382828
24	0xbedb98f9	-0.42890146
25	0xbf10cce8	-0.5656266
26	0xbe8bbccd	-0.2729248
27	0xbea8f8e0	-0.33002377
28	0xbeed938a	-0.46401626
29	0xbe9dd692	-0.30827767
30	0xbec3e588	-0.38261056
31	0xbe52c8b9	-0.20584382
32	0xbe820a7e	-0.2539863
33	0xbed8cc0e	-0.4234318
34	0xbf133b0a	-0.5751196
35	0xbedb063a	-0.42778188
36	0xbea44327	-0.32082483
37	0xbf311ae2	-0.69181645
38	0xbea85598	-0.32877803
39	0xbebfd37d	-0.3746604
40	0xbed845a5	-0.42240635
41	0xbf06c0db	-0.52638024
42	0xbeb69d15	-0.3566672
43	0xbec5c027	-0.38623163
44	0xbefbbaa7	-0.49165842
45	0xbefb91c3	-0.49134645
46	0xbed3ce54	-0.41368353
47	0xbe8f55be	-0.27995104
48	0xbeca0727	-0.39458582
49	0xbf019ce8	-0.50630045
50	0xbf02cd2e	-0.5109433
51	0xbedb7fa1	-0.4287081
52	0xbea2c3f2	-0.3179012
53	0xbe9e038c	-0.3086208
54	0xbf147d4c	-0.5800369
55	0xbed8f21d	-0.42372218
56	0xbe8ab881	-0.2709389
57	0xbe500610	-0.20314813
58	0xbeb8b24c	-0.3607353
59	0xbea70227	-0.3261883
60	0xbf04ba31	-0.51846606
61	0xbeda1fcd	-0.42602387
62	0xbf050266	-0.51956785
63	0xbe01de6e	-0.12682506
64	0xbee68346	-0.4502203
65	0xbeb4d318	-0.35317302
66	0xbedf4c09	-0.43612698
67	0xbecfdfad	-0.4060034
68	0xbe6da886	-0.23208818
69	0xbe2b43f6	-0.16725144
70	0xbf124b21	-0.5714589
71	0xbee2a1ce	-0.44264072
72	0xbebd3d1d	-0.36960688
73	0xbf1de535	-0.6167787
74	0xbec51fcb	-0.3850082
75	0xbee0ae64	-0.4388305
76	0xbe7d5efe	-0.24743268
77	0xbed62b2b	-0.4182981
78	0xbeb2edb4	-0.34946978
79	0xbf0862c8	-0.5327573
80	0xbecd6415	-0.4011542
81	0xbeb6e567	-0.35721895
82	0xbf01e2c0	-0.5073662
83	0xbe8f8b95	-0.2803618
84	0xbed23ef1	-0.41063645
85	0xbed54657	-0.41655228
86	0xbe9e7774	-0.3095051
87	0xbebaa9ab	-0.3645757
88	0xbef32bad	-0.4749426
89	0xbec9f6d4	-0.39446127
90	0xbf146808	-0.5797124
91	0xbee6f215	-0.4510657
92	0xbeba3213	-0.3636633
93	0xbec15410	-0.37759447
94	0xbe6f8a51	-0.23392607
95	0xbed56c13	-0.41684017
96	0xbefd4c71	-0.49472383
97	0xbe87431f	-0.26418397
98	0xbeb6b3ba	-0.35683995
99	0xbed8d521	-0.42350104
100	0xbeb96156	-0.36207074
101	0xbf1740af	-0.59083074
102	0xbeb00232	-0.34376675
103	0xbed0bea0	-0.40770435
104	0xbefd2898	-0.49445033
105	0xbf0ec855	-0.5577443
106	0xbebaebf0	-0.3650813
107	0xbe78ddd0	-0.24303365
108	0xbef4c3a0	-0.478055
109	0xbe282799	-0.16421355
110	0xbe962aa1	-0.29329398
111	0xbe847bcb	-0.25875697
112	0xbf140d8f	-0.5783319
113	0xbe84c0e0	-0.25928402
114	0xbe337c27	-0.17527829
115	0xbef928f4	-0.48664057
116	0xbea70166	-0.32618254
117	0xbeb673e1	-0.35635284
118	0xbe8391a2	-0.25697047
119	0xbee41494	-0.4454695
120	0xbef93118	-0.48670268
121	0xbf039012	-0.5139171
122	0xbe8d82e5	-0.27638927
123	0xbe866313	-0.26247463
124	0xbe8b569e	-0.2721452
125	0xbee83433	-0.45352325
126	0xbedee652	-0.43535095
127	0xbf0e5286	-0.5559467
128	0xbefbfcab	-0.49216208
129	0xbebf8b53	-0.37410983
130	0xbe4fae92	-0.20281437
131	0xbeb6c68e	-0.3569836
132	0xbed77ef7	-0.42089054
133	0xbedadf20	-0.42748356
134	0xbe9fc412	-0.31204277
135	0xbefe8b89	-0.49715832
136	0xbeecc4b6	-0.4624383
137	0xbf0ba24f	-0.5454454
138	0xbed92ccb	-0.42416987
139	0xbeb3e632	-0.35136563
140	0xbe96ccd5	-0.2945315
141	0xbf085e03	-0.5326845
142	0xbed64c93	-0.41855296
143	0xbe5915cc	-0.21199721
144	0xbec7ebee	-0.39047188
145	0xbee97afa	-0.45601636
146	0xbf0b7ac4	-0.544842
147	0xbe086c3e	-0.13322541
148	0xbed6e8c0	-0.4197445
149	0xbe982e2c	-0.29722726
150	0xbee55742	-0.44793135
151	0xbee274e6	-0.4422981
152	0xbea6440f	-0.324738
153	0xbe9d2ce5	-0.30698314
154	0xbeb64072	-0.35596043
155	0xbf14d9f9	-0.581451
156	0xbef40054	-0.476565
157	0xbe96f1ff	-0.29481503
158	0xbeb464a1	-0.35233024
159	0xbea1b622	-0.3158427
160	0xbedc8cfb	-0.4307631
161	0xbeb8df14	-0.36107695
162	0xbed3084d	-0.4121727
163	0xbeb4633b	-0.35231957
164	0xbe848f2f	-0.2589049
165	0xbee36ad4	-0.4441744
166	0xbeece566	-0.46268767
167	0xbf20d342	-0.62822354
168	0xbeb8cff1	-0.36096147
169	0xbf2dcb19	-0.6788803
170	0xbeff05e5	-0.49809185
171	0xbefc0994	-0.49226058
172	0xbebc3408	-0.36758447
173	0xbed42ccb	-0.41440424
174	0xbeab99e6	-0.33515853
175	0xbefbd05e	-0.4918241
176	0xbeef32f7	-0.4671857
177	0xbf1b37ed	-0.6063221
178	0xbea36091	-0.31909612
179	0xbf338032	-0.70117486
180	0xbe9e81ac	-0.30958307
181	0xbebbb378	-0.3666036
182	0xbf02b6d0	-0.510602
183	0xbeb7366f	-0.35783717
184	0xbe207716	-0.15670428
185	0xbee8325a	-0.45350915
186	0xbf3734c8	-0.7156491
187	0xbf07ebb1	-0.5309401
188	0xbf1dc695	-0.6163114
189	0xbea7c592	-0.32767922
190	0xbe979375	-0.29604688
191	0xbf2bba61	-0.67081267
192	0xbec72538	-0.38895583
193	0xbe9ea9e6	-0.30988997
194	0xbeef9098	-0.46790004
195	0xbee193bd	-0.44058028
196	0xbec8f54c	-0.39249647
197	0xbe9576b9	-0.2919214
198	0xbeba85bb	-0.36430153
199	0xbf17baa6	-0.5926918
200	0xbee0d566	-0.4391281
201	0xbed89032	-0.42297512
202	0xbedbb7b4	-0.42913592
203	0xbebeac3e	-0.37240785
204	0xbea72fed	-0.32653752
205	0xbec881ce	-0.39161533
206	0xbec15a69	-0.3776429
207	0xbee89ace	-0.45430607
208	0xbe91b380	-0.2845726
209	0xbef318dd	-0.47479907
210	0xbe93093f	-0.28717992
211	0xbf03adf9	-0.51437336
212	0xbf0ca6ac	-0.5494182
213	0xbe803f29	-0.25048187
214	0xbedd8dc4	-0.4327222
215	0xbe9ad9c3	-0.30244264
216	0xbf07a39f	-0.5298404
217	0xbecd00af	-0.40039584
218	0xbe936bbd	-0.28793135
219	0xbe95b1d3	-0.29237232
220	0xbf00423a	-0.50101054
221	0xbec0f485	-0.37686554
222	0xbefd1504	-0.49430096
223	0xbe85fe10	-0.26170397
224	0xbea7597f	-0.32685468
225	0xbee94c76	-0.45566148
226	0xbec2761f	-0.37980744
227	0xbe4d2ac1	-0.2003584
228	0xbeca1e5f	-0.39476296
229	0xbedca292	-0.4309278
230	0xbd6bd6b4	-0.057577804
231	0xbe47c7f5	-0.19509871
232	0xbf01211d	-0.5044115
233	0xbe9f135d	-0.3106946
234	0xbf1a32e1	-0.60233885
235	0xbf0b81ff	-0.54495233
236	0xbe7a4266	-0.24439391
237	0xbf0722e6	-0.52787626
238	0xbe99f10e	-0.30066723
239	0xbf07e72f	-0.53087133
240	0xbe90ca60	-0.282794
241	0xbec412f2	-0.38295704
242	0xbf125f68	-0.5717683
243	0xbe82569b	-0.254567
244	0xbecff414	-0.40615904
245	0xbea37114	-0.3192221
246	0xbed63f7e	-0.41845316
247	0xbeff5338	-0.49868178
248	0xbe96f010	-0.29480028
249	0xbee3c507	-0.44486257
250	0xbea94970	-0.3306384
251	0xbf08d51b	-0.53450173
252	0xbefac35b	-0.4897717
253	0xbef65221	-0.48109534
254	0xbe41fe5e	-0.1894469
255	0xbe95555b	-0.29166684

model.layers.block_0.norm.running_var f4 [256]
0	0x4133aafa	11.229242
1	0x414cd5c0	12.802185
2	0x412e36a1	10.888337
3	0x4128eff8	10.558586
4	0x4122152e	10.130171
5	0x4142ff29	12.187295
6	0x41419012	12.097673
7	0x4120a67e	10.0406475
8	0x41377abb	11.4674635
9	0x413d4d82	11.831423
10	0x414acade	12.674528
11	0x4141c230	12.109909
12	0x41537f52	13.218584
13	0x4144d7b5	12.302663
14	0x41493705	12.5759325
15	0x41386658	11.524986
16	0x413148cb	11.080272
17	0x413c935e	11.785978
18	0x412776a2	10.466463
19	0x41356a35	11.338429
20	0x411da409	9.852548
21	0x415b5be9	13.709939
22	0x4129b428	10.606483
23	0x410ce60c	8.806164
24	0x414a12cd	12.62959
25	0x4151d9c4	13.115665
26	0x4126d815	10.427754
27	0x41466b00	12.401123
28	0x415912de	13.567106
29	0x411b3af1	9.70189
30	0x413d8de3	11.84714
31	0x4121b595	10.106832
32	0x41328f3e	11.159971
33	0x413dc25c	11.859951
34	0x41334b9b	11.205958
35	0x413cc62a	11.79838
36	0x411ed918	9.928001
37	0x418ca304	17.579597
38	0x4136348d	11.38783
39	0x41415371	12.082871
40	0x413012d4	11.004597
41	0x4153a639	13.228082
42	0x410f254e	8.946608
43	0x41433580	12.200562
44	0x414582f8	12.344475
45	0x4135f8e5	11.373265
46	0x41330ab1	11.19011
47	0x412d92cd	10.84834
48	0x4135a5df	11.352996
49	0x41382817	11.509788
50	0x4142e39a	12.180567
51	0x416f9508	14.973885
52	0x4124703c	10.277401
53	0x41245dad	10.27287
54	0x413456e5	11.2712145
55	0x41445aff	12.272216
56	0x411e6aa0	9.9010315
57	0x41292e3c	10.573788
58	0x414bab7c	12.729366
59	0x4124e5fc	10.306149
60	0x41243102	10.261965
61	0x41635a91	14.209611
62	0x413de300	11.86792
63	0x411a04fb	9.626216
64	0x41180aac	9.502605
65	0x411fed8b	9.995494
66	0x412be159	10.7425165
67	0x41440c57	12.253013
68	0x41225bad	10.147382
69	0x4149c885	12.611455
70	0x4120c0b1	10.047044
71	0x4133eaff	11.244872
72	0x413760fa	11.461176
73	0x415c38c4	13.763859
74	0x41474433	12.45415
75	0x4145b76b	12.35728
76	0x411424e5	9.259007
77	0x4147416f	12.453475
78	0x4138357b	11.513057
79	0x4153a489	13.22767
80	0x41303ac6	11.014349
81	0x41338df0	11.222153
82	0x413f2033	11.945361
83	0x41253732	10.325975
84	0x413227cb	11.134715
85	0x412e3cf5	10.889882
86	0x412840e0	10.515839
87	0x413c1f2a	11.757608
88	0x412b91d4	10.723103
89	0x414a13fc	12.629879
90	0x4179ee24	15.62064
91	0x414b9271	12.723252
92	0x414c5220	12.77005
93	0x41379851	11.474687
94	0x412cc457	10.797935
95	0x41294ecf	10.58174
96	0x41368d16	11.409445
97	0x4157d8ee	13.490461
98	0x41367fea	11.406229
99	0x4135f976	11.373404
100	0x414300f1	12.18773
101	0x415ea8d4	13.916218
102	0x41294963	10.580417
103	0x41231866	10.193457
104	0x415c298e	13.760145
105	0x416a4e59	14.644128
106	0x411fae93	9.980121
107	0x4128ed3a	10.557917
108	0x41465811	12.396501
109	0x413b43e4	11.704075
110	0x412810cd	10.504102
111	0x410e73de	8.903288
112	0x41627788	14.154182
113	0x415884f4	13.532459
114	0x41326f1d	11.152127
115	0x4142401c	12.140652
116	0x41113a34	9.07671
117	0x41281e25	10.5073595
118	0x412ec64b	10.923411
119	0x4137dec4	11.491886
120	0x4147bcb6	12.483572
121	0x415eaff6	13.917959
122	0x411c21f3	9.758288
123	0x414e6861	12.900483
124	0x4128f1a7	10.558997
125	0x4142ab2e	12.166792
126	0x41337f28	11.218544
127	0x41313040	11.07428
128	0x4143de98	12.241844
129	0x411939e7	9.576636
130	0x414e4200	12.891113
131	0x4143bb0d	12.233167
132	0x412b3c65	10.702245
133	0x413914cb	11.567576
134	0x413f4bcd	11.956006
135	0x414545c6	12.329535
136	0x4149772a	12.591593
137	0x412dc789	10.861215
138	0x413450d9	11.269738
139	0x4133c166	11.234716
140	0x418336b9	16.40172
141	0x41486577	12.524772
142	0x4134da42	11.303286
143	0x413a9832	11.662157
144	0x413d6d5d	11.8392
145	0x413c85b8	11.782646
146	0x413b3988	11.701546
147	0x411d8290	9.844376
148	0x411f9970	9.97496
149	0x4127f759	10.497888
150	0x414cba44	12.795475
151	0x41520c9a	13.128077
152	0x4134e589	11.306039
153	0x41271003	10.441409
154	0x41208cd4	10.034382
155	0x4142ec77	12.182731
156	0x41447e96	12.280905
157	0x4129618b	10.586314
158	0x4123d1aa	10.2386875
159	0x412c6765	10.775243
160	0x413c83c0	11.782166
161	0x412bfdf1	10.749497
162	0x412f9199	10.973046
163	0x412460c1	10.273622
164	0x41441011	12.253922
165	0x41338640	11.220276
166	0x414a7933	12.65459
167	0x4155bcd0	13.358597
168	0x411e6213	9.898944
169	0x41609a17	14.03762
170	0x41255fcb	10.335887
171	0x414fb61a	12.981958
172	0x4149f06b	12.621196
173	0x412e26cf	10.884475
174	0x41301a16	11.006369
175	0x413a9fd4	11.664021
176	0x414df337	12.871879
177	0x41432f53	12.199054
178	0x41482b26	12.510534
179	0x416b3eaa	14.702799
180	0x414af251	12.684159
181	0x4132a4e6	11.165258
182	0x414af340	12.684387
183	0x414a49f9	12.64306
184	0x410b2d11	8.698503
185	0x411fc452	9.98543
186	0x416efce2	14.936739
187	0x41640fbe	14.253843
188	0x415a1432	13.6299305
189	0x4140a4f3	12.040271
190	0x4121be3d	10.108945
191	0x41544916	13.267843
192	0x412aebf5	10.682607
193	0x4153af0d	13.230237
194	0x4144f615	12.310079
195	0x412f6e15	10.9643755
196	0x413771ca	11.465281
197	0x413e8165	11.90659
198	0x4132560c	11.146008
199	0x413436a5	11.263341
200	0x4151dbc6	13.116156
201	0x4146244c	12.383862
202	0x4131baeb	11.108134
203	0x413876f5	11.529042
204	0x4134f1cb	11.3090315
205	0x4128bba2	10.545809
206	0x41363e4e	11.390211
207	0x41463f34	12.39043
208	0x411c86be	9.782896
209	0x41346258	11.27401
210	0x414bd686	12.739874
211	0x415287d7	13.158164
212	0x4133bb6b	11.233256
213	0x4127564f	10.458571
214	0x413c5913	11.771747
215	0x413564f8	11.337151
216	0x4143d496	12.239401
217	0x4139c3c9	11.610299
218	0x412973f4	10.590809
219	0x412312b6	10.192068
220	0x412c1504	10.755131
221	0x414b989c	12.724758
222	0x4145d100	12.363525
223	0x412076a0	10.028961
224	0x4127d6fb	10.489985
225	0x4153b292	13.231096
226	0x412f42f5	10.953847
227	0x41226f29	10.152139
228	0x411e9c25	9.913121
229	0x413501de	11.312956
230	0x412dea05	10.869634
231	0x4151921e	13.098173
232	0x416b3951	14.701493
233	0x411c1703	9.755618
234	0x415f22c0	13.945984
235	0x4136f0bd	11.433774
236	0x412e733e	10.903135
237	0x413f57b8	11.958916
238	0x41217c07	10.09278
239	0x417a4fd4	15.644489
240	0x4130dc4a	11.0537815
241	0x41419ac4	12.100285
242	0x4147af7b	12.480342
243	0x411ce038	9.804741
244	0x41315764	11.083836
245	0x410b6c50	8.7139435
246	0x41278699	10.470361
247	0x41583ae8	13.514381
248	0x412fb37e	10.981321
249	0x415425ed	13.259259
250	0x41380341	11.500794
251	0x4152267a	13.134394
252	0x41448609	12.282723
253	0x413a8678	11.657829
254	0x4149b57f	12.606811
255	0x414ce5b9	12.806085

model.classifier.weight f4 [54, 256]
0	0xbe4d7352	-0.20063522
1	0xbcbce600	-0.023058891
2	0x3f130a72	0.57437813
3	0x3cfad899	0.03062086
4	0x3f9c3751	1.2204381
5	0x3e6f3ca3	0.23362975
6	0x3f39d480	0.72589874
7	0xbeb0e47d	-0.34549323
8	0x3f23b608	0.6394963
9	0x3d0b2c0d	0.033977557
10	0xbf3c5ffe	-0.7358397
11	0x3e27e544	0.16396052
12	0xbf5ec768	-0.8702302
13	0x3d8bebb9	0.0683207
14	0x3db638fa	0.08897586
15	0x3e00eee6	0.12591133
16	0x3dfa0e9c	0.12209818
17	0xbe1835c4	-0.1486426
18	0x3f94676a	1.159406
19	0xbe9fc0c0	-0.31201744
20	0xbf02c1a5	-0.5107673
21	0xbed8bc72	-0.42331272
22	0xbe1e0d0d	-0.15434666
23	0xbeaf9408	-0.34292626
24	0x3e96fa43	0.2948781
25	0x3e91ec83	0.28500757
26	0x3eeda3ea	0.4641412
27	0x3eda464e	0.42631763
28	0x3d6a03d6	0.057132564
29	0xbf613e18	-0.8798537
30	0xbf5fb986	-0.8739246
31	0x3e8b0192	0.27149636
32	0x3f2fec8c	0.68720317
33	0x3f5d3815	0.864137
34	0xbed0069b	-0.4063004
35	0xbf263393	-0.64922446
36	0x3f292cb6	0.6608385
37	0xbf85ad74	-1.0443559
38	0x3e6e7da5	0.23290117
39	0xbf3578f0	-0.7088766
40	0xbf2966e5	-0.6617263
41	0x3eb340f9	0.35010508
42	0xbf356c09	-0.70867974
43	0xbe20cd23	-0.15703253
44	0x3f4105de	0.7539958
45	0xbf8d96c3	-1.1061634
46	0x3e85f4a1	0.261632
47	0x3e94459c	0.28959358
48	0x3f45fe64	0.77341294
49	0xbe566714	-0.20937759
50	0x3e29c2ed	0.16578265
51	0xbf14eda2	-0.581751
52	0x3f5c7699	0.86118466
53	0x3e984d77	0.297466
54	0xbda10f32	-0.078642264
55	0xbe0260c3	-0.12732224
56	0xbd9961c3	-0.0748935
57	0xbda39ad3	-0.07988515
58	0xbf1ead3f	-0.619831
59	0xbd9cac94	-0.07650104
60	0x3d472b79	0.048625443
61	0x3f24eae2	0.644209
62	0xbe8ebbe4	-0.27877724
63	0xbf67e474	-0.90582967
64	0xbfd69443	-1.6763996
65	0xbea970a0	-0.3309374
66	0xbfd945d0	-1.697443
67	0xbfd11b36	-1.6336429
68	0xbed76854	-0.42071784
69	0xbf01ad17	-0.5065474
70	0xbd566c44	-0.052349344
71	0xbf1775b5	-0.5916398
72	0x3f5ee113	0.87062186
73	0xbe8cd09a	-0.275029
74	0xbef6bacc	-0.4818939
75	0xbf89f7fc	-1.0778804
76	0x3f29fa82	0.6639787
77	0x3d48d9c7	0.049035814
78	0x3ec80e8c	0.39073598
79	0xbe9d879e	-0.3076753
80	0xbf272cbf	-0.6530265
81	0x3e06ac7e	0.13151738
82	0xbf561722	-0.8362905
83	0xbda6ed7b	-0.081507646
84	0x3e38581b	0.1800236
85	0x3f09c8ab	0.5382182
86	0xbe4b692c	-0.19864339
87	0xbf8d58e9	-1.1042758
88	0xbbb6e562	-0.005581544
89	0xbf7e2f0d	-0.99290544
90	0xbfc74722	-1.5568583
91	0xbf5ec988	-0.8702626
92	0x3eab420a	0.3344882
93	0xbf2a7450	-0.6658373
94	0x3f88f5ae	1.0699975
95	0xbf836feb	-1.026853
96	0x3d9dfc18	0.07714099
97	0x3ddedbd1	0.108817704
98	0xbf3b1460	-0.73077965
99	0x3c725230	0.014790103
100	0xbfb42792	-1.4074576
101	0xbda332ee	-0.079686984
102	0x3d110eb8	0.035414428
103	0xbf17d67b	-0.59311646
104	0xbf038fcd	-0.513913
105	0xbf0f64ed	-0.56013376
106	0xbe8db6f8	-0.27678657
107	0xbe180a3f	-0.14847659
108	0xbd0dd3d2	-0.034625836
109	0xbf031f14	-0.51219296
110	0x3f195876	0.59900606
111	0xbfee915c	-1.863811
112	0xbf907af1	-1.1287519
113	0x3f2e0304	0.6797335
114	0x3f21bb14	0.63176084
115	0x3caaec78	0.02086471
116	0xbb8ba25c	-0.004261298
117	0x3d9b60aa	0.075867966
118	0x3e6a20ec	0.22864121
119	0x3fc00ba2	1.500355
120	0x3e3ae262	0.1825042
121	0x3f2e8e99	0.68186337
122	0x3e12fcab	0.14354198
123	0xbf3b6e7c	-0.7321546
124	0xbfc4a967	-1.5364197
125	0x3f6003dd	0.87505895
126	0xbdc91fda	-0.09820528
127	0xbef1fb17	-0.4726188
128	0x3f3de388	0.7417531
129	0x3d23cd8d	0.03999095
130	0x3e59b74c	0.21261328
131	0x3f9ff07a	1.2495263
132	0xbda2ce40	-0.07949495
133	0x3ea771da	0.3270405
134	0x3ee85fbe	0.45385545
135	0xbf2661d0	-0.64993
136	0x3d885ba4	0.06658104
137	0x3e900d22	0.2813502
138	0x3be98651	0.0071266075
139	0x3e59962f	0.21248697
140	0xbdfacc8d	-0.12246046
141	0x3ed7ca39	0.4214647
142	0xbe09b0dd	-0.13446374
143	0xbde04b74	-0.109518915
144	0xbe099765	-0.13436659
145	0xbf11e53d	-0.56990415
146	0x3f94ab77	1.1614827
147	0x3e920e6f	0.28526637
148	0xbd72e093	-0.059296202
149	0x3eda72e8	0.42665792
150	0x3f23456f	0.6377782
151	0x3e018962	0.12650064
152	0x3e397d64	0.18114239
153	0x3f0add09	0.5424352
154	0xbe310660	-0.17287588
155	0x3e8de943	0.27717027
156	0xbe9c8043	-0.30566606
157	0x3ead4373	0.33840522
158	0xc0105ccf	-2.2556646
159	0x3f1b6e80	0.60715485
160	0x3f4bcd2e	0.79609954
161	0x3f2ca394	0.674371
162	0x3eb453d4	0.35220206
163	0xbdf9a3ec	-0.12189469
164	0xbe8c054c	-0.2734779
165	0x3e2657df	0.16244458
166	0xbff5da40	-1.920723
167	0xbf22fe4a	-0.63669264
168	0xbec9745c	-0.39346588
169	0x3f31c279	0.69437367
170	0x3f371144	0.7151072
171	0xbf3d700a	-0.73999083
172	0x3f54ab43	0.83073825
173	0xbefc9598	-0.4933288
174	0xbd8aae38	-0.06771511
175	0xbf4ef77e	-0.80846393
176	0xbe1a4c02	-0.15068057
177	0x3f3ddef5	0.7416833
178	0xbde64734	-0.1124405
179	0xbf29c2d1	-0.6631289
180	0xbf8ffc5a	-1.1248887
181	0x3e86599f	0.2624025
182	0x3e453ab3	0.19260673
183	0xbf34f6f8	-0.70689344
184	0x3ebb6949	0.36603764
185	0xbf40e6a3	-0.75351924
186	0xbf6a6d5f	-0.9157314
187	0xbf544431	-0.8291655
188	0xbfa5857d	-1.2931362
189	0x3f05281b	0.5201432
190	0xbe7f285b	-0.24917738
191	0xbf56f401	-0.8396607
192	0x3f2c7639	0.67367893
193	0x3f11ff67	0.5703034
194	0xbfb831a3	-1.4390148
195	0xbefe6b0a	-0.4969104
196	0x3f5a66e1	0.8531323
197	0xbed82d72	-0.42222172
198	0x3eaef839	0.34173754
199	0xbe7ee42b	-0.24891727
200	0xbeff8481	-0.4990578
201	0xbe26f869	-0.16305698
202	0x3efc23bf	0.49246022
203	0x3f8c5c77	1.0965718
204	0x3eb61477	0.35562488
205	0xbeeffd04	-0.46872723
206	0xbef47dc9	-0.47752216
207	0xbdb1444d	-0.086556055
208	0x3e3b91e5	0.18317373
209	0x3cb356ec	0.021892034
210	0xbec358b2	-0.38153607
211	0xbf74d304	-0.95634484
212	0x3de2f5e8	0.11082059
213	0x3f735800	0.9505615
214	0x3d15f3da	0.036609508
215	0xbe147f73	-0.14501743
216	0xbf908b5a	-1.1292527
217	0x3f08f9f2	0.53506386
218	0x3eedb4e0	0.4642706
219	0x3ef11806	0.4708864
220	0xbf827dc6	-1.0194633
221	0x3edc3def	0.43016002
222	0xbe69693d	-0.22794051
223	0x3f457e28	0.77145624
224	0xbf0a9286	-0.5412983
225	0xbed2b1cc	-0.41151273
226	0xbdc54786	-0.09632783
227	0x3e2bedd4	0.16789943
228	0xbf4a49d4	-0.790189
229	0x3f57baef	0.84269613
230	0xbe9412a7	-0.2892048
231	0x3e8db288	0.2767527
232	0x3ed88f34	0.42296755
233	0x3f252171	0.6450415
234	0x3e93b461	0.28848556
235	0xbf6858dc	-0.9076059
236	0x3f23e099	0.64014584
237	0xbf2849b5	-0.6573747
238	0xbe760816	-0.24026522
239	0xbf2e28c2	-0.6803094
240	0x3f8fce85	1.12349
241	0xbf9e37f8	-1.236083
242	0xbebedef6	-0.3727948
243	0x3f9b0fd2	1.2114203
244	0xbf635434	-0.8880036
245	0x3ed7eafa	0.4217146
246	0x3f14bd55	0.581014
247	0x3eb754e5	0.35806957
248	0x3f3ae337	0.7300295
249	0x3daa18c1	0.08305503
250	0xbf85799c	-1.0427737
251	0xbef2ad14	-0.47397673
252	0xbf4517af	-0.76989263
253	0x3f16ecc8	0.5895505
254	0x3e994c50	0.29941034
255	0x3e83b6c3	0.25725374

model.classifier.bias f4 [54]
0	0x3eb671c8	0.35633683
1	0x3ec4437b	0.38332734
2	0x3d362681	0.044470314
3	0xbdc24f10	-0.09487736
4	0xbec6722b	-0.38758978
5	0x3d874b10	0.06606114
6	0x3d62a819	0.05533609
7	0xbef4d4dd	-0.47818652
8	0x3dae3e64	0.08507994
9	0x3ea27441	0.3172932
10	0x3f490f51	0.78538996
11	0xbe30c453	-0.17262392
12	0x3db2ed64	0.08736685
13	0x3e854c8d	0.26034966
14	0xbe0971ce	-0.1342232
15	0xbd202f12	-0.03910739
16	0xbe4f4902	-0.20242694
17	0xbf1f467e	-0.6221694
18	0x3e0e6225	0.13904627
19	0xbe7b1a97	-0.24521862
20	0xbea1ca25	-0.31599537
21	0x3f24d874	0.6439278
22	0xbf15a2c8	-0.5845151
23	0x3e3d2c9f	0.18474053
24	0x3d2fe0ec	0.04293911
25	0x3dd92b37	0.10603946
26	0xbf192467	-0.5982117
27	0xbea46aee	-0.3211283
28	0x3cdcb19c	0.02694016
29	0x3e9625ed	0.2932581
30	0xbd8dc166	-0.069216534
31	0x3f156d03	0.58369464
32	0x3c9372c9	0.01799907
33	0xbf1d991e	-0.61561763
34	0xbe8f7cb6	-0.28024834
35	0xbea5b4fe	-0.3236465
36	0xbe3fb539	-0.18721475
37	0x3dfa9aab	0.12236532
38	0x3efffd39	0.4999788
39	0xbcf85dbc	-0.030318134
40	0x3dfc5543	0.1232095
41	0x3e15a661	0.1461425
42	0xbeef3b15	-0.46724764
43	0x3d339107	0.04383948
44	0xbd849237	-0.06473201
45	0x3f013486	0.5047077
46	0xbe5158a9	-0.20443977
47	0xbd0210d9	-0.03175435
48	0x3e0fd491	0.14045931
49	0xbebbc371	-0.36672547
50	0x3e5507b6	0.20803723
51	0x3eddfcae	0.43356842
52	0xbead3035	-0.33825842
53	0x3ebcb924	0.3686
