mlp/experiments/basic_mlp/runs/2024-05-19-11-13-55/checkpoints/last.ckpt (torch, 141508 bytes, 7 tensors)

model.embedding.weight f4 [711, 32]
000000 a3 89 ac 3e 74 ac ae bf 85 f1 a0 3f 46 9f af be
       0.33698758 -1.3646379 1.2573706 -0.34301203
000010 e8 da c3 be 1e 10 f6 bf a6 ba 1c bd b7 e3 1d 40
       -0.3825295 -1.9223669 -0.03826394 2.4670236
000020 52 18 43 3e bf af 9f be cf a1 0a 3f 3e ea 6b bf
       0.19052246 -0.3118877 0.5415315 -0.921543
000030 0e 07 f3 3e 6e 88 58 be 4d 8a 19 3f ee 3f 8a 3f
       0.4746632 -0.21145794 0.59976655 1.080076
000040 ca be f4 3d 36 56 83 be 7c 0b cf 3e 71 9a 0e bf
       0.119504526 -0.2565171 0.4043845 -0.5570441
000050 c6 b9 a4 bf d7 02 74 be 0f de 74 3d c5 ae 4e 3e
       -1.2869194 -0.23829208 0.059782084 0.20183857
000060 2c ab 4e 40 ff e4 80 3f 87 f8 36 3f 84 32 e3 3f
       3.2291975 1.0069884 0.7147297 1.7749791
000070 cf e5 65 bf 6b 6f 4c 3e d9 e3 99 3f 7b 93 91 3e
       -0.89803785 0.19964378 1.2022659 0.2843283
000080 90 5e 9e 3e 05 cd a1 3f ac 19 0f 3d 2d d0 03 3f
       0.3093152 1.2640692 0.034936592 0.51489526
000090 71 43 9a 3c bf 96 76 bf d2 16 ac 3f 21 0e 08 bf
       0.018830987 -0.9632377 1.3444464 -0.5314656
0000a0 cf 90 47 3f f0 63 a7 bf 8b f6 17 3f 58 c3 7f bf
       0.77955335 -1.3077374 0.5936057 -0.99907446
0000b0 59 74 6c 3f 26 2e 84 3e bc 54 72 bf 7f f3 88 3f
       0.9236503 0.25816458 -0.94660544 1.0699309
0000c0 a3 46 78 3f 80 e2 d9 3e 33 d4 3d 3f fb 20 6e 3e
       0.96982783 0.42555618 0.74151915 0.23254769
0000d0 63 24 b9 bd c1 3d d4 3f 60 e6 99 3e d4 9e 7f bf
       -0.09040143 1.6581346 0.30058575 -0.9985173
0000e0 ad ff 07 c0 6b ba b5 3e 0f 9f c7 bf d4 05 87 3f
       -2.1249802 0.35493788 -1.5595416 1.0548654
0000f0 fa af fa bf f9 62 ee bf f7 d0 bb bf 8e cc 77 bf
       -1.9584954 -1.8623954 -1.4673146 -0.967965
000100 87 c2 53 3e d0 29 b6 3f 0f 72 a7 be 11 50 77 bf
       0.20679675 1.423151 -0.32704207 -0.96606547
000110 52 6b ac 3e 55 b9 60 bf bd d6 ad bf 29 3d bb 3f
       0.3367563 -0.87782794 -1.3581158 1.462804
000120 aa a0 41 bf 7d 22 1a c0 51 fb 89 3f 31 32 61 be
       -0.7563578 -2.408355 1.0779821 -0.21991803
000130 f2 74 53 bf 2d 48 da 3f 1e a5 32 3f ad 60 8b bf
       -0.8260032 1.7053276 0.697832 -1.0888878
000140 86 55 d1 3f a6 4a 3a be 3e f6 55 be 17 1d 50 be
       1.6354225 -0.18192539 -0.20894715 -0.20323597
000150 66 c1 0e bf 54 71 0d be 27 ba 1d 3b cd 67 d6 3f
       -0.5576385 -0.13812762 0.0024067254 1.6750427
000160 13 3b 03 3f c0 2e 1b 3f 11 62 5d 3f 79 69 12 3f
       0.51262015 0.6061821 0.8647776 0.5719219
000170 0f 0d 8a 3e 32 63 21 3e 34 58 10 bd 54 3d 40 3e
       0.26963088 0.15760496 -0.035240367 0.18773395
000180 65 f8 be be 6c de d9 bd cb 2d 5e 3f 23 33 93 3f
       -0.37298885 -0.10638127 0.86788625 1.1499981
000190 48 d3 0e be 07 6a 42 bf 72 8e 49 3e e9 df 7a bf
       -0.13947785 -0.75943035 0.19683245 -0.9799791
0001a0 2f 79 6e 3e dd 99 0b 3d 89 10 2c 3e ff 1b 1c bf
       0.23288415 0.034082282 0.16803183 -0.6098022
0001b0 32 18 e8 be 8e 31 03 c0 b9 5e d0 bf 17 e2 93 bf
       -0.4533096 -2.0498996 -1.6278907 -1.1553372
0001c0 2a 95 0d 40 fd 91 05 3f da f4 0a be 17 60 c9 bf
       2.2122293 0.52175885 -0.13569966 -1.5732449
0001d0 5d 15 8f bf d3 24 d8 bf 5a e5 9a bf 6e f6 8d bf
       -1.1178395 -1.6886238 -1.2101243 -1.1090829
0001e0 88 58 13 40 86 69 04 bf 5a 9f 04 3f 8a 8b 28 3e
       2.3022785 -0.51723516 0.5180565 0.1645948
0001f0 b5 42 10 3f 6b ee 8d bf 0d f5 70 3c e5 d8 e0 bf
       0.56351787 -1.1088384 0.014706862 -1.7566191
000200 f6 c6 ec be 9b 4c 82 3f cb d4 50 bf 4c 0d f1 3f
       -0.46245545 1.0179628 -0.81574696 1.8832183
000210 8e 64 71 bf 4e af 85 bf 09 5f b8 3e 84 84 bd 3e
       -0.9429406 -1.0444124 0.36010006 0.37015164
000220 e3 87 3a bf a9 79 5c 3f 35 81 eb 3f 04 2b 97 be
       -0.72863597 0.8612314 1.8398806 -0.29525006
000230 25 a2 de be f6 cb 19 c0 5c a8 08 3f eb a9 72 3f
       -0.4348308 -2.4030738 0.53381896 0.94790524
000240 61 59 dc 3e 8a 30 16 3e 8e 02 30 3f d5 67 8b 3f
       0.4303694 0.14666954 0.687539 1.0891062
000250 fb 72 c6 bf dd c5 df 3b 99 a9 5b 3f 64 b1 9f 3e
       -1.5503839 0.006829007 0.8580566 0.31190026
000260 27 a0 f7 3f 24 7a d0 3f c3 ae ca 3f dd c6 00 3f
       1.934575 1.6287274 1.5834583 0.5030344
000270 4f 22 b9 3d 7f 0e b7 bf 86 36 1d 3f c8 5d 72 bf
       0.09039747 -1.4301299 0.6141132 -0.9467435
000280 dd ae 85 3f a8 9c 01 bf b8 2b 45 3e 31 8a 5f bc
       1.0443989 -0.50629663 0.19254959 -0.013643787
000290 6a 1e f3 3f 5d 08 30 c0 a0 50 b7 3f 5c cc 86 bf
       1.8993657 -2.7505105 1.432148 -1.0531116
0002a0 6f d1 70 bf 77 6d 51 3f 8f 49 4a bf ef 34 ac be
       -0.9406957 0.81807655 -0.7901849 -0.33634135
0002b0 e7 9c 88 bf 9c 0e d4 3f 5f 38 30 3f b7 37 0c c0
       -1.0672883 1.6566958 0.68836015 -2.1909006
0002c0 5c a3 42 be 53 eb e4 3e 1d 81 48 3f 2f 1c a5 3f
       -0.19007629 0.44710788 0.7832201 1.2899226
0002d0 de d9 ae bf 21 96 a2 bf 5f 6b a6 bf fd 5c 30 3e
       -1.3660238 -1.2702066 -1.3001517 0.17222972
0002e0 61 03 95 3e ab fe b0 3f b3 bf 97 3d dc fd 80 3f
       0.2910414 1.3827718 0.074096106 1.0077472
0002f0 1e 8b 30 bf 07 ca 9f bf a1 41 c8 3e 5c 64 2f bf
       -0.68962276 -1.2483529 0.3911257 -0.6851251
000300 da 77 9e bf ef e3 25 3e 36 a5 28 c0 6f 0e 9c 3d
       -1.2380326 0.16200231 -2.6350837 0.076199405
000310 c6 28 df 3e 2e 65 fb be 0b 18 04 40 e6 6f 8f 3e
       0.43585795 -0.4910063 2.0639675 0.2801506
000320 de 02 62 bf 3e cd 9f be 38 b4 ac 3f 82 be c9 bf
       -0.88285625 -0.31211275 1.3492498 -1.5761263
000330 88 c8 7b bf f7 f8 84 be 3b d0 e9 bf 8d ce c1 3f
       -0.9835286 -0.25971195 -1.8266672 1.5141159
000340 be 14 fa be 6a ad ac 3e ee 3a 5e 3f 7e 49 0f c0
       -0.4884395 0.33726054 0.8680867 -2.2388606
000350 fb 01 6a 3f 68 31 71 be 50 71 31 bf 73 62 f1 3e
       0.9140927 -0.23554003 -0.69313526 0.47145423
000360 5b 7d e4 bf 24 0d 13 be 97 b1 a0 bf 4d 6d 42 be
       -1.7850755 -0.14360482 -1.2554196 -0.18987007
000370 1d 90 b8 b9 8b f3 4c bf 18 69 d6 be 1b 25 81 be
       -0.00035202588 -0.8005912 -0.41877055 -0.25223622
000380 70 1f b2 3f 58 4c ce be b6 a9 27 3f 79 41 58 bf
       1.3915844 -0.4029262 0.65493333 -0.84474903
000390 89 63 d7 3f cb af 9a 3e 05 80 71 be 6b 30 43 bf
       1.6827251 0.30212244 -0.23583992 -0.76245755
0003a0 26 a7 9a 3f 5d 19 00 c0 f2 48 26 3f fc 0b b7 3b
       1.208226 -2.001548 0.64955056 0.0055861454
0003b0 bc 21 46 3f 7f f2 31 c0 aa 74 b5 3f ad d8 c6 3e
       0.77395225 -2.7804258 1.4176228 0.38837186
0003c0 a5 8c ec bf b4 6e e5 3e 3f e2 e7 3e 6d f5 39 bf
       -1.8480421 0.44811022 0.452898 -0.72640115
0003d0 83 fc 11 c0 59 78 91 3e 8c dd 82 3f 7e 12 1a bf
       -2.281037 0.2841213 1.0223861 -0.60184467
0003e0 35 9a 1f 3f 77 48 e4 3d f7 79 be 3e 4b 65 64 3f
       0.62344676 0.11146634 0.37202427 0.8921706
0003f0 ba 48 87 3e fe 2e ae 3f 0a 5d 6f 3f d5 0e d2 bf
       0.26422673 1.3608091 0.9350134 -1.6410776

model.layers.block_0.linear.weight f4 [128, 32]
000000 20 bf 60 3d 6f 6b bd bd 7d 55 7c 3d 87 48 87 bb
       0.05486977 -0.09249007 0.061604965 -0.004128519
000010 4e ca ca 3d a9 66 d3 bc 48 13 37 bc fa 49 91 3d
       0.09901868 -0.025805788 -0.011174031 0.07094188
000020 01 31 d2 bc fd eb dd 3b 72 ca 23 3d 3d 99 71 bd
       -0.025658133 0.0067725168 0.03998799 -0.05898403
000030 68 4b 8b bd 02 e9 8a 3c ca a5 13 3c 19 c5 0e 3e
       -0.06801492 0.01695681 0.009011695 0.13942374
000040 d4 2c 05 bb c9 a7 06 3d f1 04 a5 3d a8 81 41 3d
       -0.002032091 0.032874856 0.08057583 0.04724279
000050 bb 11 b7 3c d8 c7 8f 3d df 54 ab bd bb a2 07 bd
       0.022347322 0.07020539 -0.08365797 -0.033114176
000060 9d 13 a0 3d c8 55 02 bd 84 3f dc bd 24 b3 79 bc
       0.07816241 -0.03182009 -0.10754302 -0.015240464
000070 5d 86 93 3d 54 53 32 3d 69 fb bd bc 41 00 e2 bc
       0.07203362 0.0435365 -0.02319117 -0.027588012
000080 8b 26 0c 3d ce 22 19 bd bb f8 48 bd 92 c0 ac 3c
       0.034216445 -0.037386708 -0.049065333 0.021087918
000090 13 c5 c0 3d dd e9 07 3e b5 f4 e0 bd 1c 9c 09 3e
       0.09412589 0.13272806 -0.10984174 0.13438457
0000a0 3d 0f 0f bd db ea f6 3c e4 a0 14 3d 7d fd bf bd
       -0.03492664 0.030141285 0.03628625 -0.09374521
0000b0 9d be b2 bd 35 58 a0 3d 0a d0 d4 3d 4f dc 40 3d
       -0.08727763 0.07829324 0.10391243 0.047085103
0000c0 36 d2 bb bd d5 61 58 3d 9b 50 11 bd 5a 66 41 3d
       -0.09170954 0.052827675 -0.035477262 0.04721675
0000d0 6a 76 6e bd 14 5c a2 3d 66 9c cf bd 91 6c 9e ba
       -0.058218397 0.07927719 -0.101372525 -0.0012086799
0000e0 56 4b c6 3c 4a a3 9f 3d 96 88 3a be 44 dd 3c bd
       0.024205845 0.07794817 -0.18216166 -0.046109453
0000f0 f2 66 7a bd c7 f8 2a bd 70 b7 19 3d 99 8d 79 3c
       -0.061133333 -0.04174116 0.037528455 0.015231513
000100 ab 4c 59 3c f1 06 ad bd e0 94 7b 3d 0b 32 9f 3d
       0.013262908 -0.084485896 0.061421275 0.07773217
000110 d0 dd f3 bc 00 2d 91 3e b3 fd 8d 3c 38 4a 6c 3e
       -0.029768854 0.28354645 0.017332887 0.23075187
000120 a7 bc 7c 3d 65 01 ac bd 85 76 66 be 53 61 90 3d
       0.06170335 -0.083987035 -0.22506149 0.07049813
000130 e9 6a 63 3d ce 8a 5b 3d 99 a6 00 3e 51 d4 33 3d
       0.05552188 0.05359917 0.12563552 0.043903653
000140 ca 19 17 3e 9b 58 c5 bd cd 2b 4d 3d 28 00 50 3d
       0.14755931 -0.09636041 0.0500906 0.0507814
000150 39 4b af 3c 39 11 01 3e a9 4e 7b 3e 66 8c 0f bc
       0.021398174 0.12604226 0.24541725 -0.008761501
000160 7c ca 0c be 70 c1 57 3d 07 5b 35 3e cc dc 11 3d
       -0.13749117 0.05267471 0.17710505 0.03561096
000170 7d 24 92 3c 48 d5 09 bc 89 ec 26 bd cd 8e 06 3e
       0.017839665 -0.008412667 -0.04075292 0.13140412
000180 db b4 88 bd 35 5e d5 bc 96 7c 2d bd 23 26 bd bd
       -0.066751204 -0.026045898 -0.042355143 -0.092357896
000190 85 24 01 bd da 3b e5 3c 17 68 33 bc ee f8 5b 3e
       -0.03152897 0.027982641 -0.01095011 0.21481678
0001a0 dc 24 aa 3d 37 d4 88 3d 84 26 22 be 40 5a c8 3d
       0.083078116 0.06681102 -0.15835005 0.09782839
0001b0 43 6c d8 bd 80 4a 1a 3e 91 15 5d 3d 28 44 51 be
       -0.10567524 0.15067482 0.053975645 -0.20436156
0001c0 23 6c 20 3e 5c 23 2a be 79 6b 27 bd b4 3c 7f 3e
       0.15666251 -0.16615051 -0.04087398 0.249255
0001d0 a8 73 67 bd 15 21 f8 3d 5e af 3f bb 13 de 21 3e
       -0.056506783 0.12115685 -0.0029248814 0.15807371
0001e0 58 1a 14 3d b8 a6 c0 bd 79 d1 00 3e 17 f2 3c 3e
       0.036157936 -0.09406799 0.12579907 0.18451725
0001f0 03 79 d8 bd c4 ec a5 bd db 5e c6 3c 28 dd 99 3d
       -0.10569956 -0.081018 0.024215152 0.07512885
000200 92 13 97 3d 6c 68 c0 bd a8 92 fe bd 6c fb 34 3d
       0.073767796 -0.09394917 -0.12430316 0.044185087
000210 d9 62 02 be 80 4f 8e be 78 a9 d1 3d 15 23 cf bd
       -0.1273302 -0.2779503 0.10237402 -0.10114113
000220 ec ec 73 3d ee b1 5d bd e2 1f 53 bc db 23 a1 be
       0.05955212 -0.054124765 -0.012886019 -0.31472668
000230 7b 20 78 be 36 7b 23 3e be 0e 23 bd 87 7a 17 3e
       -0.2423114 0.1596497 -0.03980898 0.14792834
000240 ec 01 3e 3c 8e 6b 9f be 8e 7d 6a 3e 1e d2 3a 3e
       0.011597138 -0.31136745 0.22899458 0.18244216
000250 55 7a 8c be 8f 68 73 bd 15 e6 0e be c8 dd a4 3c
       -0.27437082 -0.059425887 -0.13954957 0.020125285
000260 27 37 d9 bd 17 13 06 3e f6 5e 5e 3c 74 f4 e8 3d
       -0.106062226 0.1309322 0.013572445 0.11374751
000270 47 8d d0 3d 03 17 5b be 8c 9a b5 be f2 a9 52 3d
       0.101831965 -0.21395497 -0.35469472 0.051431604
000280 7c d5 a3 3e 49 2a 03 3e 90 b0 7d bd bd d9 2b 3d
       0.31998813 0.128091 -0.06193596 0.0419557
000290 e2 e6 c8 bd 9d b4 91 3e 0c 84 39 3d ea 18 03 3e
       -0.098096624 0.2845811 0.045291945 0.12802473
0002a0 32 ee 18 3e b4 06 12 bc 1b 04 60 bd 10 4b e9 bb
       0.14934614 -0.008912731 -0.054691415 -0.007119544
0002b0 20 65 6a be bf 3d d2 3d 55 b9 05 3d 4f c0 0d 3d
       -0.22890139 0.102656834 0.03264745 0.034607228
0002c0 36 51 55 bd 3a 8c 96 bd 43 66 10 3d ab 03 c9 3d
       -0.052079402 -0.07350965 0.035253774 0.09815153
0002d0 22 ee 47 be bd 2d bd 3e c3 0e 96 bc 0e 57 ce bd
       -0.19524434 0.36948958 -0.018317586 -0.10075198
0002e0 f5 0b ad 3c 93 97 5e bc 05 d7 a0 bd 4c 02 66 3d
       0.021123866 -0.013585943 -0.07853512 0.056154534
0002f0 91 2b df bd 6b 90 4a 3e 1d 05 93 3d 08 3a 1f bd
       -0.108969815 0.19781654 0.0717871 -0.038873702
000300 7e b3 4f 3d 5b 72 c0 3c 32 1c b7 bd dd 55 9a 3c
       0.050708286 0.023492029 -0.08940925 0.01883977
000310 2e 79 03 3d 05 bd 6b 3d e0 c8 3d bc 15 32 d7 3d
       0.032097988 0.05755331 -0.011583537 0.10507599
000320 f0 7a 70 bd 68 5d 2e 3c ad 51 92 3b 9c 40 01 be
       -0.058710992 0.010642387 0.004465303 -0.12622303
000330 a8 61 80 bd a2 c2 87 3d 62 81 7c 3d f6 98 3f 3d
       -0.062686265 0.0662892 0.061646827 0.046776734
000340 4f 3a 82 bd 3c 42 cb 3a 0b 8c e3 bc d2 d6 a3 3c
       -0.06358778 0.001550741 -0.027776739 0.019999895
000350 1d 93 71 bc a6 e1 8b 3d f4 34 00 bd 80 5e 2f 3d
       -0.014744547 0.068301484 -0.0313005 0.04281473
000360 37 01 d1 3c 22 a9 ab 3c 5d f4 ec bd 09 b1 a1 bd
       0.025513275 0.020954672 -0.11570046 -0.07895095
000370 29 87 95 bd f0 3e 3a bd 6f cc 8a 3d 80 6c 1a 3d
       -0.073011704 -0.045470178 0.06777274 0.03770113
000380 1b 79 98 bd d5 5d 2f 3e 96 6e 07 be a5 df 19 3e
       -0.07444974 0.17125638 -0.13225779 0.1502672
000390 fa 3f 0a 3e b9 a3 a6 3d 8d 55 0f bd 7f af ab 3b
       0.13500968 0.08136696 -0.034993697 0.0052394266
0003a0 84 33 2a 3e 92 28 0c be 52 ec 7b bd ce b4 11 3e
       0.16621214 -0.13687351 -0.06150467 0.14229128
0003b0 35 a6 21 be bc dd 11 be a9 ee 35 3d 7c 22 52 be
       -0.15786059 -0.14244741 0.044417057 -0.20520967
0003c0 b2 dd 58 3d 31 b5 63 be e5 ce bb 3c fb f7 23 3e
       0.0529458 -0.22237088 0.022925803 0.16012566
0003d0 6c 2d 88 bd f0 39 d6 bd 72 da 29 bd d2 e2 01 be
       -0.066492885 -0.104602695 -0.04146809 -0.12684181
0003e0 d2 7d c3 3d b9 95 af bd f2 ed 1a 3d 10 ee e6 3d
       0.09545483 -0.08573479 0.03782458 0.112758756
0003f0 d8 c6 02 be db e7 bd bd 97 71 8d 3c 7f 7a c6 bd
       -0.12771165 -0.092727385 0.017266078 -0.09691333

model.layers.block_0.linear.bias f4 [128]
000000 bb 45 36 3d a9 a6 89 3e d3 3b fe 3c 4b cb 76 3d
       0.044500094 0.26884964 0.031034386 0.06025247
000010 11 ba 80 bb 7f a8 fa 3c d1 16 ca 3d cf 58 77 bb
       -0.003928431 0.030597923 0.09867633 -0.0037742143
000020 d2 f4 ab 3c 98 13 53 3e e0 bd 22 3d 3d f3 e7 3c
       0.020990763 0.20612943 0.03973186 0.028314227
000030 71 f2 43 3e ea 8c 2a 3d 7d c5 f7 3c 56 5b 44 3d
       0.19135453 0.041638292 0.030245537 0.047938667
000040 44 01 6f 3c b8 d7 78 3d 41 78 0e 3b f3 cf 2a 3d
       0.014587704 0.0607526 0.0021739157 0.041702222
000050 22 91 e5 3d 5f 00 40 be 58 a5 85 3e 93 80 69 3c
       0.112093225 -0.18750142 0.2610271 0.014251846
000060 1c 2f 50 3d ad 2d 46 bb 36 3b 3f 3d 50 6b df 3c
       0.050826177 -0.0030239627 0.046687327 0.02727285
000070 98 d8 38 3d bc ba 84 be f9 4d 85 3d 4f 71 17 3d
       0.045128435 -0.25923717 0.06509013 0.036973294
000080 7f 7b 1c bc 1f e3 12 3b c5 f9 ad bd 04 a1 59 3d
       -0.009550928 0.0022413207 -0.084949054 0.053132072
000090 09 44 17 3c 6a 21 1e 3e 99 42 3b 3e 2c 9c a5 b9
       0.009232529 0.15442434 0.18287124 -0.0003158761
0000a0 ed bb ba bc 18 f3 fd 3d a1 87 b1 3d 2b 82 11 bc
       -0.022794688 0.12399882 0.08668447 -0.008881132
0000b0 30 c3 51 3e 72 d3 92 ba c8 d6 38 3d 79 f3 8b 3b
       0.20484614 -0.0011201932 0.045126706 0.0042709676
0000c0 27 50 4b 3d a3 94 5d bc db 35 45 bd 3e 8e d2 3c
       0.049636986 -0.013524207 -0.048147064 0.025702592
0000d0 04 59 7c bc 80 a9 37 3d 26 b7 cb 3c 03 82 b6 bd
       -0.015402082 0.044839382 0.024867605 -0.089115165
0000e0 2e eb c1 3c 24 c3 5d 3d b3 da 0e 3e 56 3a 11 be
       0.023671713 0.05414118 0.13950615 -0.1418241
0000f0 7f d9 ac bb 08 ef 17 3e 50 0b 5a 3d c7 8d 75 3d
       -0.005274951 0.14837277 0.053233445 0.059949663
000100 e1 45 bc 3c 0f c9 ed bb 61 b6 e2 3c e8 0e 8e 3c
       0.02298254 -0.007256634 0.027674856 0.017341092
000110 fc 60 ba 3c 14 f4 1f 3d e1 a1 37 bc c0 18 1c 3d
       0.022751324 0.03905113 -0.0112080285 0.03810954
000120 74 fb ca 3d 56 ba 3a 3c 02 b1 0f 3d 68 89 21 bc
       0.09911242 0.011396965 0.035080917 -0.00985942
000130 c0 dd 13 bc 01 f8 c8 3c 54 cc 44 3e 4e 37 1f 3e
       -0.009025037 0.02453232 0.1921857 0.15548441
000140 6b c6 33 3d 6b 84 1b 3d d7 a7 09 3c 91 3f d3 3c
       0.043890398 0.03796808 0.008401833 0.025787147
000150 37 4d 45 3e aa e9 96 3c 5a b1 56 3d 07 1c 89 3b
       0.19267736 0.018421967 0.05241523 0.0041842493
000160 d8 08 de 3b fd d9 2b 3d 88 06 04 3c 6e ba 71 3d
       0.0067759566 0.041955937 0.008058198 0.059015684
000170 c8 a5 1e 3c fa 07 91 3c 2d 87 3c 3b 80 ae 95 bb
       0.00968308 0.017703999 0.0028767094 -0.004567921
000180 20 52 37 3d 69 b4 67 bd c4 db b3 bb 32 43 23 bc
       0.044756055 -0.056568537 -0.0054888446 -0.009964751
000190 8c 5e 7d 3d 2b 4c d5 3c ff d5 0d 3d 97 27 21 be
       0.061857745 0.026037296 0.03462791 -0.15737759
0001a0 99 3b 58 be 9b 30 1f be 9c 5c da 3c 9b 0a 45 3e
       -0.21116485 -0.15545885 0.026655488 0.19242327
0001b0 31 ee 6a 3c 5f f5 7e 3c 68 24 c7 3c a5 ee 03 3e
       0.014339016 0.015561431 0.024309352 0.12884004
0001c0 e4 4e 70 3d d9 8a 0c 3d be 6c 47 bc 09 35 8b 3c
       0.058668986 0.034312103 -0.012171922 0.016993063
0001d0 b9 46 97 bd 1b 72 12 3e e8 bc 4b 3e 7d 7f 13 3e
       -0.07386536 0.1430134 0.19896281 0.14404102
0001e0 89 db f2 bd ce 4e f7 3c a9 c0 0b 3b 3a 5a 6e bd
       -0.11858279 0.030188944 0.0021324551 -0.058191516
0001f0 cb 1f 1f 3e 60 4c 0a 3d 71 a6 2e bb 1a e5 47 3e
       0.15539472 0.033764243 -0.00266495 0.19520989

model.layers.block_0.norm.weight f4 [128]
000000 c2 ae e8 3f ad 96 8f 3f 24 59 18 40 da a4 19 40
       1.8178332 1.1217858 2.3804407 2.4006867
000010 51 d0 38 40 56 77 0c 40 f3 88 a2 3f b9 82 1f 40
       2.8877146 2.1947837 1.2698044 2.4923537
000020 e7 cc 38 40 54 eb 94 3f f6 1a 42 40 4b 21 ff 3f
       2.8875062 1.1634316 3.0328956 1.9932035
000030 4d 78 86 3f 47 dc 36 40 da fb 3a 40 b7 0d f5 3f
       1.0505463 2.8571947 2.9216218 1.914481
000040 ea d2 07 40 2e a8 29 40 2d 15 01 40 c1 46 17 40
       2.1222482 2.6508899 2.0169175 2.3636935
000050 ba b6 8d 3f cb a1 1f 40 6c 70 8f 3f 35 0c 46 40
       1.1071389 2.49425 1.1206183 3.094495
000060 85 ca c7 3f 8d 01 39 40 06 08 15 40 30 b5 27 40
       1.5608679 2.8907197 2.3286147 2.6204338
000070 23 69 dc 3f 3c a8 fe 3f 9e 75 1e 40 cc db 40 40
       1.7219585 1.9895091 2.4759288 3.0134153
000080 c9 85 56 40 d1 4d 37 40 c9 80 fd 3f f3 cb f5 3f
       3.3519156 2.8641245 1.9804927 1.9202865
000090 63 3b 25 40 12 04 a4 3f a0 73 96 3f 87 69 31 40
       2.5817497 1.2813742 1.1754036 2.7720659
0000a0 b0 27 24 40 fd 1b a1 3f e1 a8 b9 3f 76 49 f9 3f
       2.5649223 1.2586666 1.4504663 1.9475543
0000b0 f2 bf 9b 3f b2 c2 4d 40 36 83 1d 40 63 f6 03 40
       1.2167952 3.2150083 2.4611335 2.0619133
0000c0 69 92 2f 40 fe ad 09 40 dd 4e 3d 40 5f 16 0e 40
       2.7433112 2.1512446 2.9579384 2.2201154
0000d0 ca 11 3a 40 04 03 f1 3f d1 f6 29 40 d8 c7 18 40
       2.9073358 1.8829045 2.6556895 2.3871975
0000e0 ac b2 1f 40 f1 97 9a 3f ec 91 89 3f 0b 56 f6 3f
       2.4952803 1.2077619 1.0747657 1.9245008
0000f0 2c f0 4e 40 6a 01 78 3f c1 2b d3 3f 2e 16 ed 3f
       3.233409 0.9687716 1.6497728 1.8522394
000100 0b db 04 40 c0 f9 27 40 4e 5a 0f 40 16 1d 2f 40
       2.0758693 2.6246185 2.2398868 2.7361503
000110 3e 37 3e 40 87 4e 0a 40 8b df 2e 40 9a 5f 0f 40
       2.9721217 2.161043 2.732394 2.24021
000120 ab 06 a6 3f b9 a0 01 40 18 21 e2 3f b6 86 11 40
       1.2970785 2.0254347 1.766635 2.273847
000130 45 57 2b 40 00 47 37 40 84 82 98 3f 26 da a5 3f
       2.6772015 2.8637085 1.191483 1.2957199
000140 53 ae 10 40 a1 6f 14 40 3a 9b 0b 40 8b da 1c 40
       2.26064 2.3193133 2.1813493 2.4508388
000150 7f b3 9e 3f 56 9f 0c 40 f2 cf f4 3f 99 e2 10 40
       1.2398528 2.197225 1.912596 2.2638304
000160 d6 c0 22 40 1f bd 01 40 2c 6b 22 40 82 10 02 40
       2.5430198 2.027168 2.5377913 2.0322576
000170 a7 da 1b 40 27 82 28 40 a4 3e e6 3f 03 cf 32 40
       2.4352205 2.6329439 1.7987866 2.793885
000180 5e 3a d3 3f 73 5d 42 40 18 4c 1a 40 b4 08 4c 40
       1.6502187 3.0369537 2.4108944 3.1880312
000190 0a 97 bc 3f 17 27 2e 40 8b 9e 31 40 90 10 11 40
       1.4733593 2.7211359 2.7753017 2.266636
0001a0 b3 90 51 40 05 1c 49 40 f4 55 01 40 40 40 98 3f
       3.2744567 3.1423352 2.0208712 1.1894608
0001b0 1f 6c ef 3f 77 7f 3f 40 ce f9 29 40 20 9d a0 3f
       1.8704871 2.9921548 2.6558719 1.2547951
0001c0 17 5c e5 3f c6 54 ff 3f 67 3d 29 40 e6 1f 05 40
       1.7918729 1.9947746 2.6443727 2.080072
0001d0 8f af 06 40 08 21 8d 3f 36 ef 93 3f 44 1e 88 3f
       2.1044652 1.1025705 1.1557376 1.0634236
0001e0 62 12 38 40 4c 24 25 40 39 ee 1d 40 1e 0d 4a 40
       2.876122 2.5803404 2.467665 3.1570506
0001f0 3e 27 a7 3f b6 7c 1f 40 90 54 1f 40 b0 af 97 3f
       1.3058851 2.4919868 2.4895363 1.185049

model.layers.block_0.norm.bias f4 [128]
000000 21 df 06 3f 5c 47 ce 3e 6a 6c 3e 3f c7 e9 36 3f
       0.5268422 0.40288818 0.74384177 0.71450466
000010 9a 8c 76 3f 71 c2 1d 3f c3 89 df 3e 9b 5b 79 3f
       0.9630829 0.6162482 0.4365979 0.97405404
000020 d3 38 3b 3f 5b 3b bc 3e 73 43 62 3f 01 c1 24 3f
       0.7313358 0.36764035 0.8838417 0.64357
000030 ff 1c 63 3e 90 13 54 3f ed c3 63 3f 26 74 15 3f
       0.2217903 0.8284235 0.88970834 0.58380353
000040 84 14 32 3f 82 50 56 3f 54 0c 42 3f 4f fe 30 3f
       0.69562554 0.83716595 0.7580006 0.69138044
000050 76 e2 3b 3e bd 24 88 3f 10 c1 dd 3e 47 ae 61 3f
       0.18348107 1.0636212 0.43311357 0.8815655
000060 26 65 00 3f 1f 62 a3 3f d3 eb 27 3f 07 eb 11 3f
       0.5015434 1.2764319 0.65594214 0.5699925
000070 78 23 12 3f 03 ed 81 3f 38 22 30 3f 38 c5 6a 3f
       0.5708537 1.0150455 0.68802214 0.9170718
000080 63 58 9b 3f 21 cc 77 3f 46 a6 60 3f 04 50 31 3f
       1.2136348 0.9679585 0.87753713 0.6926272
000090 5b 12 77 3f d0 62 e0 3e b8 82 f6 3e 64 93 84 3f
       0.96512383 0.43825388 0.48146605 1.035748
0000a0 f3 52 9e 3f ac 88 db 3e c9 dd dc 3e 69 c1 53 3f
       1.2369064 0.4287771 0.4313796 0.82716995
0000b0 f4 c1 c8 3e 4e 38 8f 3f 23 9d 48 3f 66 d9 72 3f
       0.39210474 1.1189058 0.7836477 0.94862974
0000c0 16 4c 65 3f 25 a9 7f 3f 2b 24 90 3f 49 19 16 3f
       0.8956922 0.9986747 1.1261038 0.5863233
0000d0 97 50 a3 3f 1d ba 44 3f 1a 30 5b 3f 67 3a 9d 3f
       1.2758969 0.76846486 0.8562027 1.2283448
0000e0 cb 46 44 3f a8 c3 b5 3e 13 0b af 3e 05 94 73 3f
       0.7667052 0.35500836 0.34188136 0.95147735
0000f0 04 8e b0 3f db 25 0a 3e 99 64 0a 3f 9b 8f 04 3f
       1.379334 0.13491003 0.5405975 0.51781625
000100 cc 6f 1e 3f bf 37 89 3f 9b 62 22 3f 9e 63 52 3f
       0.6188934 1.0720137 0.6343171 0.82183254
000110 7f af 20 3f e0 e3 30 3f 4b a7 8b 3f 4d 08 41 3f
       0.62767786 0.6909771 1.0910429 0.7540329
000120 37 f4 ee 3e 6b a0 dc 3e 32 a2 11 3f fd c6 80 3f
       0.46670696 0.4309114 0.56888115 1.0060726
000130 b2 80 98 3f e6 63 27 3f c3 ad bc 3e ff e2 cb 3e
       1.1914275 0.6538681 0.3685132 0.39821622
000140 48 5d 13 3f ce aa 43 3f 68 bf 58 3f 91 e5 3e 3f
       0.5756421 0.764325 0.8466706 0.7456904
000150 f2 1c ca 3e 3c ac 3b 3f 55 19 39 3f 65 84 7f 3f
       0.3947521 0.73309684 0.7230428 0.99811393
000160 fe fd 52 3f 6f 62 22 3f ad be 53 3f 85 1d 30 3f
       0.8241881 0.6343145 0.82712823 0.68795043
000170 71 1d 1e 3f e6 5d 62 3f dc 9e 48 3f 83 03 9d 3f
       0.61763674 0.8842453 0.783674 1.2266697
000180 40 b1 01 3f c4 6a 8c 3f 1d ec 8e 3f c6 24 bf 3f
       0.5066109 1.0970082 1.1165806 1.4933097
000190 03 c6 db 3e ff 3d 33 3f 78 8e 67 3f 05 06 8e 3f
       0.42924508 0.70016474 0.90451765 1.1095587
0001a0 a9 55 97 3f 67 79 b6 3f f0 04 1f 3f 47 e8 de 3e
       1.1823016 1.4255799 0.6211691 0.4353659
0001b0 59 58 23 3f a1 36 23 3f 0c c3 57 3f 7a 2b da 3e
       0.6380668 0.6375523 0.8428199 0.42611295
0001c0 ac d2 16 3f 43 2a 2f 3f 63 29 8e 3f f2 03 2d 3f
       0.5891521 0.6842386 1.110638 0.67584145
0001d0 45 10 77 3f 9c b9 d1 3e a3 98 a5 3e 4d f8 87 3e
       0.965092 0.4096192 0.32343015 0.26556626
0001e0 85 d6 b3 3f dd 2f 4c 3f 1a 27 5e 3f bc b6 a5 3f
       1.4049841 0.79760534 0.86778414 1.2946391
0001f0 3b 4d d6 3e 36 47 68 3f bc 5f 6f 3f 4a 2b bc 3e
       0.41855797 0.9073366 0.93505454 0.36751777

model.classifier.weight f4 [54, 128]
000000 85 23 12 3e 15 36 a6 bd 1d 19 93 bd be 0c 93 3d
       0.14271362 -0.08115784 -0.07182524 0.07180165
000010 e3 09 0d 3f 68 0a 1b 3e 28 46 70 3d e2 2f eb 3e
       0.5509321 0.15140688 0.058660656 0.4593497
000020 a5 b5 eb 3d e4 6a 57 bd 15 c5 14 be 18 f6 f9 bd
       0.11509255 -0.052592173 -0.14528306 -0.12205142
000030 1c 19 a0 3d f8 2d 4b be f6 f5 42 bf 55 e7 d6 bb
       0.07817289 -0.19841754 -0.76156557 -0.0065583386
000040 ab e1 b6 bd 39 5b 07 be f3 e5 b2 be 59 f9 03 3f
       -0.089297615 -0.13218392 -0.34941062 0.5155235
000050 05 ac d1 3d e6 48 b1 3e 20 67 ae 3b 9f c3 74 bf
       0.10237888 0.3462593 0.005322352 -0.95610994
000060 72 1e 2b bd 9f 2a 8e 3e 55 d1 2e 3d 48 f2 53 be
       -0.04177708 0.27766892 0.042680103 -0.20697892
000070 ae 7c 81 be 56 82 ae 3e 19 bb f0 3e e9 77 ce be
       -0.25290436 0.34083813 0.47017744 -0.4032586
000080 94 ff 84 be cf 3a a5 3e 6d d5 42 3e af 4b b6 3e
       -0.2597624 0.3227143 0.19026728 0.35604617
000090 ad 64 05 3f fd c3 1d 3d 98 8a e7 bd 83 38 5a bf
       0.52106744 0.038516987 -0.113057315 -0.8524248
0000a0 d6 72 6e bf 3b 1f 33 bc 32 ed f7 3c b6 3d 6f 3e
       -0.93143976 -0.010932739 0.03026447 0.23363385
0000b0 c0 d4 a1 3d 26 59 3d bd 9d 2e 5b be 1b 7d 0a 3e
       0.07901907 -0.046227597 -0.214045 0.13524286
0000c0 89 36 39 bf ee 0e 83 be b4 9d f4 3e c6 81 53 be
       -0.7234884 -0.25597328 0.47776568 -0.20654973
0000d0 13 34 86 be 82 cc ba 3d b8 e7 b3 bd f3 5e 6d bd
       -0.26211604 0.09121038 -0.08784431 -0.05795188
0000e0 65 2c 1d bf 85 8a 4f bd 73 f1 8f 3c 48 26 d4 bc
       -0.61395866 -0.050669212 0.017571187 -0.02589716
0000f0 eb 0c 2c bf 65 c8 42 3c 04 bf 67 be 05 32 5a 3c
       -0.6720721 0.011888598 -0.2263146 0.01331759
000100 52 42 a6 bd 45 30 0a 3f 16 a4 52 3e 4e c5 27 3e
       -0.08118118 0.53979903 0.20570406 0.1638386
000110 f1 8b 33 bf 9e 52 ae 3e a3 e5 d6 3e 2b 7e ed 3e
       -0.7013541 0.34047407 0.41972074 0.4638532
000120 55 13 b3 bd 1b e2 ba bd c2 93 07 be 79 7a 4a 3e
       -0.08743922 -0.091251574 -0.13239959 0.19773282
000130 26 60 88 bf ed 40 d5 3d 08 db b9 3c 7c 7d c0 bd
       -1.0654342 0.10412774 0.02268745 -0.09398934
000140 29 c5 28 3d e5 c0 91 be ea d4 cb bd d9 3e e2 3e
       0.04120365 -0.2846748 -0.099527195 0.44188574
000150 5d e5 ee 3d 48 00 39 3d 0d 29 c1 3e c9 ab 78 3e
       0.11664841 0.045166284 0.37726632 0.24284281
000160 c6 3d 85 3e 5f 0d 4c be 47 87 ab 3e 7a af 4a 3e
       0.26023692 -0.19926976 0.33501646 0.19793501
000170 de bc 9b 3e 14 fe 1b be 89 7f 2b 3e ac 9a 15 bf
       0.30417532 -0.15233642 0.1674787 -0.58439136
000180 34 42 83 be 25 6d f1 3e a7 0a 07 bf a7 ff 44 bf
       -0.25636446 0.47153583 -0.5275063 -0.76952595
000190 f0 e8 bb 3d d7 47 95 3c a9 e4 83 bf b6 b8 fb 3e
       0.09175289 0.018222732 -1.0304157 0.4916436
0001a0 95 f7 45 3e d1 b4 07 3f fe f4 d9 bd 2b 37 7a 3d
       0.19332726 0.5301028 -0.10642432 0.06108777
0001b0 11 5c af bd 18 b8 9c 3b ca 20 5b be 9b 58 24 3e
       -0.08562482 0.004782688 -0.21399227 0.16049425
0001c0 c2 bf 69 be 09 c9 a2 bc 98 7e 28 3e 50 2b 8a be
       -0.22827056 -0.019871252 0.16454542 -0.2698617
0001d0 9c 82 c0 3c f6 e7 29 3d 62 b7 1f 3d 34 6b 8c 3c
       0.02349978 0.04148098 0.038993247 0.017140962
0001e0 02 7a 40 be 1c 9c a4 be 04 c6 97 bd c2 b6 7f bf
       -0.18796542 -0.32150352 -0.07410815 -0.9988824
0001f0 db f3 aa 3d 24 96 59 3c 02 d3 40 be a2 96 1d 3d
       0.08347293 0.013280425 -0.18830493 0.038473733
000200 5d b8 b6 3d 62 43 ae bb 67 40 df 3e 46 62 80 be
       0.08921883 -0.0053180913 0.43603823 -0.25074977
000210 ef a0 bb be 5b ec 7a 3e 6c 42 8b 3d ff a4 80 be
       -0.3664622 0.24504225 0.06799778 -0.25125882
000220 dc 2b 2d 3d f1 93 ad 3d 55 77 dc be 8d 4f 42 bc
       0.042278156 0.08475483 -0.43059793 -0.011859787
000230 ef 85 9c 3d 9a 9a 97 be ea 45 88 bc b2 bf 9a 3e
       0.07642733 -0.2961014 -0.0166349 0.30224377
000240 c6 c5 b4 3e b4 da f2 be 06 12 1c bf 52 24 83 be
       0.3530714 -0.47432482 -0.60965 -0.25613648
000250 bc 5e da 3d 8d ad eb be 3c 13 b0 3d 32 46 4f bf
       0.106626004 -0.46030846 0.08597419 -0.80966485
000260 a8 10 1b 3e dc e5 7f 3f 66 de b4 3e ed 21 e8 3e
       0.15143073 0.9996011 0.35325927 0.45338383
000270 25 cb dc 3d 35 14 e3 be 86 bc bc 3d 3f c0 70 be
       0.10780934 -0.44351354 0.092156455 -0.23510836
000280 2e ea 14 3f 36 9c 52 3f f4 3d dd bd a8 8d 44 be
       0.5816983 0.8226961 -0.10802832 -0.19194663
000290 97 95 35 bf 14 38 3b 3e 88 2a 31 3e 53 e9 d9 bd
       -0.7093138 0.18283111 0.1730138 -0.10640206
0002a0 05 14 86 bf c9 09 b0 bc db e1 17 3e ab fa 7a be
       -1.047486 -0.02148904 0.14832251 -0.24509685
0002b0 2c 0d de 3d b1 42 c9 3e 90 40 95 be 48 ca 30 bd
       0.10842356 0.39308694 -0.2915082 -0.04316166
0002c0 9e 0a 25 bf 6b 31 53 3e 78 da a8 be 6a b2 d9 be
       -0.64469326 0.2062432 -0.32979178 -0.42518932
0002d0 a6 cb 99 bf ca 39 f1 3e 25 2f c9 3e 28 d7 52 bf
       -1.2015274 0.47114402 0.3929378 -0.8235955
0002e0 5b f8 7d be f0 2a 81 3c 7b 9c 1d 3e 9d ae 09 bf
       -0.24801771 0.015767545 0.15391724 -0.53782064
0002f0 f6 fb 53 bf a6 7d fd 3d e9 82 94 be cc 42 f8 bc
       -0.82806337 0.12377481 -0.29006127 -0.030305289
000300 2c bb 7b 3e b3 e3 29 3f f0 c3 12 3f 24 3b 36 3e
       0.24583119 0.66363066 0.57330227 0.17795998
000310 61 94 59 be 89 aa 08 be 4e f9 b1 bd 20 23 74 be
       -0.21248008 -0.13346304 -0.08690129 -0.23841524
000320 13 15 cf 3d 73 c9 76 3e 99 66 1c 3e 26 6c b9 bc
       0.101114415 0.24100284 0.15273513 -0.022634577
000330 21 07 03 bf c7 95 ed 3e 36 e0 da 3c d1 3f 03 3e
       -0.5118275 0.46403334 0.02671824 0.12817313
000340 41 6d a7 3d 6b 2a ea be 8c d3 0c bf 19 b3 08 bd
       0.081751354 -0.45735487 -0.55010295 -0.033373926
000350 fe 2d 46 bc 16 2f 05 3d 21 96 94 be da 54 05 bf
       -0.012095926 0.032515608 -0.2902079 -0.520826
000360 f8 c0 0b 3f 27 b5 47 bd a6 5c d3 be 3a 59 27 be
       0.5459132 -0.048756745 -0.41281623 -0.16342631
000370 04 cf 63 bd 93 69 3a 3d 42 69 e9 bd 70 ea 35 bf
       -0.055617347 0.04551084 -0.113970295 -0.7106085
000380 e9 58 d1 3d 4b 18 a9 3f 13 d3 2d bd ea 59 3c be
       0.102220364 1.3210539 -0.042437624 -0.18393674
000390 95 fb f5 3c e2 f7 3d 3e 72 15 25 bf 85 79 32 3e
       0.03002719 0.18551591 -0.6448585 0.17429169
0003a0 ac 53 1e 3f f7 91 6e 3f a8 6f b2 be c3 f1 e6 3c
       0.61846423 0.93191475 -0.34850812 0.028191453
0003b0 e9 c3 17 be b9 45 71 3c 94 7c 2e 3e 79 e1 86 bc
       -0.14820828 0.014726096 0.1703971 -0.016464936
0003c0 6b fd b9 be 5f dd cc bc 79 e4 71 be 3a 6a cc bc
       -0.36326155 -0.025007902 -0.23622312 -0.024952997
0003d0 88 01 13 bf 6d 1c 96 3d 40 d6 6b 3c 4a 18 ee 3b
       -0.5742421 0.073296405 0.014394343 0.007266079
0003e0 c3 8f a1 bf 6e 9f d0 3c 4e fd fe 3e 1d 4b 70 bf
       -1.2621998 0.025466647 0.4980263 -0.93864614
0003f0 ba be 5e bd 28 8a 0f 3f ed 87 e0 be a0 34 ee 3c
       -0.05438111 0.56070185 -0.43853703 0.029077828

model.classifier.bias f4 [54]
000000 fc 5f 11 3c 09 0b c2 bd 31 9e 97 3c b8 12 04 3d
       0.008872982 -0.09474761 0.018508049 0.032244414
000010 78 93 27 3d 92 b1 00 3d 31 c8 29 3d b4 c1 a8 bd
       0.04091212 0.031419344 0.041450683 -0.08240071
000020 e8 30 46 bd 84 4c 1c bc d7 94 a1 3d 61 90 23 3d
       -0.048386484 -0.009539727 0.07889717 0.039932612
000030 e8 23 ad 3d 79 c1 37 bd ca b8 a7 3c e5 c0 80 bc
       0.08454114 -0.044862244 0.020473856 -0.01571698
000040 f6 4b e3 bc 73 9b be 3c 33 6d 39 bd 8b 49 9b 3d
       -0.027746182 0.023267483 -0.045270156 0.075823866
000050 65 63 c1 3d c5 ff 98 bd b8 40 5a 3d 2c af cc 3d
       0.09442786 -0.07470659 0.053284377 0.09994349
000060 6f 8e 88 3c a6 62 af bd de cf 63 bc 59 f8 cf 3a
       0.01666948 -0.085637376 -0.01390454 0.001586686
000070 40 43 d6 bc 2a a9 76 3d e6 ca 84 bd 7e 69 85 3d
       -0.026155114 0.06021992 -0.06484012 0.06514262
000080 73 3d 56 3d 56 80 65 bd cd 9f 89 bb 9f 95 da 3c
       0.052304696 -0.056030594 -0.004199958 0.026682673
000090 45 be d0 3b 24 c4 6c 3d d4 28 80 bd 77 26 9f 3d
       0.006370338 0.05780424 -0.06257787 0.077710085
0000a0 eb db 14 bc 7d 77 a4 bd 7e 6b 81 3d 10 9d dd 3c
       -0.009085636 -0.08030603 0.06319331 0.027052432
0000b0 23 37 35 3d 52 92 92 ba cb c9 86 3b 3a 0a 86 3d
       0.044242036 -0.0011182523 0.004113411 0.06544919
0000c0 27 69 03 3d 83 73 92 bd 04 69 8b 3d ea 78 b8 bb
       0.032082703 -0.07150938 0.068071395 -0.0056296485
0000d0 6d 4c 90 3d 2e a1 1a 3d
       0.07045827 0.03775137
