mlp/experiments/basic_cnn/runs/2024-05-19-11-51-55/checkpoints/epoch-009_0.851288.ckpt (torch, 321016 bytes, 9 tensors)

model.embedding.weight f4 [711, 32]
00000000: 393c 133f c02e 3f3f 129e fcbd 3a59 9bbf
00000010: 9551 f7bd 741b a0bf 4643 263e a2f0 0940
00000020: 57b5 833e b3e2 0ebf 2924 63bf 4e5f 51bb
00000030: 0051 23bf 6a98 913f 5076 c2be f284 9b3f
00000040: 4f2b 8fbf bf4e e03f d810 333f 284b 323f
00000050: 7afa c7bf 639e 4c3e 1db2 793c b52e cd3f
00000060: 99ca 39bf 971b 713f d106 26be 1dfe 83bf
00000070: facf b8bd d38f 123f 4cb8 4fbf 15c6 c0be
00000080: 0eef bbbe d734 d5be ec21 983f cf38 9cbe
00000090: 81e0 30bf 2689 b23f b76b 58bf d381 ccbe
000000a0: 4ce1 64be fec9 4e3f 27f4 d43e 2504 8e3f
000000b0: a8b5 dfbe 6f3c 26bf 397a febf 6c91 643e
000000c0: 412b b43f 19b9 1ebf c601 d0bf 905a 5c3f
000000d0: 3db4 6bbe aa28 d4bf dc89 80bf e566 bb3f
000000e0: 5028 05bf ee36 06c0 5212 983f 96c8 0c3f
000000f0: 68ba 733f ec40 383f adca 693f d7f2 63bf
00000100: 04d6 d13f 6766 1d3f 2139 303f 9971 4dbf
00000110: 8e79 be3e 32cd 1bbf 2f0c 15c0 d144 573f
00000120: 2563 bcbf 6e45 8ebe 778d 14bf c731 223d
00000130: d841 fa3f df63 263f 3d67 143f 7db9 79bf
00000140: bdaf bb3f 7f52 ec3e 98b6 b2bf 7109 eabf
00000150: e90e d63f 023e bc3e a6ec a03e 6fb3 51be
00000160: 9d4b 673e 3da0 cebf 6742 a93c 0d8e 0540
00000170: 6eda b7bf eb08 843f 7cff 863f c4f1 123e
00000180: b1e6 b73e fa36 dc3e 143d 733f 3d15 9cbf
00000190: 4009 2cc0 41f8 163f 788b f9bf 2253 0dbf
000001a0: 4b1c 99bd c0d6 7fbf 9e2f f03f 698f e83d
000001b0: ac70 9bbf e476 f93e d61c 653f ec26 b03f
000001c0: 7530 903f 62f0 a5bd 2943 c0be a36d 2bbf
000001d0: 6c0c 3bbf 0ec8 093e 5da4 ecbf 9d47 ba3f
000001e0: 390d 8abf 4498 edbd f249 f1be 97ae abbe
000001f0: a33c 7ebf 7537 503e 3bea 2fbf 34ac 143e
00000200: d528 07bf 19a7 ee3e 7999 0440 6b8d 77be
00000210: c3c4 843f 4465 a9bf 7806 3e3e 1b12 9a3e
00000220: 9487 06be 7d01 843e cf8b f23d 0024 403f
00000230: d1b6 c8bf 2f29 453f 2059 72bf a68c e5be
00000240: bef1 9e3e ad7c 4e3f f680 b63e 4226 01bf
00000250: 2c1d 3abf 6888 153f 52af 923f cfa3 6d3e
00000260: 5a61 3e3f 3dd6 9a3f 3c10 5ebf 659c cc3e
00000270: 551b d5bf 59c6 3c3e 0388 ff3d 7923 18bf
00000280: 572a 7b3f da40 a03f 9615 56bf e5ca b5bf
00000290: 838c 583f de68 a53e 2b5b 893f 084f 25be
000002a0: b22b 533f 34f6 ff3e 7fe3 75bf 09a9 583f
000002b0: 65b0 6b3f 7c20 6abf cfc9 273f c4eb a33e
000002c0: 0226 c23e a52f 643f ab4d 0ebc 3703 89be
000002d0: aa2b 443f 681e 7d3f b5d2 cb3f 070d 0fbf
000002e0: fdf7 01bf ca85 f63e 17a9 d8bf a361 12bf
000002f0: a809 71be 8af8 4cbf d5a8 c23f 475e a8bf
00000300: 62be 90bf 825f bebe 0439 29be faa4 66bf
00000310: eead 0f3f 5792 57bf 53e5 e33f f618 cabf
00000320: 013a bb3e b4a0 a7be d44f 10be 432b 4fbe
00000330: 55dc c93a 45c2 80bf 0120 543f 98bb 0b3f
00000340: b2ee 08bd af65 96bf 6548 a23f 10df c3bf
00000350: 5dbb 46bf dfe9 6fbf a65f 64be 0d8b 23bf
00000360: 8c5e 1c3e a03c 153f b0ef ea3f 6177 243f
00000370: 5bc9 923f f3b7 d0bf e2af febe b75e 0640
00000380: 8766 c83e 0826 a4be fd2a d13e 38b8 1d3f
00000390: 3cc8 35bf c7c5 36be 6b08 86bf 1dd7 c4be
000003a0: 3b00 823f aeb4 54bf a179 dbbb 06a6 85bf
000003b0: 40ef 90be 9de6 e3bf 773f 2fbf 7ef3 78bf
000003c0: f63c fc3e 1247 64bf e2ab 30bf ab4e 0ec0
000003d0: cb0f b8bf 39c1 41bf 760a 64bf 7300 d6be
000003e0: 70e7 7f3d f370 43bf ef62 ccbf 344d d33e
000003f0: bde1 a5bf 3215 15c0 4e5b fdbe 4a73 ab3f
0.5751377 0.7468071 -0.12334837 -1.2136605 -0.120761074 -1.2508378 0.162366 2.155312
0.2572429 -0.55814666 -0.8872705 -0.0031947675 -0.6379547 1.1374638 -0.3798089 1.2149947
-1.1185092 1.7524031 0.69947577 0.6964593 -1.5623314 0.19982295 0.015240219 1.6029879
-0.72574764 0.94182724 -0.16213538 -1.0311924 -0.090240434 0.5725071 -0.8114059 -0.37651125
-0.36705822 -0.41641876 1.1885352 -0.30512092 -0.69092566 1.3948104 -0.8453936 -0.39942798
-0.22351569 0.80776966 0.41592523 1.1095015 -0.4369328 -0.64935964 -1.9881049 0.22321099
1.40757 -0.62001187 -1.6250541 0.8607569 -0.23017974 -1.657491 -1.0042071 1.4640776
-0.52014637 -2.0971026 1.1880591 0.5499357 0.9520631 0.7197406 0.91324884 -0.8904242
1.6393437 0.6148438 0.6883717 -0.8025146 0.37202114 -0.6085998 -2.3288686 0.8408938
-1.4717757 -0.27787346 -0.5802836 0.039598253 1.9551344 0.6499614 0.5797003 -0.9754866
1.4663006 0.4615669 -1.3961973 -1.8284131 1.67233 0.36766058 0.31430548 -0.20478605
0.22587438 -1.6142651 0.020661546 2.086795 -1.4363534 1.0315222 1.0546718 0.14350039
0.3591819 0.43010694 0.9501507 -1.2193981 -2.6880646 0.58972555 -1.9495687 -0.55204976
-0.074760996 -0.9993706 1.8764532 0.11355478 -1.214376 0.4872352 0.89497125 1.3761878
1.1264788 -0.0810249 -0.3755124 -0.6696417 -0.7306583 0.13455221 -1.848766 1.4553105
-1.0785285 -0.11601308 -0.47126728 -0.3353164 -0.99311274 0.20333655 -0.6871678 0.14518815
-0.5279668 0.4661186 2.0718672 -0.2417504 1.0372547 -1.3234029 0.18557155 0.30091938
-0.13137656 0.25782385 0.118430726 0.7505493 -1.5680791 0.77015966 -0.94667244 -0.4483387
0.3104381 0.8065899 0.35645264 -0.50449 -0.7270076 0.58411264 1.1459754 0.2320702
0.74367297 1.209663 -0.8674352 0.3996307 -1.6648966 0.18435039 0.12477114 -0.59429127
0.9811148 1.2519791 -0.8362669 -1.4202543 0.84589404 0.3230657 1.0730947 -0.1614343
0.8248855 0.49992526 -0.96050256 0.8463293 0.9206603 -0.9145582 0.6554231 0.32015812
0.37919623 0.891352 -0.00868551 -0.26760265 0.76629126 0.9887452 1.5923678 -0.55879253
-0.50769025 0.48148948 -1.6926602 -0.5718023 -0.2353884 -0.8006674 1.5207773 -1.3153771
-1.13081 -0.37182242 -0.16525656 -0.90095484 0.5612477 -0.8420767 1.7804359 -1.5788867
0.3656769 -0.32739794 -0.14092952 -0.20231347 0.0015400747 -1.0059286 0.82861334 0.5458312
-0.033430763 -1.1749781 1.2678343 -1.5302448 -0.77629644 -0.93716234 -0.22302112 -0.6388405
0.15270442 0.5829563 1.8354397 0.6424466 1.1467699 -1.6306137 -0.49743563 2.099531
0.39140722 -0.32060266 0.4085311 0.6160922 -0.7100866 -0.17848884 -1.0471319 -0.38445368
1.015632 -0.83088195 -0.006697849 -1.0441291 -0.28307533 -1.7804753 -0.68456215 -0.9724654
0.4926526 -0.89170945 -0.6901227 -2.2235515 -1.437982 -0.7568546 -0.8907846 -0.41797218
0.062476575 -0.7634422 -1.5967692 0.4126984 -1.2959515 -2.3294187 -0.49483722 1.3394558

model.layers.block_0.conv.weight f4 [256, 32, 5]
00000000: 7076 943f 2f15 693f 2465 fe3e 255a 0c3e
00000010: 32c4 07bf 9280 5b3f 1f55 4c3f 4d6c b93e
00000020: c3cf c1bf 0b34 d5bf 2ccc 303e 2c0d 963d
00000030: 71b8 f5bc 80ae e7bd 3f16 34bf e356 343e
00000040: d0e4 493f a0e5 f13e a06e 433f c896 1dbf
00000050: bf0c 713d 7a26 54bf 9bbf d6be 5847 463f
00000060: 03e6 0a3f c905 1b3e 1c1f a83e c287 7b3f
00000070: af7a 1f3f e9ec f03c 1732 17bd 930b 173e
00000080: ab81 febd 07fa ab3e d25e 583e 6564 bcbd
00000090: 8ac7 223f 8723 3e3f 20b3 2f3f 53c6 80bf
000000a0: cd54 28bd 9ae3 493e 8226 213f 7570 99be
000000b0: 609c 933d 20f2 13bf fad8 24be 0b37 b73f
000000c0: e190 253f 11e8 973e e3ef 01bf f909 393e
000000d0: 17fe 313f 4fa8 233f cb16 2cbf e70b 473e
000000e0: 69ef 793e ee14 6ebf 40a5 babe 4985 343e
000000f0: d9c3 633e 3a96 abbe cfed 08bf 58b2 4dbf
00000100: 7f11 03bf 9b9f c2be c033 883d b28f d73d
00000110: 6018 193f 024b c63e cd4e 30bf 42ee 98bf
00000120: df09 5fbf e59c 323f c8e1 fa3d 1e4b 05bf
00000130: df43 4abf 32f9 473e f2d5 723f ef98 863f
00000140: cef9 e8be 4d10 a6be 839f cb3e c52a bb3f
00000150: 08fa ea3e 71ff 023e 1d84 513f 7919 6d3f
00000160: 9ee8 acbe a0df a5bf 9119 7bbe c299 00bf
00000170: 99f3 1abf 0d86 57bf 76bb 9dbc 6fb2 193c
00000180: dc9e 10be 1153 2b3e c11c cc3e 83d8 273f
00000190: 71c1 83be 445a 07bf 1702 02bf 2edd f7be
000001a0: 9c16 833e b4b2 aabd 03aa 18bf ee25 46bd
000001b0: 0d76 953d 25d0 9c3f 1dd7 c33d 5bfe 09bf
000001c0: 08eb 933e 1167 a5be 59c3 003d 0c7d 3cbf
000001d0: b095 f0be b4ce 5ebe 3d99 b9bb 23ef 0cbf
000001e0: ebad 0c3f 7194 4b3f 6dd1 7a3f 2dec cdbe
000001f0: 2ad8 7fbf 828a 973d 7056 3b3f f137 da3d
00000200: b243 c8bd 8af8 08be 0f41 53be a7c1 b53d
00000210: 59db 71bd d912 6a3e 11ba 28be 7973 3fbd
00000220: 4c10 21be 6d91 0cbf b95e 113e ce47 b83e
00000230: 669f 8bbe 4ee1 0a3f f79a 14be 1a01 0c3f
00000240: 61b8 62be 8fe5 65bf febe 60bf 8f42 41bf
00000250: 14b7 253f ce80 303f 73fa 36bd 1298 833e
00000260: 4854 0abe 07f1 72bf 4cb8 16be 4e93 153e
00000270: 1f4d 1ebf 4038 9ebd da24 093f 0a28 2a3e
00000280: 3bde aebe 109d 06bf bea0 72be 2e7b f6be
00000290: 3d19 11bf ec10 e5be b145 a5be ea64 c4be
000002a0: 59f2 b1bd dc6a 94be 1c6e 11bf 5e36 66bd
000002b0: 51c0 653f ab13 e83e 0eb7 0f3f 7775 893f
000002c0: 9e7d c93f 66ca 383f f624 91be 69b0 51bf
000002d0: 9dc9 23be c6d2 173f 48e0 bb3e 9145 fa3e
000002e0: 8246 a83f 2cc7 183f e28e 2bbe 700e babe
000002f0: b16a 55bf 5329 81bf eb24 1f3e c74a e43c
00000300: 2153 88be c0df b4be 2f50 15be d298 02bf
00000310: 304b 3dbf 7496 cdbe c9bf 67be 9727 25be
00000320: 827b babe 0645 20bf 5510 12bd bc91 2f3e
00000330: f226 573e 28dc b9be 82e0 883d 1a75 ff3d
00000340: 3d22 80be bb78 a63d e161 3b3f c0ea c53d
00000350: b175 823f 8f35 e3be fe2c 2ebe 3c4b 0c3f
00000360: f0da de3e c101 533e b9e8 4f3d b4dc 263f
00000370: dad4 2c3e c361 7d3e 8505 8d3e ffd5 903e
00000380: 81c4 f9bc 0069 e63e 8cd9 b3be c8bd 6cbf
00000390: b3fd 69bf 2b50 babe 0853 7c3f 5529 8f3d
000003a0: fe1d fe3e 8496 033f 761f 973e 4a24 d73e
000003b0: c343 31be ccde 71bd 1439 bcbe 00d4 24be
000003c0: f8e1 a2bd 3199 3ebe a008 84be 7217 663e
000003d0: 6877 f4bd 4b74 7c3d bcc4 0dbf 633e f5be
000003e0: bec0 b23e b1ea 363f 8282 7e3e 559b 62be
000003f0: e2e9 713e 7afb 1fbe e500 5fbb 1423 24be
1.1598644 0.9104795 0.4968654 0.13706262 -0.53033745 0.8574306 0.79817384 0.3621544
-1.5141529 -1.6656507 0.17265385 0.07326731 -0.029995175 -0.1131258 -0.70346445 0.1761127
0.78864765 0.47245502 0.76340675 -0.615582 0.058850046 -0.8287121 -0.41943058 0.7745261
0.5425722 0.15138926 0.32836235 0.98254025 0.62296575 0.029409843 -0.036913004 0.14750509
-0.12427076 0.33589193 0.21129921 -0.09198836 0.6358572 0.7427296 0.686327 -1.0060524
-0.041096497 0.1971573 0.62949383 -0.2996861 0.072075605 -0.5779133 -0.16098395 1.4313673
0.6467419 0.2966924 -0.50756663 0.1807021 0.69528335 0.63928694 -0.6722228 0.19438134
0.24407734 -0.93000686 -0.364542 0.17628969 0.22242679 -0.3351305 -0.5348787 -0.80350256
-0.5119857 -0.38012394 0.066504955 0.105254546 0.5980282 0.387291 -0.6887024 -1.194771
-0.8712444 0.6977065 0.122500956 -0.52067745 -0.79009813 0.19528654 0.94857705 1.0515422
-0.45503086 -0.32434312 0.39770135 1.4622427 0.45893884 0.12792756 0.81842214 0.92616993
-0.33771223 -1.295887 -0.24521472 -0.50234616 -0.6052795 -0.8418892 -0.019254427 0.009380921
-0.141231 0.16730906 0.39865687 0.65564746 -0.25733522 -0.5287211 -0.5078444 -0.48410934
0.25603187 -0.08334866 -0.5963442 -0.048376016 0.07297907 1.2251021 0.09562514 -0.5390374
0.28890252 -0.32305196 0.031436298 -0.73628306 -0.46989202 -0.21758538 -0.0056640194 -0.55052394
0.5495288 0.7952338 0.9797581 -0.4021925 -0.99939215 0.07399465 0.7317877 0.10655201
-0.09778537 -0.1337606 -0.20630287 0.08874827 -0.059047077 0.22858752 -0.16477229 -0.046740983
-0.15728873 -0.549094 0.1419629 0.35992283 -0.2727005 0.5425004 -0.1451224 0.5468918
-0.22140647 -0.89803404 -0.8779143 -0.75492185 0.6473248 0.6894654 -0.04467244 0.25701958
-0.13508713 -0.9489903 -0.14718741 0.14606974 -0.6183643 -0.077255726 0.53571856 0.16616836
-0.34153923 -0.5258341 -0.23694131 -0.48140854 -0.56679136 -0.44739473 -0.32279733 -0.3835824
-0.08688802 -0.28987777 -0.5680864 -0.056204192 0.89746577 0.45327505 0.56138694 1.0738972
1.574146 0.72183836 -0.2834851 -0.81909806 -0.15994878 0.5930599 0.3669455 0.488812
1.3146517 0.5967891 -0.16753724 -0.3633914 -0.83365923 -1.0090736 0.15541427 0.027867688
-0.26625922 -0.35326958 -0.14581369 -0.51014435 -0.7394285 -0.4015385 -0.22631754 -0.16128384
-0.36422354 -0.6260532 -0.035660107 0.17145437 0.2101095 -0.36300778 0.066834465 0.12473507
-0.25026122 0.08128496 0.73196226 0.09663916 1.0192167 -0.443768 -0.1700935 0.548023
0.4352641 0.20606138 0.05075905 0.65180516 0.16878071 0.24744324 0.27543274 0.28288266
-0.030489208 0.45001984 -0.35126913 -0.92477083 -0.9140274 -0.36389288 0.98564196 0.06990305
0.49632257 0.51401544 0.2951619 0.42019874 -0.17311005 -0.059050366 -0.36762297 -0.16096497
-0.07953256 -0.18613125 -0.2578783 0.22469881 -0.119368374 0.061634343 -0.5537832 -0.4789916
0.34912676 0.7145186 0.24854472 -0.22129567 0.23624375 -0.15623274 -0.0034027633 -0.16029006

model.layers.block_0.conv.bias f4 [256]
00000000: 3796 80bd 7754 8f3c 168f 123d 5ff0 3abc
00000010: a30a 803d d964 233c 6db6 5cbc afec e43d
00000020: b017 883d eaac cd3c d56c cb3d 97bc 49bc
00000030: badc 4c3d 69ca 433e 6a08 92bc b032 9c3d
00000040: 5fc8 233e e446 6c3d 0db1 e0bd e72f 27bd
00000050: 34d3 373e a34c fcbd 9152 003e ea78 cf3c
00000060: eeab 2dbe 36fe 203e 4650 82bd fa21 713d
00000070: 2bae ecbd 5167 953d 3867 e8bb 887a bd3c
00000080: df26 823d aec3 14bd 2400 8bbb 526a 33bb
00000090: 42a7 80bd 3ded 86bc d68c b63d 749c 323c
000000a0: b758 3cbd b4f5 903c 06de ab3d 1b99 9a3d
000000b0: 4ddb 1d3c 983d 88bd f309 8e3d 75c4 83bd
000000c0: 0760 b6bc abe4 963d a3b1 aebc fa77 e13d
000000d0: 9efb cfbc 5c49 2ebe 1530 de3d b667 be3c
000000e0: cebc 153d 6beb 933d 19e8 9dbd e59f 0b3d
000000f0: 3655 433d 5342 453d c429 d33d c453 0bbe
00000100: 2ace 983c 9e28 34bd 7bd4 74bd 359d b03b
00000110: ecd3 07be 5769 b03d f8ea 9b3d f374 7a3d
00000120: cebb a5bb 83f2 0f3e 647d 883c 48f8 88bd
00000130: cd9f d4bd e5bc f5bc 6233 033d 6f06 cf3d
00000140: 4adc 2a3b 1454 523a 51cf 83ba fc8e 80bd
00000150: dd3a 3d3d 43b8 4abd fcd5 06bd 65d7 96bc
00000160: c52b 1abd f927 ebba 0c9b cb3d d329 91bc
00000170: 593c cc3d f556 c4bc 4310 51be fc2c 853d
00000180: a9a0 3a3c 1e3c f4bc 5229 11be c112 163e
00000190: bdba 1bbe 2dcc 6abd 3860 abbd ed41 e43d
000001a0: 4341 9abd 0a1c 1dbc deaa 773c d4cf 8bbd
000001b0: 529e 2a3d 81e2 81bd 283c 4abc 394d 9cbc
000001c0: 1652 b03d 9c16 a83d 136c b73d ff6b 98bd
000001d0: a293 bd3d cd76 c3bd b674 efbc 6f38 a33b
000001e0: f37c be3e 2fc5 67bd 54ef 35bc c28e 99bb
000001f0: 519f b23c b83c 0c3e 2d3a 7dbd eebc 76bc
00000200: 7f36 d73c 123e db3d 5e40 8abd f3b9 973d
00000210: cded 553c 27c0 e23c 0142 63bd e584 8e3d
00000220: cd9f 4c39 a8a4 9e3c fd88 30bd e0ec e6bd
00000230: f807 f4bb 23e3 96bd fe0f aabc 8021 2d3c
00000240: 8dab b43d 13e2 6f3d ccad 153e c32d ccbc
00000250: 3589 cd3d 18b2 8a3d 1eef 0bbc 38c2 4dbc
00000260: 5347 3fbd f190 d33c aad5 8abc 1daa 2bbd
00000270: 2b7c 9c3d 23e2 293e 48e2 d43c b9dd a33d
00000280: 7cec 003e 566d 343e 35b3 b53d f21c a63d
00000290: 1bf1 bcbd 9b65 993d b1a7 a63d c9f7 953d
000002a0: ae37 f9bc c953 97bd 25db e63a 0f44 24bd
000002b0: a29e 833d 4e4b 9bbb df98 b1bc 00b4 f73c
000002c0: 6168 b03d fbae 653e 7ed6 bc3c 8a7b 883d
000002d0: 095e 793c 7943 53bd 474b e6bc 876a b53d
000002e0: 81f6 64bc bd24 55bd bf6b a3bc ef88 6e3d
000002f0: a719 0b3d ddcc d2bd bef6 c33c a294 253e
00000300: 6e2e a63d 3d57 77bd 0f63 88bd bb72 f03c
00000310: b9ff 4c3d 190a 98bd 2a5e 573d 59df 153d
00000320: 8936 d13c 125e 223c 8f83 4cbd ca2e 933d
00000330: 17ad 15bb 1e9d 6c3c f95c febc 56ff 9d3c
00000340: aede 9a3d dad0 c73d 6147 c43d ede1 f83d
00000350: dba7 26bd 1fa7 0f3d 3e41 643c 8607 c23d
00000360: 11c2 8e3d 47e2 a13d 88b1 063e fcba 06be
00000370: 4fa7 c7bd 460c 9a3c 56c2 b23d dc38 1f3e
00000380: fd0e 1dbc 1966 7c3e 2fcb d93d 20e3 393b
00000390: b673 eb3c f8e0 3b3d 363e 463d 702e d3bd
000003a0: 80a8 473d 1626 9e3d e56f c93e 0191 9f3b
000003b0: dc25 b23a 7763 0bbe c3f3 98bd 3c4b 823d
000003c0: d639 ee3d 86f9 8a3d 7690 43bd e8f8 983c
000003d0: 7ed6 97bd fdaf 173e 9455 493d fc57 6a3d
000003e0: e616 9f3d 25c5 13bd d9ac fe3d bc99 333d
000003f0: b1f6 d83d 8a2c 26bd 3c54 f83d 9ef7 5dbb
-0.06278651 0.01749633 0.03578099 -0.011409848 0.06252029 0.009972774 -0.013471228 0.11177956
0.06645143 0.025106866 0.099328674 -0.01231303 0.05001519 0.19120182 -0.017826278 0.076268554
0.15994404 0.057684794 -0.1097127 -0.040817168 0.17951661 -0.12319305 0.12531497 0.025326211
-0.16960117 0.15721974 -0.06362967 0.058870293 -0.115566574 0.07295097 -0.0070923828 0.023129717
0.0635507 -0.036319427 -0.00424196 -0.0027376604 -0.06281902 -0.016470546 0.08913581 0.010901559
-0.045983043 0.017695285 0.08391957 0.07548734 0.009634805 -0.06652373 0.069354914 -0.064339556
-0.022262586 0.07367834 -0.021324938 0.11009212 -0.025388535 -0.17020172 0.10849015 0.023242813
0.03655701 0.07222637 -0.07710285 0.034088034 0.047688685 0.048158955 0.103107005 -0.13606173
0.018652994 -0.043984048 -0.05977295 0.0053898343 -0.13264436 0.08613842 0.07613176 0.061146688
-0.0050577885 0.14057355 0.016661353 -0.06687981 -0.10382042 -0.029997298 0.032031424 0.10108649
0.0026071244 0.0008023393 -0.0010056292 -0.06277272 0.046198715 -0.049492132 -0.032918915 -0.018413255
-0.037639398 -0.001794099 0.09941682 -0.017720139 0.09972448 -0.023967246 -0.2041636 0.06502721
0.011390843 -0.029813822 -0.14175919 0.14655592 -0.15207954 -0.057323623 -0.08367962 0.11145387
-0.07531979 -0.009589205 0.0151164215 -0.068267494 0.041654892 -0.0634203 -0.012343444 -0.019079791
0.08609407 0.082074374 0.089561604 -0.074424736 0.09256674 -0.09544144 -0.029230457 0.0049810926
0.37204704 -0.056584533 -0.011104424 -0.0046862075 0.021804484 0.13695037 -0.06182306 -0.015059693
0.026271103 0.10705198 -0.06750558 0.07408514 0.013057184 0.027679516 -0.055482868 0.06958941
0.00019514486 0.019365624 -0.043099392 -0.11275649 -0.007447239 -0.07367542 -0.020759579 0.010567069
0.08821783 0.05856521 0.1461708 -0.024924165 0.10035936 0.0677225 -0.008540897 -0.012558512
-0.04669888 0.02582595 -0.016947586 -0.04191028 0.07640871 0.1659017 0.025986806 0.080012746
0.12590212 0.17619833 0.08872072 0.0811099 -0.09225675 0.07490083 0.08137453 0.07322652
-0.030422058 -0.073890276 0.0017612918 -0.04010397 0.06426741 -0.0047392016 -0.02167934 0.030237198
0.08613659 0.22430031 0.023051497 0.06664188 0.015220174 -0.05157802 -0.028112067 0.08858209
-0.013974787 -0.05203699 -0.019948838 0.05823606 0.03396001 -0.10292981 0.023921367 0.1616998
0.081143245 -0.06038593 -0.06659519 0.029351583 0.050048564 -0.07423801 0.052580036 0.036589954
0.0255387 0.009910123 -0.04993015 0.07186659 -0.0022838765 0.0144417565 -0.031050192 0.019286793
0.07562004 0.09756632 0.09583927 0.12152467 -0.040687423 0.03507149 0.013931571 0.09474091
0.06970609 0.07904487 0.1315366 -0.13157266 -0.097487085 0.01880468 0.08728473 0.15549034
-0.009586093 0.24648322 0.10634457 0.0028364137 0.028741699 0.045868844 0.048399173 -0.103115916
0.04874468 0.07722108 0.3934318 0.0048695807 0.0013591605 -0.13612162 -0.07468369 0.06362006
0.11632125 0.06785874 -0.04774519 0.018673375 -0.07413958 0.14813228 0.04915388 0.057212815
0.077680394 -0.036076684 0.12435312 0.043847784 0.10593928 -0.04056982 0.121254414 -0.0033869515

model.layers.block_0.norm.weight f4 [256]
00000000: b8b4 9140 2a5c 8740 47cd 8a40 78cd 8340
00000010: b858 8140 ede5 6140 2270 7240 4307 8a40
00000020: 5e6d 8e40 a9f4 8b40 ea05 7740 e647 5740
00000030: da6a 8840 8ec0 8840 a744 8240 8fc4 7840
00000040: 6206 8040 d266 5d40 9dc3 8940 30fd 9240
00000050: 39d3 7440 9b83 6340 f55a 5440 a20c 8940
00000060: 4b18 6d40 a296 8440 163a 8840 3ac5 6240
00000070: a7df 8e40 54a7 7d40 764f 8f40 14e3 7440
00000080: 5fb1 8540 e98d 4140 f143 9640 bf36 7140
00000090: e8ca 6840 b81e 7340 b308 8240 bc2b 6c40
000000a0: 7220 5d40 514c 5c40 b90c 6740 a380 7740
000000b0: 153f 7640 6b62 8e40 740c 8540 df3b 5540
000000c0: c7df 7440 679b 8040 5c3f 4940 a7fd 6c40
000000d0: bbe3 7e40 8fb5 9e40 c3ed 8540 cab9 7540
000000e0: 833d 9340 d0a2 9840 4dfc 8e40 36d6 6e40
000000f0: de65 8640 a1ce 6a40 7800 8540 7e57 9040
00000100: 70da 7240 feac a040 0327 6040 7661 7740
00000110: 3ccf 9540 5f9d 7440 8959 8b40 52df 8e40
00000120: 4e87 8240 ba0d 7f40 048d 6d40 8da7 9940
00000130: 9027 6840 8cd1 9740 f5cd 4840 a9ef 4340
00000140: a2cd 8240 bc44 9140 4308 6b40 b8ff 8540
00000150: 254b 5540 8a5a 9140 7e8b 8c40 86cc 9740
00000160: 3c8c 8640 fb6e 9340 984a 7440 7c71 8640
00000170: 2649 7740 52a6 8d40 99ac 8c40 ab24 8b40
00000180: cbb9 8340 87a4 9140 2091 9540 cef7 6240
00000190: d6ad 9640 c2a0 5940 f60a 7440 8119 8940
000001a0: 6669 9d40 6113 9340 b112 8540 7f8a 8f40
000001b0: b7c8 7c40 4de5 8540 0a1d 3940 e281 8240
000001c0: 4880 6240 328a 6340 5357 9c40 0a38 8d40
000001d0: b3b7 6740 d95d 8c40 49d7 8640 997b 5340
000001e0: 3cd2 6140 4873 9c40 cab1 8040 3c4c 8c40
000001f0: 5912 7140 5ad0 a540 2768 6a40 d0cb 8040
00000200: fcf4 6e40 2687 8440 cc7b 8640 8c22 6c40
00000210: a8f7 8340 1097 8440 4819 8440 afe0 8240
00000220: 5861 8540 6813 9b40 44a9 9640 de09 8740
00000230: b54f 3540 5f3f 8d40 e348 8540 c324 8d40
00000240: b667 8640 fc48 8d40 39e7 7440 2be8 8140
00000250: a66a 9340 72f2 8d40 0d18 8740 1493 8940
00000260: 8605 8440 825a 7740 b5ed 8a40 3941 7e40
00000270: 1b59 8640 afd9 7640 c156 9540 3267 8340
00000280: e62d 7a40 e60b 8640 13ac a340 76de 8c40
00000290: c1ed 8840 1644 6b40 1c10 8140 667f 9e40
000002a0: c4a8 8240 f635 8c40 e66a 9840 268d 7c40
000002b0: ebc2 9740 b995 9840 975e 9740 5367 8c40
000002c0: 1358 8340 abcd 7940 e913 8c40 c539 7840
000002d0: 5bbe 7940 e3dc 9840 af04 8b40 375b 7240
000002e0: 6cd0 6440 5922 8d40 e2f0 8040 bd15 8c40
000002f0: c05a 7840 6f09 9940 5378 8b40 289f 5a40
00000300: bd8b 7b40 8dc0 8440 7e32 8a40 1153 9640
00000310: f906 6040 39d2 9840 7093 4f40 e249 8740
00000320: 7e21 7f40 c01e 2d40 4f2f 9f40 ac02 8840
00000330: 5731 8a40 f82d 7f40 de5a 8240 9e0a 8040
00000340: faff 6e40 9b14 8d40 d565 8140 3856 7a40
00000350: fd04 8540 bda9 8940 313e 5f40 7a5c 8040
00000360: 7df5 7f40 363b 6d40 b222 8640 4bf1 8240
00000370: 2500 7e40 8fc6 9640 ef5a 8a40 129c 9240
00000380: 3af1 8940 3d43 4240 927b 8d40 fa35 7440
00000390: c750 9540 eb5b 8a40 611e 9840 2879 5040
000003a0: 69e9 8840 8559 8440 a679 5e40 ca01 8840
000003b0: 121c 9840 3c66 7c40 33c9 7740 4379 7940
000003c0: b998 8640 efae 8240 924a 7e40 cc01 8640
000003d0: 16ef 8d40 5bdd 8e40 8219 8e40 f9b3 8e40
000003e0: 96a1 8f40 562a 8f40 854a 8740 c386 8840
000003f0: 5aae 8a40 46a1 6640 4859 7b40 608d 8040
4.5533104 4.2300005 4.3375583 4.1188316 4.04208 3.5296586 3.788094 4.3133864
4.4508505 4.3736157 3.859736 3.3637633 4.2630434 4.273505 4.0708804 3.886997
4.000779 3.4594007 4.3051286 4.5934067 3.825392 3.5549076 3.3180516 4.282792
3.7046077 4.143388 4.2570906 3.5432878 4.4648013 3.963338 4.47845 3.8263597
4.1779017 3.0242865 4.6957936 3.7689664 3.6373844 3.79875 4.063562 3.6901693
3.4551053 3.442158 3.6101515 3.8672264 3.8476002 4.449514 4.15777 3.3317792
3.8261583 4.01897 3.1444921 3.7029817 3.9826496 4.959663 4.1852736 3.8394647
4.6012588 4.7698746 4.4682984 3.7318244 4.199935 3.6688616 4.156307 4.51068
3.7945824 5.021117 3.502381 3.8653235 4.681547 3.8221052 4.3546796 4.464761
4.0790167 3.9852128 3.711732 4.801703 3.6274147 4.7443295 3.1375706 3.0615027
4.0876017 4.5396404 3.6723793 4.1874657 3.3327115 4.542302 4.392028 4.7437162
4.2046185 4.6072974 3.8170528 4.201353 3.8638396 4.426553 4.396069 4.348226
4.11643 4.551334 4.6739655 3.5463748 4.70872 3.4004369 3.813169 4.2843633
4.919116 4.5961156 4.1585317 4.4856563 3.9497507 4.184241 2.8923974 4.078355
3.5390797 3.5553098 4.8856597 4.4130907 3.620587 4.386456 4.21378 3.3044188
3.5284567 4.8890724 4.021703 4.384306 3.7667449 5.1816835 3.662607 4.0248795
3.7337027 4.1414976 4.202612 3.6896086 4.1239815 4.1434402 4.128086 4.089927
4.168133 4.846119 4.7081623 4.2199545 2.83299 4.4139857 4.1651473 4.4107375
4.20016 4.415159 3.8266127 4.059591 4.6067686 4.4358454 4.221686 4.299204
4.1256742 3.8648992 4.341517 3.9727309 4.198377 3.8570364 4.66684 4.106347
3.9090514 4.1889524 5.114755 4.402156 4.2790227 3.6760306 4.0332165 4.9530516
4.0831013 4.381587 4.763049 3.946115 4.7425437 4.7682767 4.7302966 4.387613
4.1045012 3.903178 4.3774304 3.878526 3.9022434 4.7769637 4.3443217 3.7868173
3.575221 4.410443 4.0294046 4.3776536 3.880539 4.7824016 4.358438 3.4159641
3.930404 4.1485047 4.3186636 4.69764 3.5004256 4.775662 3.2433739 4.227769
3.9864192 2.7050018 4.974525 4.250326 4.318523 3.9871807 4.073592 4.001296
3.7343736 4.4087653 4.0436807 3.9115124 4.156859 4.30197 3.4881709 4.0112886
3.9993584 3.706739 4.1917353 4.0919547 3.9687588 4.711738 4.3236003 4.5815516
4.3106966 3.035354 4.4213343 3.8157945 4.6661105 4.3237205 4.7537084 3.2573948
4.2784925 4.1359277 3.4761748 4.2502184 4.7534266 3.94374 3.8716552 3.8980262
4.206143 4.083854 3.9733014 4.1877193 4.4354353 4.464521 4.4406137 4.4594693
4.488475 4.473918 4.2278466 4.2664504 4.333783 3.6035933 3.9273243 4.0172577

model.layers.block_0.norm.bias f4 [256]
00000000: 7b5e 57bf 99aa 67bf 7cfd d8be 68a7 2cbf
00000010: e806 81bf c6f2 14bf a787 70bf 34a0 7dbf
00000020: d81c 8fbf ec6e a4bf ca68 5abf fb3e 9dbf
00000030: 26c4 48bf 23f2 48bf bf42 98bf 9e9f 8cbf
00000040: aefc 4ebf 69ad 65bf ebdb 76bf 090b 86bf
00000050: 2e3a 8abf 94b1 57bf 695e 88bf 15f0 0bbf
00000060: 2a22 1cbf 5bd5 b3bf 99a2 72bf 8c11 f6be
00000070: 899b 5dbf 5288 6abf 95d5 5bbf a312 83bf
00000080: ee11 37bf f449 55be 23a7 89bf a74c 87bf
00000090: 2dbd 51bf 40b4 54bf 2d73 7dbf 337e 61bf
000000a0: 465f 3fbf d5af 44bf a54f 5abf f53a 4ebf
000000b0: 02e7 90bf c47a 29bf 19d7 87bf a63c 67bf
000000c0: a04a 3dbf 3f03 18bf 2e3c 41bf 2203 62bf
000000d0: c82d 89bf b2f9 6ebf 8f5e 38bf 046d 31bf
000000e0: c6d5 84bf 8d28 98bf 70c7 58bf 57bd bcbe
000000f0: bc7a 31bf 24a3 63bf 03d1 4bbf 6ee0 1abf
00000100: ec8f a3bf ac34 64bf 8fed 83bf 7cc9 56bf
00000110: f623 95bf 467e 20bf f190 aabf 6c14 59bf
00000120: 348f 60bf 3ae5 66bf a509 7bbf b28e 9ebf
00000130: fb05 6ebf 4809 61bf 25f4 3abf 7928 9cbe
00000140: 1251 19bf 1e6d 17bf 5fc7 16bf 4006 89bf
00000150: 3c6b e0be f8ef 92bf 6fc7 85bf 6f3c 7bbf
00000160: 95ce b8bf c469 60bf e2de 98bf 7cd5 7ebf
00000170: 63f9 71bf 87d6 8bbf b8a0 82bf 6e58 84bf
00000180: bec8 23bf 7b9d 2fbf 4de7 8dbf 887c 63bf
00000190: 4f64 8ebf 9cf9 5ebf 3418 87bf 87f2 51bf
000001a0: a9c8 86bf d155 a7bf 797a 35bf e377 a3bf
000001b0: 5eff 98bf a747 43bf 5e7c afbe 376f 3abf
000001c0: bed5 3abf 86ab 00bf 2f05 37bf 095e 89bf
000001d0: 7fad 76bf fdb0 85bf a25b 45bf 5237 02bf
000001e0: 4c59 acbe 60fc 47bf 3677 51bf cfea 88bf
000001f0: cd40 17bf b104 93bf b4ca 49bf 9758 7dbf
00000200: b3c0 7abf 3a0b 32bf ef4d 11bf c39f 4cbf
00000210: 9fa0 61bf 11dd 97bf a417 5abf 304a 7bbf
00000220: 574b 53bf 35ac 4dbf 7670 74bf 0e5f 5dbf
00000230: eed2 0bbf 41a7 76bf 3c8e 73bf 0d9e 43bf
00000240: 5e91 96bf 4301 9cbf eff7 b5bf d1ae 8dbf
00000250: 0cf8 9abf 30b4 87bf 2e89 81bf d5bb 8dbf
00000260: 206d a3bf 706d 38bf 554f 14bf 7a91 94bf
00000270: cab1 90bf 834c 2abf c5ad 84bf 90b3 59bf
00000280: 7d2e 7bbf 3f3a 52bf a310 bcbf 0656 b4bf
00000290: d606 a7bf 5ae3 2fbf 4559 01bf 00d8 95bf
000002a0: 4551 8fbf 4ae2 53bf 20f5 a8bf 3ad1 56bf
000002b0: 7908 7cbf 53fc 53bf a5ef 7fbf 84e8 86bf
000002c0: 8b28 43bf 23dd 8bbf 1d63 83bf 5434 48bf
000002d0: 30c2 84bf b7f8 74bf 6426 91bf b4b2 41bf
000002e0: 145e 97bf 9e5c 66bf 94ee 68bf 25bb 48bf
000002f0: 3e00 4abf abb0 95bf fa28 85bf d0fe 08bf
00000300: f9e3 56bf ff48 54bf 269f a5bf db51 bcbf
00000310: 8b31 86be 3a97 a9bf 2390 33bf 40e6 36bf
00000320: 0e15 35bf 95f7 3cbf c03a 87bf 4c43 20bf
00000330: eb62 89bf 0703 71bf a3a8 2dbf 801d 8cbf
00000340: fece e7be c968 64bf 59b8 2cbf 9b0f 74bf
00000350: 5751 8cbf 8eba 9fbf b909 34bf 5dee 78bf
00000360: ade8 53bf 010f f1be ff6a 8ebf dcd6 24bf
00000370: 22d9 6dbf cbc5 5dbf 4f5a f0be 5348 35bf
00000380: 4565 25bf 1cd3 a3be f028 89bf b798 4bbf
00000390: 4c41 62bf 4358 40bf c380 bbbf afcc 36bf
000003a0: ec87 81bf 1c6c 75bf 2502 0fbf 7aea 82bf
000003b0: 370c 05bf 9050 0cbe cd10 7bbf a407 7dbf
000003c0: ae3e 49bf ac5d 4cbf 8bb6 bfbf 8e59 13bf
000003d0: 8345 a4bf 3e80 89bf 8f4a 94bf 92d6 68bf
000003e0: 0755 a5bf 6503 99bf dad8 98bf eeb3 67bf
000003f0: 5079 3dbf 4dc9 4bbf 68fb 59bf e290 80bf
-0.8412854 -0.90494686 -0.42380893 -0.6744294 -1.0080233 -0.5818294 -0.9395699 -0.99072576
-1.1180677 -1.2846351 -0.85316145 -1.2284845 -0.784243 -0.7849447 -1.1895369 -1.0986211
-0.8085431 -0.8971773 -0.9642932 -1.0472118 -1.0799005 -0.8425534 -1.0653812 -0.5466321
-0.6098963 -1.4049486 -0.94779354 -0.48060262 -0.8656545 -0.9161426 -0.85872775 -1.0240062
-0.71511734 -0.20828992 -1.0754131 -1.0570267 -0.81929284 -0.8308754 -0.9900387 -0.8808319
-0.7475475 -0.768308 -0.8527778 -0.8055871 -1.1320498 -0.6620295 -1.0612518 -0.9032692
-0.73941994 -0.59379953 -0.7548245 -0.8828603 -1.0717096 -0.93349755 -0.72019285 -0.6930697
-1.0377738 -1.1887375 -0.8467932 -0.36863205 -0.693279 -0.8892081 -0.796158 -0.604987
-1.2778296 -0.8914287 -1.0306872 -0.8390119 -1.16516 -0.6269268 -1.3325483 -0.84796786
-0.8771851 -0.9019352 -0.9806159 -1.2387297 -0.92977875 -0.8790479 -0.73028785 -0.30499628
-0.5988933 -0.59150875 -0.58897966 -1.0705032 -0.43831813 -1.1479483 -1.0451487 -0.9813909
-1.4438044 -0.87661386 -1.1943018 -0.995445 -0.9452116 -1.0924844 -1.0205297 -1.0339487
-0.63978183 -0.6859967 -1.1086212 -0.88861895 -1.1124362 -0.87099624 -1.0554261 -0.8201069
-1.0529987 -1.3073064 -0.70890003 -1.2770962 -1.1952932 -0.7628121 -0.34274572 -0.7282595
-0.72982395 -0.50261724 -0.71492285 -1.0731822 -0.96358484 -1.0444638 -0.77092946 -0.5086566
-0.33661878 -0.7811947 -0.81822526 -1.0696658 -0.59083253 -1.1485807 -0.78824925 -0.989633
-0.97950286 -0.6954838 -0.5675954 -0.7993128 -0.88135713 -1.1864339 -0.8519232 -0.98160076
-0.82536834 -0.8034089 -0.954841 -0.86473167 -0.5461873 -0.9634896 -0.9513891 -0.7641304
-1.1763113 -1.2187885 -1.4216288 -1.1068975 -1.2106948 -1.0601864 -1.0119989 -1.1072947
-1.2767677 -0.7204199 -0.5793355 -1.1606896 -1.1304257 -0.66523 -1.036553 -0.85039616
-0.9811781 -0.82120126 -1.4692577 -1.4088752 -1.3048961 -0.68706286 -0.5052684 -1.1706543
-1.1196676 -0.82767165 -1.3199806 -0.83913004 -0.9845043 -0.8280689 -0.99975044 -1.0539708
-0.7623374 -1.092686 -1.0264622 -0.78204846 -1.0371761 -0.9569201 -1.1339841 -0.75663304
-1.1825585 -0.8998507 -0.9098904 -0.7841056 -0.7890662 -1.169454 -1.040313 -0.53513813
-0.8394161 -0.82923883 -1.2939193 -1.471248 -0.26209673 -1.3249276 -0.7014181 -0.71445084
-0.7073525 -0.7381528 -1.0564804 -0.62602687 -1.0733312 -0.94145244 -0.67835444 -1.0946503
-0.4527511 -0.8922239 -0.6746879 -0.9533631 -1.0962323 -1.2478807 -0.70327336 -0.97238714
-0.8277691 -0.4708176 -1.1126403 -0.6439035 -0.92909443 -0.86629933 -0.469439 -0.70813483
-0.6460765 -0.31997 -1.0715618 -0.795299 -0.88380885 -0.75134677 -1.464867 -0.7140607
-1.0119605 -0.95868087 -0.5586265 -1.0227807 -0.51971763 -0.13702607 -0.9807251 -0.98839784
-0.78611267 -0.7983043 -1.4977583 -0.57558525 -1.2833713 -1.0742261 -1.1585253 -0.9095241
-1.2916573 -1.1954161 -1.1941178 -0.90508926 -0.74013233 -0.79604036 -0.8514924 -1.0044215

model.layers.block_0.norm.running_mean f4 [256]
00000000: b56f 7abf 508d 72bf dae1 b5be d9ab 34bf
00000010: d2ee 63bf 9e43 25bf 2008 9dbf 0ef2 ddbe
00000020: ab98 85bf c069 b7bf 9fd8 6bbf 9b1a bebe
00000030: 4b17 39bf a2e5 f0be 3fb6 9cbf 964c a4bf
00000040: 825a 1bbf 1ed5 32bf 3d4b 4ebf f484 61bf
00000050: 5c0e cdbe b50c 94bf e841 b93c abf7 10bf
00000060: 4d91 a8bf dff7 b1bf 25db 7ebf 4f07 b6be
00000070: 2bcc 49bf a7ad 37bf fdfb 55bf 4419 99bf
00000080: 3165 32bf e2d0 85bf 7147 9abf d4a4 9abf
00000090: 3144 11bf 2c8f 6cbf 28ff 3bbe 0c99 a1bf
000000a0: 4bd0 14bf d401 4abf fafe 70bf 3b7f 1dbf
000000b0: 25b7 23bf abea 19bf d0ad 93bf d394 9abf
000000c0: cf02 65bf c9d9 eebe cce1 b3be 35d2 79bf
000000d0: 19cb 98bf 091d 7dbf 9e0c 24bf 1161 3ebf
000000e0: 36af 84bf a0cb 7abf 0f3b 73bf 3f79 a3be
000000f0: cab1 86be a92e 9dbf 7852 40bf 8cec 49bf
00000100: be3f abbf 1736 1fbf 4018 a8bf a002 69bf
00000110: e372 82bf d0da 23bf 40dc a3bf 8040 47bf
00000120: 4061 75bf a299 2bbf 6597 a8bf a423 a6bf
00000130: 6db9 1fbf a1d3 41bf 4a90 94bf 6157 b5bf
00000140: a635 29bf f7b6 d9bd aa8c 41bf ae68 8bbf
00000150: 517f 6ebf c75f 21bf c731 72bf 9967 cbbe
00000160: e417 a8bf c112 4abf 646d 9abf fb30 83bf
00000170: 0c37 51bf 84f1 9abf a9bf 8dbf a660 71bf
00000180: 5831 1ebf 4edc 10bf d9cc 96bf 912c 71bf
00000190: 6483 8bbf 8754 b4bf 10bf babf 0d09 bbbe
000001a0: c655 82bf 1948 9abf 4ecf 2bbf 90d0 acbf
000001b0: f33f 9cbf caff 66bf 3844 80bf fd51 48bf
000001c0: 7e5d b2bf 831c ebbe 55c4 f8be 1055 94bf
000001d0: d94d 70bf 6282 9dbf bfbd 2fbf 7217 d4be
000001e0: f6bf 7ebe 4016 4bbf 5eb5 ddbe be0e 91bf
000001f0: 524d 26bf aeb0 73bf 0273 7cbf 6994 8cbf
00000200: 7ad6 97bf 12d3 a0be 63d5 01bf fd87 69bf
00000210: a8f3 68bf c837 a9bf 4cf3 37bf 3686 6cbf
00000220: a954 28bf 8a1f 15bf 8a25 60bf 24b1 82bf
00000230: bcb5 4cbe fdb4 75bf 3100 88bf 0f9a 13bf
00000240: 12d5 fbbe 7526 90bf a544 8dbf 0e47 80bf
00000250: ca4d 88bf f02f 7fbf 96f0 95bf c1d5 90bf
00000260: f3b1 fbbd 9495 54bf 51b2 11bf c9a4 bbbf
00000270: 4d0c 90bf 40b3 fdbe c14f 5dbf 031b 6cbf
00000280: 77f5 75bf 7c4b 3cbf 59c3 acbf 0f5c ccbf
00000290: db8d b0bf b33e 09bf 94b2 c2be e6e2 88bf
000002a0: c9f3 a4bf b0b8 71bf 59dd a8bf ab88 17bf
000002b0: 1ee6 67bf 29c3 3fbf 673c 82bf 060d 68bf
000002c0: 848f 1cbf bc47 78bf 58b8 81bf b919 81be
000002d0: b7e0 8dbf b76d 55bf d22e 94bf 96fc a9be
000002e0: 51b4 d6bf bdfd 55bf 90de 5dbf f877 40bf
000002f0: 054d 2bbf 9e35 8dbf a343 97bf d0d5 8bbe
00000300: b1bc 44bf 12e7 67bf 44c6 bfbf 49d7 b2bf
00000310: e643 19bf fa6b b5bf 2d1d 77bf 5cc7 13bf
00000320: e7ef 0ebf 3516 003f a14d 87bf 04bf 1ebf
00000330: 531c 8ebf 13f8 61bf 4876 34bf 2d18 a1bf
00000340: 3919 98be a04c 1abf e7df 1dbf 8c13 7ebf
00000350: d57e b1bf 145e a1bf f7dd 2ebf 6558 72bf
00000360: deaf 5cbf 9952 cdbe 8349 88bf f4a1 09bf
00000370: c2fa 9fbf 421f 68bf 546c a4be 6398 09bf
00000380: 868a 32be ffc9 40bf cf98 7fbf fa7a 0dbf
00000390: a880 26bf 19fc 20bf 4ea2 98bf d4f9 58bf
000003a0: 67f3 8abf 05df 01be 22e1 b0be 4eaa 82bf
000003b0: 3ff1 7bbe b2f0 37bf 0a3a 9bbf 208f 95bf
000003c0: 1369 7cbe 49bd 18bf 1a45 41bf 28a2 b3be
000003d0: fc4e adbf b602 04bf 5e99 17bc 51ad 7abf
000003e0: 0ccf 9fbf bb9a a5bf 614a 99bf bffd 3cbf
000003f0: ed1b 12bf 830a 4cbf 2b1b 2fbf a79c 6dbf
-0.978267 -0.94746876 -0.35523874 -0.7057472 -0.89036286 -0.645563 -1.2268105 -0.43348736
-1.0437216 -1.4329147 -0.9212741 -0.37129673 -0.7230117 -0.47050196 -1.2243117 -1.2835872
-0.6068498 -0.6985644 -0.80583555 -0.88093495 -0.40050018 -1.1566378 0.022614434 -0.5662791
-1.3169342 -1.3903769 -0.9955314 -0.3555245 -0.7882716 -0.7174935 -0.8358763 -1.1960835
-0.69685656 -1.0454371 -1.2053052 -1.2081552 -0.56744677 -0.9240596 -0.18359053 -1.2624831
-0.5813033 -0.7890904 -0.94139063 -0.61522263 -0.6395133 -0.601237 -1.1537418 -1.2076668
-0.8945741 -0.46650532 -0.35133207 -0.97586375 -1.193698 -0.9887243 -0.6408175 -0.7436686
-1.036597 -0.9796696 -0.9501199 -0.3192844 -0.26307517 -1.2279865 -0.7512584 -0.78876567
-1.3378828 -0.6219191 -1.31324 -0.9101963 -1.0191311 -0.64005756 -1.280159 -0.77832794
-0.95851517 -0.670313 -1.3171202 -1.2979627 -0.6239231 -0.75713545 -1.1606534 -1.4167291
-0.66097486 -0.10630601 -0.7560526 -1.0891321 -0.9316302 -0.6303677 -0.94607204 -0.39727476
-1.3132291 -0.78934866 -1.2064633 -1.0249323 -0.8172462 -1.2104955 -1.1074115 -0.942881
-0.6179404 -0.5658616 -1.1781265 -0.9420863 -1.0899472 -1.4088296 -1.4589558 -0.36530343
-1.0182426 -1.2053252 -0.67113197 -1.3501148 -1.2207016 -0.90234053 -1.0020819 -0.78250104
-1.3934782 -0.4592019 -0.4858729 -1.1588459 -0.93868786 -1.2305415 -0.68648905 -0.41424137
-0.24877915 -0.79330826 -0.43302435 -1.1332624 -0.6496173 -0.95191467 -0.9861299 -1.0982791
-1.1862328 -0.31411034 -0.5071623 -0.91223127 -0.9099679 -1.3220148 -0.71855617 -0.9239229
-0.6575418 -0.5825125 -0.8755728 -1.0210309 -0.19991201 -0.9597929 -1.0625058 -0.5765695
-0.49185997 -1.1261736 -1.1036574 -1.0021684 -1.0648739 -0.9968252 -1.1714046 -1.1315233
-0.122898005 -0.8304074 -0.56912714 -1.4659663 -1.1253754 -0.4955082 -0.8644982 -0.92228717
-0.96077675 -0.7355268 -1.3497115 -1.5965594 -1.3793291 -0.53611296 -0.3802687 -1.0694244
-1.2886897 -0.94422436 -1.319255 -0.59192914 -0.90585506 -0.74907166 -1.0174683 -0.9064487
-0.6115649 -0.9698446 -1.0134382 -0.25214937 -1.1084203 -0.83370537 -1.1576788 -0.3320052
-1.6773778 -0.835903 -0.8666773 -0.7518306 -0.669144 -1.1031988 -1.1817516 -0.27311563
-0.7685042 -0.9058696 -1.4982381 -1.397195 -0.5986923 -1.4173577 -0.96528894 -0.57726073
-0.5583481 0.50033885 -1.0570565 -0.62010217 -1.1102394 -0.88269156 -0.7049298 -1.2585503
-0.29706743 -0.6027317 -0.6166977 -0.99248576 -1.3866831 -1.2606835 -0.6830744 -0.9466613
-0.8620585 -0.4010208 -1.0647434 -0.53762746 -1.24984 -0.90672696 -0.32113898 -0.5374815
-0.17435655 -0.7530822 -0.9984254 -0.5526577 -0.65040064 -0.6288467 -1.1924531 -0.8475621
-1.085553 -0.12682731 -0.34546763 -1.0208223 -0.24603747 -0.71851647 -1.2127087 -1.1684303
-0.24649458 -0.59663826 -0.75496066 -0.35084653 -1.3539729 -0.51566637 -0.009252874 -0.9792071
-1.2485061 -1.2937845 -1.1975824 -0.73824686 -0.5707386 -0.7970354 -0.6840083 -0.9281716

model.layers.block_0.norm.running_var f4 [256]
00000000: 4b24 e341 c928 c541 712a ba41 c8a4 c441
00000010: 8a4c be41 f35e f141 1b39 d841 c47a c741
00000020: e8a3 da41 85b8 d541 ac30 c841 a42c ab41
00000030: 2967 dc41 9125 d441 0365 ae41 c35e dc41
00000040: 1f59 b641 7f72 da41 c820 dd41 4497 d241
00000050: c31d ba41 df2f b541 dbc3 b941 981c d541
00000060: c22b cc41 93d2 d941 7492 bd41 40e9 c941
00000070: 29f6 b341 1f7f b241 f3b8 c141 eeb1 dc41
00000080: 9643 c441 2615 e741 7eb2 f641 bc89 ca41
00000090: 28dc c041 d06f bd41 013c d141 7e0a f541
000000a0: eb3d d741 5985 d041 d410 db41 a02d d041
000000b0: 6c28 c241 e4fa a841 38f3 d141 543d e441
000000c0: 933b c241 f49d c641 5e47 ae41 bcf4 ef41
000000d0: 6447 c241 b715 d241 71cb dc41 4ba2 d541
000000e0: a843 ee41 9557 c141 2ff9 e641 f921 c241
000000f0: b9d5 b141 e8a4 0342 6416 e241 d3f8 dd41
00000100: b452 e441 e9c7 fe41 069a ae41 61fb d841
00000110: d38e c141 e9bf d941 bbda da41 adb3 b941
00000120: 0aab ba41 ee58 bf41 d53c e041 980f db41
00000130: 5793 ab41 fefc c641 f825 f041 0e43 8f41
00000140: 9382 bd41 c3f0 c941 9bb9 e141 9d73 c041
00000150: 4d6e da41 7d63 d041 27a0 cd41 dd19 b041
00000160: ebca c341 437a d241 0cc1 c441 c59e c841
00000170: ccff b441 5835 d841 d2b3 b941 d69d ab41
00000180: ac1c dc41 597c e741 7da5 b841 8fe7 b641
00000190: 6fb1 d141 c63a b041 6078 f641 4562 da41
000001a0: cc04 d141 f447 e241 4b54 cd41 3a65 cf41
000001b0: 2825 0542 c264 f241 b705 a741 1a85 e941
000001c0: 3420 c641 0eed b541 a1b5 cf41 976a d041
000001d0: cfb7 c941 ede5 a641 6362 b541 190f bb41
000001e0: 26ce bc41 c210 e741 9245 c941 9419 c941
000001f0: 863d de41 574c e441 c2c1 b941 dd1e d941
00000200: 54c4 d341 919f d741 42de b941 b919 c741
00000210: 9a6a c041 b7e1 d641 6d53 dd41 7258 c641
00000220: de14 d741 793b bb41 9ae6 c341 1825 d141
00000230: be7c bb41 8805 b741 1842 c941 047f cf41
00000240: 31b6 d341 fd20 d441 32ff da41 582e c741
00000250: 7c56 c641 ca51 be41 6f15 e441 ee91 da41
00000260: ae56 ef41 c324 c341 d426 cd41 a504 f141
00000270: a2d0 b241 8d73 8b41 9f21 fa41 3731 da41
00000280: f0f9 d541 a64c d441 78c2 0642 f7dd f941
00000290: 420b ca41 9fc5 8641 e9c5 c041 670e e241
000002a0: cfcb c041 3ee2 e241 5749 f041 7f2b b441
000002b0: e1ce cb41 f794 c241 7907 ea41 30f3 cf41
000002c0: 0bd5 b841 8451 bd41 883c cd41 5b58 d441
000002d0: 7aa7 cb41 69c6 d441 d097 b741 767e bc41
000002e0: 5541 d941 57a8 b141 cf4a a741 6648 e841
000002f0: 4fc8 a841 646f db41 82f3 e641 f9b8 8841
00000300: 18d3 d741 29cf dd41 8a0c d541 1f1d cd41
00000310: 9ec7 b941 8dc8 e141 5397 ea41 3ccf d141
00000320: cbca b241 e7f1 bd41 d194 eb41 4bad e041
00000330: d28a c941 2102 c641 ada8 bc41 6220 d641
00000340: a2c1 e241 c9dd b841 e5a5 ba41 8e46 b741
00000350: 7c9b ef41 5a4d bf41 9092 c541 0db1 c241
00000360: 4ff4 e141 1ef7 a441 e350 d241 a684 d741
00000370: 6b58 c641 bcb4 e241 2139 ba41 84e2 ea41
00000380: 0fd9 e141 c05a bc41 f7ac c641 bde8 c741
00000390: 3a1b ed41 15ff c741 2a74 bf41 2123 f041
000003a0: a42f c241 519d d341 1384 b941 3120 b541
000003b0: b767 d741 8ed0 cd41 a1cc cc41 1771 e141
000003c0: 85ed d441 1680 be41 9240 9241 1f16 c041
000003d0: 4f14 bf41 19b5 ca41 89b1 d841 c642 0042
000003e0: ec20 ca41 0ff7 d241 f4ba c441 3758 c441
000003f0: 8206 af41 eaf3 ad41 9bdc b741 9cb8 be41
28.392721 24.644915 23.270723 24.58046 23.787373 30.171362 27.027884 24.934944
27.330032 26.715097 25.023766 21.396797 27.550371 26.518343 21.799322 27.54627
22.793516 27.305906 27.641006 26.32386 23.264532 22.648375 23.220633 26.638962
25.521366 27.22782 23.69651 25.238892 22.495195 22.31207 24.215307 27.58688
24.533 28.885326 30.837154 25.317253 24.107498 23.679596 26.154299 30.630123
26.905233 26.065111 27.383217 26.022278 24.269737 21.122505 26.24376 28.529945
24.279089 24.827126 21.784847 29.9945 24.284859 26.260603 27.599337 26.704245
29.783035 24.167765 28.871672 24.266588 22.229357 32.91104 28.260933 27.746496
28.540382 31.847612 21.825207 27.122744 24.194738 27.218706 27.356802 23.212732
23.333515 23.918423 28.029703 27.382614 21.446943 24.873531 30.01854 17.907742
23.688757 25.24256 28.215628 24.056452 27.303858 26.048578 25.7032 22.012629
24.474081 26.309698 24.594261 25.077524 22.6249 27.026047 23.212803 21.452068
27.514 28.935717 23.080805 22.863066 26.211637 22.028698 30.808777 27.297983
26.127342 28.285133 25.666159 25.924427 33.286285 30.299198 20.87779 29.189991
24.765724 22.74075 25.963686 26.052046 25.21475 20.862268 22.67304 23.382372
23.600658 28.883183 25.15897 25.13749 27.78004 28.537275 23.219608 27.14007
26.470863 26.952913 23.233524 24.88756 24.052052 26.860212 27.665735 24.793186
26.88519 23.40404 24.487598 26.143112 23.43591 22.8777 25.157272 25.93702
26.46396 26.516108 27.374607 24.897629 24.792229 23.789936 28.510466 27.321255
29.917324 24.39295 25.643959 30.127268 22.351871 17.431421 31.266417 27.27403
26.74704 26.537426 33.68991 31.233381 25.255497 16.846495 24.096636 28.257032
24.099516 28.36047 30.03581 22.521238 25.476015 24.322737 29.253649 25.993744
23.104025 23.664803 25.654556 26.543142 25.456776 26.59688 22.949127 23.561749
27.1569 22.207197 20.911528 29.03535 21.097807 27.42939 28.8689 17.090319
26.978073 27.726152 26.631123 25.63922 23.22247 28.222925 29.323889 26.226189
22.34902 23.743116 29.447664 28.084616 25.192783 24.75104 23.582361 26.765812
28.344547 23.108294 23.331003 22.90945 29.95092 23.91277 24.696564 24.33645
28.244291 20.620663 26.289495 26.93977 24.793173 28.33825 23.277895 29.360603
28.230986 23.544312 24.834455 24.988642 29.638294 24.999552 23.93172 30.017153
24.273262 26.451815 23.18949 22.640718 26.925642 25.726833 25.599916 28.18022
26.615976 23.812542 18.281528 24.010801 23.884916 25.338427 27.086687 32.06521
25.266075 26.370634 24.591286 24.543074 21.878178 21.744099 22.982718 23.840141

model.classifier.weight f4 [54, 256]
00000000: 6cd5 e13d 2cea 0bbe 1ce9 57bf d61b 863f
00000010: 5f23 693f 13e6 9b3e ae96 25be e572 2d3f
00000020: 783c 913c e603 c3bd 375f 87bf a799 373e
00000030: 7d50 2cbc 27f8 b83e 5a74 9abf 22e9 933e
00000040: 1e3c c0bd e922 953c fc2d a6be 033f f4be
00000050: 7cd1 e9be e59d 64bf a757 323f 4427 103f
00000060: 6d8e da3d d7c2 f83e 0154 05be 890d 2fbf
00000070: 78f9 9abf 3db3 b3be 3564 1c3f a5c6 1abe
00000080: 04cb d8bf 0ee9 20be 19e6 ccbe 60b0 a73f
00000090: 0da1 1ebe b146 183f 9e4d 583f 7329 7f3f
000000a0: d2f6 ef3d 75dc a4be af7f 0e3f a2e7 7f3f
000000b0: cbdf 37bd 83f1 02bf ca3a 3c3f 31bf 8abe
000000c0: 7f2a 443f 8bae 10bf 7aeb b23e 64f7 893e
000000d0: 78b5 9ebf d6f5 2c3f 1736 883e b67c 96be
000000e0: 321a b5be 0aa5 76bf 98a9 d8bf f420 cb3e
000000f0: a35b 483e df68 853f d8b0 e2be 1766 e3bf
00000100: c813 063f 07a3 2b3f 89b3 d23e 84f6 49bb
00000110: 3565 71bd 066a 47bf 0eab dfbf 80db 943e
00000120: 96e7 313f bdc8 01bf fa0b 733d a47c 87bd
00000130: b755 283f 0055 1f3f df14 7fbe 6e8a a53e
00000140: ae0f f0be 5e7f 4abe 81d9 153e a2fe ef3e
00000150: 0398 88be 08b0 c9bf bb0b 81bf ecfe 78be
00000160: 48e7 46be 3e91 d4be 0e5a 693f fc79 c7be
00000170: dd4b b03c 77c5 3f3f ec66 d3bf a384 b5be
00000180: 2f39 bebe c5cb 74bf 2dc1 1e3e 1953 9dbe
00000190: 685c 3ebf e0f1 743e 61cd 0d3f 54e2 5fbe
000001a0: 220d e7bf 9a6d 37be 728d 9bbf a7af 09bf
000001b0: 5c6b fd3d e780 f73d b078 0e3f 0e41 f43e
000001c0: e573 053f 58d3 7dbe 5e31 c43d 9f3a afbf
000001d0: 8035 debe fe70 bd3e bf40 cdbd fad4 2d3f
000001e0: 8720 e93e d70e c4bf 9dcd 353e 7038 52bf
000001f0: ccfa 91bf 89b0 e5bc c4a3 31bd f286 82bf
00000200: 0a28 463e 8158 913f 1636 a53f 7ddd cdbf
00000210: b1f1 393e e39b f7be c401 a63d 6bfc 8dbf
00000220: 9ccb 5fbd 897d 1d3f bfe8 493f e9ac 563e
00000230: f183 213e 277e 11c0 bd00 09bf 18e5 df3e
00000240: c4c8 6b3d ebbf e1be 94c0 403e 76db e3bd
00000250: c767 bb3d 13ce 7d3f df91 523f 614a 063f
00000260: 18aa b13e 6be5 5b3f 0272 873e 994e a33d
00000270: 2113 a4bf 8fcf 0ebf 4a65 eebf 02b2 6f3e
00000280: d26a d7be 2d6c a0bf a799 b93e 5d30 2b3f
00000290: 3ed1 d4be 183e 2ebf 4591 343f 69ab e5be
000002a0: c485 5a3e 0c04 3f3f f5f2 2e3e 8544 c43e
000002b0: 9448 ac3d 8373 00bf 3b7b 14be 72d8 50bf
000002c0: 9f33 b53e 4b28 1cbd befb b6be d8b4 d73c
000002d0: f820 58be bb02 ca3e f2b6 313f 853d b03e
000002e0: c3cd 613f 1612 cb3e 015b ec3b 0da4 2a3c
000002f0: 9670 73bf 6e12 5d3e c6bc 553f faf0 8d3c
00000300: dd3b 903f 8cd6 89bf f427 86bf e7b0 c6bf
00000310: bd3f 94bd 0fec 53bf c567 483f 95ac ba3e
00000320: f9bb f23e 6d62 6a3e 7617 fdbe 433a 8b3e
00000330: 9c3c e0be 1471 90bf 3fe2 413d 878d 093e
00000340: 634a 143e db26 8abe a416 b43d f9d4 08bf
00000350: d226 67bf b71d 9e3e 4e8c 043d 9591 acbf
00000360: 888f 663f 902e c8bd 5e72 d63e 4ca4 ba3e
00000370: 2839 b9bd bbcc 82bf 6f29 b13d bf38 353f
00000380: b1b8 1b3f e742 ff3a d7df 6cbf 3d56 203e
00000390: 77ba 07bf cfcc 883d 76da a0be f15c fd3e
000003a0: c376 10bf c4d5 303f 94f2 bd3e e12a 48be
000003b0: 792d 063d eb75 993e a687 283f 7231 cb3e
000003c0: 4b0b 87bd 8dbf 1abf 4ac4 5d3f a8f7 d43e
000003d0: 5556 113f a119 863d d69c 3d3f c6a5 d73e
000003e0: 1948 923e ff46 a13e 0c88 3dbf 5e00 c4bf
000003f0: c50b 073f e318 c1bd 3bc4 473f 5b97 863d
0.11027035 -0.13663548 -0.8434007 1.0477245 0.91069597 0.3044897 -0.16170761 0.6775344
0.017729029 -0.09522228 -1.0575932 0.17929707 -0.010517237 0.36126825 -1.2066758 0.28888804
-0.093864664 0.018205123 -0.32456958 -0.47704324 -0.45667636 -0.8930343 0.69664997 0.56309915
0.10671697 0.4858615 -0.13020326 -0.6838003 -1.2107382 -0.35097685 0.61090404 -0.1511484
-1.6936955 -0.15713903 -0.400193 1.31007 -0.15491123 0.59482867 0.84493434 0.9967262
0.11716999 -0.32199445 0.5566358 0.9996282 -0.04489116 -0.5114977 0.73527205 -0.27098992
0.76627344 -0.5651633 0.3494528 0.26946557 -1.239913 0.67562616 0.26603767 -0.29392022
-0.35371548 -0.9634558 -1.6926756 0.3967358 0.19566207 1.0422629 -0.44275546 -1.776553
0.52373934 0.67045635 0.411526 -0.00308171 -0.05893441 -0.77896154 -1.7474077 0.29073715
0.69494 -0.5069693 0.059337594 -0.0661557 0.6575579 0.62239075 -0.24910305 0.32332176
-0.46886963 -0.19775149 0.14633752 0.46873957 -0.26678476 -1.5756845 -1.0081705 -0.24315995
-0.19424164 -0.4151706 0.9115304 -0.38960254 0.02152055 0.7491068 -1.6515784 -0.35452756
-0.37153003 -0.9562343 0.15503378 -0.3072746 -0.7435975 0.23920393 0.5539151 -0.21863681
-1.8050883 -0.17912903 -1.2152541 -0.5378365 0.12373993 0.12085133 0.55652905 0.47705883
0.52129966 -0.24787652 0.095797285 -1.3689765 -0.43400192 0.3700027 -0.10022115 0.679031
0.4553263 -1.5317029 0.17754216 -0.82117367 -1.1404662 -0.02803828 -0.04336907 -1.0197432
0.19351211 1.1355134 1.2907131 -1.6083218 0.18158604 -0.4836112 0.081058055 -1.1092657
-0.054637536 0.61519676 0.7887077 0.20964397 0.15772988 -2.2733247 -0.5351675 0.43729472
0.057564512 -0.44091734 0.18823463 -0.11125843 0.09150653 0.9914257 0.8225383 0.52457243
0.34700084 0.8589694 0.2645417 0.07973976 -1.2818338 -0.5578546 -1.8624661 0.23407748
-0.42073685 -1.2533013 0.3625004 0.6687067 -0.4156589 -0.680635 0.70534164 -0.44857338
0.2134009 0.7461555 0.17084868 0.38333526 0.08412281 -0.50176257 -0.14500134 -0.8158027
0.35390946 -0.038124364 -0.3573894 0.02633135 -0.21106327 0.39455208 0.6941978 0.34421936
0.8820459 0.39662236 0.007212997 0.010415089 -0.9509367 0.21589062 0.8349117 0.01732682
1.1268269 -1.07686 -1.0480943 -1.5522736 -0.072387196 -0.8278207 0.7828334 0.36459795
0.47409037 0.22889109 -0.49431962 0.27192888 -0.4379624 -1.1284509 0.047334906 0.13432895
0.14481501 -0.2698277 0.08793381 -0.5344997 -0.9029361 0.30882046 0.032360367 -1.3481928
0.9006276 -0.09774506 0.4188413 0.36453474 -0.09044105 -1.0218729 0.08650481 0.7078971
0.6082869 0.0019474895 -0.9252905 0.15657897 -0.530189 0.06679689 -0.31416672 0.4948497
-0.56431216 0.6907618 0.37099135 -0.19547607 0.03275821 0.29972777 0.65831983 0.3968616
-0.06593951 -0.60448533 0.8662764 0.41595197 0.5677236 0.06547857 0.7406744 0.42118663
0.2857063 0.31499478 -0.74035716 -1.5312612 0.52752334 -0.09428575 0.780338 0.065718375

model.classifier.bias f4 [54]
00000000: f7d9 563e 0425 7cbb 75aa 3dbe 55bc 05be
00000010: 683b 66bd 0043 bebb e6ff 293e d191 7dbe
00000020: c557 a1be 3f63 783e 56ab 0f3f d870 95bd
00000030: e8fd a03d 08d7 ca3e 76ff 75be 836d 91bd
00000040: 561c 223d 0bf4 1cbf 285b 8e3e 7a3b 353e
00000050: 46ae db3c afef e73e 1bc2 a5be 9e02 863d
00000060: e728 593d 536d aabe 5ae2 79be 2491 d0be
00000070: 6668 8e3d c0bf e83d 676d 84be ea88 d43e
00000080: 8d3b 9bbe e2ba abbe 4f1b 2a3d 0754 b6be
00000090: b001 68bc 62dd 04be a749 3a3e caf4 05be
000000a0: 496e 093d aea1 ad3e 6d47 aa3c e8ac da3d
000000b0: dd39 033e cadd 013f fcb2 5abe 9fd5 15be
000000c0: 51b6 9f3e bfc1 2fbc 6b9a 69bc 232c 543e
000000d0: 95e9 2bbf bf8c ae3c
0.20981584 -0.0038474211 -0.18522055 -0.13060124 -0.056208998 -0.005806327 0.16601524 -0.24762656
-0.31512275 0.2425661 0.5612081 -0.07296914 0.07860929 0.3961718 -0.24023232 -0.07100966
0.039577805 -0.6130988 0.27803922 0.1769847 0.026816498 0.45300052 -0.32374653 0.06543468
0.053017523 -0.33286533 -0.24402753 -0.40735734 0.06953506 0.113646984 -0.25864717 0.41510707
-0.3031887 -0.33541018 0.04152995 -0.35610983 -0.014160559 -0.12975076 0.18192159 -0.13081661
0.03355244 0.33912414 0.020786012 0.106775105 0.12815042 0.5072905 -0.2135734 -0.14632271
0.31193784 -0.010727345 -0.0142580075 0.20719962 -0.6715329 0.021307347
