mlp/experiments/basic_cnn/runs/2024-05-19-11-51-55/checkpoints/epoch-013_0.854979.ckpt (torch, 321016 bytes, 9 tensors)

model.embedding.weight f4 [711, 32]
0	0x3f1a30cd	0.60230714
1	0x3f47a28c	0.779824
2	0xbd90fcf8	-0.070795
3	0xbf9a0064	-1.2031369
4	0xbe8202c8	-0.25392747
5	0xbfabf430	-1.3433895
6	0x3dc65ca3	0.09685638
7	0x400b0271	2.172024
8	0x3e8409c9	0.25788715
9	0xbf171b12	-0.5902568
10	0xbf89c007	-1.0761727
11	0xbcf98911	-0.030460866
12	0xbf30c3e2	-0.69048893
13	0x3f97351f	1.1813086
14	0xbecf9578	-0.40543723
15	0x3f979ccd	1.1844727
16	0xbf94b5ed	-1.1618019
17	0x3fe96737	1.8234624
18	0x3f308e7a	0.689674
19	0x3f3aaf44	0.72923684
20	0xbfbfc3a5	-1.4981581
21	0x3e4592b5	0.19294246
22	0x3d93b7bb	0.07212778
23	0x3fcdfbdf	1.609249
24	0xbf415510	-0.7552042
25	0x3f63b50e	0.8894814
26	0xbe1760f9	-0.14783086
27	0xbf83cfa9	-1.0297748
28	0xbd941615	-0.07230774
29	0x3eec9954	0.4621073
30	0xbf58f7b1	-0.8475295
31	0xbec6aea4	-0.38805115
32	0xbebbef0e	-0.36705822
33	0xbed534d7	-0.41641876
34	0x3f9821ec	1.1885352
35	0xbe9c38cf	-0.30512092
36	0xbf30e081	-0.69092566
37	0x3fb28926	1.3948104
38	0xbf586bb7	-0.8453936
39	0xbecc81d3	-0.39942798
40	0xbe64e14c	-0.22351569
41	0x3f4ec9fe	0.80776966
42	0x3ed4f427	0.41592523
43	0x3f8e0425	1.1095015
44	0xbedfb5a8	-0.4369328
45	0xbf263c6f	-0.64935964
46	0xbffe7a39	-1.9881049
47	0x3e64916c	0.22321099
48	0x3fb42b41	1.40757
49	0xbf1eb919	-0.62001187
50	0xbfd001c6	-1.6250541
51	0x3f5c5a90	0.8607569
52	0xbe6bb43d	-0.23017974
53	0xbfd428aa	-1.657491
54	0xbf8089dc	-1.0042071
55	0x3fbb66e5	1.4640776
56	0xbf052850	-0.52014637
57	0xc00636ee	-2.0971026
58	0x3f981252	1.1880591
59	0x3f0cc896	0.5499357
60	0x3f73ba68	0.9520631
61	0x3f3840ec	0.7197406
62	0x3f69caad	0.91324884
63	0xbf63f2d7	-0.8904242
64	0x3fd1d604	1.6393437
65	0x3f1d6667	0.6148438
66	0x3f303921	0.6883717
67	0xbf4d7199	-0.8025146
68	0x3ebe798e	0.37202114
69	0xbf1bcd32	-0.6085998
70	0xc0150c2f	-2.3288686
71	0x3f5744d1	0.8408938
72	0xbfbc6325	-1.4717757
73	0xbe8e456e	-0.27787346
74	0xbf148d77	-0.5802836
75	0x3d2231c7	0.039598253
76	0x3ffa41d8	1.9551344
77	0x3f2663df	0.6499614
78	0x3f14673d	0.5797003
79	0xbf79b97d	-0.9754866
80	0x3fbbafbd	1.4663006
81	0x3eec527f	0.4615669
82	0xbfb2b698	-1.3961973
83	0xbfea0971	-1.8284131
84	0x3fd60ee9	1.67233
85	0x3ebc3e02	0.36766058
86	0x3ea0eca6	0.31430548
87	0xbe51b36f	-0.20478605
88	0x3e674b9d	0.22587438
89	0xbfcea03d	-1.6142651
90	0x3ca94267	0.020661546
91	0x40058e0d	2.086795
92	0xbfb7da6e	-1.4363534
93	0x3f8408eb	1.0315222
94	0x3f86ff7c	1.0546718
95	0x3e12f1c4	0.14350039
96	0x3eb7e6b1	0.3591819
97	0x3edc36fa	0.43010694
98	0x3f733d14	0.9501507
99	0xbf9c153d	-1.2193981
100	0xc02c0940	-2.6880646
101	0x3f16f841	0.58972555
102	0xbff98b78	-1.9495687
103	0xbf0d5322	-0.55204976
104	0xbd991c4b	-0.074760996
105	0xbf7fd6c0	-0.9993706
106	0x3ff02f9e	1.8764532
107	0x3de88f69	0.11355478
108	0xbf9b70ac	-1.214376
109	0x3ef976e4	0.4872352
110	0x3f651cd6	0.89497125
111	0x3fb026ec	1.3761878
112	0x3f903075	1.1264788
113	0xbda5f062	-0.0810249
114	0xbec04329	-0.3755124
115	0xbf2b6da3	-0.6696417
116	0xbf3b0c6c	-0.7306583
117	0x3e09c80e	0.13455221
118	0xbfeca45d	-1.848766
119	0x3fba479d	1.4553105
120	0xbf8a0d39	-1.0785285
121	0xbded9844	-0.11601308
122	0xbef149f2	-0.47126728
123	0xbeabae97	-0.3353164
124	0xbf7e3ca3	-0.99311274
125	0x3e503775	0.20333655
126	0xbf2fea3b	-0.6871678
127	0x3e14ac34	0.14518815
128	0xbf0728d5	-0.5279668
129	0x3eeea719	0.4661186
130	0x40049979	2.0718672
131	0xbe778d6b	-0.2417504
132	0x3f84c4c3	1.0372547
133	0xbfa96544	-1.3234029
134	0x3e3e0678	0.18557155
135	0x3e9a121b	0.30091938
136	0xbe068794	-0.13137656
137	0x3e84017d	0.25782385
138	0x3df28bcf	0.118430726
139	0x3f402400	0.7505493
140	0xbfc8b6d1	-1.5680791
141	0x3f45292f	0.77015966
142	0xbf725920	-0.94667244
143	0xbee58ca6	-0.4483387
144	0x3e9ef1be	0.3104381
145	0x3f4e7cad	0.8065899
146	0x3eb680f6	0.35645264
147	0xbf012642	-0.50449
148	0xbf3a1d2c	-0.7270076
149	0x3f158868	0.58411264
150	0x3f92af52	1.1459754
151	0x3e6da3cf	0.2320702
152	0x3f3e615a	0.74367297
153	0x3f9ad63d	1.209663
154	0xbf5e103c	-0.8674352
155	0x3ecc9c65	0.3996307
156	0xbfd51b55	-1.6648966
157	0x3e3cc659	0.18435039
158	0x3dff8803	0.12477114
159	0xbf182379	-0.59429127
160	0x3f7b2a57	0.9811148
161	0x3fa040da	1.2519791
162	0xbf561596	-0.8362669
163	0xbfb5cae5	-1.4202543
164	0x3f588c83	0.84589404
165	0x3ea568de	0.3230657
166	0x3f895b2b	1.0730947
167	0xbe254f08	-0.1614343
168	0x3f532bb2	0.8248855
169	0x3efff634	0.49992526
170	0xbf75e37f	-0.96050256
171	0x3f58a909	0.8463293
172	0x3f6bb065	0.9206603
173	0xbf6a207c	-0.9145582
174	0x3f27c9cf	0.6554231
175	0x3ea3ebc4	0.32015812
176	0x3ec22602	0.37919623
177	0x3f642fa5	0.891352
178	0xbc0e4dab	-0.00868551
179	0xbe890337	-0.26760265
180	0x3f442baa	0.76629126
181	0x3f7d1e68	0.9887452
182	0x3fcbd2b5	1.5923678
183	0xbf0f0d07	-0.55879253
184	0xbf01f7fd	-0.50769025
185	0x3ef685ca	0.48148948
186	0xbfd8a917	-1.6926602
187	0xbf1261a3	-0.5718023
188	0xbe7109a8	-0.2353884
189	0xbf4cf88a	-0.8006674
190	0x3fc2a8d5	1.5207773
191	0xbfa85e47	-1.3153771
192	0xbf90be62	-1.13081
193	0xbebe5f82	-0.37182242
194	0xbe293904	-0.16525656
195	0xbf66a4fa	-0.90095484
196	0x3f0fadee	0.5612477
197	0xbf579257	-0.8420767
198	0x3fe3e553	1.7804359
199	0xbfca18f6	-1.5788867
200	0x3ebb3a01	0.3656769
201	0xbea7a0b4	-0.32739794
202	0xbe104fd4	-0.14092952
203	0xbe4f2b43	-0.20231347
204	0x3ac9dc55	0.0015400747
205	0xbf80c245	-1.0059286
206	0x3f542001	0.82861334
207	0x3f0bbb98	0.5458312
208	0xbd08eeb2	-0.033430763
209	0xbf9665af	-1.1749781
210	0x3fa24865	1.2678343
211	0xbfc3df10	-1.5302448
212	0xbf46bb5d	-0.77629644
213	0xbf6fe9df	-0.93716234
214	0xbe645fa6	-0.22302112
215	0xbf238b0d	-0.6388405
216	0x3e1c5e8c	0.15270442
217	0x3f153ca0	0.5829563
218	0x3feaefb0	1.8354397
219	0x3f247761	0.6424466
220	0x3f92c95b	1.1467699
221	0xbfd0b7f3	-1.6306137
222	0xbefeafe2	-0.49743563
223	0x40065eb7	2.099531
224	0x3ec86687	0.39140722
225	0xbea42608	-0.32060266
226	0x3ed12afd	0.4085311
227	0x3f1db838	0.6160922
228	0xbf35c83c	-0.7100866
229	0xbe36c5c7	-0.17848884
230	0xbf86086b	-1.0471319
231	0xbec4d71d	-0.38445368
232	0x3f82003b	1.015632
233	0xbf54b4ae	-0.83088195
234	0xbbdb79a1	-0.006697849
235	0xbf85a606	-1.0441291
236	0xbe90ef40	-0.28307533
237	0xbfe3e69d	-1.7804753
238	0xbf2f3f77	-0.68456215
239	0xbf78f37e	-0.9724654
240	0x3efc3cf6	0.4926526
241	0xbf644712	-0.89170945
242	0xbf30abe2	-0.6901227
243	0xc00e4eab	-2.2235515
244	0xbfb80fcb	-1.437982
245	0xbf41c139	-0.7568546
246	0xbf640a76	-0.8907846
247	0xbed60073	-0.41797218
248	0x3d7fe770	0.062476575
249	0xbf4370f3	-0.7634422
250	0xbfcc62ef	-1.5967692
251	0x3ed34d34	0.4126984
252	0xbfa5e1bd	-1.2959515
253	0xc0151532	-2.3294187
254	0xbefd5b4e	-0.49483722
255	0x3fab734a	1.3394558

model.layers.block_0.conv.weight f4 [256, 32, 5]
0	0x3f9f1655	1.242869
1	0x3f7d5a2b	0.9896571
2	0x3f295737	0.66148704
3	0x3e72f87c	0.23727602
4	0xbf1b7d23	-0.6073782
5	0x3f68e76c	0.9097812
6	0x3f5199e8	0.8187547
7	0x3edaeac2	0.4275723
8	0xbfd95a87	-1.6980752
9	0xbffc9ce4	-1.9735379
10	0x3d1c26bf	0.03812289
11	0xbe241afa	-0.16025916
12	0x3d73d705	0.05953123
13	0xbd670718	-0.05640325
14	0xbf69a846	-0.9127239
15	0x3e8391b4	0.256971
16	0x3f4cec27	0.8004784
17	0x3f132e28	0.57492304
18	0x3f75b57a	0.95980036
19	0xbf4552b0	-0.77079296
20	0xbc8324e8	-0.01600881
21	0xbf60121c	-0.8752763
22	0xbeb110a5	-0.3458301
23	0x3f716bfb	0.9430539
24	0x3f2a5e10	0.6654978
25	0x3cdfbf08	0.02731277
26	0x3eacfe93	0.33787975
27	0x3f9d9fc5	1.2314383
28	0x3f33ae2b	0.70187634
29	0x3e09d7e9	0.1346127
30	0x3c309bf7	0.010779372
31	0x3eaef601	0.3417206
32	0xbe1ae1b9	-0.15125169
33	0x3e251249	0.16120256
34	0x3e730e99	0.23736037
35	0x3dbcbd4b	0.09215792
36	0x3f10bd03	0.5653841
37	0x3f5911ce	0.8479279
38	0x3f3fa09e	0.7485446
39	0xbfa25a86	-1.2683876
40	0xbe6a5700	-0.2288475
41	0x3ecdafb0	0.401731
42	0x3f11b295	0.5691312
43	0xbe3499c2	-0.17636779
44	0x3de35577	0.111002855
45	0xbf059213	-0.52176017
46	0xbe3cecf9	-0.18449773
47	0x3fda85c7	1.7072076
48	0x3f3abc55	0.7294362
49	0x3ec3da1f	0.3825235
50	0xbf32c40f	-0.6983041
51	0x3e5f65e9	0.2181622
52	0x3f4d4925	0.80189735
53	0x3f587d8c	0.8456657
54	0xbf29665b	-0.6617181
55	0x3e87ad35	0.26499334
56	0x3ecbcfa9	0.3980687
57	0xbf904a9a	-1.1272767
58	0xbeaef46b	-0.3417085
59	0x3e4337a0	0.19064188
60	0x3e6b8cfb	0.23002999
61	0xbed9fef6	-0.42577332
62	0xbeddf0e5	-0.4334785
63	0xbf7d3475	-0.9890817
64	0xbf232678	-0.63730574
65	0xbe9a7bc3	-0.30172548
66	0x3e503dfe	0.20336148
67	0x3dab7c09	0.08373267
68	0x3f6b7f27	0.91990894
69	0x3ef724c3	0.48270234
70	0xbf612fee	-0.8796376
71	0xbfbab15d	-1.4585377
72	0xbf40d545	-0.75325423
73	0x3f2d2546	0.67635
74	0x3e012468	0.12611544
75	0xbf51c208	-0.81936693
76	0xbf9571e2	-1.1675379
77	0x3da8837a	0.08228202
78	0x3faafcd9	1.3358413
79	0x3f86df7f	1.0536956
80	0xbf06bcd6	-0.5263189
81	0xbe57ba83	-0.21067242
82	0x3f09b384	0.53789544
83	0x3fe19932	1.7624876
84	0x3eab3124	0.3343593
85	0x3e38a7a8	0.18032706
86	0x3f80a66b	1.0050787
87	0x3f7e4609	0.99325615
88	0xbecc4ef1	-0.39903978
89	0xbfa86c35	-1.3158022
90	0xbd89e1e9	-0.06732542
91	0xbf1ee113	-0.62062186
92	0xbf41ad73	-0.7565529
93	0xbf76ec47	-0.9645428
94	0x3c94abba	0.018148292
95	0x3dcb70ef	0.0993365
96	0xbda63d7c	-0.08117196
97	0x3e5c22bd	0.21497627
98	0x3e78a999	0.24283446
99	0x3f37942b	0.7171046
100	0xbe92eebe	-0.2869777
101	0xbf0069fe	-0.5016173
102	0xbf04e98d	-0.5191887
103	0xbf43ecf0	-0.7653341
104	0x3ed54781	0.41656116
105	0xbb6ebec2	-0.0036429618
106	0xbf3b853c	-0.73250175
107	0xbe40406c	-0.18774575
108	0xbdde9b86	-0.108695075
109	0x3fa32b94	1.2747674
110	0x3d880bec	0.06642899
111	0xbf1d8a73	-0.6153938
112	0x3ede233c	0.43386257
113	0xbeaa9d29	-0.3332303
114	0x3e7c371f	0.24630402
115	0xbf428531	-0.75984484
116	0xbf4ec37f	-0.80767053
117	0xbe8a9b16	-0.27071446
118	0x3cdffb1a	0.027341414
119	0xbf1611d9	-0.58620983
120	0x3efd4763	0.49468526
121	0x3f3b105d	0.73071843
122	0x3f8bd7e1	1.0925256
123	0xbee2b248	-0.44276643
124	0xbf8d60a2	-1.1045115
125	0xbc695ad5	-0.014242847
126	0x3f67b91f	0.9051685
127	0x3be1930c	0.0068839844
128	0xbd513dee	-0.05108445
129	0xbe5432c1	-0.20722486
130	0xbd510931	-0.051034156
131	0x3da8efaa	0.08248837
132	0xbe3daa4d	-0.18521996
133	0x3d5a054d	0.05322771
134	0xbe89ee7d	-0.26939765
135	0xbd38889f	-0.045052167
136	0xbe3353c5	-0.17512424
137	0xbf30fd1d	-0.6913622
138	0x3dee2fdf	0.116302244
139	0x3ec56cbd	0.38559523
140	0xbe76299e	-0.24039313
141	0x3f4ce081	0.80030066
142	0xbdcb7b61	-0.09935642
143	0x3f419727	0.75621265
144	0xbe8268df	-0.25470635
145	0xbfa99a64	-1.3250241
146	0xbf839596	-1.0280025
147	0xbf4882ef	-0.7832479
148	0x3f549804	0.8304446
149	0x3f638027	0.8886742
150	0xbdaa3488	-0.08310801
151	0x3eb48ba6	0.35262793
152	0xbe4fb7cb	-0.20284955
153	0xbf71dd4a	-0.94478285
154	0xbe4e268e	-0.20131895
155	0x3c5ad0de	0.013355462
156	0xbf1b63b7	-0.6069903
157	0xbdc91206	-0.09817891
158	0x3f4ce652	0.8003894
159	0x3e2a06ff	0.16604231
160	0xbec01435	-0.37515417
161	0xbf2df54a	-0.67952406
162	0xbe9cc071	-0.3061557
163	0xbf24bc1d	-0.6434954
164	0xbf391b5e	-0.72307384
165	0xbf2bd5c0	-0.6712303
166	0xbf19c473	-0.6006538
167	0xbf2c7201	-0.67361456
168	0xbded5fc0	-0.115905285
169	0xbeb2c203	-0.34913644
170	0xbf2e6b06	-0.68132055
171	0xbd8d6275	-0.06903545
172	0x3f83a02d	1.0283257
173	0x3f198acd	0.5997742
174	0x3f5fe696	0.8746122
175	0x3f913761	1.1345025
176	0x3fe70ddb	1.8051103
177	0x3f56b6bf	0.838726
178	0xbee9bd6a	-0.45652324
179	0xbf96f3f7	-1.1793202
180	0xbe2df388	-0.16987431
181	0x3f383302	0.7195283
182	0x3ed7d547	0.42154905
183	0x3ecb84ef	0.39749858
184	0x3fac449d	1.3458439
185	0x3f50e5e2	0.81600773
186	0xbcdc754b	-0.026911398
187	0xbf01878d	-0.5059746
188	0xbf8702ee	-1.0547769
189	0xbfa71c55	-1.3055521
190	0x3e19841e	0.14991805
191	0x3dcbde25	0.0995448
192	0xbe9b3af6	-0.3031842
193	0xbe7b8374	-0.24561864
194	0xbd302f5f	-0.043013927
195	0xbee49dd6	-0.4465167
196	0xbf49b191	-0.7878657
197	0xbede339d	-0.43398753
198	0xbe05c0aa	-0.13061777
199	0xbe59825a	-0.21241131
200	0xbed9a281	-0.42506793
201	0xbf37ded4	-0.71824384
202	0xbd930a70	-0.07179725
203	0x3e2c14a9	0.16804756
204	0xbcfcc7c0	-0.030856967
205	0xbee83b02	-0.4535752
206	0x3e83076b	0.25591597
207	0x3ec4d37d	0.38442603
208	0xbed10d6a	-0.40830547
209	0x3d8267e9	0.063674755
210	0x3f39364a	0.72348464
211	0xbd88ce00	-0.066799164
212	0x3f9b440e	1.2130144
213	0xbed2e63f	-0.4119129
214	0x3cf5c2ab	0.030000051
215	0x3f22fe4d	0.6366928
216	0x3f161ef6	0.5864099
217	0x3ed70b33	0.42000732
218	0x3e74f3a5	0.23921068
219	0x3f16dae7	0.5892777
220	0x3dd88240	0.10571718
221	0x3ed35258	0.4127376
222	0x3e9f1722	0.31072336
223	0x3e65e81a	0.22451821
224	0xbe2762c7	-0.16346274
225	0x3e944c16	0.289643
226	0xbee96b18	-0.4558952
227	0xbf915425	-1.1353804
228	0xbf80d69e	-1.0065496
229	0xbf055f26	-0.5209831
230	0x3f8e26b3	1.110556
231	0x3e970ee1	0.2950354
232	0x3ed477ff	0.414978
233	0x3f4ad5fb	0.7923276
234	0x3ec8c9c4	0.39216435
235	0x3eb6d9ac	0.35712945
236	0xbeb70f5c	-0.35753906
237	0xbcd801ad	-0.026367987
238	0xbef381af	-0.47559878
239	0xbe32d606	-0.17464456
240	0xbe7a7758	-0.24459589
241	0xbe22a6a6	-0.15883884
242	0xbe768924	-0.24075752
243	0x3ebcfb2d	0.36910382
244	0xbe189350	-0.14899945
245	0xbc0a931c	-0.008457925
246	0xbeecf6ff	-0.46282193
247	0xbf37872c	-0.7169063
248	0x3e8430c3	0.25818452
249	0x3f31b458	0.6941581
250	0x3dc6a5fa	0.09699626
251	0xbe1433bc	-0.1447286
252	0x3ee6914b	0.45032725
253	0xbe0c4ab3	-0.1370037
254	0xbdc9517c	-0.09829995
255	0x3d20ce4a	0.039259233

model.layers.block_0.conv.bias f4 [256]
0	0xbd9f004c	-0.077637285
1	0x3da27c07	0.079338126
2	0x3db1d399	0.08682937
3	0x3c8b2c0c	0.016988777
4	0x3d95b9cf	0.07310831
5	0x3d9d1b1a	0.07671185
6	0xbc8978c2	-0.016781215
7	0x3e1afea1	0.15136196
8	0x3c978255	0.018494764
9	0x3d5c0a09	0.053720508
10	0x3df408c7	0.11915737
11	0x3acb3e0f	0.0015506166
12	0x3d1be1f2	0.038057275
13	0x3e8568c0	0.2605648
14	0xbd83ea4f	-0.06441175
15	0x3dbd8711	0.092542775
16	0x3e236262	0.15955499
17	0x3d92b731	0.07163847
18	0xbddf892a	-0.10914834
19	0xbd4e9bdf	-0.05044162
20	0x3e4c1ec3	0.1993361
21	0xbdf96a70	-0.121785045
22	0x3e13326e	0.14374706
23	0x3d760f89	0.06007341
24	0xbe97bdb2	-0.29636914
25	0x3e359ca2	0.17735532
26	0xbda6f334	-0.08151856
27	0x3b35ba3a	0.0027729408
28	0xbe073d01	-0.13206865
29	0x3de08904	0.10963634
30	0x3c94e8f1	0.018177481
31	0x3c341cd4	0.010993201
32	0x3da671eb	0.08127197
33	0xbde9abcc	-0.11409721
34	0xbcbafeb0	-0.022826523
35	0x3c23449c	0.009965088
36	0xbdb439c1	-0.08800078
37	0x3c3f8aba	0.01169079
38	0x3d9a3739	0.07530064
39	0x3c084d9e	0.008319287
40	0x3c30ed5e	0.01079878
41	0x3d804ac3	0.0626426
42	0x3dcef799	0.10105819
43	0x3dc542e2	0.096318975
44	0x3cf41266	0.02979393
45	0xbccc49ad	-0.024937475
46	0x3dcd2c15	0.100181736
47	0xbc8e1ba3	-0.017347163
48	0xbb19d599	-0.0023473261
49	0x3d589906	0.05288031
50	0x3ca877ba	0.020564903
51	0x3de32c56	0.11092441
52	0xbd919d14	-0.071100384
53	0xbe485e05	-0.19567116
54	0x3e1a3f5b	0.1506323
55	0x3bae16db	0.005312783
56	0x3d45dc9c	0.048306093
57	0x3d66641f	0.056247827
58	0xbd961185	-0.0732756
59	0x3d06d443	0.032917272
60	0x3d9be7b4	0.07612553
61	0x3dc09007	0.09402471
62	0x3e041382	0.12898067
63	0xbdf53e04	-0.11974719
64	0x3c888e78	0.016669497
65	0xbd299ef3	-0.04141135
66	0xbccf7d1b	-0.02532821
67	0x3bab10b0	0.005220495
68	0xbe3250a9	-0.17413582
69	0x3d9fa0d8	0.077943504
70	0x3cc3d4b8	0.023905143
71	0xbc2cddef	-0.01055096
72	0x3ca6e8c4	0.020374663
73	0x3df0dcff	0.11760902
74	0x3d461ea9	0.048369084
75	0xbce32bf7	-0.027730925
76	0xbe031331	-0.1280029
77	0xbc4b1260	-0.012394518
78	0x3cc67b1f	0.02422863
79	0x3e663b6f	0.2248361
80	0xbc6b2885	-0.014352922
81	0x3ce1d076	0.027565222
82	0x3c579cd3	0.013159948
83	0xbd8ff0b6	-0.07028334
84	0x3e01ac8b	0.12663476
85	0xbd49dcdb	-0.04928289
86	0xbda7013c	-0.08154532
87	0xbd8c7d55	-0.06859843
88	0xbd40e486	-0.047092937
89	0x3cbb8441	0.022890212
90	0x3dfe105f	0.12405466
91	0xbc9faaff	-0.019490717
92	0x3dd0adba	0.10189386
93	0xbcbdc5ed	-0.023165667
94	0xbe3ddb85	-0.18540771
95	0x3d81762b	0.06321367
96	0xbbc6fd21	-0.006072656
97	0xbd682102	-0.056672104
98	0xbe394813	-0.180939
99	0x3e3fc06e	0.1872575
100	0xbdb31315	-0.08743874
101	0xbd82cfb5	-0.06387273
102	0xbd92279a	-0.0713646
103	0x3defc2f3	0.117071055
104	0xbd8f2883	-0.06990149
105	0xbd569ca1	-0.052395467
106	0xbcdf2104	-0.027237423
107	0xbd587d92	-0.05285413
108	0x3d9aa1d5	0.07550398
109	0xbda63605	-0.08115772
110	0x3c8dec54	0.017324604
111	0xbc008346	-0.007843798
112	0x3dd928d6	0.10603492
113	0x3db8a278	0.090153635
114	0x3d72489e	0.059151284
115	0xbd9a8d7c	-0.07546517
116	0x3dc1130c	0.09427461
117	0xbddc37ec	-0.10752854
118	0xbc9a0603	-0.018801695
119	0x3d4f54dd	0.05061804
120	0x3eddc3a5	0.43313327
121	0xbdc96969	-0.098345585
122	0xbceedc74	-0.029157855
123	0xbd16167d	-0.03664254
124	0xbca19724	-0.01972539
125	0x3e175ad3	0.1478074
126	0xbcc2c329	-0.0237747
127	0xbd0b46b9	-0.034002993
128	0x3d2ce4c7	0.042210367
129	0x3e0da97b	0.13834183
130	0xbdde4d6a	-0.10854609
131	0x3dfc1b86	0.12309937
132	0x3d1537ab	0.036430042
133	0x3c8efd9c	0.017454915
134	0xba8bb8ee	-0.0010659972
135	0x3de19dfa	0.1101646
136	0x3bee6799	0.0072755334
137	0x3cdfd73f	0.027324317
138	0xbcb87e5e	-0.022521194
139	0xbdd8af60	-0.10580325
140	0x3c55a810	0.0130405575
141	0xbca51673	-0.020152306
142	0x39150e86	0.00014215158
143	0x3d8099a6	0.06279306
144	0x3e1d766a	0.15377203
145	0x3d031e89	0.032011542
146	0x3e19971a	0.14999047
147	0xbd16e30d	-0.036837626
148	0x3d973945	0.0738397
149	0x3cd6651c	0.02617126
150	0x3b72b0d1	0.003703166
151	0x3bb3a756	0.0054825945
152	0x39beab41	0.00036367218
153	0x3dd3ebd6	0.103477165
154	0x3c4a55e6	0.012349581
155	0xbc4ec1db	-0.012619461
156	0x3ce6b883	0.028164154
157	0x3e2ac2a7	0.16675816
158	0xbd58d34d	-0.052935887
159	0x3e0151d0	0.12628865
160	0x3e11a544	0.142232
161	0x3e647ad5	0.22312482
162	0x3daf91c7	0.08572727
163	0x3de451b6	0.111483976
164	0xbe00d7fb	-0.1258239
165	0x3d420dfe	0.047376625
166	0x3d702776	0.058631383
167	0x3dcde2cc	0.10053024
168	0xbcb7943e	-0.022409555
169	0xbd10b8de	-0.035332553
170	0xbbdeb7fa	-0.006796834
171	0xbcc7462a	-0.024325449
172	0x3d95239c	0.072821826
173	0xbb11c43d	-0.0022242211
174	0xbd4d7351	-0.050158802
175	0xbc352822	-0.011056932
176	0x3d9dffe7	0.07714825
177	0x3e6a981d	0.22909589
178	0x3d8c66fc	0.0685558
179	0x3dbb6e0c	0.09151849
180	0x3bdb8d1a	0.00670017
181	0xbda2aba4	-0.07942894
182	0xbdb7f739	-0.08982701
183	0x3d86b57c	0.06577584
184	0xbcb6b48a	-0.022302885
185	0xbd522a1a	-0.051309682
186	0xbcae9076	-0.021309119
187	0x3d3fd99a	0.04683838
188	0x3da11ef2	0.078672305
189	0xbde4c8af	-0.1117109
190	0xbc22dc4a	-0.009940216
191	0x3e469053	0.19390993
192	0x3df58e8f	0.119900815
193	0xbd435a7e	-0.047693722
194	0xbdaa553c	-0.083170384
195	0x3cb79407	0.022409452
196	0x3d14d3a3	0.036334645
197	0xbdd43b69	-0.10362894
198	0x3d82bb84	0.06383422
199	0x3dc5292d	0.09626994
200	0x3de4ea3a	0.11177488
201	0x3d54d522	0.05196107
202	0xbdac48aa	-0.08412297
203	0x3d8d46c6	0.068982646
204	0x3d09b148	0.033616334
205	0x3bfd35d5	0.0077273645
206	0x3d2487d0	0.040168583
207	0xbc34a3d7	-0.011025391
208	0x3e0b1666	0.13582763
209	0x3e200344	0.15626246
210	0x3dd5eedc	0.104459494
211	0x3dca1279	0.09866805
212	0xbd0fbf62	-0.035094626
213	0x3d5051bf	0.05085921
214	0x3afe3405	0.0019394165
215	0x3db489c8	0.08815342
216	0x3e05f662	0.13082269
217	0x3de33b0b	0.11095246
218	0x3e28e3a5	0.1649309
219	0xbe1fd71b	-0.156094
220	0xbdaacfa2	-0.08340384
221	0x3c30f85b	0.0108014
222	0x3dd94d3a	0.10610433
223	0x3e5ce23d	0.21570678
224	0x3cc0574d	0.023479128
225	0x3ec7e3cc	0.39040983
226	0x3e23be2a	0.1599051
227	0x3d02c36f	0.03192466
228	0x3d2d0eaa	0.042250313
229	0x3dc75f5c	0.09734985
230	0x3d7a19af	0.06105965
231	0xbd8e806d	-0.06958089
232	0x3c4dce5f	0.01256141
233	0x3d992e2e	0.07479511
234	0x3eba43de	0.36379904
235	0x3d7b5717	0.061362352
236	0xbceb7561	-0.028742494
237	0xbe8423a1	-0.25808433
238	0xbd56c6d5	-0.052435715
239	0x3d90681f	0.070511095
240	0x3dde88fe	0.10865973
241	0x3cedd15e	0.029030498
242	0xbd171981	-0.036889557
243	0x3d053830	0.032524288
244	0xbdab00aa	-0.08349736
245	0x3e3a7b35	0.18211062
246	0x3d84e55f	0.064890616
247	0x3d923f30	0.07140958
248	0x3df7be3a	0.1209683
249	0xbcd96671	-0.026538106
250	0x3dee7f07	0.11645322
251	0x3da5e6d1	0.08100665
252	0x3dedb036	0.11605875
253	0xbd633e67	-0.055479433
254	0x3e134930	0.14383388
255	0x3d132f82	0.03593398

model.layers.block_0.norm.weight f4 [256]
0	0x4099f0a2	4.810624
1	0x40902a75	4.5051827
2	0x4090d462	4.5259256
3	0x408c9ea3	4.394365
4	0x408c46eb	4.383657
5	0x4073b1ac	3.8077192
6	0x40860017	4.187511
7	0x40936276	4.605769
8	0x4098a801	4.7705083
9	0x4094cffb	4.6503882
10	0x4084d590	4.1510696
11	0x4072c895	3.7934926
12	0x40903ea8	4.5076485
13	0x409034ae	4.5064306
14	0x408d05d9	4.406964
15	0x408211a7	4.064655
16	0x4088d41e	4.275893
17	0x407280d9	3.7891142
18	0x409384ec	4.609976
19	0x409b3518	4.850231
20	0x4082e186	4.0900297
21	0x407c8068	3.9453373
22	0x40610d7e	3.5164485
23	0x40924089	4.570378
24	0x4079ccc1	3.9031222
25	0x409206cc	4.5633297
26	0x4091e173	4.5587707
27	0x4071567a	3.770903
28	0x40979206	4.736575
29	0x4089a3e9	4.3012586
30	0x409a2af5	4.817744
31	0x408824c3	4.2544875
32	0x408ef819	4.4677854
33	0x4048e6b6	3.1390815
34	0x40a0c7c3	5.024385
35	0x4083ac84	4.114809
36	0x408026fe	4.00476
37	0x4084e329	4.1527295
38	0x408b9179	4.361508
39	0x407ec1fb	3.9805896
40	0x406e10fd	3.719787
41	0x406e99cb	3.7281368
42	0x40770e4b	3.8602474
43	0x408623bb	4.1918616
44	0x4087a152	4.2384424
45	0x409b9d82	4.862977
46	0x40931238	4.595974
47	0x4061fcde	3.5310588
48	0x40807a0c	4.0148983
49	0x4088a32f	4.26992
50	0x4054df1b	3.3261173
51	0x407a9593	3.9153793
52	0x40875a15	4.2297463
53	0x40a89ca6	5.269122
54	0x408e4e16	4.447032
55	0x40805f27	4.0116153
56	0x409b5853	4.854532
57	0x40a14a4d	5.04032
58	0x4097e0a5	4.7461724
59	0x4076f6af	3.8588064
60	0x408e7263	4.451463
61	0x4080542e	4.010276
62	0x4091c412	4.5551844
63	0x40972b88	4.724064
64	0x4081e789	4.0595136
65	0x40ab0e40	5.3454895
66	0x4079cc8a	3.903109
67	0x40844003	4.132814
68	0x40a2e631	5.0905995
69	0x408345f4	4.102289
70	0x4092f99a	4.592969
71	0x409a7278	4.826473
72	0x4089619d	4.2931657
73	0x4089f0c4	4.3106403
74	0x407c0e8c	3.9383879
75	0x40a2f3ec	5.0922756
76	0x40744242	3.816544
77	0x40a26e10	5.0759354
78	0x4051d433	3.2785766
79	0x404fb92a	3.2456765
80	0x408b99bf	4.362518
81	0x4099d4c5	4.807223
82	0x407e1669	3.9701178
83	0x40914778	4.539974
84	0x405e5b94	3.4743395
85	0x40991ffc	4.7851543
86	0x409a2dac	4.818075
87	0x409f4ebc	4.978361
88	0x40930e68	4.5955086
89	0x409d701f	4.9199367
90	0x4086d0dd	4.212996
91	0x4090466f	4.508598
92	0x4085c433	4.1802
93	0x4098d1a3	4.7755904
94	0x4094c561	4.649094
95	0x4092c10f	4.5860667
96	0x408c9a65	4.393847
97	0x409a56b7	4.8230853
98	0x409e5832	4.948266
99	0x407749d0	3.8638802
100	0x40a23c77	5.069881
101	0x407443ff	3.8166502
102	0x40851f8f	4.1601024
103	0x408ed232	4.4631586
104	0x40a467d7	5.137676
105	0x40a25ab5	5.0735726
106	0x408f0490	4.469307
107	0x409c39c1	4.88205
108	0x40882391	4.2543416
109	0x408ebda3	4.460649
110	0x40405613	3.0052536
111	0x408f2482	4.4732065
112	0x406dcf5b	3.715781
113	0x4071bfe6	3.7773376
114	0x40a62a74	5.1926823
115	0x4095d831	4.6826406
116	0x407d172f	3.95454
117	0x4097ef4f	4.7479625
118	0x40910230	4.531517
119	0x4062fe3a	3.5467668
120	0x406cdf20	3.7011185
121	0x40a5ca1b	5.180921
122	0x408a55c0	4.3229675
123	0x4092dfdb	4.589826
124	0x4081bd79	4.054379
125	0x40afbbd0	5.4916763
126	0x4081e149	4.0587506
127	0x408b5767	4.354419
128	0x40829995	4.081248
129	0x408e4a93	4.4466033
130	0x4093c513	4.617807
131	0x4077c447	3.8713548
132	0x408c34c3	4.3814406
133	0x408f3ca8	4.4761543
134	0x408d6a21	4.419205
135	0x408acecb	4.3377433
136	0x4091a163	4.5509505
137	0x40a677b7	5.2021136
138	0x409f320f	4.9748607
139	0x408f9a6f	4.4876018
140	0x403dfafe	2.9684443
141	0x409735e8	4.7253304
142	0x408e0d4a	4.439122
143	0x409728c3	4.723726
144	0x408bfb06	4.3743925
145	0x40999583	4.799501
146	0x4087221c	4.2229137
147	0x408a4908	4.321415
148	0x409f1893	4.97175
149	0x40990813	4.7822356
150	0x40910f27	4.5330997
151	0x4092d916	4.5889997
152	0x408f0988	4.4699135
153	0x4088cf64	4.275316
154	0x40927be9	4.5776258
155	0x4086b866	4.2100096
156	0x408fa5c5	4.4889855
157	0x40865afc	4.1986065
158	0x409f6af6	4.9818068
159	0x408d448d	4.414618
160	0x4086b374	4.209406
161	0x408d1d99	4.409863
162	0x40b2c472	5.58648
163	0x40955f3e	4.6678762
164	0x4091b50f	4.553352
165	0x40800afc	4.001341
166	0x408c9cf4	4.3941593
167	0x40a8e30b	5.277715
168	0x408bec51	4.372597
169	0x409559f4	4.6672306
170	0x40a14d5d	5.0406938
171	0x408a46ae	4.321128
172	0x40a07dd4	5.01536
173	0x40a202fd	5.062865
174	0x40a61abc	5.1907635
175	0x4097f7fc	4.7490215
176	0x408aac2d	4.3335176
177	0x408bd104	4.3692646
178	0x40968a6f	4.7043986
179	0x40863d80	4.1950073
180	0x40850277	4.156551
181	0x40a33a6c	5.1008816
182	0x4094f517	4.654918
183	0x4081ac3c	4.0522747
184	0x40720414	3.781499
185	0x409512af	4.6585307
186	0x40887045	4.263705
187	0x4093c5ce	4.617896
188	0x4086aeba	4.208829
189	0x40a26ea0	5.076004
190	0x409467a6	4.6376524
191	0x406d9494	3.7121935
192	0x40850c23	4.1577315
193	0x408fc539	4.492825
194	0x409782ee	4.7347326
195	0x409f18a1	4.9717565
196	0x40635c7d	3.55252
197	0x40a09342	5.017976
198	0x405f1311	3.4855387
199	0x4090941f	4.518081
200	0x4089b6b8	4.3035545
201	0x402f4b02	2.738953
202	0x40a84c97	5.2593493
203	0x408fac00	4.489746
204	0x4095916a	4.6740007
205	0x40883f65	4.2577386
206	0x408ba897	4.36433
207	0x408cb461	4.397019
208	0x4080fd0f	4.030891
209	0x409976ea	4.795766
210	0x408c709f	4.3887477
211	0x40866fe3	4.201158
212	0x408d1c34	4.409693
213	0x4096a511	4.7076497
214	0x40670d09	3.6101706
215	0x40897d4c	4.296545
216	0x408c03a7	4.375446
217	0x407d951c	3.962226
218	0x40922c60	4.567917
219	0x408894e6	4.268176
220	0x4087e3d8	4.246563
221	0x40a124e1	5.035752
222	0x4094ab8f	4.645942
223	0x409c92df	4.8929286
224	0x4092445f	4.570846
225	0x404e5533	3.2239501
226	0x4097c4bf	4.742767
227	0x40836418	4.1059685
228	0x409e8489	4.9536786
229	0x40977e29	4.7341504
230	0x40a2e77b	5.090757
231	0x4060e694	3.5140734
232	0x40939c9d	4.612868
233	0x408b2073	4.347711
234	0x40675190	3.6143532
235	0x4090c3a1	4.5238805
236	0x40a066e9	5.0125623
237	0x40856813	4.1689544
238	0x40845231	4.135033
239	0x4086f06b	4.216848
240	0x408cf987	4.40546
241	0x408bf5ad	4.3737397
242	0x4086593a	4.198392
243	0x408f19c8	4.471897
244	0x4099b176	4.8029127
245	0x409a875b	4.829023
246	0x4095cde8	4.681385
247	0x4096129b	4.689771
248	0x409adea8	4.8396797
249	0x4099e802	4.8095713
250	0x4093365a	4.6003847
251	0x4094b71b	4.6473517
252	0x40946f0f	4.638557
253	0x4076ae49	3.8543875
254	0x40852986	4.161319
255	0x4088907a	4.2676363

model.layers.block_0.norm.bias f4 [256]
0	0xbf85c8d3	-1.0451912
1	0xbf8f92c0	-1.121666
2	0xbf034b29	-0.5128656
3	0xbf6ef758	-0.93346167
4	0xbf9ed5f5	-1.2409045
5	0xbf3de341	-0.74174887
6	0xbfa53dd5	-1.2909495
7	0xbfa00605	-1.2501837
8	0xbfa1f447	-1.2652673
9	0xbfc5a7b7	-1.5441808
10	0xbf94af0f	-1.1615924
11	0xbfbbd4ef	-1.4674357
12	0xbf7d7ed9	-0.9902168
13	0xbf6a44ff	-0.9151153
14	0xbfb5dc48	-1.420785
15	0xbfa53139	-1.2905647
16	0xbf83332a	-1.0249989
17	0xbf97a05f	-1.1845816
18	0xbfa3a100	-1.2783508
19	0xbf997a95	-1.1990534
20	0xbfa73189	-1.3061992
21	0xbf8f8b5d	-1.1214405
22	0xbfb2ce7a	-1.3969262
23	0xbf3745c2	-0.71590817
24	0xbf3bf9c3	-0.7342798
25	0xbfe590ad	-1.7934777
26	0xbf93c55d	-1.1544605
27	0xbf1e50ce	-0.6184205
28	0xbf7fe1ab	-0.99953717
29	0xbf949be1	-1.161007
30	0xbf82557b	-1.0182337
31	0xbf9d2a64	-1.2278562
32	0xbf740f85	-0.9533618
33	0xbeaa67e7	-0.33282396
34	0xbfb587c6	-1.418206
35	0xbfa1c6b7	-1.2638768
36	0xbf73ff6e	-0.9531163
37	0xbf8de5b4	-1.1085725
38	0xbfa20ee4	-1.2660794
39	0xbf90a936	-1.1301639
40	0xbf719ad5	-0.9437688
41	0xbf616041	-0.88037497
42	0xbf835b40	-1.0262222
43	0xbf8452c3	-1.0337757
44	0xbfb26f7d	-1.3940274
45	0xbf4e4976	-0.8058084
46	0xbfb81ed2	-1.4384406
47	0xbf8756bb	-1.0573343
48	0xbf8547ea	-1.0412571
49	0xbf4c91c8	-0.79909945
50	0xbf64feb1	-0.8945113
51	0xbf850ce8	-1.0394564
52	0xbfa5f1c3	-1.2964405
53	0xbf924f48	-1.1430445
54	0xbf5c7a36	-0.8612398
55	0xbf632642	-0.8873025
56	0xbfaf7e08	-1.3710337
57	0xbfb5b8aa	-1.419698
58	0xbf7ef99d	-0.9959963
59	0xbf08ca9c	-0.5343416
60	0xbf61a804	-0.88146996
61	0xbf9459ca	-1.1589901
62	0xbf883eac	-1.0644126
63	0xbf4624c8	-0.77399874
64	0xbfb65dd2	-1.4247382
65	0xbf8f7aaf	-1.1209315
66	0xbfa86f6f	-1.3159007
67	0xbf7aeddc	-0.98019195
68	0xbfb4f6e0	-1.413784
69	0xbf42ab7d	-0.7604292
70	0xbfc75a44	-1.5574422
71	0xbf8ddb30	-1.1082516
72	0xbf884a51	-1.064768
73	0xbf880ba0	-1.0628548
74	0xbfa43327	-1.282811
75	0xbfc5996e	-1.5437448
76	0xbf985108	-1.1899729
77	0xbf9644cc	-1.1739745
78	0xbf6ed07f	-0.9328689
79	0xbef720a7	-0.482671
80	0xbf47be16	-0.78024423
81	0xbf3044d5	-0.6885503
82	0xbf50ad01	-0.81513983
83	0xbfa6dcac	-1.3036094
84	0xbf2056a1	-0.62632185
85	0xbfbbf0e4	-1.4682889
86	0xbfa23b1c	-1.2674289
87	0xbfa9b552	-1.325846
88	0xbfda1d1b	-1.7040132
89	0xbf8e45af	-1.1115016
90	0xbfb0e87c	-1.3820949
91	0xbf9b946f	-1.2154673
92	0xbf92356a	-1.1422551
93	0xbfb23c20	-1.3924599
94	0xbf9555dc	-1.1666827
95	0xbf9a7069	-1.2065555
96	0xbf54715b	-0.82985467
97	0xbf5cd767	-0.8626618
98	0xbfb4e68e	-1.413286
99	0xbf936f91	-1.1518422
100	0xbf9ed10d	-1.2407547
101	0xbf99d97f	-1.20195
102	0xbfab9771	-1.3405591
103	0xbf8885a3	-1.0665783
104	0xbf99c9fb	-1.2014765
105	0xbfd5a2f9	-1.669036
106	0xbf585760	-0.84508324
107	0xbfc49213	-1.5357078
108	0xbfb364d0	-1.401514
109	0xbf6e4596	-0.9307493
110	0xbf06d09b	-0.52662057
111	0xbf83f85a	-1.0310166
112	0xbf6b38ea	-0.9188372
113	0xbf2b5865	-0.66931754
114	0xbf70f40f	-0.94122404
115	0xbfac1b04	-1.3445745
116	0xbf9b7e87	-1.2147988
117	0xbfadd35d	-1.3580128
118	0xbf76d22a	-0.96414435
119	0xbf2f1061	-0.6838437
120	0xbf1a977c	-0.60387397
121	0xbf796bd2	-0.97430146
122	0xbf8fcc21	-1.123417
123	0xbfa99002	-1.3247073
124	0xbf4cb602	-0.7996522
125	0xbfb7966e	-1.4342782
126	0xbf8c115c	-1.0942798
127	0xbfa9c926	-1.3264511
128	0xbf907677	-1.1286153
129	0xbf40c859	-0.75305706
130	0xbf4b5302	-0.79423535
131	0xbf87edf3	-1.0619491
132	0xbf8b583f	-1.0886306
133	0xbfbadd99	-1.4598876
134	0xbf894aa7	-1.0725907
135	0xbf925a3c	-1.1433787
136	0xbf89d33a	-1.0767586
137	0xbf7109de	-0.9415568
138	0xbf8b2475	-1.0870501
139	0xbf8d46e1	-1.1037256
140	0xbf40d67a	-0.75327265
141	0xbf8909e5	-1.0706145
142	0xbf9ec940	-1.2405167
143	0xbf721f4a	-0.94578993
144	0xbfaa6c24	-1.3314252
145	0xbfb5eb5d	-1.4212452
146	0xbfd7774f	-1.6833285
147	0xbfa89af6	-1.317229
148	0xbfb884cd	-1.4415528
149	0xbfa27d94	-1.2694573
150	0xbf9eff3b	-1.242164
151	0xbfb44280	-1.4082794
152	0xbfcb28ba	-1.5871804
153	0xbf7d2a2c	-0.98892474
154	0xbf474331	-0.778369
155	0xbfb9c35b	-1.4512743
156	0xbfa84c80	-1.3148346
157	0xbf7bc5bf	-0.9834861
158	0xbf9bbf10	-1.2167683
159	0xbf88e83e	-1.0695875
160	0xbf9869a9	-1.1907245
161	0xbf8398b2	-1.0280974
162	0xbfdba3ee	-1.7159402
163	0xbfd5c9f4	-1.6702256
164	0xbfc24f50	-1.5180454
165	0xbf6a3bba	-0.91497386
166	0xbf2b7d2f	-0.6698789
167	0xbfc1a7a1	-1.5129281
168	0xbfaf3966	-1.3689392
169	0xbf7b2905	-0.98109466
170	0xbfc39e99	-1.5282775
171	0xbf7fb2c0	-0.99882126
172	0xbf99be30	-1.2011166
173	0xbf838b11	-1.0276815
174	0xbf9f78fd	-1.2458798
175	0xbfa2f6e6	-1.2731597
176	0xbf669565	-0.9007171
177	0xbfaa8e42	-1.3324664
178	0xbf988003	-1.1914066
179	0xbf865b86	-1.0496681
180	0xbfa6c58d	-1.3029038
181	0xbf9689b1	-1.176077
182	0xbfba6177	-1.4560994
183	0xbf84db88	-1.0379496
184	0xbfb62120	-1.4228859
185	0xbf8a83ee	-1.0821512
186	0xbf87c026	-1.0605514
187	0xbf7ce478	-0.98786116
188	0xbf77efc8	-0.9685025
189	0xbfb36f22	-1.401829
190	0xbfa28556	-1.2696941
191	0xbf4119db	-0.7543008
192	0xbf8acfd3	-1.0844673
193	0xbf7d2e42	-0.9889871
194	0xbfcc9d29	-1.5985461
195	0xbfdd5ee6	-1.7294586
196	0xbebd96d9	-0.3702915
197	0xbfcc5587	-1.5963601
198	0xbf67e82e	-0.90588653
199	0xbf6fdbc1	-0.9369469
200	0xbf5a61b2	-0.8530532
201	0xbf76cd6a	-0.96407187
202	0xbfa9cfc8	-1.3266535
203	0xbf4bdd7f	-0.7963485
204	0xbfab10cd	-1.3364502
205	0xbf979769	-1.1843082
206	0xbf546659	-0.8296867
207	0xbfaaf16a	-1.3354924
208	0xbf031a46	-0.51211965
209	0xbf84e452	-1.0382178
210	0xbf6a32b3	-0.9148361
211	0xbf9b0b3c	-1.2112803
212	0xbfa73d59	-1.3065597
213	0xbfbd7aec	-1.4803138
214	0xbf52066a	-0.8204104
215	0xbfa7e8d7	-1.3117932
216	0xbf8fb2ff	-1.12265
217	0xbf39af08	-0.725327
218	0xbfacf377	-1.35118
219	0xbf4c1b03	-0.79728717
220	0xbf972bd5	-1.1810251
221	0xbf90f824	-1.1325727
222	0xbf301602	-0.6878358
223	0xbf7256d7	-0.9466376
224	0xbf659ac1	-0.8968926
225	0xbf008b2a	-0.5021235
226	0xbfafcb2c	-1.3733878
227	0xbf81301f	-1.009281
228	0xbf7f8fd8	-0.99828863
229	0xbf7ae933	-0.98012084
230	0xbfdbea25	-1.718083
231	0xbf6aabf9	-0.9166866
232	0xbfa84317	-1.3145474
233	0xbf9343a9	-1.1505023
234	0xbf4e3bd3	-0.80560035
235	0xbf9f2a5a	-1.24348
236	0xbf1ba4e5	-0.60798484
237	0xbea218d5	-0.3165957
238	0xbf9a8d65	-1.20744
239	0xbf9e75f4	-1.2379746
240	0xbf76a342	-0.9634286
241	0xbf782fb7	-0.9694781
242	0xbff3687c	-1.9016261
243	0xbf45b8db	-0.7723519
244	0xbfc739ad	-1.5564476
245	0xbfa00c6d	-1.2503792
246	0xbfbb37be	-1.4626386
247	0xbf940ce7	-1.1566437
248	0xbfd60641	-1.6720659
249	0xbfb7d852	-1.4362891
250	0xbfc0b525	-1.5055281
251	0xbf8f5e6f	-1.1200694
252	0xbf74bae1	-0.95597655
253	0xbf810165	-1.007855
254	0xbf8ba811	-1.0910665
255	0xbfa16aca	-1.2610714

model.layers.block_0.norm.running_mean f4 [256]
0	0xbf9c2cc4	-1.2201161
1	0xbfa72e0c	-1.3060927
2	0xbed4b4cb	-0.41544184
3	0xbf50c2bb	-0.81547135
4	0xbfb15db6	-1.3856723
5	0xbf671f8b	-0.90282506
6	0xbfdfae64	-1.7475095
7	0xbf2e9721	-0.68199354
8	0xbfc84ab8	-1.5647802
9	0xbfe8a59e	-1.8175542
10	0xbfa48ecb	-1.2856077
11	0xbf311aa6	-0.6918129
12	0xbf9b2fa4	-1.2123914
13	0xbf524b54	-0.8214619
14	0xbfedd717	-1.8581265
15	0xbfeb3e41	-1.8378373
16	0xbf91cc7a	-1.1390526
17	0xbf928575	-1.1446978
18	0xbfaadb96	-1.3348262
19	0xbfb67506	-1.4254463
20	0xbf2a3349	-0.66484505
21	0xbfd61b72	-1.6727126
22	0xbda85704	-0.08219722
23	0xbf52aa02	-0.8229066
24	0xbfe1f69d	-1.7653385
25	0xbff89476	-1.9420307
26	0xbfc0094d	-1.5002838
27	0xbf285625	-0.65756446
28	0xbf9b2a9e	-1.2122381
29	0xbf803142	-1.0015032
30	0xbf962675	-1.1730486
31	0xbfd74275	-1.6817156
32	0xbf8274c1	-1.019188
33	0xbfc394f4	-1.5279832
34	0xbfdeea47	-1.7415246
35	0xbfddb50a	-1.7320874
36	0xbf6818ff	-0.9066314
37	0xbfab9df8	-1.3407583
38	0xbf3198a5	-0.6937354
39	0xbfd3a205	-1.653382
40	0xbf4d82c4	-0.8027766
41	0xbfada0f7	-1.3564748
42	0xbfb32790	-1.3996449
43	0xbf54df2b	-0.8315303
44	0xbf7a5275	-0.9778207
45	0xbf291997	-0.6605467
46	0xbfd22eda	-1.6420548
47	0xbfa57d16	-1.2928798
48	0xbfb13821	-1.3845254
49	0xbf561307	-0.83622783
50	0xbe9fb820	-0.31195164
51	0xbfc75f97	-1.5576047
52	0xbfc3c957	-1.5295819
53	0xbfb36ce9	-1.4017612
54	0xbf654f3a	-0.89574015
55	0xbf912f5e	-1.134258
56	0xbfb1ff56	-1.3906047
57	0xbfb913c9	-1.4459163
58	0xbf9da177	-1.23149
59	0xbf15d002	-0.5852052
60	0xbe8549b9	-0.26032808
61	0xbfe4de57	-1.7880353
62	0xbf9ce311	-1.2256795
63	0xbf7b2bc5	-0.9811366
64	0xc0007afa	-2.007506
65	0xbf397c8a	-0.72455657
66	0xbfef4a30	-1.8694515
67	0xbfad52a8	-1.354085
68	0xbfa98a60	-1.3245354
69	0xbf786d95	-0.9704221
70	0xbfffe9bd	-1.9993206
71	0xbfa250f4	-1.2680955
72	0xbf9db9bd	-1.2322308
73	0xbf99277d	-1.1965176
74	0xbfd9267c	-1.696487
75	0xbfd41a01	-1.6570436
76	0xbf6d72ae	-0.9275311
77	0xbf888410	-1.0665302
78	0xbfd696d0	-1.6764774
79	0xbfeea1a4	-1.8643079
80	0xbf6f105d	-0.93384343
81	0xbeaf5acc	-0.3424896
82	0xbf99b589	-1.2008525
83	0xbfd81b00	-1.688324
84	0xbfb39bd4	-1.403193
85	0xbf5407cd	-0.82824403
86	0xbfc08f0a	-1.5043652
87	0xbf2fad5f	-0.6862392
88	0xbfe1e11f	-1.7646827
89	0xbf91e146	-1.1396873
90	0xbfe5c416	-1.7950466
91	0xbfbd2c9b	-1.4779238
92	0xbfa1b92c	-1.2634635
93	0xbfdafb87	-1.710801
94	0xbfd34959	-1.6506759
95	0xbf97e0b5	-1.186545
96	0xbf7ec660	-0.99521446
97	0xbf7d9ca3	-0.99067134
98	0xbfd6eda7	-1.6791276
99	0xbfb58694	-1.4181695
100	0xbfbbeec3	-1.4682239
101	0xbfcd3102	-1.6030581
102	0xc008cd3b	-2.1375263
103	0xbf2eef20	-0.68333626
104	0xbfa320b1	-1.2744352
105	0xbffd1722	-1.9772685
106	0xbf84bf6f	-1.0370921
107	0xbfdf4a94	-1.7444634
108	0xbfe6f52b	-1.8043569
109	0xbfa5581b	-1.2917513
110	0xbfb63b78	-1.4236898
111	0xbfaae97f	-1.3352507
112	0xbfdfd7c5	-1.7487723
113	0xbf635d04	-0.88813806
114	0xbf6dd05d	-0.9289606
115	0xbfc8b33c	-1.5679698
116	0xbfb63be7	-1.4237031
117	0xbfc3d3b2	-1.5298979
118	0xbf757823	-0.9588644
119	0xbef4ce16	-0.4781348
120	0xbe8e64e2	-0.27811342
121	0xbf991483	-1.1959385
122	0xbf3e0cf4	-0.74238515
123	0xbfb4bba9	-1.4119769
124	0xbf764897	-0.96204513
125	0xbfaefd6d	-1.367109
126	0xbfafe6b3	-1.3742279
127	0xbfc252e6	-1.5181549
128	0xbfcb341c	-1.5875278
129	0xbf4ed891	-0.80799204
130	0xbf7413f2	-0.95342934
131	0xbf956eb0	-1.1674404
132	0xbf9b380e	-1.2126482
133	0xbff1a347	-1.8877953
134	0xbf8b79b0	-1.0896511
135	0xbfa59bb9	-1.2938148
136	0xbf72cd8b	-0.94844884
137	0xbf6c13c6	-0.9221767
138	0xbf9c20b6	-1.2197483
139	0xbfbbbffb	-1.4667963
140	0xbf05e9ba	-0.52309763
141	0xbf9a6f87	-1.2065285
142	0xbfaebaae	-1.365072
143	0xbf54e26f	-0.8315801
144	0xbf40fb32	-0.75383294
145	0xbfd29945	-1.6453024
146	0xbfc84e57	-1.5648907
147	0xbfa54b00	-1.2913513
148	0xbfc14978	-1.5100546
149	0xbfbae7c1	-1.4601976
150	0xbfcfaae7	-1.622403
151	0xbfc8a11c	-1.5674167
152	0xbe1094e9	-0.14119305
153	0xbf7ad23d	-0.9797705
154	0xbf30b013	-0.6901867
155	0xbffb0ecb	-1.961389
156	0xbfba741b	-1.4566683
157	0xbf3488e6	-0.7052139
158	0xbfa847cc	-1.3146911
159	0xbfa29e18	-1.2704496
160	0xbfb4fada	-1.4139054
161	0xbf862e6e	-1.0482919
162	0xbff46437	-1.9093083
163	0xc009bd77	-2.152189
164	0xbff426ff	-1.9074401
165	0xbf48f169	-0.7849336
166	0xbef857b9	-0.48504427
167	0xbfc034df	-1.5016135
168	0xbfe84041	-1.8144609
169	0xbf9c65a7	-1.2218522
170	0xbfe2e796	-1.7726924
171	0xbf6a3fe1	-0.9150372
172	0xbf8c1185	-1.0942847
173	0xbf8f9d49	-1.1219875
174	0xbfb7fc9c	-1.4373965
175	0xbfa9afc5	-1.3256766
176	0xbf6c7657	-0.9236807
177	0xbfb2c223	-1.3965496
178	0xbfa04603	-1.2521366
179	0xbf0b82a1	-0.544962
180	0xbfc99ffd	-1.575195
181	0xbfaec05a	-1.3652451
182	0xbfd929f7	-1.6965932
183	0xbf0f9d24	-0.5609915
184	0xc0045276	-2.067533
185	0xbfa87d28	-1.3163195
186	0xbfa5ad41	-1.2943498
187	0xbf88a287	-1.06746
188	0xbf7b3d6c	-0.981406
189	0xbfd72bdf	-1.6810263
190	0xbfd12a11	-1.6340963
191	0xbf19a0d5	-0.60011035
192	0xbfac497b	-1.3459924
193	0xbfaef0e9	-1.366727
194	0xc007139f	-2.1105726
195	0xbff64072	-1.9238417
196	0xbf702dd7	-0.93819946
197	0xbfe64406	-1.7989509
198	0xbfad71e1	-1.3550378
199	0xbf853a9b	-1.040851
200	0xbf492ddb	-0.78585595
201	0x3f5bde50	0.85886097
202	0xbfb0b5a0	-1.3805428
203	0xbf6b57b7	-0.9193072
204	0xbfba8089	-1.4570476
205	0xbfa3c87c	-1.2795558
206	0xbf67f463	-0.9060728
207	0xbfe391f4	-1.7778916
208	0xbee23e5e	-0.44188207
209	0xbf80f76c	-1.0075507
210	0xbf778cc4	-0.96699166
211	0xbfa8b256	-1.3179424
212	0xbfe16da8	-1.761159
213	0xbfcd98c5	-1.6062247
214	0xbf91f032	-1.1401427
215	0xbfbd70a2	-1.4799998
216	0xbf9b5960	-1.213665
217	0xbf125af4	-0.57170033
218	0xbfcb482a	-1.5881398
219	0xbf2590bb	-0.64673966
220	0xbfdd97e7	-1.7311982
221	0xbfa90e90	-1.3207569
222	0xbf1006d4	-0.5626042
223	0xbf724800	-0.94641113
224	0xbc823dac	-0.015898548
225	0xbf4283b0	-0.7598219
226	0xbfa7b776	-1.3102863
227	0xbf437249	-0.7634626
228	0xbf3bd33b	-0.7336919
229	0xbf6c6945	-0.9234813
230	0xbff1772c	-1.8864493
231	0xbf818d27	-1.0121201
232	0xbfc2354f	-1.5172518
233	0xbeebd2ce	-0.4605927
234	0xbf4ecbf7	-0.80779976
235	0xbf9b8316	-1.2149379
236	0xbeeda3e4	-0.464141
237	0xbf800176	-1.0000446
238	0xbfe19631	-1.762396
239	0xbfc53a07	-1.5408334
240	0xbe86361e	-0.26213163
241	0xbf605f4b	-0.87645406
242	0xbf5170a8	-0.81812525
243	0xbf1cb53e	-0.61214054
244	0xbff742a0	-1.9317207
245	0xbf842979	-1.0325156
246	0xbe1593c7	-0.14607154
247	0xbfb59eb6	-1.418906
248	0xbfe74c68	-1.8070192
249	0xbfde6552	-1.737467
250	0xbfca69bc	-1.5813518
251	0xbf971bfd	-1.1805416
252	0xbf4cc8f2	-0.7999412
253	0xbfabba82	-1.3416293
254	0xbf8d620c	-1.1045547
255	0xbf9422c1	-1.1573106

model.layers.block_0.norm.running_var f4 [256]
0	0x42222501	40.536137
1	0x42172df0	37.79486
2	0x420a0de4	34.513565
3	0x421043c3	36.066174
4	0x4212c0b9	36.688206
5	0x4231dccf	44.465633
6	0x4229a812	42.41413
7	0x4214cf49	37.202427
8	0x4226bebd	41.686268
9	0x421dce87	39.451687
10	0x42145453	37.082348
11	0x4205cfcb	33.452923
12	0x42261c68	41.52774
13	0x421b6845	38.851826
14	0x4209e17b	34.470196
15	0x4220061f	40.005978
16	0x420d09b1	35.259464
17	0x42147575	37.114704
18	0x4227de3f	41.967037
19	0x421b3a3c	38.80687
20	0x420ea991	35.665592
21	0x421012e0	36.018433
22	0x42115324	36.331192
23	0x421fa01d	39.90636
24	0x421abc16	38.683678
25	0x42244933	41.071484
26	0x420ed31f	35.706173
27	0x421927a3	38.288708
28	0x42032ac7	32.791775
29	0x420a959e	34.64611
30	0x42148aa5	37.135395
31	0x4226bce7	41.684475
32	0x4212d18c	36.704636
33	0x422c181d	43.02355
34	0x4231ecbc	44.481186
35	0x421ba7ed	38.91399
36	0x421401d3	37.00178
37	0x420cd85a	35.21128
38	0x421c76a8	39.115875
39	0x42362147	45.532497
40	0x42220659	40.5062
41	0x421a694d	38.602833
42	0x4223b4f2	40.926704
43	0x421f5656	39.834312
44	0x42172437	37.785366
45	0x4207de7a	33.967262
46	0x421d9a69	39.40079
47	0x4225de4a	41.46708
48	0x42138d15	36.887775
49	0x420f7e5c	35.873398
50	0x4206294e	33.540337
51	0x42375f52	45.843086
52	0x421677db	37.617046
53	0x421a6eda	38.608253
54	0x421d9e1e	39.40441
55	0x421ffa52	39.994453
56	0x422aa07d	42.656727
57	0x420ce2a1	35.221317
58	0x4229390b	42.305706
59	0x420b6062	34.844124
60	0x41fd70d2	31.680088
61	0x42446918	49.10263
62	0x423026dd	44.037952
63	0x42226694	40.600174
64	0x422b522b	42.830242
65	0x42365e59	45.592136
66	0x420c2e97	35.045498
67	0x422407b0	41.007507
68	0x420df9fd	35.49413
69	0x4221ec01	40.480473
70	0x42295685	42.33449
71	0x420bdfa1	34.968388
72	0x4209d749	34.46024
73	0x42138c39	36.886936
74	0x4223cc37	40.94943
75	0x421bcc45	38.949482
76	0x42032f1a	32.795998
77	0x4219a6bc	38.412827
78	0x423743eb	45.816326
79	0x41e41bf3	28.513647
80	0x4213df9a	36.96836
81	0x4212dc6f	36.715267
82	0x42245611	41.08405
83	0x42146503	37.098644
84	0x4221a63f	40.41235
85	0x4221c98c	40.446823
86	0x421afec6	38.748802
87	0x42041bf1	33.027287
88	0x4218fde8	38.247955
89	0x421e9bed	39.65227
90	0x42197d2e	38.372246
91	0x4215bfb0	37.437195
92	0x4209217f	34.28271
93	0x4222c1b4	40.689163
94	0x420b96bb	34.897198
95	0x4202a3c5	32.65993
96	0x4223d087	40.95364
97	0x4229a2ed	42.409107
98	0x4207f83b	33.992413
99	0x4209ccbc	34.449936
100	0x421958e2	38.3368
101	0x42074534	33.81758
102	0x4239843b	46.37913
103	0x421ef22d	39.7365
104	0x4218aad3	38.16682
105	0x4231aeca	44.420692
106	0x42182014	38.031326
107	0x4219ed56	38.481773
108	0x423d2c53	47.293285
109	0x4230f998	44.243744
110	0x42009159	32.14194
111	0x422fda0c	43.962936
112	0x4212e090	36.7193
113	0x4209b250	34.424133
114	0x42172601	37.787113
115	0x4220cab9	40.19797
116	0x421b217a	38.782692
117	0x42047c2a	33.121254
118	0x420c494c	35.07158
119	0x420c2362	35.034554
120	0x42083d45	34.059834
121	0x42256780	41.351074
122	0x421788cc	37.88359
123	0x4215df9c	37.46837
124	0x422941ff	42.31445
125	0x4225b577	41.42721
126	0x421269aa	36.603188
127	0x42232023	40.781384
128	0x422124bd	40.285877
129	0x421abd2b	38.684734
130	0x4211a154	36.407547
131	0x42132a44	36.791275
132	0x420e22e8	35.53409
133	0x4221df79	40.468235
134	0x42242abd	41.041737
135	0x421313de	36.7694
136	0x421e1bc6	39.527122
137	0x420cb469	35.17618
138	0x4212d478	36.70749
139	0x42187a75	38.119587
140	0x420d057d	35.25536
141	0x420950b5	34.328815
142	0x42137251	36.861637
143	0x421822c6	38.03396
144	0x421d3ccf	39.309383
145	0x42201572	40.020943
146	0x42205038	40.07834
147	0x4213a11c	36.907333
148	0x4215a10a	37.407265
149	0x42128fb4	36.640335
150	0x4223bae1	40.9325
151	0x421cb9b3	39.181347
152	0x422e3c1f	43.558712
153	0x42133571	36.80219
154	0x421258ba	36.586647
155	0x422a6059	42.59409
156	0x42060744	33.507095
157	0x41d31987	26.387465
158	0x4233179b	44.773052
159	0x421f7afc	39.870102
160	0x42201f5a	40.030617
161	0x421ea325	39.65932
162	0x424604a7	49.504543
163	0x42339473	44.89497
164	0x421787fa	37.88279
165	0x41d728dd	26.894953
166	0x420b4ad5	34.82308
167	0x422a21c9	42.532993
168	0x4211908b	36.391155
169	0x42233a33	40.806835
170	0x422bb8d6	42.930504
171	0x4207b22d	33.924
172	0x420f9808	35.898468
173	0x420f0245	35.752216
174	0x4227bc90	41.934143
175	0x421b3d6f	38.809994
176	0x4207025f	33.752316
177	0x420c12f8	35.018524
178	0x4217facc	37.99492
179	0x422660cb	41.594524
180	0x421d25d3	39.286938
181	0x4222ccac	40.699875
182	0x4208caf5	34.1982
183	0x4211f9f6	36.494102
184	0x4221abb2	40.41767
185	0x42084acc	34.073044
186	0x42023f1f	32.56164
187	0x4223b42b	40.925945
188	0x4200783d	32.11742
189	0x421d5b66	39.339256
190	0x42251c9f	41.27795
191	0x41dddf24	27.733955
192	0x421e6a4b	39.6038
193	0x42243fae	41.062187
194	0x42211408	40.26956
195	0x4213ee29	36.98258
196	0x420c3ef5	35.06148
197	0x4221c4e1	40.442265
198	0x422f65a7	43.84927
199	0x421efaf2	39.745064
200	0x42061b51	33.526676
201	0x4211ae33	36.420116
202	0x422a36b8	42.553436
203	0x4223a5a8	40.911774
204	0x421813a6	38.019188
205	0x42142433	37.03535
206	0x420dce97	35.451748
207	0x42209007	40.14065
208	0x4227ec46	41.980736
209	0x420c7f4d	35.124317
210	0x42111c52	36.277657
211	0x42058fe6	33.390526
212	0x4229a637	42.41232
213	0x42147993	37.118725
214	0x42151d93	37.27888
215	0x42169b55	37.65169
216	0x422cd824	43.211075
217	0x41ff4c78	31.912338
218	0x421e89b4	39.634476
219	0x421b83ad	38.87859
220	0x42198f28	38.3898
221	0x422a769e	42.615837
222	0x42083d56	34.0599
223	0x42348414	45.128983
224	0x422c4208	43.064484
225	0x4215c4f1	37.442326
226	0x4214a91d	37.16515
227	0x4215d4a9	37.457676
228	0x4224b864	41.18007
229	0x421176b4	36.36592
230	0x42122a46	36.541283
231	0x423026ed	44.038013
232	0x4212ad70	36.669373
233	0x4218bd67	38.184963
234	0x42088eaa	34.13932
235	0x4208053d	34.005116
236	0x421ac33a	38.69065
237	0x42187ec2	38.123787
238	0x42171554	37.77083
239	0x4225ab9c	41.417587
240	0x42174cf6	37.825157
241	0x420d84a2	35.379524
242	0x41dd347f	27.650633
243	0x420e760c	35.61528
244	0x4213ae86	36.920433
245	0x4219d706	38.459984
246	0x421d464b	39.318645
247	0x4233505c	44.828476
248	0x4217d49f	37.957638
249	0x421cf064	39.234756
250	0x4212826f	36.627377
251	0x4217efd8	37.984222
252	0x4202acf2	32.66889
253	0x4204a2f6	33.15914
254	0x420bfe8a	34.998573
255	0x4211698e	36.35308
