mlp/experiments/basic_cnn/runs/2024-05-19-11-51-55/checkpoints/last.ckpt (torch, 321016 bytes, 9 tensors)

model.embedding.weight f4 [711, 32]
0.61303616 0.76292574 -0.106507964 -1.2069914 -0.21048796 -1.2543496 0.14756262 2.1624026
0.22315301 -0.56891847 -0.93656397 -0.027821515 -0.6505652 1.1317025 -0.36006257 1.210625
-1.1516547 1.7291291 0.7112369 0.6813107 -1.4771684 0.16952205 0.027240356 1.6101736
-0.7591935 0.93823534 -0.13745138 -1.0279799 -0.039327838 0.48262057 -0.8854704 -0.349946
-0.36705822 -0.41641876 1.1885352 -0.30512092 -0.69092566 1.3948104 -0.8453936 -0.39942798
-0.22351569 0.80776966 0.41592523 1.1095015 -0.4369328 -0.64935964 -1.9881049 0.22321099
1.40757 -0.62001187 -1.6250541 0.8607569 -0.23017974 -1.657491 -1.0042071 1.4640776
-0.52014637 -2.0971026 1.1880591 0.5499357 0.9520631 0.7197406 0.91324884 -0.8904242
1.6393437 0.6148438 0.6883717 -0.8025146 0.37202114 -0.6085998 -2.3288686 0.8408938
-1.4717757 -0.27787346 -0.5802836 0.039598253 1.9551344 0.6499614 0.5797003 -0.9754866
1.4663006 0.4615669 -1.3961973 -1.8284131 1.67233 0.36766058 0.31430548 -0.20478605
0.22587438 -1.6142651 0.020661546 2.086795 -1.4363534 1.0315222 1.0546718 0.14350039
0.3591819 0.43010694 0.9501507 -1.2193981 -2.6880646 0.58972555 -1.9495687 -0.55204976
-0.074760996 -0.9993706 1.8764532 0.11355478 -1.214376 0.4872352 0.89497125 1.3761878
1.1264788 -0.0810249 -0.3755124 -0.6696417 -0.7306583 0.13455221 -1.848766 1.4553105
-1.0785285 -0.11601308 -0.47126728 -0.3353164 -0.99311274 0.20333655 -0.6871678 0.14518815
-0.5279668 0.4661186 2.0718672 -0.2417504 1.0372547 -1.3234029 0.18557155 0.30091938
-0.13137656 0.25782385 0.118430726 0.7505493 -1.5680791 0.77015966 -0.94667244 -0.4483387
0.3104381 0.8065899 0.35645264 -0.50449 -0.7270076 0.58411264 1.1459754 0.2320702
0.74367297 1.209663 -0.8674352 0.3996307 -1.6648966 0.18435039 0.12477114 -0.59429127
0.9811148 1.2519791 -0.8362669 -1.4202543 0.84589404 0.3230657 1.0730947 -0.1614343
0.8248855 0.49992526 -0.96050256 0.8463293 0.9206603 -0.9145582 0.6554231 0.32015812
0.37919623 0.891352 -0.00868551 -0.26760265 0.76629126 0.9887452 1.5923678 -0.55879253
-0.50769025 0.48148948 -1.6926602 -0.5718023 -0.2353884 -0.8006674 1.5207773 -1.3153771
-1.13081 -0.37182242 -0.16525656 -0.90095484 0.5612477 -0.8420767 1.7804359 -1.5788867
0.3656769 -0.32739794 -0.14092952 -0.20231347 0.0015400747 -1.0059286 0.82861334 0.5458312
-0.033430763 -1.1749781 1.2678343 -1.5302448 -0.77629644 -0.93716234 -0.22302112 -0.6388405
0.15270442 0.5829563 1.8354397 0.6424466 1.1467699 -1.6306137 -0.49743563 2.099531
0.39140722 -0.32060266 0.4085311 0.6160922 -0.7100866 -0.17848884 -1.0471319 -0.38445368
1.015632 -0.83088195 -0.006697849 -1.0441291 -0.28307533 -1.7804753 -0.68456215 -0.9724654
0.4926526 -0.89170945 -0.6901227 -2.2235515 -1.437982 -0.7568546 -0.8907846 -0.41797218
0.062476575 -0.7634422 -1.5967692 0.4126984 -1.2959515 -2.3294187 -0.49483722 1.3394558
00000000: f0ef 1c3f 1a4f 433f d920 dabd b27e 9abf
00000010: 288a 57be 878e a0bf a81a 173e ce64 0a40
00000020: 3982 643e a4a4 11bf a8c2 6fbf f2e9 e3bc
00000030: 718b 26bf a1db 903f 1f5a b8be c3f5 9a3f
00000040: 6c69 93bf 1a54 dd3f 9f13 363f 616a 2e3f
00000050: db13 bdbf 3097 2d3e 2b27 df3c 2b1a ce3f
00000060: 815a 42bf 3130 703f 0ec0 0cbe d894 83bf
00000070: 3a16 21bd 0b1a f73e 30ae 62bf 1f2c b3be
00000080: 0eef bbbe d734 d5be ec21 983f cf38 9cbe
00000090: 81e0 30bf 2689 b23f b76b 58bf d381 ccbe
000000a0: 4ce1 64be fec9 4e3f 27f4 d43e 2504 8e3f
000000b0: a8b5 dfbe 6f3c 26bf 397a febf 6c91 643e
000000c0: 412b b43f 19b9 1ebf c601 d0bf 905a 5c3f
000000d0: 3db4 6bbe aa28 d4bf dc89 80bf e566 bb3f
000000e0: 5028 05bf ee36 06c0 5212 983f 96c8 0c3f
000000f0: 68ba 733f ec40 383f adca 693f d7f2 63bf
00000100: 04d6 d13f 6766 1d3f 2139 303f 9971 4dbf
00000110: 8e79 be3e 32cd 1bbf 2f0c 15c0 d144 573f
00000120: 2563 bcbf 6e45 8ebe 778d 14bf c731 223d
00000130: d841 fa3f df63 263f 3d67 143f 7db9 79bf
00000140: bdaf bb3f 7f52 ec3e 98b6 b2bf 7109 eabf
00000150: e90e d63f 023e bc3e a6ec a03e 6fb3 51be
00000160: 9d4b 673e 3da0 cebf 6742 a93c 0d8e 0540
00000170: 6eda b7bf eb08 843f 7cff 863f c4f1 123e
00000180: b1e6 b73e fa36 dc3e 143d 733f 3d15 9cbf
00000190: 4009 2cc0 41f8 163f 788b f9bf 2253 0dbf
000001a0: 4b1c 99bd c0d6 7fbf 9e2f f03f 698f e83d
000001b0: ac70 9bbf e476 f93e d61c 653f ec26 b03f
000001c0: 7530 903f 62f0 a5bd 2943 c0be a36d 2bbf
000001d0: 6c0c 3bbf 0ec8 093e 5da4 ecbf 9d47 ba3f
000001e0: 390d 8abf 4498 edbd f249 f1be 97ae abbe
000001f0: a33c 7ebf 7537 503e 3bea 2fbf 34ac 143e
00000200: d528 07bf 19a7 ee3e 7999 0440 6b8d 77be
00000210: c3c4 843f 4465 a9bf 7806 3e3e 1b12 9a3e
00000220: 9487 06be 7d01 843e cf8b f23d 0024 403f
00000230: d1b6 c8bf 2f29 453f 2059 72bf a68c e5be
00000240: bef1 9e3e ad7c 4e3f f680 b63e 4226 01bf
00000250: 2c1d 3abf 6888 153f 52af 923f cfa3 6d3e
00000260: 5a61 3e3f 3dd6 9a3f 3c10 5ebf 659c cc3e
00000270: 551b d5bf 59c6 3c3e 0388 ff3d 7923 18bf
00000280: 572a 7b3f da40 a03f 9615 56bf e5ca b5bf
00000290: 838c 583f de68 a53e 2b5b 893f 084f 25be
000002a0: b22b 533f 34f6 ff3e 7fe3 75bf 09a9 583f
000002b0: 65b0 6b3f 7c20 6abf cfc9 273f c4eb a33e
000002c0: 0226 c23e a52f 643f ab4d 0ebc 3703 89be
000002d0: aa2b 443f 681e 7d3f b5d2 cb3f 070d 0fbf
000002e0: fdf7 01bf ca85 f63e 17a9 d8bf a361 12bf
000002f0: a809 71be 8af8 4cbf d5a8 c23f 475e a8bf
00000300: 62be 90bf 825f bebe 0439 29be faa4 66bf
00000310: eead 0f3f 5792 57bf 53e5 e33f f618 cabf
00000320: 013a bb3e b4a0 a7be d44f 10be 432b 4fbe
00000330: 55dc c93a 45c2 80bf 0120 543f 98bb 0b3f
00000340: b2ee 08bd af65 96bf 6548 a23f 10df c3bf
00000350: 5dbb 46bf dfe9 6fbf a65f 64be 0d8b 23bf
00000360: 8c5e 1c3e a03c 153f b0ef ea3f 6177 243f
00000370: 5bc9 923f f3b7 d0bf e2af febe b75e 0640
00000380: 8766 c83e 0826 a4be fd2a d13e 38b8 1d3f
00000390: 3cc8 35bf c7c5 36be 6b08 86bf 1dd7 c4be
000003a0: 3b00 823f aeb4 54bf a179 dbbb 06a6 85bf
000003b0: 40ef 90be 9de6 e3bf 773f 2fbf 7ef3 78bf
000003c0: f63c fc3e 1247 64bf e2ab 30bf ab4e 0ec0
000003d0: cb0f b8bf 39c1 41bf 760a 64bf 7300 d6be
000003e0: 70e7 7f3d f370 43bf ef62 ccbf 344d d33e
000003f0: bde1 a5bf 3215 15c0 4e5b fdbe 4a73 ab3f

model.layers.block_0.conv.weight f4 [256, 32, 5]
1.2421914 1.100267 0.61852807 0.25441748 -0.53341824 0.9358428 0.72886103 0.41882834
-1.5666125 -1.7889799 0.10769597 -0.03682315 -0.0008536373 -0.07667131 -0.84149 0.18677437
0.82763237 0.5411638 0.87513673 -0.6970206 0.015835118 -0.8626917 -0.426965 0.84004676
0.56222886 0.040046602 0.35332903 1.1004417 0.73205066 0.06330605 0.012407617 0.2752801
-0.14826806 0.24169965 0.2540935 0.012971361 0.5601989 0.77471507 0.79325384 -1.0817845
-0.09655702 0.35065815 0.62288016 -0.17784315 0.058144618 -0.62118167 -0.23089562 1.5107204
0.6904913 0.38580087 -0.6610745 0.21206045 0.6761496 0.6817053 -0.75095177 0.21117018
0.30263102 -1.0720229 -0.39836127 0.06973022 0.22253282 -0.37149686 -0.47667953 -0.91698146
-0.50728023 -0.3674289 0.16593549 0.05695237 0.78189963 0.4932993 -0.871165 -1.3930833
-0.81521726 0.62187195 0.06798302 -0.65810484 -0.9492862 0.21336904 1.0656058 1.0191748
-0.42572948 -0.29593596 0.489789 1.6748788 0.41647196 0.15373565 0.86930484 0.944022
-0.36096284 -1.331048 -0.14742495 -0.554596 -0.6194482 -0.8424417 0.03457173 0.04486316
-0.13243744 0.098370865 0.32039076 0.6585296 -0.2736201 -0.46769527 -0.5023097 -0.59381956
0.24911213 -0.012473162 -0.7332111 -0.07680826 -0.03390304 1.2717988 0.11781998 -0.5881643
0.35825884 -0.33208215 0.21937127 -0.7819754 -0.62945956 -0.26992014 0.0019824628 -0.59480447
0.5592585 0.7311011 0.97352684 -0.5155713 -1.0336117 0.06077356 0.8343467 0.076636806
-0.03369565 -0.17554282 -0.13471076 0.12019098 -0.14744218 0.13967203 -0.25487548 -0.033099864
-0.15339698 -0.67321205 0.14721026 0.34073383 -0.2154373 0.7784439 -0.1583697 0.7698477
-0.12987012 -1.0688832 -0.94982076 -0.75264543 0.70128745 0.82498676 -0.035734233 0.30492163
-0.14199679 -0.9579574 -0.2042422 0.10523421 -0.6323461 -0.093167774 0.7703368 0.13512637
-0.36339718 -0.5733873 -0.29308772 -0.55183685 -0.6177322 -0.50590104 -0.48251256 -0.55935484
-0.11798149 -0.2882636 -0.64348537 -0.13525149 0.94035333 0.5413192 0.69450974 1.1347665
1.6658268 0.8071391 -0.31921455 -0.95896465 -0.2223849 0.60965097 0.33399373 0.3523354
1.3030763 0.6756631 -0.15576111 -0.4992093 -0.94954413 -1.2408409 0.14685316 0.06800264
-0.26322854 -0.24638858 -0.004196737 -0.447316 -0.7782824 -0.45016894 -0.1490301 -0.16976292
-0.35205862 -0.69385016 -0.043407008 0.19006659 0.07318116 -0.38354158 0.19171695 0.2538912
-0.3824989 0.016161812 0.6728831 0.003057921 1.1141821 -0.4444683 -0.14989975 0.5617377
0.41372126 0.3069086 0.117526546 0.6241453 0.16727471 0.3810531 0.33738995 0.32394412
-0.10617578 0.36031142 -0.5310403 -1.0620846 -1.0135835 -0.5258894 0.96732545 0.2356354
0.4822856 0.68560255 0.3427697 0.32593694 -0.35380906 -0.0297351 -0.5040871 -0.1641413
-0.16113752 -0.20873007 -0.25211036 0.27278718 -0.12130753 0.050202996 -0.5100988 -0.5626446
0.3150195 0.74603444 0.19344412 -0.16114692 0.30339924 -0.10528908 -0.036060095 -0.00079441466
00000000: 2100 9f3f 8dd5 8c3f db57 1e3f 0243 823e
00000010: 198e 08bf 6593 6f3f a396 3a3f ab70 d63e
00000020: c286 c8bf 4bfd e4bf b48f dc3d dfd3 16bd
00000030: a1c6 5fba d905 9dbd e36b 57bf c841 3f3e
00000040: b7df 533f b689 0a3f f608 603f f16f 32bf
00000050: a6b8 813c 5dd9 5cbf 289b dabe 4e0d 573f
00000060: 3bee 0f3f e807 243d 8be7 b43e 46db 8c3f
00000070: ac67 3b3f 9aa6 813d 5149 4b3c 83f1 8c3e
00000080: 95d3 17be 1d80 773e 8b18 823e d585 543c
00000090: 3269 0f3f ba53 463f af12 4b3f ea77 8abf
000000a0: b0bf c5bd 7789 b33e 1375 1f3f 841c 36be
000000b0: 0d29 6e3d c305 1fbf e76f 6cbe 495f c13f
000000c0: 0ac4 303f b187 c53e 2e3c 29bf 6026 593e
000000d0: 2418 2d3f 3d84 2e3f 603e 40bf ff3c 583e
000000e0: 74f2 9a3e 0c38 89bf 02f6 cbbe b8ce 8e3d
000000f0: a5df 633e d634 bebe 570f f4be 4cbf 6abf
00000100: 1edd 01bf a41f bcbe feea 293e e346 693d
00000110: 932a 483f ba91 fc3e ab04 5fbf 8e50 b2bf
00000120: 14b2 50bf 0033 1f3f ae3a 8b3d 8f79 28bf
00000130: 6c04 73bf 6a7d 5a3e c565 883f 5274 823f
00000140: 37f9 d9be eb84 97be a0c5 fa3e 6e62 d63f
00000150: d03b d53e e16c 1d3e c38a 5e3f 6dab 713f
00000160: 1fd0 b8be c85f aabf 91f6 16be 01fa 0dbf
00000170: 2894 1ebf 42aa 57bf 169b 0d3d 6fc2 373d
00000180: ae9d 07be aa76 c93d 420a a43e 6595 283f
00000190: ef17 8cbe c175 efbe 5e97 00bf 8f04 18bf
000001a0: 4017 7f3e 3c5c 4cbc b9b3 3bbf a64d 9dbd
000001b0: eadd 0abd 4eca a23f 9a4b f13d f091 16bf
000001c0: b46d b73e ac06 aabe dda2 603e 8a2f 48bf
000001d0: 4324 21bf f932 8abe 35ec 013b 1b45 18bf
000001e0: 912b 0f3f 7129 3b3f 0e39 793f 7bfc 03bf
000001f0: 634d 84bf b2ed 783d bf97 553f c2f3 9c3d
00000200: 7304 0abd 7fc1 33be 9ef1 09be b026 f63d
00000210: 15fb 16be 2f06 0f3e 0a7f 82be b993 07bd
00000220: 1914 1dbe a057 2cbf 49be 163e aa74 ae3e
00000230: 989b 5cbe 1948 473f ab2b 22be bd14 453f
00000240: acfc 04be 2ad1 88bf 7427 73bf 5fad 40bf
00000250: 9387 333f 5532 533f 0f5e 12bd b01e 9c3e
00000260: 9b67 11be b23c 75bf de24 51be 0985 d73d
00000270: 6fe1 21bf bfce bebd cb34 453f 915e 0a3e
00000280: 320f babe 83c9 12bf 980f 96be 2e45 0dbf
00000290: b323 1ebf bb82 01bf e30b f7be e131 0fbf
000002a0: 48a0 f1bd 4997 93be 75bb 24bf 5e7f 0abe
000002b0: ffba 703f e593 0a3f 64cb 313f 0740 913f
000002c0: d039 d53f aba0 4e3f 1770 a3be b57e 75bf
000002d0: deb8 63be 1612 1c3f 3a01 ab3e 4e65 b43e
000002e0: 34cb a63f 42f8 2c3f d77f 1fbe 5d98 ffbe
000002f0: 5315 73bf e0d3 9ebf ad60 163e f844 8b3d
00000300: e4c5 86be 4a4d 7cbe c884 89bb 9a06 e5be
00000310: 843d 47bf 8b7c e6be 599b 18be 55d6 2dbe
00000320: 0741 b4be 2aa0 31bf 8ccb 31bd d1a0 423e
00000330: 01e0 953d 905f c4be 7351 443e 07fe 813e
00000340: e5d6 c3be c765 843c 1142 2c3f 6767 483b
00000350: 859d 8e3f 5991 e3be 527f 19be 0bce 0f3f
00000360: 46d3 d33e 2023 9d3e c2b1 f03d fdc7 1f3f
00000370: 104a 2b3e 6419 c33e 60be ac3e 01dc a53e
00000380: b072 d9bd bd7a b83e 42f2 07bf 63f2 87bf
00000390: 1bbd 81bf b0a0 06bf a4a2 773f 684a 713e
000003a0: 23ee f63e a683 2f3f 837f af3e 35e1 a63e
000003b0: 7626 b5be 0697 f3bc da0b 01bf a814 28be
000003c0: 3c01 25be 56bd 55be 9c14 81be c3aa 8b3e
000003d0: 1570 f8bd a8a1 4d3d d695 02bf 7a09 10bf
000003e0: 3c4a a13e 1dfc 3e3f 3716 463e b303 25be
000003f0: 2557 9b3e cda1 d7bd c0b3 13bd 4440 50ba

model.layers.block_0.conv.bias f4 [256]
-0.06009455 0.057750903 0.09441108 -0.002067828 0.04949874 0.048792206 -0.003848336 0.1567246
0.047263864 0.05689305 0.108269036 0.011032401 0.038974315 0.27047443 -0.026520234 0.09028679
0.15762833 0.07292285 -0.10241233 -0.025602667 0.19188318 -0.13376112 0.13099553 0.032066315
-0.20927955 0.15456179 -0.07966819 0.029626315 -0.117988355 0.101955384 0.0063752457 0.00896021
0.106510796 -0.08336511 -0.018037621 0.0025628286 -0.061022617 -0.010758997 0.08888033 0.010107
-0.014465906 0.040662766 0.082510166 0.08799751 0.011177222 -0.06149889 0.07529404 -0.038843546
-0.017053239 0.07311005 -0.016131135 0.09284018 -0.046670362 -0.16828686 0.124165386 0.0015964232
0.04539407 0.08245526 -0.07855053 0.015043145 0.075311065 0.06312231 0.13550566 -0.12337015
0.04865977 -0.03791185 -0.037248988 0.017344156 -0.15863496 0.06550671 0.043326776 0.001987164
0.006096041 0.1458588 0.026422927 -0.05632825 -0.11412407 -0.009704711 0.027795983 0.19252643
-0.020740224 0.01988153 -0.0002268873 -0.073099084 0.08494704 -0.039780986 -0.056835927 -0.050930742
-0.045566957 0.011765758 0.12517495 -0.024870161 0.10294099 0.00059087435 -0.21947336 0.075120635
0.004518176 -0.05636112 -0.15729901 0.16645996 -0.12157698 -0.07364176 -0.077781744 0.09017481
-0.08250337 -0.04205651 -0.006311769 -0.064729586 0.058858395 -0.07744893 0.011107894 0.005203082
0.079880476 0.10179068 0.084657975 -0.061413914 0.08802959 -0.095459774 -0.039633755 0.01583894
0.40893665 -0.06808389 -0.008929582 -0.023603093 0.005213841 0.16156639 -0.04865823 -0.02964526
0.019376213 0.12993507 -0.07491084 0.090842545 0.004963369 0.016085539 -0.030163376 0.09196801
-0.0021354372 0.0075431685 -0.028499102 -0.12644851 0.0070019225 -0.0579095 -0.01403603 0.03741894
0.13501813 0.03107075 0.15787403 -0.027154641 0.09624845 0.049382452 -0.0007750869 0.001371512
-0.023778498 0.077341355 -0.017835926 -0.010559952 0.047796696 0.17874315 -0.0096011795 0.09872835
0.12787081 0.20575579 0.09664366 0.106502965 -0.07696743 0.05604893 0.06665507 0.08947841
-0.039013393 -0.052797917 0.0066267494 -0.04730852 0.054354228 -0.021634033 -0.04691185 0.003918921
0.060534112 0.23026547 0.060931265 0.06918617 0.02168362 -0.063730195 -0.05423859 0.09801715
-0.018045468 -0.06861321 -0.023547126 0.060431574 0.020514393 -0.09756933 0.0073886295 0.1720064
0.116364904 -0.044832785 -0.0746516 0.014699773 0.042668138 -0.08276245 0.05493232 0.05992434
0.08110204 0.010010348 -0.057341617 0.07085364 0.027374178 0.04235636 -0.004612179 0.0141119845
0.088315465 0.15605494 0.08066437 0.11496669 -0.02014158 0.030112362 0.00030109176 0.10408214
0.09686006 0.08710819 0.1586581 -0.12796606 -0.079188764 0.03702531 0.104210705 0.19607392
0.014203803 0.31880742 0.11717465 0.009207832 0.03519882 0.073589325 0.04691285 -0.08180024
0.013949392 0.100693546 0.3777641 0.01590327 -0.02658966 -0.21828677 -0.061886005 0.07198682
0.13474104 0.06159834 -0.026888516 0.036867645 -0.08600243 0.15849388 0.062063083 0.087001145
0.11206891 -0.02910796 0.12117796 0.07392757 0.12328172 -0.054000318 0.13236147 0.021056574
00000000: b425 76bd 368c 6c3d 995a c13d 6684 07bb
00000010: 31bf 4a3d 56da 473d 5d34 7cbb 6a7c 203e
00000020: c197 413d b008 693d 28bc dd3d 3ec1 343c
00000030: 88a3 1f3d a07b 8a3e f640 d9bc 48e8 b83d
00000040: 5269 213e 9358 953d 8ebd d1bd afbc d1bc
00000050: 067d 443e adf8 08be b123 063e f857 033d
00000060: 614d 56be 7245 1e3e 1329 a3bd e3b2 f23c
00000070: e1a3 f1bd fccd d03d 70e7 d03b d8cd 123c
00000080: 5522 da3d 54bb aabd a2c3 93bc 21f5 273b
00000090: daf2 79bd 8146 30bc e406 b63d d597 253c
000000a0: 6802 6dbc 008e 263d 17fb a83d 0a38 b43d
000000b0: ab20 373c 43e6 7bbd c333 9a3d 691a 1fbd
000000c0: 3cb3 8bbc b9ba 953d 7125 84bc fe22 be3d
000000d0: 6c29 3fbd 6453 2cbe 6c4a fe3d 133f d13a
000000e0: 22ef 393d 4ede a83d 1adf a0bd 8677 763c
000000f0: b03c 9a3d 4546 813d ffc1 0a3e 7da9 fcbd
00000100: 784f 473d 7549 1bbd 6592 18bd 5515 8e3c
00000110: 3471 22be 6228 863d 6b77 313d 143b 023b
00000120: 4cc1 c73b 025c 153e e574 d83c 73b8 66bd
00000130: e1b9 e9bd 8200 1fbc 67b4 e33c a625 453e
00000140: 67e7 a9bc 97de a23c 99e8 6db9 f9b4 95bd
00000150: b7f8 ad3d 63f1 22bd cacc 68bd c19c 50bd
00000160: 6ba4 3abd 2ac5 403c dd2d 003e 82bc cbbc
00000170: bad2 d23d e8e4 1a3a a0bd 60be d9d8 993d
00000180: 350d 943b ebda 66bd fe12 21be 7b74 2a3e
00000190: 5afd f8bd 7ed1 96bd 094c 9fbd 92ad b83d
000001a0: 87f7 a8bd 7243 2cbd f5d2 cebb f290 84bd
000001b0: 8015 713d 8b9d 9ebd e2fd 353c 9e7e aa3b
000001c0: 6098 a33d a277 d03d 2961 ad3d 288d 7bbd
000001d0: dc48 b43d 6a80 c3bd 0157 22bd aac0 813c
000001e0: 2560 d13e 916f 8bbd 624d 12bc 465b c1bc
000001f0: ded8 aa3b a971 253e da4d 47bd 9eda f2bc
00000200: ddba 9e3c b30d 053e db6a 99bd a80b ba3d
00000210: c2a3 a23b d2c5 833c 2f19 f7bc b959 bc3d
00000220: b1f2 0bbb af2c f73b f376 e9bc b87b 01be
00000230: 6270 e53b 8332 6dbd 60f7 65bc 9a44 193d
00000240: 3142 0a3e 1688 fe3c bba9 213e 6973 debc
00000250: e81d c53d 4145 4a3d 342f 4bba 4ec4 b33a
00000260: 20cb c2bc 2565 9e3d a61c 92bc a603 2dbc
00000270: 78c6 433d 7208 373e 444e 1dbc 1732 ca3d
00000280: 91f0 023e a5b1 523e 1ced c53d 3a1e da3d
00000290: 1aa1 9dbd 9093 653d 7482 883d 7540 b73d
000002a0: 82cc 1fbd a142 58bd 3425 d93b 94c6 41bd
000002b0: 8aa2 5e3d db39 b1bc a426 40bd 4b6a 803b
000002c0: 9ef2 773d b6ca 6b3e 1093 793d 7bb1 8d3d
000002d0: d9a1 b13c fa84 82bd 4929 5ebd 37bd c83d
000002e0: 17d4 93bc 1585 8cbd e7e5 c0bc 1987 773d
000002f0: cd0d a83c 6ed2 c7bd 511c f23b 7222 303e
00000300: b950 ee3d 95a2 37bd f0e2 98bd 51d7 703c
00000310: c9c4 2e3d 5c7f a9bd b600 613d 3a73 753d
00000320: d418 a63d 7102 243c 0bdf 6abd b71b 913d
00000330: d03f e03c dd7d 2d3d c321 97bb f435 673c
00000340: bdde b43d decc 1f3e 5c33 a53d a873 eb3d
00000350: f4ff a4bc 33ae f63c dadb 9d39 0429 d53d
00000360: 915e c63d c765 b23d 4577 223e 8909 03be
00000370: b82d a2bd daa7 173d 6c6c d53d 9ac7 483e
00000380: 11b7 683c ba3a a33e 43f9 ef3d 72dc 163c
00000390: a32c 103d 00b6 963d b027 403d e286 a7bd
000003a0: fe8b 643c 6b38 ce3d 4c6a c13e 9347 823c
000003b0: 8fd2 d9bc 9186 5fbe 2e7c 7dbd d36d 933d
000003c0: 8ef9 093e 8a4e 7c3d 4e45 dcbc 8702 173d
000003d0: 0b22 b0bd 384c 223e dc35 7e3d a82d b23d
000003e0: 6284 e53d d173 eebc 262c f83d 5667 973d
000003f0: 207b fc3d 702f 5dbd c489 073e d67e ac3c

model.layers.block_0.norm.weight f4 [256]
4.6875825 4.3689494 4.4281883 4.278397 4.2132883 3.6663787 3.9973984 4.4817753
4.63487 4.5205855 3.9982817 3.5898097 4.3937473 4.412668 4.282898 3.998397
4.155955 3.6077518 4.4665275 4.75207 3.9648595 3.7583628 3.4151711 4.4729857
3.826815 4.384931 4.4238844 3.6512613 4.610768 4.1342063 4.6653023 4.0676947
4.3312507 3.088976 4.8734827 3.9753363 3.839221 3.9714744 4.2151003 3.8726544
3.6095352 3.6124825 3.7630389 4.04616 4.093814 4.6648912 4.3914695 3.4375725
3.9386537 4.145739 3.2548795 3.8158581 4.122176 5.1194415 4.3328633 3.9098587
4.738269 4.9359355 4.634014 3.7997034 4.3352957 3.8392396 4.332528 4.597943
3.9522946 5.202436 3.736071 3.9943612 4.8904653 3.9852333 4.488611 4.6415343
4.206103 4.1665535 3.8620646 4.9532123 3.7248597 4.913236 3.202536 3.1769571
4.240187 4.6788244 3.835228 4.366609 3.4013011 4.695598 4.6332116 4.8705955
4.407632 4.7735333 4.020145 4.36033 4.044096 4.6244974 4.52623 4.4870534
4.2569695 4.6983805 4.821835 3.704652 4.906658 3.612322 3.9872854 4.3773584
5.0409203 4.890843 4.3567677 4.696686 4.109943 4.295129 2.9635549 4.2807393
3.6393633 3.6892762 5.0506706 4.5909314 3.7845283 4.577519 4.3818545 3.4355085
3.5893402 5.018878 4.186788 4.5179973 3.9254305 5.375015 3.884956 4.188057
3.953464 4.306893 4.405188 3.7783847 4.2863297 4.3287 4.276649 4.2249823
4.3675094 5.042349 4.8551607 4.3573403 2.8877442 4.594095 4.292358 4.591663
4.315174 4.6303954 4.051519 4.1921954 4.7910333 4.610427 4.385473 4.4433255
4.3042245 4.072625 4.4636507 4.109024 4.3557153 4.052288 4.824691 4.27667
4.065945 4.3080144 5.372854 4.539029 4.4443693 3.8683298 4.239034 5.153848
4.237922 4.532769 4.932263 4.170815 4.9052753 4.9259467 4.995973 4.5672884
4.2505856 4.1414714 4.5806236 4.0447173 4.045027 4.960511 4.5050054 3.935559
3.700418 4.545119 4.1686096 4.4744554 4.0724974 4.945644 4.5205293 3.5580287
4.054273 4.3319325 4.481886 4.886175 3.5503075 4.9202595 3.353026 4.388783
4.165676 2.7136142 5.150209 4.3784537 4.5219235 4.1209483 4.2396717 4.2236457
3.9007342 4.6315246 4.221388 4.0700088 4.304494 4.5443606 3.5634062 4.1688027
4.237186 3.826314 4.3776 4.187432 4.1005106 4.9119267 4.509589 4.7501197
4.4540644 3.1592374 4.598105 3.9598572 4.817863 4.51678 4.9152474 3.3968072
4.4788156 4.250187 3.5400798 4.390719 4.88022 4.0943637 3.9912703 4.071119
4.3046412 4.2264514 4.0965886 4.354211 4.646061 4.65756 4.582418 4.5978484
4.6829243 4.6515245 4.4555287 4.477082 4.5248156 3.7234154 4.0634103 4.161352
00000000: ad00 9640 6fce 8b40 b8b3 8d40 a1e8 8840
00000010: 42d3 8640 f3a5 6a40 60d5 7f40 b46a 8f40
00000020: db50 9440 a3a8 9040 d9e3 7f40 71bf 6540
00000030: 9499 8c40 9434 8d40 800d 8940 bde5 7f40
00000040: 95fd 8440 68e5 6640 cbed 8e40 f510 9840
00000050: 42c0 7d40 0489 7040 2a92 5a40 b322 8f40
00000060: 89ea 7440 5b51 8c40 7690 8d40 44ae 6940
00000070: 698b 9340 6b4b 8440 284a 9540 8e2a 8240
00000080: 9b99 8a40 c8b1 4540 92f3 9b40 e96b 7e40
00000090: ccb5 7540 a32c 7e40 1ae2 8640 92d9 7740
000000a0: a002 6740 ea32 6740 a1d5 7040 257a 8140
000000b0: 8600 8340 ca46 9540 eb86 8c40 3001 5c40
000000c0: e712 7c40 e5a9 8440 f24f 5040 0537 7440
000000d0: dee8 8340 77d2 a340 d1a6 8a40 203b 7a40
000000e0: e69f 9740 2ff3 9d40 d849 9440 572e 7340
000000f0: beba 8a40 1ab6 7540 12a4 8a40 5922 9340
00000100: 65f2 7c40 5b7a a640 ca1b 6f40 9da3 7f40
00000110: b17e 9c40 100e 7f40 b4a2 8f40 7387 9440
00000120: 6598 8640 6854 8540 112c 7740 b780 9e40
00000130: 1a64 6e40 3b39 9d40 5af6 4c40 4453 4b40
00000140: 9daf 8740 eeb8 9540 6074 7540 43bb 8b40
00000150: ebae 5940 5742 9640 4543 9440 ebdb 9b40
00000160: 520b 8d40 c9c0 9840 07a5 8040 d387 8b40
00000170: 3c69 8140 e2fb 9340 e0d6 9040 f195 8f40
00000180: 1839 8840 2259 9640 794c 9a40 0519 6d40
00000190: 5803 9d40 4930 6740 af2f 7f40 5213 8c40
000001a0: 384f a140 c981 9c40 a46a 8b40 404b 9640
000001b0: a784 8340 b271 8940 e2aa 3d40 d1fb 8840
000001c0: 54eb 6840 1a1d 6c40 189f a140 e9e8 9240
000001d0: b635 7240 097b 9240 2738 8c40 5fdf 5b40
000001e0: c0b7 6540 a69a a040 2bfa 8540 6f93 9040
000001f0: 413a 7b40 1f00 ac40 1ea3 7840 9004 8640
00000200: 8e05 7d40 11d2 8940 4df7 8c40 0ed1 7140
00000210: 9d29 8940 b684 8a40 4fda 8840 0e33 8740
00000220: a3c2 8b40 ec5a a140 7a5d 9b40 556f 8b40
00000230: cdd0 3840 d402 9340 ff5a 8940 e7ee 9240
00000240: e815 8a40 332c 9440 0ba6 8140 7726 8640
00000250: 2550 9940 9e88 9340 cb55 8c40 b92f 8e40
00000260: 35bc 8940 f252 8240 3ad6 8e40 207d 8340
00000270: 0562 8b40 58ac 8140 de63 9a40 7bda 8840
00000280: 391c 8240 41db 8940 6cee ab40 ba3f 9140
00000290: 4638 8e40 b792 7740 2ba6 8740 53ec a440
000002a0: 0f9d 8740 720c 9140 19d5 9d40 5177 8540
000002b0: 04f8 9c40 5ba1 9d40 03df 9f40 3a27 9240
000002c0: cc04 8840 ef86 8440 7894 9240 536e 8140
000002d0: dc70 8140 82bc 9e40 0129 9040 33e0 7b40
000002e0: a6d3 6c40 9d71 9140 4065 8540 bd2e 8f40
000002f0: e651 8240 b742 9e40 2da8 9040 beb6 6340
00000300: 9bbc 8140 319f 8a40 9c6b 8f40 8c5b 9c40
00000310: 3d38 6340 c472 9d40 fa97 5640 e970 8c40
00000320: 384d 8540 dbab 2d40 83ce a440 4b1c 8c40
00000330: 99b3 9040 cfde 8340 64ab 8740 1b28 8740
00000340: a1a5 7940 7335 9440 9c15 8740 833d 8240
00000350: 6abe 8940 676b 9140 d90e 6440 d566 8540
00000360: 0797 8740 54e2 7440 4d15 8c40 71ff 8540
00000370: 6237 8340 812e 9d40 8e4e 9040 fb00 9840
00000380: b287 8e40 f230 4a40 ad23 9340 4d6e 7d40
00000390: ef2b 9a40 7689 9040 b549 9d40 4a65 5940
000003a0: 7552 8f40 8801 8840 ab90 6240 c580 8c40
000003b0: c32a 9c40 0705 8340 f970 7f40 9b46 8240
000003c0: 9fbf 8940 173f 8740 4117 8340 b255 8b40
000003d0: 88ac 9440 bb0a 9540 2ba3 9240 9321 9340
000003e0: 84da 9540 4ad9 9440 b193 8e40 4144 8f40
000003f0: 4acb 9040 704c 6e40 7507 8240 cc29 8540

model.layers.block_0.norm.bias f4 [256]
-1.0096595 -1.0674034 -0.4758223 -0.826704 -1.1225251 -0.659913 -1.1477737 -1.1331409
-1.215052 -1.4439847 -1.0827994 -1.3849292 -0.9043198 -0.84610325 -1.2626973 -1.1986116
-0.89946246 -1.0581099 -1.1437097 -1.1127712 -1.1863073 -0.99108374 -1.2474252 -0.6260072
-0.66407657 -1.5919093 -1.0659866 -0.55583596 -0.92650753 -1.0565355 -0.9339047 -1.1366192
-0.8539217 -0.2724724 -1.3088739 -1.118134 -0.8840185 -1.0116165 -1.1590815 -1.0077611
-0.840132 -0.8397679 -0.9306777 -0.9203043 -1.2580345 -0.73921555 -1.271736 -0.9884714
-0.8716496 -0.6893919 -0.83328 -0.99852014 -1.1823736 -1.0982281 -0.79012567 -0.81566435
-1.2139441 -1.2857773 -0.9251921 -0.46855178 -0.81140053 -1.0645417 -1.0080051 -0.7180055
-1.3439488 -1.007944 -1.1649644 -0.92083454 -1.3185754 -0.7376221 -1.4461255 -1.0757408
-0.9639431 -0.97717977 -1.1043588 -1.4144553 -1.0920901 -1.0605152 -0.8573242 -0.39973655
-0.6936239 -0.6576855 -0.7313933 -1.1827204 -0.5547235 -1.3032594 -1.1546075 -1.1820303
-1.5819849 -1.0305789 -1.3163764 -1.0793906 -1.0299859 -1.2500058 -1.1063839 -1.0840467
-0.7451545 -0.79125994 -1.3182082 -1.0518131 -1.1730682 -1.0904616 -1.2294987 -0.93814397
-1.1123546 -1.4720843 -0.7686348 -1.4114144 -1.2968234 -0.86850756 -0.41450873 -0.9208552
-0.84752804 -0.59803873 -0.8529393 -1.141459 -1.0882565 -1.2341908 -0.8701376 -0.5941547
-0.4622819 -0.89306456 -0.95518756 -1.1933264 -0.68588316 -1.2867528 -0.94892037 -1.1748974
-1.0178907 -0.73551583 -0.73442376 -0.9260467 -1.0051625 -1.3078437 -0.98367816 -1.0580307
-0.9681387 -0.9117041 -1.0224094 -0.98760825 -0.65119946 -1.0136515 -1.1548405 -0.8700549
-1.237719 -1.3273959 -1.5422823 -1.2264539 -1.401973 -1.1702051 -1.149936 -1.279527
-1.4603417 -0.8958023 -0.68291765 -1.2767541 -1.206444 -0.7900156 -1.146671 -0.9645885
-1.0868808 -0.94844395 -1.6258836 -1.557595 -1.388718 -0.7870072 -0.58230674 -1.3182378
-1.2179993 -0.9230236 -1.430154 -0.9302802 -1.123881 -0.96243733 -1.111616 -1.1807287
-0.8085696 -1.2228491 -1.0842179 -0.93208367 -1.1849792 -1.0437996 -1.350294 -0.90180933
-1.2841848 -0.99436027 -0.9888455 -0.9460159 -0.86842036 -1.3200364 -1.137135 -0.66328174
-0.97299385 -0.93013084 -1.5264474 -1.5433787 -0.3142629 -1.444928 -0.81998515 -0.8446241
-0.79626113 -0.8587609 -1.1418868 -0.7024255 -1.1740956 -1.0799776 -0.7644951 -1.1997725
-0.4930912 -0.93061024 -0.8620279 -1.0748007 -1.1923528 -1.34889 -0.75368005 -1.1244835
-0.93477786 -0.6407006 -1.2964169 -0.71880776 -1.1101581 -0.9848561 -0.5766306 -0.829253
-0.77281845 -0.41330978 -1.2732793 -0.92943865 -0.9532863 -0.9014955 -1.6480336 -0.82202613
-1.1580144 -1.0623939 -0.6948514 -1.1331904 -0.5722908 -0.22418271 -1.1372665 -1.1017445
-0.8840607 -0.9000625 -1.6960541 -0.6675418 -1.3787526 -1.1871123 -1.3117163 -1.0055407
-1.4868388 -1.3414401 -1.3139455 -0.9956868 -0.8004586 -0.9368794 -0.9728005 -1.1471643
00000000: 863c 81bf ada0 88bf fb9e f3be e0a2 53bf
00000010: e7ae 8fbf 0ff0 28bf 40ea 92bf c30a 91bf
00000020: d386 9bbf 7ed4 b8bf 2c99 8abf 5c45 b1bf
00000030: 8181 67bf 399a 58bf 11a0 a1bf 1b6c 99bf
00000040: 2c43 66bf 2570 87bf 1465 92bf 496f 8ebf
00000050: ebd8 97bf aab7 7dbf a1ab 9fbf 0242 20bf
00000060: ec00 2abf afc3 cbbf 4072 88bf 444b 0ebf
00000070: 992f 6dbf 8e3c 87bf 6114 6fbf bd7c 91bf
00000080: 9d9a 5abf 8181 8bbe 2e89 a7bf 041f 8fbf
00000090: 094f 62bf a67c 81bf c85c 94bf 51fe 80bf
000000a0: e412 57bf 07fb 56bf e540 6ebf 1099 6bbf
000000b0: 4607 a1bf 3b3d 3dbf 3fc8 a2bf 760c 7dbf
000000c0: 6e24 5fbf fd7b 30bf d751 55bf 049f 7fbf
000000d0: 0558 97bf bd92 8cbf ad45 4abf 61cf 50bf
000000e0: 8562 9bbf 5a94 a4bf 64d9 6cbf 05e6 efbe
000000f0: f2b7 4fbf e742 88bf 5006 81bf 35cf 37bf
00000100: 8406 acbf 4f04 81bf 8e1d 95bf d0bb 6bbf
00000110: 14c7 a8bf cdd4 3cbf a41a b9bf e0b1 89bf
00000120: fac4 76bf 7428 7abf a15b 8dbf df0c b5bf
00000130: 9cc9 8bbf f6be 87bf 9979 5bbf 45aa ccbe
00000140: 5691 31bf 145e 28bf 973c 3bbf 6263 97bf
00000150: 5c02 0ebf 34d1 a6bf 2eca 93bf c54c 97bf
00000160: 7b7e cabf 02ea 83bf 067f a8bf 7929 8abf
00000170: 94d6 83bf 3100 a0bf fd9d 8dbf 0bc2 8abf
00000180: 72c2 3ebf 0390 4abf 0cbb a8bf d0a1 86bf
00000190: 1927 96bf 3f94 8bbf 3760 9dbf 342a 70bf
000001a0: a361 8ebf 426d bcbf 40c5 44bf 3aa9 b4bf
000001b0: 4ffe a5bf 8356 5ebf 7d3a d4be 2bbd 6bbf
000001c0: 99f7 58bf 1119 19bf 3b5a 5abf 541b 92bf
000001d0: fd4b 8bbf f7f9 9dbf 56c1 5ebf 861a 18bf
000001e0: 37b0 ecbe e19f 64bf 2c87 74bf ebbe 98bf
000001f0: 0a96 2fbf 51b4 a4bf 72ec 72bf 0a63 96bf
00000200: 3e4a 82bf c44a 3cbf 3203 3cbf 6611 6dbf
00000210: 2aa9 80bf 6c67 a7bf 55d2 7bbf 8d6d 87bf
00000220: f0d7 77bf 7165 69bf 50de 82bf e5d3 7cbf
00000230: 02b5 26bf 55bf 81bf d0d1 93bf ebbb 5ebf
00000240: 946d 9ebf 1ce8 a9bf 8269 c5bf 71fc 9cbf
00000250: da73 b3bf 48c9 95bf 1a31 93bf 8ac7 a3bf
00000260: 7aec babf 4d53 65bf b1d3 2ebf ae6c a3bf
00000270: c26c 9abf 763e 4abf 1ec6 92bf 46ef 76bf
00000280: e91e 8bbf 39cd 72bf f41c d0bf 465f c7bf
00000290: 83c1 b1bf 4e79 49bf 0e12 15bf 04bc a8bf
000002a0: 67e7 9bbf 464b 6cbf 490f b7bf d826 6ebf
000002b0: 55db 8fbf 4b62 76bf 6f49 8ebf 1e22 97bf
000002c0: 6bfe 4ebf 5286 9cbf a7c7 8abf 099d 6ebf
000002d0: 66ad 97bf 3a9b 85bf 6fd6 acbf fadc 66bf
000002e0: 2b60 a4bf 658e 7ebf fb24 7dbf 192e 72bf
000002f0: cc50 5ebf f4f6 a8bf a48d 91bf d5cc 29bf
00000300: 2016 79bf 0e1d 6ebf a162 c3bf 6f8d c5bf
00000310: 11e7 a0be 67f3 b8bf 8cea 51bf 4939 58bf
00000320: c5d7 4bbf c1d7 5bbf 5929 92bf 28d2 33bf
00000330: c448 96bf b53c 8abf f3b5 43bf 2592 99bf
00000340: 7376 fcbe 793c 6ebf dcad 5cbf 1293 89bf
00000350: 049f 98bf 6da8 acbf 2df1 40bf 13ef 8fbf
00000360: 9a4d 6fbf f404 24bf fdf0 a5bf c903 38bf
00000370: a919 8ebf 881f 7cbf 109e 13bf ed49 54bf
00000380: 6ed7 45bf 579d d3be d1fa a2bf b1ef 6dbf
00000390: 920a 74bf 69c8 66bf c4f2 d2bf 4e70 52bf
000003a0: d139 94bf 86fc 87bf c8e1 31bf 620c 91bf
000003b0: a681 12bf 2790 65be f391 91bf f705 8dbf
000003c0: cd51 62bf 7f6a 66bf 4d18 d9bf 05e4 2abf
000003d0: f77a b0bf 4cf3 97bf 52e6 a7bf 8fb5 80bf
000003e0: bc50 bebf 4fb4 abbf 5e2f a8bf 55e5 7ebf
000003f0: dbea 4cbf 54d7 6fbf 7409 79bf 48d6 92bf

model.layers.block_0.norm.running_mean f4 [256]
-0.995026 -1.0093329 -0.31912434 -0.8163475 -1.1832592 -0.8369794 -1.3889705 -0.5388975
-1.2854401 -1.4939866 -0.9593605 -0.56583637 -1.0025687 -0.5475389 -1.6032534 -1.3562084
-0.9208867 -0.8731903 -1.1731484 -1.2433842 -0.47164392 -1.448122 0.03381605 -0.61220896
-1.4590071 -1.6838188 -1.2606199 -0.55439645 -0.92674875 -0.8629547 -0.92242706 -1.4814099
-0.88410354 -1.2265904 -1.514789 -1.5268599 -0.64944965 -1.3120984 -0.31869054 -1.493993
-0.5694493 -1.0522023 -1.1487346 -0.7828112 -0.7882134 -0.70182645 -1.4089961 -1.1829187
-1.1309825 -0.69714457 -0.27164996 -1.316347 -1.411422 -1.1104856 -0.78108525 -0.9118182
-1.1399359 -1.1699843 -1.1556503 -0.367241 -0.326508 -1.4445821 -1.0828698 -0.9025575
-1.6684937 -0.7251956 -1.5651925 -1.0632762 -1.2106881 -0.7204714 -1.6961912 -0.89720684
-1.0250169 -0.7931917 -1.4881579 -1.4783531 -0.9256195 -0.90361345 -1.4949976 -1.6303674
-0.7758272 -0.15352276 -0.8438732 -1.5248411 -1.0733975 -0.60789514 -1.103938 -0.6393299
-1.6444479 -0.94174767 -1.5266613 -1.2958635 -1.0576683 -1.3909538 -1.3752658 -1.0288442
-0.8182055 -0.96282893 -1.4946579 -1.0846996 -1.2484841 -1.5832992 -1.7806088 -0.4548096
-1.1074494 -1.540188 -0.9060295 -1.5277482 -1.5613811 -1.158839 -1.2869852 -0.9798692
-1.4986312 -0.598938 -0.7234243 -1.3629811 -1.1784693 -1.3343806 -0.8896921 -0.38673663
-0.13591778 -0.9577766 -0.5016049 -1.4012533 -0.7830028 -1.2125348 -1.3306189 -1.377592
-1.3565531 -0.5575299 -0.7909946 -1.1002668 -1.1817777 -1.4599794 -0.92323846 -1.1453745
-0.8532343 -0.73407954 -1.1656637 -1.1875347 -0.33151984 -1.018489 -1.0340748 -0.6279032
-0.6167083 -1.3739065 -1.2953569 -1.1702164 -1.2525252 -1.2219397 -1.3748316 -1.3616484
-0.15556155 -0.747163 -0.6484252 -1.7191329 -1.212642 -0.55743957 -1.0149872 -1.0421721
-1.1792767 -0.83536553 -1.4751102 -1.891989 -1.6543285 -0.60711396 -0.3409136 -1.3439026
-1.5477409 -1.0469841 -1.5308478 -0.6872366 -0.9642836 -0.96590304 -1.2992668 -1.1351624
-0.8080236 -1.1950536 -1.1753697 -0.37027282 -1.3601987 -1.1662867 -1.3285203 -0.48066446
-1.874516 -0.9963201 -1.1034148 -0.91671264 -0.847143 -1.2479041 -1.407327 -0.55514777
-1.0797642 -1.1726445 -1.7333096 -1.6570833 -0.82802224 -1.7096984 -1.262415 -0.8300745
-0.70649046 0.72859627 -1.2601192 -0.7216937 -1.331241 -1.00745 -0.80402505 -1.4916954
-0.3905816 -0.7981849 -0.7370985 -1.1670552 -1.5480549 -1.5276127 -1.0272925 -1.1306741
-1.1087842 -0.64042443 -1.4343953 -0.5417505 -1.3812096 -1.2020233 -0.4793799 -0.6976159
-0.14506502 -0.79177743 -1.1110231 -0.7124918 -0.60474694 -0.9005417 -1.5426397 -0.849178
-1.3253015 -0.38356787 -0.44761065 -1.2329654 -0.37660077 -0.9673677 -1.439281 -1.363607
-0.18505754 -0.71962035 -0.83598036 -0.4860428 -1.692283 -0.85552204 -0.06497909 -1.1976796
-1.4793954 -1.4721439 -1.2647635 -0.9662132 -0.6566092 -1.1174068 -0.98936146 -1.079774
00000000: 06ba 7ebf d231 81bf 4464 a3be 26fc 50bf
00000010: 0a75 97bf 4844 56bf c9c9 b1bf 30f5 09bf
00000020: 4d89 a4bf f43a bfbf a698 75bf a7da 10bf
00000030: 2c54 80bf 822b 0cbf 6837 cdbf 3d98 adbf
00000040: 3bbf 6bbf 6689 5fbf ba29 96bf 3727 9fbf
00000050: 507b f1be 105c b9bf b382 0a3d bab9 1cbf
00000060: bfc0 babf 6087 d7bf fe5b a1bf edec 0dbf
00000070: 683f 6dbf 99ea 5cbf 2e24 6cbf d79e bdbf
00000080: 9c54 62bf ea00 9dbf 9be4 c1bf 2570 c3bf
00000090: 5542 26bf d7f2 a7bf 682b a3be 2a3b bfbf
000000a0: 6ec7 11bf 91ae 86bf bc09 93bf 5166 48bf
000000b0: 5ac8 49bf e6aa 33bf fc59 b4bf e169 97bf
000000c0: 09c4 90bf 1178 32bf b415 8bbe 0f7e a8bf
000000d0: 7aa9 b4bf 6424 8ebf 34f5 47bf eb6c 69bf
000000e0: 6be9 91bf 0cc2 95bf 59ec 93bf 0307 bcbe
000000f0: 0e2c a7be 11e8 b8bf 7a9b 8abf 020e 67bf
00000100: 3491 d5bf 6ba6 39bf 3a58 c8bf 6f19 88bf
00000110: d4f7 9abf d070 38bf cb1c d9bf 59af 65bf
00000120: c133 83bf 9c0e 4bbf f57b bebf ad3a bdbf
00000130: 66f5 6cbf 3653 67bf 155c bfbf e1af d0bf
00000140: 9d9c 46bf 1235 1dbe 1308 58bf fe2d c3bf
00000150: 1765 89bf 049f 1bbf d74d 8dbf 20ab 23bf
00000160: 457d d2bf 6016 71bf a369 c3bf dbde a5bf
00000170: ad61 87bf c60a b2bf b608 b0bf 2bb1 83bf
00000180: ea75 51bf f57b 76bf f350 bfbf 70d7 8abf
00000190: 54ce 9fbf 8ca9 cabf fdea e3bf cedc e8be
000001a0: e7c0 8dbf e124 c5bf 8df1 67bf 418d c3bf
000001b0: 56db c7bf d654 94bf eebb a4bf b5d8 7abf
000001c0: 26d3 bfbf 0054 19bf 5632 39bf 2a76 aebf
000001d0: 15d8 96bf fccc aabf ddc2 63bf 5802 c6be
000001e0: 082e 0bbe d930 75bf 2e69 00bf 455c b3bf
000001f0: df72 48bf 5734 9bbf b851 aabf ef54 b0bf
00000200: 88a3 adbf 48ba 0ebf 9f7e 4abf 8bd5 8cbf
00000210: 7e44 97bf 9be0 babf 5b59 6cbf a29b 92bf
00000220: 906d 5abf a3ec 3bbf 7834 95bf 2301 98bf
00000230: f8bc a9be d95d 82bf 905c 84bf 44be 20bf
00000240: 98e0 1dbf 2bdc afbf 41ce a5bf a7c9 95bf
00000250: bf52 a0bf 8568 9cbf 7bfa afbf 7f4a aebf
00000260: 874b 1fbe 1346 3fbf 32ff 25bf 8c0c dcbf
00000270: da37 9bbf 5cb4 0ebf 1aeb 81bf e565 85bf
00000280: 8af2 96bf 84da 55bf 69d0 bcbf b22c f2bf
00000290: 09c1 d3bf d26b 1bbf 3a8c aebe 0005 acbf
000002a0: 601c c6bf 9303 86bf d2f2 c3bf bdee 2fbf
000002b0: 4adb 76bf 6c45 77bf 604e a6bf 004d 91bf
000002c0: a2da 4ebf 84f7 98bf 8472 96bf 6694 bdbe
000002d0: fe1a aebf e248 95bf f40c aabf a719 f6be
000002e0: 24f0 efbf d60e 7fbf b23c 8dbf aead 6abf
000002f0: 5dde 58bf 52bb 9fbf 4b23 b4bf 2a1e 0ebf
00000300: b735 8abf 3719 96bf 17dd ddbf 4e1b d4bf
00000310: 44f9 53bf 66d7 dabf d196 a1bf c37f 54bf
00000320: 8fdc 34bf 4985 3a3f 964b a1bf ebc0 38bf
00000330: 1b66 aabf 1ff4 80bf 96d4 4dbf e0ef bebf
00000340: 50fa c7be d855 4cbf 7db2 3cbf 1162 95bf
00000350: aa26 c6bf d088 c3bf 527e 83bf eeb9 90bf
00000360: a4ec 8dbf dbf2 23bf 449a b7bf 29b0 0abf
00000370: 7acb b0bf e6db 99bf 4871 f5be f596 32bf
00000380: ed8b 14be edb1 4abf 0136 8ebf dd65 36bf
00000390: b2d0 1abf e789 66bf 3875 c5bf bb63 59bf
000003a0: 7ba3 a9bf 0263 c4be 392d e5be cfd1 9dbf
000003b0: d1d1 c0be 69a5 77bf 5c3a b8bf ad8a aebf
000003c0: b97f 3dbe 0a39 38bf cf02 56bf 9ada f8be
000003d0: bb9c d8bf 7e03 5bbf c213 85bd 914d 99bf
000003e0: d45c bdbf 366f bcbf c5e3 a1bf c059 77bf
000003f0: 8a17 28bf 3007 8fbf cb46 7dbf 0936 8abf

model.layers.block_0.norm.running_var f4 [256]
34.418304 31.108942 28.47409 30.309042 30.12577 36.78842 34.034195 30.873466
34.121204 32.41082 30.545898 27.274298 34.68029 32.67315 28.454676 33.198402
29.099375 31.095203 35.018898 32.517788 28.913027 28.857746 29.029238 32.737934
31.488134 33.758877 29.345304 31.125181 27.37089 28.289354 30.307087 34.623226
29.966063 35.422318 37.40116 31.554485 30.411043 29.999983 32.233162 38.444344
32.45694 31.871162 33.60457 32.75576 30.148598 27.020746 32.882214 34.69262
30.620842 30.198423 27.25776 37.464077 30.392315 32.667763 32.74615 32.917774
35.358837 29.320284 35.272175 29.686056 27.112345 39.90387 35.814774 34.09105
35.888805 38.1264 28.46351 33.528427 29.424479 33.183746 34.68915 28.51671
28.726187 29.643225 33.82928 32.816326 27.075289 31.664566 36.981945 22.804989
30.555523 31.244617 34.33875 30.521544 33.19389 33.174587 31.83259 27.520882
30.996748 32.68229 31.299206 31.046247 27.794344 33.833275 28.656778 26.768408
34.399265 35.80054 28.6427 28.611425 31.866686 27.437702 37.280975 33.086235
31.751314 35.55365 31.80967 31.63956 40.061234 37.538357 26.751877 36.186066
29.464457 28.722216 31.21279 32.96824 31.76274 26.979393 29.034933 28.998821
28.603523 35.142853 31.608398 31.140144 34.401215 35.00614 30.291786 33.874775
33.006306 33.12191 29.995768 30.944847 29.940521 32.44342 34.205597 30.875544
33.85188 29.246464 30.850054 31.690104 29.698423 28.358574 30.034758 31.72909
32.403717 33.34093 33.71557 30.77339 31.108232 29.553633 34.339252 32.95331
36.453358 30.031977 30.91458 36.780914 27.658772 21.603426 37.62493 33.017654
33.18703 32.921516 41.44159 38.5843 31.254417 21.75875 28.974678 35.136757
29.866978 34.99606 36.633907 27.59161 30.301928 29.568914 36.10081 32.141834
28.46943 29.010077 31.82206 33.496616 31.745703 33.44856 27.978453 29.448391
33.15694 27.88236 26.3014 34.559265 26.540203 33.16027 34.7983 21.863462
32.899353 34.38419 33.242104 30.775326 29.520063 33.653587 36.07485 32.83914
27.43214 30.233078 35.81145 34.334408 31.569 31.180754 29.355335 33.40625
35.283817 29.155334 29.29377 27.989498 36.07948 30.565855 30.794085 30.618727
35.30908 26.992325 33.253998 32.734066 31.497047 35.870926 28.289196 36.993553
35.14526 29.818338 31.4151 30.778955 35.166027 30.131363 29.881863 36.65246
30.021128 31.654322 27.780071 28.184076 32.662003 32.30294 30.903946 34.985546
32.171608 28.915487 23.0467 29.144567 30.296926 31.862864 32.703743 38.05122
31.186834 32.223164 30.36822 31.074308 26.948051 26.89771 29.16823 29.434452
00000000: 58ac 0942 1ddf f841 f0ca e341 eb78 f241
00000010: 9401 f141 5827 1342 0423 0842 dcfc f641
00000020: 1d7c 0842 aea4 0142 005e f441 c331 da41
00000030: 9eb8 0a42 4eb1 0242 2da3 e341 2acb 0442
00000040: 85cb e841 fac2 f841 5a13 0c42 3712 0242
00000050: e14d e741 aadc e641 e13b e841 a5f3 0242
00000060: b3e7 fb41 1709 0742 2fc3 ea41 5f00 f941
00000070: 95f7 da41 9950 e241 ea74 f241 2f7e 0a42
00000080: 7fba ef41 74b0 0d42 ca9a 1542 966f fc41
00000090: d149 f341 f7ff ef41 c2ee 0042 02c7 1942
000000a0: e8d3 0142 24f8 fe41 146b 0642 e605 0342
000000b0: 5430 f141 7d2a d841 6387 0342 3ec5 0a42
000000c0: 7cf7 f441 5f96 f141 e40f da41 37db 1542
000000d0: 7623 f341 caab 0242 0ffc 0242 cdab 0342
000000e0: 736f 0d42 f18f ea41 b516 0d42 0b7d ed41
000000f0: 15e6 d841 909d 1f42 5442 0f42 3c5d 0842
00000100: 238e 0f42 6f81 1842 45b5 e341 1c1d 0642
00000110: 5565 eb41 28bc 0442 b1c1 0a42 3922 e441
00000120: 3bcf e541 5325 ed41 2f51 0742 eb43 0342
00000130: 319a d841 0851 fd41 83ed 1342 9e70 b641
00000140: b671 f441 faf4 f941 e15a 0942 1f2c f441
00000150: 8bc6 0442 c7b2 0442 25a9 fe41 c42a dc41
00000160: 57f9 f741 aaba 0242 c664 fa41 b75e f841
00000170: d15a de41 4655 0742 1541 e541 b325 d641
00000180: d998 0942 c133 0f42 4024 e541 33e4 e441
00000190: f9ee fe41 6a80 db41 b81f 1542 4e58 0442
000001a0: b102 fe41 f036 0e42 347a fe41 d21d fd41
000001b0: b43e 2042 4727 1642 d803 d641 88be 1042
000001c0: 35b7 eb41 19c7 e541 cbb3 f941 7adf 0342
000001d0: 171a fe41 ccd5 d741 8b47 e841 96fd e741
000001e0: 04d4 e441 4892 0c42 00de fc41 041f f941
000001f0: d89a 0942 4a06 0c42 9455 f241 c57f 0742
00000200: 7506 0442 d67c 0442 55f7 ef41 0c8f f741
00000210: 3086 ef41 10c6 0142 88d2 0842 1d01 f741
00000220: 5368 0742 c2f8 e941 e9cc f641 5585 fd41
00000230: 5f96 ed41 5cde e241 2f47 f041 2dd5 fd41
00000240: 689d 0142 1d5d 0542 bedc 0642 e72f f641
00000250: a9dd f841 d76d ec41 655b 0942 30d0 0342
00000260: 3dd0 1142 7d41 f041 0f51 f741 a81f 1342
00000270: 2a45 dd41 d1d3 ac41 ee7f 1642 1412 0442
00000280: 85bf 0442 a2af 0342 30c4 2542 5356 1a42
00000290: 0c09 fa41 ec11 ae41 24cc e741 0a8c 0c42
000002a0: 92ef ee41 f7fb 0b42 1f89 1242 9ebb dc41
000002b0: 596a f241 238d ec41 3b67 1042 3d91 0042
000002c0: 65c1 e341 a314 e841 9493 fe41 89fc 0542
000002d0: 33f7 fd41 53cb 0542 dfd3 df41 4e96 eb41
000002e0: b5a0 0442 130f df41 4469 d241 b03c 0a42
000002f0: 5652 d441 1ea4 0442 7631 0b42 5fe8 ae41
00000300: f098 0342 6989 0942 eaf7 0442 de33 f641
00000310: 1729 ec41 469d 0642 a54c 1042 485b 0342
00000320: 0675 db41 58dd f141 ed3e 0f42 6f56 0942
00000330: 508d fc41 2f72 f941 bad7 ea41 00a0 0542
00000340: a122 0d42 203e e941 a459 ea41 7eea df41
00000350: 6351 1042 df86 f441 495a f641 27f3 f441
00000360: 7f3c 0d42 48f0 d741 1804 0542 afef 0242
00000370: f4f9 fb41 d47b 0f42 4650 e241 66f9 1342
00000380: bf94 0c42 f58b ee41 2052 fb41 4d3b f641
00000390: 03aa 0c42 080d f141 0e0e ef41 1e9c 1242
000003a0: 452b f041 0d3c fd41 963d de41 fd78 e141
000003b0: e4a5 0242 3636 0142 483b f741 33f1 0b42
000003c0: baaf 0042 eb52 e741 a45f b841 1328 e941
000003d0: 1b60 f241 25e7 fe41 a2d0 0242 7334 1842
000003e0: a37e f941 85e4 0042 1df2 f241 2f98 f841
000003f0: 9c95 d741 832e d741 8958 e941 c279 eb41

model.classifier.weight f4 [54, 256]
0.119894594 -0.21993032 -0.88019097 1.137716 0.9442003 0.29819068 -0.17736371 0.7586731
-0.0038529641 -0.04294382 -1.1220026 0.12336541 -0.010577325 0.3820814 -1.3274686 0.31386417
-0.043120813 -0.0011801461 -0.26401693 -0.49394923 -0.48834494 -0.9186901 0.799213 0.57724184
0.11400472 0.48538753 -0.13351084 -0.7659874 -1.324435 -0.412681 0.65485966 -0.23436747
-1.8642362 -0.11355692 -0.3610954 1.4277244 -0.22524954 0.60325474 0.9445902 1.0955931
0.105482884 -0.3168786 0.6707117 1.0203652 -0.03423325 -0.52074856 0.84137225 -0.27292705
0.8391913 -0.5270268 0.4040071 0.29486418 -1.3427562 0.7033629 0.310384 -0.31857514
-0.24383712 -0.9349628 -1.8083396 0.4468144 0.20288475 1.1018847 -0.49292272 -1.8682339
0.5438213 0.6848466 0.50482464 -0.028269801 0.027506538 -0.8315165 -1.8245465 0.33368894
0.75775176 -0.5239864 0.12934129 -0.03747484 0.6960917 0.6624867 -0.21126112 0.35458294
-0.501039 -0.1957816 0.14473438 0.46216452 -0.28287938 -1.7547113 -1.0626748 -0.31715915
-0.22699156 -0.4478513 1.0887635 -0.47146666 0.029892547 0.826573 -1.7965788 -0.3471298
-0.35595992 -1.0116949 0.18100433 -0.33281294 -0.8754487 0.35623175 0.58426374 -0.2275152
-1.9060255 -0.0969823 -1.2571346 -0.5479572 0.106704995 0.17339985 0.6749109 0.49500072
0.6555942 -0.207398 0.086047605 -1.4496284 -0.48911533 0.44292054 -0.10184359 0.7408127
0.5210092 -1.6225147 0.20730747 -0.93639034 -1.227533 0.02642027 -0.041455243 -1.0498412
0.2172281 1.1919441 1.4438739 -1.6995916 0.18795978 -0.46560782 0.08024844 -1.1761528
-0.056232005 0.6712279 0.8892873 0.23464806 0.13487193 -2.4631798 -0.5886237 0.43546498
0.09130681 -0.46860757 0.13226415 -0.036003336 0.12338161 1.0825418 0.905693 0.6003616
0.35058638 0.95358074 0.27267805 0.12763457 -1.3170449 -0.6609933 -2.0012577 0.29180038
-0.51730734 -1.3717891 0.40368778 0.77962303 -0.3924223 -0.7888975 0.7784273 -0.4228668
0.25194004 0.8327862 0.11624486 0.4064485 0.12775889 -0.5433356 -0.12960835 -0.9417189
0.36875454 -0.078193195 -0.41246843 0.020779429 -0.24182026 0.37071007 0.7441649 0.40643924
1.038981 0.39078802 0.005565839 0.019760422 -1.0194281 0.2128283 0.884597 -0.021480827
1.1614614 -1.1516119 -1.1983824 -1.6668292 -0.08203611 -0.913938 0.80849326 0.36528942
0.5154823 0.21763563 -0.5047021 0.30898842 -0.4225629 -1.2515559 0.015112308 0.07238296
0.13298416 -0.23271498 0.031176623 -0.55307823 -0.9434996 0.28067005 0.011666282 -1.4404827
1.0165137 -0.10427455 0.4157224 0.3918452 -0.016045827 -1.0455108 0.10112603 0.7920587
0.60142636 -0.027321037 -1.0346682 0.19731587 -0.53394026 0.07735629 -0.30547488 0.55528784
-0.611481 0.7186648 0.39937344 -0.19993007 -0.036863543 0.37971133 0.71994376 0.40165082
-0.09122302 -0.7125909 0.94559044 0.43981835 0.6416832 0.027384477 0.7905118 0.42856458
0.36144456 0.40246066 -0.78695595 -1.5856371 0.52370274 -0.074798815 0.8360468 0.08289635
00000000: 4c8b f53d 6a35 61be 3254 61bf aea0 913f
00000010: 1cb7 713f 73ac 983e d59e 35be 6638 423f
00000020: 0382 7cbb dce5 2fbd c89d 8fbf 01a7 fc3d
00000030: 844c 2dbc 2ca0 c33e 7eea a9bf ceb2 a03e
00000040: 739f 30bd 22af 9aba 3a2d 87be eae6 fcbe
00000050: 5908 fabe 462f 6bbf 3999 4c3f 1fc6 133f
00000060: 4e7b e93d b784 f83e 11b7 08be c017 44bf
00000070: 1687 a9bf ed4a d3be e2a4 273f 07fe 6fbe
00000080: 4b9f eebf 8890 e8bd 7fe1 b8be acbf b63f
00000090: d1a7 66be e76e 1a3f aad0 713f 653c 8c3f
000000a0: 6907 d83d e93d a2be c3b3 2b3f 549b 823f
000000b0: 2a38 0cbd c74f 05bf 2c64 573f 18bd 8bbe
000000c0: 3ed5 563f 3aeb 06bf 05da ce3e 70f8 963e
000000d0: 6fdf abbf 970f 343f a7ea 9e3e 481c a3be
000000e0: 70b0 79be b959 6fbf ac77 e7bf dbc4 e43e
000000f0: 05c1 4f3e 8f0a 8d3f 5e60 fcbe 4a22 efbf
00000100: df37 0b3f 1b52 2f3f 303c 013f 1296 e7bc
00000110: 6455 e13c 44de 54bf bd8a e9bf 47d9 aa3e
00000120: 05fc 413f f923 06bf 0b72 043e 387f 19bd
00000130: 1133 323f ba98 293f d654 58be e58b b53e
00000140: 1844 00bf f97a 48be 4035 143e d4a0 ec3e
00000150: 91d5 90be 619a e0bf ba05 88bf af62 a2be
00000160: 7a70 68be c44c e5be 9a5c 8b3f 1464 f1be
00000170: 37e1 f43c 4a9a 533f 4bf6 e5bf ffba b1be
00000180: 6140 b6be 387f 81bf 3359 393e 7566 aabe
00000190: 681d 60bf 0264 b63e 4f92 153f bff9 68be
000001a0: a5f8 f3bf a89e c6bd c9e9 a0bf ec46 0cbf
000001b0: 2688 da3d bb8f 313e f6c6 2c3f bc70 fd3e
000001c0: 06d5 273f 2460 54be ba39 b03d 6c8d b9bf
000001d0: 536d fabe 7bc6 e23e 5f93 d0bd e7a5 3d3f
000001e0: dc60 053f 90ae cfbf 6948 543e 47b7 6fbf
000001f0: cd1f 9dbf 526f d83c f9cc 29bd 3261 86bf
00000200: 0b71 5e3e a091 983f dcd0 b83f 388c d9bf
00000210: 8778 403e 2664 eebe 4b59 a43d 2d8c 96bf
00000220: 8853 66bd 97d5 2b3f 55a8 633f 9547 703e
00000230: de1b 0a3e bda4 1dc0 0bb0 16bf 44f5 de3e
00000240: 11ff ba3d 55ed efbe 4170 073e 3c78 13bd
00000250: 7faf fc3d bb90 8a3f 7fdb 673f 4cb1 193f
00000260: 0f80 b33e de1d 743f 759c 8b3e a3b2 023e
00000270: ed94 a8bf db36 29bf 9b14 00c0 dc66 953e
00000280: 416e 04bf c996 afbf 2ab0 ce3e 6095 473f
00000290: 93eb c8be 30f5 49bf 0347 473f ff81 d8be
000002a0: 49fe 803e 7a31 553f c911 ee3d 051a d03e
000002b0: 3ad3 023e 0b18 0bbf 0db8 04be 7d14 71bf
000002c0: 65cd bc3e c123 a0bd 102f d3be 9f39 aa3c
000002d0: bb9f 77be b6cd bd3e 9781 3e3f ce18 d03e
000002e0: 54fd 843f 5e15 c83e a461 b63b 9ce0 a13c
000002f0: 9f7c 82bf a9ef 593e f374 623f 8ff8 afbc
00000300: c4aa 943f 0568 93bf 9864 99bf a95a d5bf
00000310: 8c02 a8bd d7f7 69bf 6af9 4e3f 3707 bb3e
00000320: a6f6 033f e0db 5e3e 2834 01bf bb33 9e3e
00000330: 2a5a d8be fc32 a0bf 9d99 773c 843d 943d
00000340: 002d 083e d64c 6ebe 1e66 ff3c 8996 0dbf
00000350: 3189 71bf fcb3 8f3e ef23 3f3c bd61 b8bf
00000360: 1f1d 823f e58d d5bd 91d9 d43e ef9f c83e
00000370: 8a72 83bc 4cd3 85bf 2a1b cf3d 5cc4 4a3f
00000380: 14f7 193f 5ed0 dfbc 0270 84bf 2c0d 4a3e
00000390: 4fb0 08bf f96c 9e3d 3467 9cbe 5827 0e3f
000003a0: 058a 1cbf 6bfa 373f ad7a cc3e 78ba 4cbe
000003b0: 3afe 16bd 8669 c23e 3c4e 383f 2da5 cd3e
000003c0: 22d3 babd 5b6c 36bf 3712 723f df2f e13e
000003d0: 5a45 243f 6955 e03c fb5e 4a3f d16c db3e
000003e0: 430f b93e 530f ce3e f275 49bf 28f6 cabf
000003f0: 6211 063f 1f30 99bd 2a07 563f 90c5 a93d

model.classifier.bias f4 [54]
0.27301195 0.07797016 -0.19324288 -0.12537594 -0.068849094 0.05127928 0.21351548 -0.24448161
-0.3471429 0.23378272 0.6313606 -0.10768565 0.13916418 0.4810752 -0.26997185 -0.04030677
-0.021433285 -0.68732166 0.2748973 0.20395006 0.05252648 0.47816604 -0.37704918 0.053208865
0.10861131 -0.44709152 -0.21340391 -0.5119905 0.05944062 0.082855 -0.23823002 0.40384153
-0.33485648 -0.34538886 0.11689053 -0.4201102 0.022290329 -0.1548717 0.19213222 -0.13069145
0.015038438 0.37054926 -0.069192864 0.053481776 0.17808044 0.5072611 -0.2491326 -0.16168922
0.20782532 -0.05866541 -0.0006233295 0.18719757 -0.73995215 0.055839133
00000000: 39c8 8b3e d2ae 9f3d 76e1 45be 8d62 00be
00000010: c100 8dbd 390a 523d cda3 5a3e 6359 7abe
00000020: b7bc b1be bd64 6f3e d9a0 213f 4b8a dcbd
00000030: 0e81 0e3e 7d4f f63e c039 8abe b618 25bd
00000040: db94 afbc 50f4 2fbf 57bf 8c3e 49d8 503e
00000050: 0226 573d 2ed2 f43e 970c c1be 8af1 593d
00000060: 9b6f de3d 2ee9 e4be 8e86 5abe cf11 03bf
00000070: 0278 733d e2af a93d 92f2 73be 51c4 ce3e
00000080: 4f72 abbe cfd6 b0be 4d64 ef3d af18 d7be
00000090: 359a b63c b096 1ebe 4fbe 443e fbd3 05be
000000a0: c863 763c a2b8 bd3e fdb4 8dbd b50f 5b3d
000000b0: b85a 363e dddb 013f 9e1c 7fbe dc91 25be
000000c0: 29d0 543e 244b 70bd ef66 23ba b8b0 3f3e
000000d0: 816d 3dbf 93b7 643d
