mlp/experiments/basic_cnn/runs/2024-05-19-11-51-55/checkpoints/last.ckpt (torch, 321016 bytes, 9 tensors)

model.embedding.weight f4 [711, 32]
0.57390314 0.84223455 -0.07615984 -1.1970378 -0.25153878 -1.3337786 0.1656363 2.1731892
0.24521689 -0.59865344 -1.0466324 -0.038891766 -0.6746711 1.1995463 -0.45684844 1.1899949
-1.2137973 1.7882993 0.7262672 0.71501166 -1.4973788 0.21751064 0.048691314 1.5648429
-0.76733434 0.8855712 -0.17631829 -1.0540332 -0.004951272 0.4845267 -0.8574665 -0.3671346
-0.36705822 -0.41641876 1.1885352 -0.30512092 -0.69092566 1.3948104 -0.8453936 -0.39942798
-0.22351569 0.80776966 0.41592523 1.1095015 -0.4369328 -0.64935964 -1.9881049 0.22321099
1.40757 -0.62001187 -1.6250541 0.8607569 -0.23017974 -1.657491 -1.0042071 1.4640776
-0.52014637 -2.0971026 1.1880591 0.5499357 0.9520631 0.7197406 0.91324884 -0.8904242
1.6393437 0.6148438 0.6883717 -0.8025146 0.37202114 -0.6085998 -2.3288686 0.8408938
-1.4717757 -0.27787346 -0.5802836 0.039598253 1.9551344 0.6499614 0.5797003 -0.9754866
1.4663006 0.4615669 -1.3961973 -1.8284131 1.67233 0.36766058 0.31430548 -0.20478605
0.22587438 -1.6142651 0.020661546 2.086795 -1.4363534 1.0315222 1.0546718 0.14350039
0.3591819 0.43010694 0.9501507 -1.2193981 -2.6880646 0.58972555 -1.9495687 -0.55204976
-0.074760996 -0.9993706 1.8764532 0.11355478 -1.214376 0.4872352 0.89497125 1.3761878
1.1264788 -0.0810249 -0.3755124 -0.6696417 -0.7306583 0.13455221 -1.848766 1.4553105
-1.0785285 -0.11601308 -0.47126728 -0.3353164 -0.99311274 0.20333655 -0.6871678 0.14518815
-0.5279668 0.4661186 2.0718672 -0.2417504 1.0372547 -1.3234029 0.18557155 0.30091938
-0.13137656 0.25782385 0.118430726 0.7505493 -1.5680791 0.77015966 -0.94667244 -0.4483387
0.3104381 0.8065899 0.35645264 -0.50449 -0.7270076 0.58411264 1.1459754 0.2320702
0.74367297 1.209663 -0.8674352 0.3996307 -1.6648966 0.18435039 0.12477114 -0.59429127
0.9811148 1.2519791 -0.8362669 -1.4202543 0.84589404 0.3230657 1.0730947 -0.1614343
0.8248855 0.49992526 -0.96050256 0.8463293 0.9206603 -0.9145582 0.6554231 0.32015812
0.37919623 0.891352 -0.00868551 -0.26760265 0.76629126 0.9887452 1.5923678 -0.55879253
-0.50769025 0.48148948 -1.6926602 -0.5718023 -0.2353884 -0.8006674 1.5207773 -1.3153771
-1.13081 -0.37182242 -0.16525656 -0.90095484 0.5612477 -0.8420767 1.7804359 -1.5788867
0.3656769 -0.32739794 -0.14092952 -0.20231347 0.0015400747 -1.0059286 0.82861334 0.5458312
-0.033430763 -1.1749781 1.2678343 -1.5302448 -0.77629644 -0.93716234 -0.22302112 -0.6388405
0.15270442 0.5829563 1.8354397 0.6424466 1.1467699 -1.6306137 -0.49743563 2.099531
0.39140722 -0.32060266 0.4085311 0.6160922 -0.7100866 -0.17848884 -1.0471319 -0.38445368
1.015632 -0.83088195 -0.006697849 -1.0441291 -0.28307533 -1.7804753 -0.68456215 -0.9724654
0.4926526 -0.89170945 -0.6901227 -2.2235515 -1.437982 -0.7568546 -0.8907846 -0.41797218
0.062476575 -0.7634422 -1.5967692 0.4126984 -1.2959515 -2.3294187 -0.49483722 1.3394558
00000000: 51eb 123f af9c 573f b1f9 9bbd 8938 99bf
00000010: b1c9 80be 42b9 aabf 909c 293e 8815 0b40
00000020: 231a 7b3e 5a41 19bf 0df8 85bf f94c 1fbd
00000030: 3fb7 2cbf bc8a 993f 0ae8 e9be c151 983f
00000040: b65d 9bbf fee6 e43f a6ec 393f 010b 373f
00000050: 1caa bfbf 1cbb 5e3e 8b70 473d c64c c83f
00000060: 0670 44bf cbb4 623f c88c 34be 8fea 86bf
00000070: 483e a2bb e213 f83e ed82 5bbf 11f9 bbbe
00000080: 0eef bbbe d734 d5be ec21 983f cf38 9cbe
00000090: 81e0 30bf 2689 b23f b76b 58bf d381 ccbe
000000a0: 4ce1 64be fec9 4e3f 27f4 d43e 2504 8e3f
000000b0: a8b5 dfbe 6f3c 26bf 397a febf 6c91 643e
000000c0: 412b b43f 19b9 1ebf c601 d0bf 905a 5c3f
000000d0: 3db4 6bbe aa28 d4bf dc89 80bf e566 bb3f
000000e0: 5028 05bf ee36 06c0 5212 983f 96c8 0c3f
000000f0: 68ba 733f ec40 383f adca 693f d7f2 63bf
00000100: 04d6 d13f 6766 1d3f 2139 303f 9971 4dbf
00000110: 8e79 be3e 32cd 1bbf 2f0c 15c0 d144 573f
00000120: 2563 bcbf 6e45 8ebe 778d 14bf c731 223d
00000130: d841 fa3f df63 263f 3d67 143f 7db9 79bf
00000140: bdaf bb3f 7f52 ec3e 98b6 b2bf 7109 eabf
00000150: e90e d63f 023e bc3e a6ec a03e 6fb3 51be
00000160: 9d4b 673e 3da0 cebf 6742 a93c 0d8e 0540
00000170: 6eda b7bf eb08 843f 7cff 863f c4f1 123e
00000180: b1e6 b73e fa36 dc3e 143d 733f 3d15 9cbf
00000190: 4009 2cc0 41f8 163f 788b f9bf 2253 0dbf
000001a0: 4b1c 99bd c0d6 7fbf 9e2f f03f 698f e83d
000001b0: ac70 9bbf e476 f93e d61c 653f ec26 b03f
000001c0: 7530 903f 62f0 a5bd 2943 c0be a36d 2bbf
000001d0: 6c0c 3bbf 0ec8 093e 5da4 ecbf 9d47 ba3f
000001e0: 390d 8abf 4498 edbd f249 f1be 97ae abbe
000001f0: a33c 7ebf 7537 503e 3bea 2fbf 34ac 143e
00000200: d528 07bf 19a7 ee3e 7999 0440 6b8d 77be
00000210: c3c4 843f 4465 a9bf 7806 3e3e 1b12 9a3e
00000220: 9487 06be 7d01 843e cf8b f23d 0024 403f
00000230: d1b6 c8bf 2f29 453f 2059 72bf a68c e5be
00000240: bef1 9e3e ad7c 4e3f f680 b63e 4226 01bf
00000250: 2c1d 3abf 6888 153f 52af 923f cfa3 6d3e
00000260: 5a61 3e3f 3dd6 9a3f 3c10 5ebf 659c cc3e
00000270: 551b d5bf 59c6 3c3e 0388 ff3d 7923 18bf
00000280: 572a 7b3f da40 a03f 9615 56bf e5ca b5bf
00000290: 838c 583f de68 a53e 2b5b 893f 084f 25be
000002a0: b22b 533f 34f6 ff3e 7fe3 75bf 09a9 583f
000002b0: 65b0 6b3f 7c20 6abf cfc9 273f c4eb a33e
000002c0: 0226 c23e a52f 643f ab4d 0ebc 3703 89be
000002d0: aa2b 443f 681e 7d3f b5d2 cb3f 070d 0fbf
000002e0: fdf7 01bf ca85 f63e 17a9 d8bf a361 12bf
000002f0: a809 71be 8af8 4cbf d5a8 c23f 475e a8bf
00000300: 62be 90bf 825f bebe 0439 29be faa4 66bf
00000310: eead 0f3f 5792 57bf 53e5 e33f f618 cabf
00000320: 013a bb3e b4a0 a7be d44f 10be 432b 4fbe
00000330: 55dc c93a 45c2 80bf 0120 543f 98bb 0b3f
00000340: b2ee 08bd af65 96bf 6548 a23f 10df c3bf
00000350: 5dbb 46bf dfe9 6fbf a65f 64be 0d8b 23bf
00000360: 8c5e 1c3e a03c 153f b0ef ea3f 6177 243f
00000370: 5bc9 923f f3b7 d0bf e2af febe b75e 0640
00000380: 8766 c83e 0826 a4be fd2a d13e 38b8 1d3f
00000390: 3cc8 35bf c7c5 36be 6b08 86bf 1dd7 c4be
000003a0: 3b00 823f aeb4 54bf a179 dbbb 06a6 85bf
000003b0: 40ef 90be 9de6 e3bf 773f 2fbf 7ef3 78bf
000003c0: f63c fc3e 1247 64bf e2ab 30bf ab4e 0ec0
000003d0: cb0f b8bf 39c1 41bf 760a 64bf 7300 d6be
000003e0: 70e7 7f3d f370 43bf ef62 ccbf 344d d33e
000003f0: bde1 a5bf 3215 15c0 4e5b fdbe 4a73 ab3f

model.layers.block_0.conv.weight f4 [256, 32, 5]
1.3133204 1.0296245 0.72282785 0.2378071 -0.54842573 0.9531073 0.90740365 0.42296213
-1.7635443 -2.058384 0.042766124 -0.084017955 0.106936 -0.07259167 -0.99534404 0.21542257
0.7584894 0.5681225 1.0269119 -0.8257452 0.019767541 -0.8379012 -0.3198561 1.0400789
0.7233281 0.04439345 0.3046247 1.262419 0.7478572 0.17309962 0.03259439 0.43886882
-0.05582687 0.10065848 0.26898947 0.11203053 0.54926556 0.9075294 0.75191385 -1.3176059
-0.2541758 0.4657917 0.57523566 -0.10218213 0.14108646 -0.6018962 -0.25091556 1.6255964
0.750156 0.29040703 -0.7218566 0.27110577 0.8959258 0.88716197 -0.672875 0.25599143
0.48422047 -1.1363246 -0.34868085 0.19799487 0.21471943 -0.54162943 -0.4524159 -1.0273455
-0.5653173 -0.30314034 0.23019099 0.08694882 0.9249955 0.44683728 -0.9205555 -1.5057092
-0.72937864 0.61951774 0.18085656 -0.8663302 -1.1915013 0.030659508 1.2581211 1.1448308
-0.5612922 -0.21679844 0.49889117 1.7972561 0.2972329 0.23973837 1.161805 1.0542659
-0.3594031 -1.2652969 -0.06779905 -0.6185988 -0.7366399 -0.96235 -0.0070754564 0.06455037
-0.02611087 0.1978742 0.21642466 0.726693 -0.37059903 -0.5576448 -0.59974104 -0.71736497
0.46638352 0.0113092335 -0.6894138 -0.18736644 -0.117800675 1.3727721 0.09706542 -0.6150242
0.46865433 -0.37931854 0.2380487 -0.76777303 -0.7872169 -0.28863114 0.098216854 -0.49544266
0.5002157 0.6678191 1.1423684 -0.46827403 -1.1696959 0.017665353 0.9392149 0.0363686
-0.03524909 -0.20495172 -0.076929316 0.117899604 -0.18694746 0.14615394 -0.2598798 0.028450549
-0.22814286 -0.6927939 0.2335094 0.4275046 -0.17937973 0.94519395 0.017432937 0.9206137
-0.21929145 -1.4195988 -1.1432502 -0.77943337 0.8327314 0.9321338 -0.051510137 0.40982866
-0.20210811 -0.92388505 -0.053554732 0.034750465 -0.63881975 -0.10219264 0.814452 0.14449422
-0.36328658 -0.7402047 -0.39130184 -0.6246582 -0.6965913 -0.5559688 -0.5796908 -0.6577439
-0.06549263 -0.30682653 -0.78014 -0.050634228 0.95901835 0.58020175 0.9210743 1.2119204
1.9671286 0.9228726 -0.34857216 -1.0810013 -0.14805225 0.7932003 0.33080047 0.35178605
1.3969969 0.8137754 0.0045099044 -0.49737534 -1.0963895 -1.3790082 0.112827934 0.032588623
-0.28821582 -0.24610043 -0.041763276 -0.48851338 -0.78227067 -0.42001772 -0.17845947 -0.21842647
-0.36143452 -0.6910001 -0.08045871 0.16887915 -0.049612988 -0.41383347 0.20334242 0.3727028
-0.46958503 -0.008837491 0.6665292 -0.0851269 1.2469937 -0.4586355 -0.04344835 0.6098234
0.64818686 0.47783184 0.22427082 0.66855335 0.12650068 0.5437285 0.4161911 0.31432793
-0.10020905 0.21727566 -0.50491834 -1.1207279 -1.125879 -0.55509365 1.1673341 0.2281454
0.36430383 0.8727914 0.5005484 0.3842175 -0.37278777 0.10299264 -0.52315223 -0.12842086
-0.17816518 -0.15702431 -0.22864081 0.40630463 -0.116926156 -0.0029575576 -0.45698494 -0.6888093
0.26270562 0.7831471 0.16712694 -0.08826373 0.46468574 -0.1493904 -0.12381352 0.012097411
00000000: e21a a83f bcca 833f 3f0b 393f b483 733e
00000010: a165 0cbf d7fe 733f 9b4b 683f 7e8e d83e
00000020: d2bb e1bf 90bc 03c0 882b 2f3d 9b11 acbd
00000030: 4301 db3d f1aa 94bd dece 7ebf bc97 5c3e
00000040: 5c2c 423f 7a70 113f d971 833f 0a64 53bf
00000050: 8aef a13c b180 56bf 2ec4 a3be 4e21 853f
00000060: 082c 393f e8d5 353d c5f7 9b3e f296 a13f
00000070: 9273 3f3f 0741 313e b281 053d 6ab3 e03e
00000080: b7aa 64bd 0826 ce3d fdb8 893e 4370 e53d
00000090: ab9c 0c3f d953 683f 6d7d 403f 4fa7 a8bf
000000a0: 5523 82be 407c ee3e a542 133f dd44 d1bd
000000b0: f878 103e df15 1abf 0178 80be 8b13 d03f
000000c0: 390a 403f 3bb0 943e 98cb 38bf 60ce 8a3e
000000d0: 655b 653f 0c1d 633f 8941 2cbf 4f11 833e
000000e0: bfeb f73e 1673 91bf 4c86 b2be 2bbf 4a3e
000000f0: 69df 5b3e 3aa8 0abf 0fa3 e7be 0f80 83bf
00000100: a2b8 10bf 3635 9bbe 30b7 6b3e 3912 b23d
00000110: 81cc 6c3f dbc7 e43e 86a9 6bbf 14bb c0bf
00000120: 8fb8 3abf b798 1e3f 7632 393e d1c7 5dbf
00000130: 1d83 98bf a629 fb3c 1d0a a13f d189 923f
00000140: d8b0 0fbf 6900 5ebe aa6e ff3e 7d0c e63f
00000150: e92e 983e fa7d 753e 07b6 943f 2ff2 863f
00000160: af03 b8be 40f5 a1bf 3ada 8abd 7e5c 1ebf
00000170: 6f94 3cbf 925c 76bf 3bd9 e7bb fc32 843d
00000180: 77e6 d5bc 899f 4a3e 6d9e 5d3e 8d08 3a3f
00000190: 28bf bdbe cfc1 0ebf a188 19bf 3ba5 37bf
000001a0: d2c9 ee3e 5d4a 393c 6c7d 30bf fddc 3fbe
000001b0: 7b41 f1bd ffb6 af3f 3cca c63d 3a72 1dbf
000001c0: 76f3 ef3e 0a36 c2be 0ac3 733e c68c 44bf
000001d0: 0c87 49bf 76c7 93be eb25 c93d a9aa fdbe
000001e0: 230e 003f 31f6 2a3f 2139 923f 9dc1 efbe
000001f0: 98b8 95bf eeb6 903c 6370 703f 3ef7 143d
00000200: 5a61 10bd ddde 51be 1e8d 9dbd 5975 f13d
00000210: 286f 3fbe 61a9 153e f70e 85be 2011 e93c
00000220: 489e 69be f15a 31bf 171d 6f3e e2e1 da3e
00000230: 52af 37be 3bf8 713f 85cf 8e3c 57ad 6b3f
00000240: f08d 60be 6ab5 b5bf 0656 92bf f288 47bf
00000250: e32d 553f 52a0 6e3f 4bfc 52bd 10d5 d13e
00000260: 6ef5 4ebe bb83 6cbf 355c 5bbd 8156 0e3d
00000270: b189 23bf 604a d1bd ed7f 503f 4bf6 133e
00000280: b300 babe 0e7e 3dbf b758 c8be 9ae9 1fbf
00000290: cf53 32bf f953 0ebf 9e66 14bf e761 28bf
000002a0: 0021 86bd 5e18 9dbe 41b7 47bf d665 4fbd
000002b0: 3a82 753f 1a88 143f 86cb 6b3f 3520 9b3f
000002c0: dfca fb3f 6141 6c3f 0d78 b2be 405e 8abf
000002d0: 029b 17be 2d0f 4b3f ae5e a93e 4d1d b43e
000002e0: cbd0 b23f 9653 503f d2c7 933b fba7 febe
000002f0: 7e56 8cbf 5783 b0bf 5512 e73d a67b 053d
00000300: 0691 93be c001 7cbe f80f 2bbd 6d1e fabe
00000310: e442 48bf 900c d7be 14be 36be 30ab 5fbe
00000320: f20d b9be 62e5 30bf 89c7 a4bd a8ee 2c3e
00000330: fd36 4bbd fbe1 d3be ff38 503e e7d2 be3e
00000340: 736d f0be 20cb 10bc a8a1 2a3f 0357 aebd
00000350: 7d9d 9f3f 46d2 eabe e6f6 31bd 631d 1c3f
00000360: 93ef 253f 60a6 f43e 40a7 653e 5026 2b3f
00000370: 6589 013e ca31 0b3f 0017 d53e 97ef a03e
00000380: 673a cdbd 837d 5e3e 5442 01bf 0374 8fbf
00000390: ce1c 90bf 9e1a 0ebf 346b 953f f39e 693e
000003a0: 0886 ba3e 426f 5f3f f123 003f 28b8 c43e
000003b0: 0ade bebe ceed d23d 4eed 05bf c280 03be
000003c0: ef70 36be fbca 20be d120 6abe 2907 d03e
000003d0: fb76 efbd 95d3 41bb eef9 e9be ce55 30bf
000003e0: 5a81 863e 547c 483f 5323 2b3e 9dc3 b4bd
000003f0: 4aeb ed3e ccf9 18be f191 fdbd 3834 463c

model.layers.block_0.conv.bias f4 [256]
-0.09247921 0.06496048 0.06653275 0.023457408 0.07516752 0.0738088 -0.022157768 0.15067096
0.020220304 0.06193907 0.131578 -0.009173743 0.034242388 0.2543512 -0.07363035 0.101493515
0.15420341 0.08473372 -0.1263505 -0.077116124 0.20224316 -0.13250023 0.1372948 0.047864553
-0.3329991 0.19862963 -0.08266765 0.0050481497 -0.13061425 0.10502568 0.022682862 0.018128745
0.082078435 -0.12835559 -0.023397433 0.023409741 -0.09898667 0.015416121 0.083544984 0.005891751
0.027320126 0.06391787 0.10202295 0.09099927 0.036718644 -0.033389 0.10870228 0.008830197
0.020358805 0.026646914 0.03355708 0.13890018 -0.070449606 -0.20745294 0.14621152 0.0044590533
0.043915987 0.0228503 -0.03210782 0.027769517 0.0779019 0.098462276 0.12197667 -0.10252729
0.021891823 -0.04442372 -0.012150295 0.030924153 -0.1916665 0.06740451 0.01619574 -0.018993432
0.028351013 0.12010893 0.051081955 -0.013095665 -0.13155474 -0.009427425 0.032616466 0.2299081
-0.0066785878 0.022046698 0.0073841675 -0.08456893 0.13805935 -0.031941935 -0.0755364 -0.05838962
-0.06272586 0.019194722 0.1220354 -0.04225732 0.09065021 -0.0202967 -0.19388737 0.07346694
0.00055791327 -0.09173148 -0.18348 0.18874833 -0.059290953 -0.06432204 -0.0709922 0.13075007
-0.052674185 -0.04631034 -0.018740574 -0.04192342 0.08342805 -0.09891373 0.035123177 -0.016661718
0.07246698 0.090936355 0.06102899 -0.081930876 0.10347909 -0.08372266 -0.019466557 0.0554009
0.4621588 -0.113709256 -0.02121399 -0.02969872 -0.018045701 0.16899267 -0.03645611 -0.043580115
0.049528256 0.16130774 -0.1313422 0.1205132 0.050699096 -0.00071013795 0.023353035 0.11579553
0.016445378 0.028620826 -0.0314262 -0.11416574 0.015351957 -0.027064476 0.014225256 0.053599596
0.1620307 0.032646786 0.14951958 -0.032202493 0.0636657 0.025603697 0.021991767 0.004862883
0.008553893 0.10772849 -0.0008766547 0.0029007993 0.032632105 0.1793234 -0.079242095 0.14341673
0.14595304 0.24093436 0.07746419 0.10381838 -0.13675013 0.056084514 0.04593332 0.09901391
-0.0288393 -0.012936788 -0.007669961 -0.025398014 0.06461664 0.024553858 -0.06237511 -0.0033708962
0.054775637 0.24552797 0.09586505 0.097410314 0.015210419 -0.09092943 -0.10244731 0.05218688
-0.024068607 -0.053194884 -0.020880435 0.050187048 0.11016848 -0.11229185 -0.01409072 0.19757755
0.13224655 -0.021872524 -0.104318865 0.032443907 0.039543286 -0.114581235 0.0636518 0.117462486
0.14327852 0.06367674 -0.071730554 0.077695675 0.036558133 0.016668787 0.05275971 0.0026704613
0.13759296 0.14868075 0.10881426 0.10226157 -0.047039576 0.06981228 -0.007738994 0.083422534
0.14694433 0.107822925 0.16625327 -0.1677167 -0.08388286 0.017517706 0.10914479 0.19948044
0.034595598 0.39919144 0.16318029 0.031081378 0.029385934 0.14733699 0.044220936 -0.065057606
0.01810942 0.078891814 0.36803862 0.06230629 -0.036399458 -0.27721593 -0.06299171 0.099460416
0.09594537 0.03914013 -0.038279343 0.025192177 -0.07230021 0.18037313 0.064712666 0.05638989
0.113375835 -0.017320933 0.12500948 0.08414988 0.13308345 -0.057266563 0.17178303 0.044447392
00000000: bd65 bdbd 000a 853d 5342 883d c029 c03c
00000010: 6ef1 993d 1129 973d 3584 b5bc 7d49 1a3e
00000020: 0da5 a53c d2b3 7d3d 62bc 063e 784d 16bc
00000030: bf41 0c3d 523a 823e 82cb 96bd d5db cf3d
00000040: 80e7 1d3e df88 ad3d 0762 01be 0fef 9dbd
00000050: d518 4f3e 24ae 07be 0297 0c3e 9f0d 443d
00000060: dc7e aabe 9165 4b3e a84d a9bd f36a a53b
00000070: bebf 05be b417 d73d 69d1 b93c bc82 943c
00000080: bd18 a83d a66f 03be f9ab bfbc c9c5 bf3c
00000090: 86b9 cabd e693 7c3c a219 ab3d 970f c13b
000000a0: 75ce df3c 5fe7 823d 69f1 d03d d35d ba3d
000000b0: 4a66 163d e7c2 08bd 4d9f de3d 88ac 103c
000000c0: 82c7 a63c a14a da3c 2673 093d d93b 0e3e
000000d0: e247 90bd 8b6e 54be 79b8 153e 401d 923b
000000e0: 40e1 333d 8d30 bb3c 7d83 03bd e67c e33c
000000f0: 088b 9f3d 97a6 c93d e8ce f93d d4f9 d1bd
00000100: 7b56 b33c a6f5 35bd 0812 47bc a654 fd3c
00000110: 3944 44be 600b 8a3d eeac 843c 1d98 9bbc
00000120: 6240 e83c acfb f53d 503b 513d 338f 56bc
00000130: 49b6 06be 7d75 1abc d898 053d 076d 6b3e
00000140: 0ed8 dabb 479b b43c e3f6 f13b 7a32 adbd
00000150: 6e5f 0d3e 8cd5 02bd d4b2 9abd f429 6fbd
00000160: 6a76 80bd 403e 9d3c b2ed f93d 0316 2dbd
00000170: d1a6 b93d 4445 a6bc 698a 46be d675 963d
00000180: ed40 123a b7dd bbbd 2ee2 3bbe 3e47 413e
00000190: 12db 72bd 46bb 83bd 5c64 91bd 59e3 053e
000001a0: e3c0 57bd e9af 3dbd d585 99bc e4b7 2bbd
000001b0: 53dc aa3d 4893 cabd 52dd 0f3d 287e 88bc
000001c0: 9169 943d d73c ba3d 89f9 793d 60cb a7bd
000001d0: d8ec d33d c976 abbd 5478 9fbc 0eec 623d
000001e0: 14a0 ec3e 66e0 e8bd f6c8 adbc bb4a f3bc
000001f0: 94d4 93bc 6a0c 2d3e 0153 15bd 1081 32bd
00000200: 24de 4a3d db2d 253e 927e 06be a0cf f63d
00000210: dba9 4f3d 8d28 3aba dd4e bf3c 3526 ed3d
00000220: 75b8 863c 3976 ea3c c2b8 00bd bacf e9bd
00000230: c686 7b3c 52b6 ddbc 0c11 693c 408b 5b3d
00000240: 60eb 253e a3b8 053d a91b 193e c3e6 03bd
00000250: 2a63 823d d8be d13c 1428 b43c d258 9f3b
00000260: a125 0c3c c1a0 dc3d 4dcf 65ba 561b 3e3b
00000270: 3ea9 053d 8ea0 373e ae49 a2bd d6db 123e
00000280: b774 153e 7fb7 763e 8ca5 9e3d bb9e d43d
00000290: 3a08 0cbe e0b8 653d 9424 3c3d cec7 ca3d
000002a0: 6540 ecbc d2f4 53bc 4c54 fbbb 7f0f d0bc
000002b0: bb55 843d 2c25 c93c 0b7d 7fbd 41ea 5cbb
000002c0: 6b5c 603d af6b 7b3e e554 c43d 0f7f c73d
000002d0: 1f35 793c 3639 babd e5cf d1bd e9c1 553d
000002e0: 872b c5bc e1e2 59bd 720d abbc ef90 4d3d
000002f0: 03a0 e13d 45f9 e5bd c3dc 66bc c551 4a3e
00000300: a46b 073e 022e b3bc 21a5 d5bd e7e3 043d
00000310: 24f8 213d 91a9 eabd e05b 823d 2c90 f03d
00000320: 9bb7 123e f368 823d 78e7 92bd e91e 9f3d
00000330: fbbd 153d fb8c 883c 911a 583d e802 2f3b
00000340: 2be5 0c3e c43f 183e 03da de3d 846e d13d
00000350: 92ac 40bd bef9 8e3d 6397 fdbb 6fd9 aa3d
00000360: 9378 163e 44d2 dc3d 4c3e 2a3e edbd 2bbe
00000370: c7ca abbd 4b81 8f3c 4e87 df3d 9a44 4c3e
00000380: 1db4 0d3d d262 cc3e bc18 273e 609e fe3c
00000390: c5ba f03c 82df 163e 0321 353d ec3c 85bd
000003a0: 355a 943c 0892 a13d 8f6f bc3e e134 7f3d
000003b0: 9917 15bd 3fef 8dbe cc01 81bd e7b1 cb3d
000003c0: 027f c43d 6751 203d cdca 1cbd d35f ce3c
000003d0: 2212 94bd bcb3 383e 1388 843d 16f9 663d
000003e0: 9731 e83d a1e4 8dbc 7c02 003e c656 ac3d
000003f0: 0747 083e 5890 6abd e4e7 2f3e 780e 363d

model.layers.block_0.norm.weight f4 [256]
4.8782163 4.5825667 4.5593786 4.454651 4.4645844 3.8712199 4.302545 4.6614027
4.845888 4.718064 4.2106524 3.860668 4.562836 4.5528173 4.449418 4.1114306
4.3362265 3.8717396 4.67398 4.891192 4.1660695 4.027575 3.53544 4.623387
3.9368517 4.6396317 4.640352 3.8140602 4.816675 4.383525 4.841115 4.320843
4.517857 3.1575818 5.0656714 4.1694455 4.068842 4.1948094 4.422323 4.018778
3.7650151 3.7702827 3.945193 4.243712 4.3505006 4.945519 4.6923485 3.552106
4.090286 4.3311963 3.3927784 3.926099 4.298628 5.2814064 4.5042872 4.0440593
4.912865 5.0978994 4.801668 3.8843293 4.485711 4.0897517 4.6400576 4.742255
4.1061463 5.3927336 3.9893758 4.1963515 5.15709 4.148835 4.62967 4.8917384
4.3161573 4.38186 4.0084877 5.1519384 3.8375258 5.136046 3.2887306 3.256815
4.4450064 4.8729715 4.0291653 4.55945 3.51222 4.8523474 4.920936 5.0184336
4.654479 4.9750686 4.257152 4.5682607 4.2573795 4.8345404 4.695327 4.6313667
4.439715 4.8694572 4.982277 3.921254 5.1284537 3.9308774 4.2298717 4.503023
5.175313 5.151317 4.501622 4.9613895 4.328942 4.5430036 3.035786 4.543307
3.752536 3.8440764 5.248829 4.757488 4.010094 4.827228 4.5958586 3.5818524
3.7400517 5.220438 4.3867927 4.6493015 4.128249 5.5214567 4.1713014 4.3916225
4.1671586 4.5000715 4.7017927 3.9197707 4.4283247 4.561826 4.491833 4.390966
4.612859 5.2499213 5.0027156 4.544565 2.9815943 4.7738366 4.486233 4.761564
4.429421 4.8833365 4.287374 4.3711543 5.031179 4.839358 4.587968 4.644828
4.514822 4.363616 4.6188216 4.2676964 4.537455 4.2710223 5.043681 4.480787
4.2668166 4.4471903 5.680452 4.6733503 4.5989456 4.05618 4.467646 5.3674154
4.4036865 4.691624 5.116907 4.399446 5.057293 5.1142964 5.259431 4.793029
4.3911057 4.4479833 4.7594953 4.275478 4.212239 5.1205573 4.760782 4.1173067
3.8206828 4.7184224 4.308511 4.6892824 4.2735558 5.1303573 4.6933174 3.7749698
4.220846 4.5222306 4.7820253 5.060146 3.5578113 5.087744 3.543297 4.585722
4.346357 2.7505844 5.317867 4.532948 4.7382956 4.3416815 4.4309826 4.4543724
4.084553 4.884561 4.4608283 4.2529087 4.469734 4.7910624 3.6214366 4.37795
4.453617 4.020109 4.617723 4.318847 4.323626 5.1268477 4.711956 4.9592423
4.608723 3.2624376 4.8068767 4.1433544 4.9924903 4.7810426 5.175882 3.5487657
4.6984453 4.388809 3.6532772 4.5667934 5.0571537 4.2151523 4.148702 4.297179
4.4194765 4.4256916 4.2288094 4.5207987 4.8741946 4.8876395 4.734088 4.7378573
4.9206524 4.8996463 4.674231 4.726785 4.7080636 3.8881001 4.198792 4.2959027
00000000: 591a 9c40 63a4 9240 6ee6 9140 808c 8e40
00000010: e0dd 8e40 11c2 7740 73ae 8940 362a 9540
00000020: 8411 9b40 61fa 9640 aabd 8640 2f15 7740
00000030: c102 9240 aeb0 9140 a261 8e40 d790 8340
00000040: 5ec2 8a40 95ca 7740 3f91 9540 a584 9c40
00000050: 7150 8540 e5e1 8040 a644 6240 c9f2 9340
00000060: 61f5 7b40 dd77 9440 c37d 9440 9019 7440
00000070: 3422 9a40 d645 8c40 6aea 9a40 5944 8a40
00000080: 4992 9040 d215 4a40 fb19 a240 196c 8540
00000090: f433 8240 e13b 8640 ac83 8d40 d499 8040
000000a0: 02f6 7040 504c 7140 0b7e 7c40 7dcc 8740
000000b0: 4d37 8b40 b141 9e40 b827 9640 b455 6340
000000c0: 9fe3 8240 2999 8a40 4823 5940 3545 7b40
000000d0: 5c8e 8940 4801 a940 1f23 9040 ef68 8140
000000e0: 3136 9d40 fe21 a340 44a7 9940 da98 7840
000000f0: f28a 8f40 3fdf 8240 5a7b 9440 8ec0 9740
00000100: 8d65 8340 4691 ac40 ef51 7f40 8348 8640
00000110: e206 a540 42c3 8440 4226 9440 1f89 9c40
00000120: f61d 8a40 3238 8c40 8845 8040 aedc a440
00000130: 069a 7540 7d5a a440 907a 5240 a86f 5040
00000140: 7e3d 8e40 62ef 9b40 ecee 8040 04e7 9140
00000150: 36c8 6040 6e46 9b40 4f78 9d40 0297 a040
00000160: 7ef1 9440 c333 9f40 973a 8840 312f 9240
00000170: 743c 8840 8eb4 9a40 1e40 9640 2834 9440
00000180: 2512 8e40 98d2 9b40 d06e 9f40 d3f5 7a40
00000190: 4b1c a440 7f93 7b40 1c5b 8740 c418 9040
000001a0: 2a9c a540 97d7 a440 4a0d 9040 b4c3 9e40
000001b0: b186 8a40 4960 9140 514a 4240 c562 9140
000001c0: 8d29 7040 5905 7640 68f6 a740 573d 9840
000001d0: b152 8040 a778 9a40 4611 9340 123d 6540
000001e0: 025d 6f40 d40d a740 9b60 8c40 14c7 9440
000001f0: 9e1a 8440 c6af b040 4d7b 8540 2c88 8c40
00000200: 5d59 8540 9600 9040 1675 9640 86dd 7a40
00000210: d6b4 8d40 7bfa 9140 19bd 8f40 cb82 8c40
00000220: 8a9c 9340 5bff a740 3f16 a040 146d 9140
00000230: 71d2 3e40 45c3 9840 398f 8f40 bb5e 9840
00000240: d1bd 8d40 4b44 9c40 2b32 8940 7fe0 8b40
00000250: 6bff a040 05dc 9a40 a2d0 9240 6ea2 9440
00000260: 6c79 9040 bea2 8b40 63cd 9340 f890 8840
00000270: d532 9140 37ac 8840 d665 a140 9b62 8f40
00000280: c389 8840 624f 8e40 43c6 b540 168c 9540
00000290: 902a 9340 3acc 8140 f5f6 8e40 dec1 ab40
000002a0: 00eb 8c40 c921 9640 b4bd a340 43c8 8c40
000002b0: 58d5 a140 51a8 a340 424d a840 7e60 9940
000002c0: f083 8c40 e155 8e40 c94d 9840 b7d0 8840
000002d0: a9ca 8640 9bdb a340 5358 9840 fac0 8340
000002e0: 1186 7440 51fd 9640 52df 8940 9a0e 9640
000002f0: f8c0 8840 e32b a440 a82f 9640 1b99 7140
00000300: 2c11 8740 1db6 9040 5a06 9940 b7ec a140
00000310: 2eb3 6340 cdce a240 61c5 6240 3cbe 9240
00000320: 5b15 8b40 9309 3040 f72b aa40 e90d 9140
00000330: 1ea0 9740 0eef 8a40 9cca 8d40 388a 8e40
00000340: a8b4 8240 534e 9c40 1bbf 8e40 d417 8840
00000350: 1008 8f40 6250 9940 9ec5 6740 2b18 8c40
00000360: 0884 8e40 bca4 8040 63c4 9340 ff33 8a40
00000370: 255b 8a40 230f a440 58c8 9640 1db2 9e40
00000380: a97a 9340 c7cb 5040 efd1 9940 5c96 8440
00000390: 7bc2 9f40 4dfe 9840 d3a0 a540 fa1e 6340
000003a0: aa59 9640 2071 8c40 4bcf 6940 2c23 9240
000003b0: 34d4 a140 87e2 8640 2bc2 8440 7e82 8940
000003c0: 5a6c 8d40 449f 8d40 6852 8740 62aa 9040
000003d0: 67f9 9b40 8b67 9c40 a67d 9740 879c 9740
000003e0: fc75 9d40 e7c9 9c40 4d93 9540 d341 9740
000003f0: 75a8 9640 a2d6 7840 815c 8640 0978 8940

model.layers.block_0.norm.bias f4 [256]
-1.049612 -1.1555717 -0.49783316 -0.96282864 -1.2719532 -0.7452164 -1.3322638 -1.2993038
-1.310178 -1.5974592 -1.1969428 -1.5201416 -1.0583783 -0.9393143 -1.4910296 -1.3400037
-1.0897074 -1.2396706 -1.3474565 -1.2490342 -1.342592 -1.1333631 -1.4865458 -0.77705
-0.7784799 -1.8505992 -1.1746544 -0.6323867 -1.0044321 -1.2097085 -1.1775378 -1.277185
-1.0336398 -0.36841258 -1.4914908 -1.312016 -0.9726327 -1.1857687 -1.324095 -1.1887606
-0.98728836 -0.98486775 -1.042011 -1.101687 -1.4461188 -0.83379835 -1.4553506 -1.1160705
-1.0711606 -0.81322825 -0.96786505 -1.1572413 -1.3237723 -1.1693647 -0.8926308 -0.94529027
-1.3881224 -1.4409207 -1.0475081 -0.546481 -0.94539213 -1.2463428 -1.0794395 -0.8091253
-1.4485972 -1.1861051 -1.3567269 -1.0011926 -1.4864931 -0.8613406 -1.6220791 -1.1694982
-1.1628623 -1.096739 -1.2837021 -1.5882267 -1.2563322 -1.2435819 -1.052102 -0.54515445
-0.77718496 -0.7068213 -0.8827987 -1.4877005 -0.6686913 -1.5223532 -1.2955662 -1.4075749
-1.7861669 -1.1563821 -1.4794234 -1.2693918 -1.1821418 -1.5095909 -1.224395 -1.249423
-0.8798105 -0.9239266 -1.4688205 -1.1767564 -1.3057219 -1.2393064 -1.418761 -1.0907439
-1.2203431 -1.7157634 -0.90015393 -1.5947076 -1.4292771 -0.93057466 -0.57108533 -1.1215153
-0.9527004 -0.707962 -1.0063853 -1.3486633 -1.2615411 -1.407258 -0.9988618 -0.73754483
-0.70273715 -1.0646778 -1.1766661 -1.3310664 -0.8516739 -1.5325899 -1.103084 -1.414461
-1.179896 -0.8289732 -0.8349804 -1.0763997 -1.136494 -1.5107954 -1.1160034 -1.2038801
-1.1617558 -0.9988394 -1.1528986 -1.163456 -0.80115354 -1.1446866 -1.2741112 -0.9749576
-1.3468485 -1.473817 -1.768441 -1.3579501 -1.4813913 -1.3676634 -1.3311367 -1.4641232
-1.6675065 -1.0280743 -0.7961014 -1.5097604 -1.3482207 -1.0122919 -1.2747023 -1.1132607
-1.2256253 -1.0538999 -1.7824999 -1.8190483 -1.5672951 -0.9818572 -0.69788224 -1.5393044
-1.5072596 -1.0622962 -1.5546364 -1.0448539 -1.2378738 -1.0944035 -1.2954196 -1.3285308
-0.92191195 -1.3882929 -1.2044121 -1.103408 -1.3631322 -1.3334363 -1.4792297 -1.0936447
-1.4717479 -1.1167028 -1.1098534 -0.9986217 -1.0086219 -1.4641159 -1.2818928 -0.79905605
-1.1422018 -1.1054153 -1.6774466 -1.7415308 -0.41438457 -1.621615 -0.93216735 -0.97395855
-0.9178869 -1.0100287 -1.3638391 -0.8013862 -1.3756272 -1.2015264 -0.85302305 -1.4642133
-0.53503335 -1.0656923 -0.9656855 -1.2568034 -1.3325232 -1.5604377 -0.8305219 -1.3328228
-1.1423833 -0.7783195 -1.4280576 -0.83356357 -1.2822903 -1.1579057 -0.71125114 -0.97232664
-0.98350275 -0.53917736 -1.4265016 -1.0685558 -1.0433396 -1.1298572 -1.7662293 -0.98200035
-1.3500872 -1.2035894 -0.8655652 -1.3020827 -0.626177 -0.33979484 -1.3490673 -1.2505504
-1.0098181 -0.9973274 -1.9893261 -0.80519235 -1.5975473 -1.298603 -1.501469 -1.1803014
-1.7452215 -1.4891355 -1.542683 -1.1747487 -0.98038924 -1.08895 -1.1597365 -1.3203179
00000000: b059 86bf c6e9 93bf fde3 febe f07b 76bf
00000010: 5dcf a2bf 81c6 3ebf 9f87 aabf 964f a6bf
00000020: eab3 a7bf 8b79 ccbf 6c35 99bf 0094 c2bf
00000030: f178 87bf e776 70bf 0fda bebf 3e85 abbf
00000040: 887b 8bbf 87ad 9ebf 7479 acbf 5ae0 9fbf
00000050: 0eda abbf 0b12 91bf 2247 bebf c0ec 46bf
00000060: 754a 47bf 6fe0 ecbf 135b 96bf 18e4 21bf
00000070: 3b91 80bf bad7 9abf 8fb9 96bf cc7a a3bf
00000080: 4f4e 84bf 93a0 bcbe 2ce9 bebf 24f0 a7bf
00000090: 75fe 78bf 45c7 97bf f27b a9bf 4f29 98bf
000000a0: eebe 7cbf 4b20 7cbf 9e60 85bf 1404 8dbf
000000b0: 6c1a b9bf cf73 55bf ee48 babf 66db 8ebf
000000c0: ca1b 89bf ba2f 50bf 01c6 77bf 7c20 94bf
000000d0: 5f71 a9bf bead 95bf 7483 64bf 8bfe 71bf
000000e0: ffad b1bf 1770 b8bf bf14 86bf 2ee6 0bbf
000000f0: 3805 72bf 2988 9fbf 132b 8abf d622 4fbf
00000100: a26b b9bf 4bd2 97bf 3aa9 adbf 1427 80bf
00000110: 6845 bebf d180 5cbf 4aa0 cfbf 1eb2 95bf
00000120: acd8 94bf f261 8cbf 5a50 a4bf 034b cbbf
00000130: 7ecf a0bf b12d 9fbf 47ab 86bf 3e8f 0bbf
00000140: 98f5 46bf 3ef2 34bf 18ff 61bf f86c bebf
00000150: 5a2f 2bbf 78dc c2bf 1dd5 a5bf 6a2b b4bf
00000160: 1ea1 e4bf 5404 94bf bf5d bdbf 6e7b a2bf
00000170: 6c50 97bf 463a c1bf fab8 9cbf 18ed 9fbf
00000180: 433b 61bf 7486 6cbf 4f02 bcbf f49f 96bf
00000190: e521 a7bf 98a1 9ebf f699 b5bf 7f9d 8bbf
000001a0: 3434 9cbf 239e dbbf 7d70 66bf 611f ccbf
000001b0: 8df2 b6bf 243a 6ebf a632 12bf d08d 8fbf
000001c0: 2ce4 73bf ff3c 35bf 3cd1 80bf 00a1 acbf
000001d0: 2e7a a1bf 0821 b4bf 68b5 7fbf bdcf 3cbf
000001e0: 95e6 33bf 5d47 88bf ff9c 96bf 6260 aabf
000001f0: 4d07 5abf e82b c4bf db31 8dbf 0f0d b5bf
00000200: d506 97bf 9637 54bf 47c1 55bf 77c7 89bf
00000210: a378 91bf be61 c1bf 33d9 8ebf be18 9abf
00000220: 6ab4 94bf f0b3 7fbf 2e92 93bf 20ec 94bf
00000230: 6618 4dbf 1785 92bf 1316 a3bf d296 79bf
00000240: 8865 acbf 09a6 bcbf 465c e2bf 4fd1 adbf
00000250: 3b9e bdbf 980f afbf b062 aabf 6468 bbbf
00000260: da70 d5bf f097 83bf 4dcd 4bbf d43f c1bf
00000270: 7f92 acbf c892 81bf 7229 a3bf 547f 8ebf
00000280: 4ae1 9cbf 31e6 86bf f528 e4bf 93d6 e8bf
00000290: 209d c8bf fe5a 7bbf 69a8 32bf ed07 c5bf
000002a0: e2ed c0bf 52f9 87bf 53fe c6bf c6bd 85bf
000002b0: a672 9ebf 6a15 8cbf 4fd0 a5bf 4c0d aabf
000002c0: 6c02 6cbf 95b3 b1bf 2d2a 9abf 793c 8dbf
000002d0: 1e7b aebf 0aae aabf 6657 bdbf 8dfc 8bbf
000002e0: 3c62 bcbf 1ef0 8ebf ad0f 8ebf aca5 7fbf
000002f0: 861a 81bf 2668 bbbf 1015 a4bf f08e 4cbf
00000300: ab33 92bf 407e 8dbf 92b6 d6bf 7bea debf
00000310: 372a d4be 1591 cfbf 85a2 6ebf 5955 79bf
00000320: a3fa 6abf 9f48 81bf 4892 aebf a527 4dbf
00000330: 8d14 b0bf 9ecb 99bf b85f 5abf 576b bbbf
00000340: f2f7 08bf 9b68 88bf 2a37 77bf efde a0bf
00000350: 1f90 aabf 6cbc c7bf 159d 54bf f099 aabf
00000360: 9e39 92bf f23f 47bf 97ca b6bf 6c64 55bf
00000370: 1722 a4bf 4136 94bf 8e14 36bf 66ea 78bf
00000380: d6c6 7bbf 8707 0abf 9b97 b6bf 70c6 88bf
00000390: 278c 85bf 299f 90bf cd13 e2bf 6064 7bbf
000003a0: a8cf acbf 380f 9abf ae95 5dbf a5aa a6bf
000003b0: 234d 20bf 97f9 adbe 3dae acbf 0912 a0bf
000003c0: b841 81bf d950 7fbf 3da2 febf 1621 4ebf
000003d0: 6e7c ccbf a038 a6bf 2330 c0bf 1e14 97bf
000003e0: 6b63 dfbf fe9b bebf a376 c5bf 2a5e 96bf
000003f0: cafa 7abf b762 8bbf 3f72 94bf 2d00 a9bf

model.layers.block_0.norm.running_mean f4 [256]
-1.3933575 -1.3630145 -0.4003383 -0.9903055 -1.5447285 -0.97881037 -1.9190679 -0.8038311
-1.6108731 -1.9372363 -1.4583751 -0.7742307 -1.1588346 -0.9837341 -1.8913314 -1.8724595
-1.23065 -1.1134825 -1.3780295 -1.5092481 -0.76300806 -1.6536374 -0.028906172 -0.7544705
-1.9729894 -2.090186 -1.5048995 -0.7138174 -1.219176 -0.9681334 -1.1223577 -1.7723941
-1.0793787 -1.6360229 -1.9050024 -1.790685 -0.9653493 -1.5017021 -0.725764 -1.7672551
-0.8775932 -1.346568 -1.4597002 -1.0528687 -0.9510047 -0.7696705 -1.7563417 -1.4805635
-1.4029927 -0.9625863 -0.4470482 -1.4199346 -1.7437586 -1.53786 -1.0963248 -1.0707291
-1.564731 -1.5863711 -1.3935773 -0.68314326 -0.41905656 -1.8712348 -1.2719434 -1.0972079
-2.0935922 -0.8108237 -2.007774 -1.4461191 -1.5555304 -0.9732338 -2.0626109 -1.3697432
-1.209553 -1.2243949 -1.9878916 -1.9069825 -0.8321771 -1.1601127 -1.6313856 -1.9085424
-0.9430966 -0.40791383 -1.336897 -1.5841434 -1.3973336 -0.7222901 -1.4008242 -0.73784685
-1.9302936 -1.2516854 -1.8545039 -1.4736766 -1.3510468 -1.6913569 -1.6557816 -1.4604639
-0.8910931 -1.2113594 -1.7785051 -1.6518489 -1.5593016 -1.7945753 -2.0948074 -0.62552184
-1.3836044 -2.0148113 -0.984363 -1.7225301 -1.9458773 -1.4494076 -1.4543616 -1.3530864
-1.8598998 -0.8106234 -1.038224 -1.7768946 -1.4704121 -1.7386882 -1.0244541 -0.5987664
-0.30048016 -1.121466 -0.6417511 -1.7036915 -0.98616254 -1.3827418 -1.4146298 -1.6451688
-1.644463 -0.81785053 -1.1138406 -1.3598197 -1.3922244 -2.0319514 -1.2330736 -1.4786385
-1.1257993 -1.0156513 -1.3288003 -1.6153271 -0.5807414 -1.219428 -1.4529357 -0.8282653
-0.7801681 -1.7331138 -1.7375286 -1.496041 -1.6227998 -1.4939852 -1.7777716 -1.6284271
-0.20735317 -1.2751508 -0.88289094 -2.0116725 -1.58152 -0.79871297 -1.4355835 -1.3299655
-1.5547706 -0.93586826 -2.0322459 -2.28297 -2.0541348 -0.87562877 -0.67087024 -1.7277488
-1.7302953 -1.2475077 -1.8969985 -1.0337292 -1.1097115 -1.1462362 -1.6494969 -1.4731313
-1.0567665 -1.6183331 -1.3371158 -0.5838752 -1.7102313 -1.3434863 -1.8092972 -0.66574246
-2.3877366 -1.328634 -1.4010731 -1.1988294 -1.0897653 -1.824976 -1.7512187 -0.7637219
-1.4513036 -1.2291613 -2.329587 -1.9425154 -1.1039894 -2.0643961 -1.3030136 -0.97951794
-0.9291459 1.0123327 -1.6450498 -0.93769 -1.8234038 -1.2278322 -0.90182775 -1.7415447
-0.4596908 -1.1737165 -0.9812958 -1.3921753 -1.9546322 -1.7527916 -1.2359345 -1.4762552
-1.2083539 -0.5988161 -1.7430974 -0.66851956 -1.6229788 -1.3403982 -0.5348677 -0.9567684
-0.24612515 -1.00122 -1.4821761 -0.87773633 -0.77621084 -0.7781742 -1.9360919 -1.1060058
-1.6309464 -0.32574928 -0.81003445 -1.5158635 -0.5061293 -1.1492975 -1.6420789 -1.6925741
-0.35584468 -0.95250356 -0.9641834 -0.6600009 -2.0821972 -1.0704403 -0.0027149469 -1.4782528
-2.06304 -1.8280457 -1.7515545 -1.1841578 -1.0253762 -1.43089 -1.2489703 -1.2551092
00000000: 8a59 b2bf 4277 aebf 24f9 ccbe a984 7dbf
00000010: aab9 c5bf 5193 7abf 04a4 f5bf e0c7 4dbf
00000020: 1731 cebf 5cf7 f7bf 09ac babf fc33 46bf
00000030: b154 94bf ffd5 7bbf 2617 f2bf c1ac efbf
00000040: f085 9dbf 9886 8ebf 4563 b0bf 0b2f c1bf
00000050: 7f54 43bf 64aa d3bf a3cc ecbc fb24 41bf
00000060: eb8a fcbf 9cc5 05c0 8ca0 c0bf bdbc 36bf
00000070: f60d 9cbf 97d7 77bf 6ba9 8fbf cfdd e2bf
00000080: 1529 8abf 3369 d1bf 1ed7 f3bf 2b35 e5bf
00000090: 2221 77bf c637 c0bf abcb 39bf 6a35 e2bf
000000a0: f3a9 60bf 575c acbf 75d7 babf 67c4 86bf
000000b0: 0b75 73bf 2009 45bf cecf e0bf 1b83 bdbf
000000c0: 4495 b3bf 0e6c 76bf 80e3 e4be 6bc0 b5bf
000000d0: 7b33 dfbf 99d8 c4bf 5f54 8cbf a70d 89bf
000000e0: 1b49 c8bf 350e cbbf be60 b2bf 7ae2 2ebf
000000f0: 958e d6be 9f84 efbf 0bcf a2bf 4f71 8cbf
00000100: 6afd 05c0 2492 4fbf 5f7f 00c0 6e1a b9bf
00000110: 9f1b c7bf da25 79bf d101 04c0 bf53 afbf
00000120: a2d2 9abf f9b8 9cbf 3b73 febf 0118 f4bf
00000130: 8f09 55bf 937e 94bf 3ed1 d0bf 1e4b f4bf
00000140: c76e 71bf 15da d0be 711f abbf 36c5 cabf
00000150: d4db b2bf 01e8 38bf 354e b3bf 88e3 3cbf
00000160: dc13 f7bf 3a37 a0bf 6260 edbf 6fa1 bcbf
00000170: 1aef acbf 627e d8bf a7f0 d3bf 7bf0 babf
00000180: ad1e 64bf d30d 9bbf 0ea6 e3bf c96f d3bf
00000190: 3297 c7bf a5b4 e5bf 5311 06c0 3322 20bf
000001a0: f319 b1bf abf2 00c0 37ff 7bbf de7b dcbf
000001b0: 8212 f9bf 3086 b9bf 8528 babf ef31 adbf
000001c0: 3211 eebf 0485 4fbf 86e4 84bf 4871 e3bf
000001d0: 7736 bcbf 568d debf 5021 83bf c148 19bf
000001e0: 89d8 99be 338c 8fbf cd49 24bf 9012 dabf
000001f0: 2675 7cbf affd b0bf 9712 b5bf e494 d2bf
00000200: c37d d2bf a75e 51bf 5492 8ebf 920e aebf
00000210: 6934 b2bf 7e0b 02c0 5bd5 9dbf 0744 bdbf
00000220: 311a 90bf dd00 82bf 2116 aabf 0ac3 cebf
00000230: 78ab 14bf 3716 9cbf ccf9 b9bf 3209 54bf
00000240: 19b9 47bf acd6 ddbf 5667 debf 467e bfbf
00000250: e7b7 cfbf e83a bfbf 058e e3bf 4d70 d0bf
00000260: 6454 54be 2438 a3bf 2405 62bf 3ebf 00c0
00000270: 3f6f cabf 7478 4cbf 33c1 b7bf 4f3c aabf
00000280: b902 c7bf 1095 6fbf 5110 02c0 2e1c 12c0
00000290: f276 03c0 3529 60bf 27be 2bbf df26 ddbf
000002a0: 517a ddbf 55ae 9fbf d9d0 f2bf 3d51 84bf
000002b0: 070b 8ebf deb7 92bf b722 d3bf 918f bcbf
000002c0: 2044 87bf 8a25 cfbf 9c26 abbf d878 15bf
000002d0: dce8 dabf 5cf7 abbf 0d97 e7bf 196e 2abf
000002e0: add0 18c0 ae10 aabf 5d56 b3bf 3e73 99bf
000002f0: 6e7d 8bbf d098 e9bf ef27 e0bf 4783 43bf
00000300: 51c4 b9bf 2855 9dbf f417 15c0 58a4 f8bf
00000310: 864f 8dbf 111f 04c0 26c9 a6bf b0c1 7abf
00000320: 81dc 6dbf 1e94 813f fe90 d2bf 740c 70bf
00000330: 4c65 e9bf 9b29 9dbf 2fde 66bf f0ea debf
00000340: 985c ebbe 583c 96bf 3436 7bbf cd32 b2bf
00000350: 6331 fabf 7a5b e0bf 1a33 9ebf eef5 bcbf
00000360: 57ab 9abf 034c 19bf d11d dfbf 1924 2bbf
00000370: c5bd cfbf 2b92 abbf 17ed 08bf c6ee 74bf
00000380: 3b08 7cbe fa27 80bf f2b7 bdbf 54b3 60bf
00000390: c1b5 46bf 6d36 47bf dcd1 f7bf 9991 8dbf
000003a0: dac2 d0bf 9cc8 a6be 6b5e 4fbf d107 c2bf
000003b0: b191 01bf 2e1c 93bf a42f d2bf 45a6 d8bf
000003c0: 4631 b6be 46d7 73bf b9d4 76bf d2f5 28bf
000003d0: b842 05c0 3004 89bf 40ed 31bb 6337 bdbf
000003e0: d908 04c0 67fd e9bf f032 e0bf 7c92 97bf
000003f0: 873f 83bf 6727 b7bf 42de 9fbf 6ba7 a0bf

model.layers.block_0.norm.running_var f4 [256]
43.88551 41.039036 37.254646 38.597233 40.178665 48.13415 45.90669 40.103283
45.08081 43.541416 40.143063 37.304726 44.712418 41.42377 38.851078 43.470783
38.766586 40.02111 44.82134 42.820522 38.713226 39.138863 39.451294 42.251335
42.776005 45.296417 37.884502 41.91886 35.447887 38.415203 39.407444 46.405308
39.474834 46.069233 48.588306 43.182415 40.46826 38.67851 42.11027 49.66443
44.402985 41.26066 44.410534 43.315865 40.533062 36.992336 42.534466 45.02362
39.59763 39.380558 35.434902 48.61895 41.365322 42.57838 42.92655 41.657173
46.628086 38.20114 45.644688 37.42841 34.115944 52.379025 47.898247 44.181023
45.661808 48.693554 38.76911 44.55122 39.138737 43.830452 44.586464 37.763084
36.81978 39.909294 45.17777 42.473923 35.223797 42.408386 49.837 31.163834
40.666996 39.59952 44.86542 39.99111 42.69596 43.329437 41.30656 36.02382
41.2925 42.892742 40.98602 40.944782 36.986378 44.485725 38.005775 36.477585
43.87732 45.272644 37.07224 38.174603 41.049564 37.054905 48.47186 41.92322
40.93556 48.685146 41.454853 41.595802 50.784107 47.8269 35.452446 47.185028
40.046177 36.612087 40.665813 43.30164 42.46308 36.3904 38.12406 38.452435
37.42079 44.35297 41.119823 41.228474 46.709133 45.02606 40.629036 44.46563
43.830063 41.242218 40.50968 39.779926 38.95104 43.886044 44.547226 40.5255
42.97043 38.55649 40.207397 41.202175 39.964584 37.395893 39.826588 40.507908
42.4439 43.92424 44.57472 40.23739 40.182034 39.566914 44.356976 41.56318
47.84577 39.994366 40.173424 46.082603 36.271584 28.65356 48.372074 42.790653
43.01636 42.161144 54.7149 48.816982 40.913155 29.54447 37.719986 45.902073
38.435623 44.965363 47.075756 37.497173 38.4965 38.81574 46.133587 42.936836
36.835682 38.889767 40.891304 44.824608 42.69531 43.358337 37.114807 40.047203
44.17932 36.875446 34.976734 44.44074 35.975666 41.976696 44.627438 30.334425
42.604218 44.497524 44.931576 40.160328 39.005306 43.970734 47.348236 42.653408
36.472477 39.937515 46.22775 44.490532 41.35179 40.263355 39.005768 42.916546
46.17467 39.176636 38.901947 35.895786 45.799618 40.676308 40.628498 41.189224
47.44999 34.981716 42.84944 41.50611 41.919147 46.11034 36.44099 48.093704
46.85542 40.724022 40.51717 41.017876 44.27197 38.919205 40.039555 47.567116
39.91861 41.038723 37.21813 37.076687 41.43012 41.61567 40.164925 43.975273
40.774914 38.566986 30.447552 38.06115 40.70049 42.031002 42.189106 48.749184
41.767647 42.208557 40.123566 40.974712 36.113213 35.461536 38.325436 39.748493
00000000: c38a 2f42 f927 2442 c204 1542 9163 1a42
00000010: f4b6 2042 5f89 4042 73a0 3742 c369 2042
00000020: c052 3442 692a 2e42 7f92 2042 0a38 1542
00000030: 84d9 3242 f1b1 2542 8167 1b42 15e2 2d42
00000040: fc10 1b42 9e15 2042 0d49 3342 3748 2b42
00000050: 58da 1a42 328e 1c42 20ce 1d42 5e01 2942
00000060: a11a 2b42 882f 3542 bb89 1742 eaac 2742
00000070: a3ca 0d42 2ba9 1942 39a1 1d42 099f 3942
00000080: 3be6 1d42 e546 3842 6d5a 4242 cbba 2c42
00000090: 80df 2142 cbb6 1a42 eb70 2842 60a8 4642
000000a0: a89c 3142 ea0a 2542 63a4 3142 7243 2d42
000000b0: db21 2242 27f8 1342 4b23 2a42 3018 3442
000000c0: f963 1e42 b185 1d42 57bd 0d42 ce79 4242
000000d0: 1776 2542 4350 2a42 cab4 2b42 f2a0 2642
000000e0: 2983 3a42 f8cd 1842 2994 3642 b1b6 1542
000000f0: ba76 0842 1f84 5142 ce97 3f42 5eb9 3042
00000100: b1a5 3642 33c6 4242 9213 1b42 7334 3242
00000110: 118e 1c42 6252 2f42 8a58 3242 660d 1742
00000120: 7447 1342 1ea3 1f42 09b6 3442 4ce5 2942
00000130: 2be5 0c42 30a2 2942 1759 4742 884f f941
00000140: 01ab 2242 e965 1e42 3176 3342 e6f6 1f42
00000150: aac8 2a42 5851 2d42 eb39 2542 6418 1042
00000160: 852b 2542 2b92 2b42 aff1 2342 75c7 2342
00000170: 0df2 1342 62f1 3142 ea05 1842 0ce9 1142
00000180: 6082 2f42 3017 3542 f949 1442 cbb2 1842
00000190: c132 2442 3938 1442 2fe3 4142 61b1 2742
000001a0: 03be 2342 97bd 4242 c5d1 2542 1a62 2642
000001b0: ed22 4b42 bf4e 3f42 4ecf 0d42 78bd 3c42
000001c0: 492f 2042 c772 1242 cba9 2242 e134 2d42
000001d0: 32da 2942 c58f 1142 0a7f 1842 4bcf 1942
000001e0: e4ae 1542 7169 3142 b37a 2442 f5e9 2442
000001f0: 27d6 3a42 af1a 3442 2284 2242 cedc 3142
00000200: fc51 2f42 08f8 2442 ea09 2242 a51e 1f42
00000210: ddcd 1b42 4f8b 2f42 5c30 3242 1d1a 2242
00000220: b8e1 2b42 d939 1a42 60d4 2042 07cf 2442
00000230: bcdb 1f42 6595 1542 6d4e 1f42 1908 2242
00000240: 8ec6 2942 6cb2 2f42 834c 3242 16f3 2042
00000250: 67ba 2042 8544 1e42 8b6d 3142 b240 2642
00000260: 1262 3f42 3bfa 1f42 96b1 2042 9654 3842
00000270: 1a16 1142 7e3a e541 017d 4142 a129 2b42
00000280: c110 2c42 03a5 2842 0fdc 5a42 9744 4342
00000290: 12a7 2342 135b ec41 44e1 1642 b99b 3742
000002a0: 14be 1942 88dc 3342 934d 3c42 1bfd 1542
000002b0: 6afc 1942 5143 1b42 cb88 3842 52bf 2b42
000002c0: bd57 1342 1f8f 1b42 b290 2342 664c 3342
000002d0: ffc7 2a42 f06e 2d42 9075 1442 5630 2042
000002e0: a0b7 3042 7580 1342 2de8 0b42 51c3 3142
000002f0: 15e7 0f42 23e8 2742 7f82 3242 e7ac f241
00000300: b86a 2a42 77fd 3142 efb9 3342 2da4 2042
00000310: 6f05 1c42 08e2 2f42 9864 3d42 179d 2a42
00000320: d1e3 1142 04c0 1f42 37e9 3842 4ef6 3142
00000330: 3c68 2542 ad0d 2142 e805 1c42 8baa 2b42
00000340: ddb2 3842 e0b4 1c42 989b 1b42 4995 0f42
00000350: cf32 3742 8ab4 2242 9583 2242 c4c1 2442
00000360: cacc 3d42 47ed 0b42 d465 2b42 4206 2642
00000370: 35ad 2742 fd70 3842 93c3 1142 f45f 4042
00000380: f36b 3b42 66e5 2242 9511 2242 4e12 2442
00000390: 7f16 3142 44ad 1b42 8128 2042 ba44 3e42
000003a0: a8ac 1f42 a727 2442 5ddf 1442 874e 1442
000003b0: 71b8 2542 7276 2642 e2a8 2042 aee6 2f42
000003c0: 8319 2342 9844 1a42 9694 f341 9e3e 1842
000003d0: 4dcd 2242 bf1f 2842 a5c1 2842 2aff 4242
000003e0: 1212 2742 90d5 2842 887e 2042 1be6 2342
000003f0: ee73 1042 9dd8 0d42 3f4d 1942 75fe 1e42

model.classifier.weight f4 [54, 256]
0.14782639 -0.34147388 -0.9663147 1.220661 0.9887399 0.31758228 -0.17139488 0.85237753
-0.0042205993 0.09315925 -1.2450639 0.15955497 -0.014435233 0.43649837 -1.4193026 0.30667683
0.0004860862 -0.09248071 -0.20436135 -0.48604366 -0.49586985 -0.97943306 0.90783286 0.5740192
0.1551575 0.5277261 -0.12781584 -0.8456451 -1.403045 -0.51220423 0.72918034 -0.30994466
-2.0702426 -0.0711648 -0.3003464 1.5247217 -0.3094913 0.62282133 1.0674614 1.2338839
0.09042571 -0.31510466 0.8316954 1.0153505 -0.008104911 -0.5482385 0.9916375 -0.32011065
0.93558925 -0.49757504 0.46316344 0.3113959 -1.4845041 0.7605697 0.3558303 -0.31677675
-0.11754409 -0.9276137 -1.9365965 0.49970174 0.17116866 1.2238756 -0.54255253 -2.0342796
0.58619106 0.69767475 0.6141957 -0.05591952 0.038965393 -0.89233017 -2.0103981 0.36976883
0.79718137 -0.5132829 0.18438534 -0.04931247 0.7577761 0.74947053 -0.09288893 0.32313585
-0.53756756 -0.21068007 0.1674993 0.5304591 -0.3341961 -2.0052485 -1.1999276 -0.4185845
-0.22355548 -0.5276938 1.2511473 -0.6060302 0.0295335 0.8833551 -1.974195 -0.36874247
-0.32279697 -1.0760659 0.22134204 -0.35356703 -1.0388566 0.5157578 0.66063064 -0.26072496
-2.0373425 0.012844864 -1.2821187 -0.5679246 0.11060577 0.28515857 0.7966524 0.5070681
0.81178945 -0.19296554 0.088678345 -1.5520066 -0.6024335 0.53883654 -0.10182273 0.8329031
0.6137778 -1.7836025 0.25977567 -1.0431639 -1.2811549 0.13069226 -0.07407518 -1.1797397
0.25141543 1.2422732 1.6249535 -1.8015314 0.1966584 -0.5302761 0.070735276 -1.2293037
-0.034157038 0.7287114 0.9869818 0.25417677 0.18090738 -2.6889455 -0.6167305 0.47170642
0.13671763 -0.5199009 0.10416919 0.020966554 0.1465383 1.2005106 1.0127523 0.6722579
0.36869985 1.0390157 0.24361841 0.21199791 -1.3925275 -0.80982536 -2.1835313 0.39478624
-0.5693496 -1.4925449 0.42360094 0.93558687 -0.39419648 -0.8803649 0.8885173 -0.41039184
0.26192105 0.92203027 0.0017406485 0.43565896 0.18262593 -0.59495664 -0.12493383 -1.0718032
0.37631804 -0.14763348 -0.47603688 0.03028307 -0.26514608 0.34426084 0.8292829 0.47258264
1.1246237 0.4097617 -0.023703678 -0.015819289 -1.0334996 0.21724978 0.9388989 -0.098046415
1.2305793 -1.1963087 -1.4024389 -1.7802194 -0.13333723 -1.0516568 0.8209149 0.3759222
0.5570269 0.2524771 -0.5200861 0.343144 -0.42506495 -1.4379486 -0.011714126 0.03947674
0.13564624 -0.16021852 -0.051733226 -0.61414987 -0.985759 0.31047904 0.11611717 -1.5784858
1.1774602 -0.13142662 0.414121 0.39624006 0.08312602 -1.0486994 0.10030775 0.9135688
0.6037836 -0.08594451 -1.1552567 0.24389033 -0.5943865 0.13430032 -0.2969863 0.63505775
-0.7107638 0.7841459 0.39954656 -0.18952642 -0.11229535 0.4125895 0.7956138 0.4301357
-0.15064059 -0.8643941 0.99388266 0.470924 0.7497474 -0.03715698 0.89861345 0.46135676
0.50377893 0.50174725 -0.825572 -1.6320162 0.56140155 -0.10632939 0.8892242 0.12405646
00000000: cd5f 173e aad5 aebe 6660 77bf 9f3e 9c3f
00000010: 0f1e 7d3f 259a a23e 2482 2fbe 6a35 5a3f
00000020: f44c 8abb 47ca be3d 415e 9fbf 6162 233e
00000030: c181 6cbc b77c df3e b5ab b5bf bf04 9d3e
00000040: 63d9 fe39 8766 bdbd 1a44 51be b7da f8be
00000050: a7e2 fdbe 20bc 7abf bc67 683f ecf2 123f
00000060: 9ce1 1e3e 0f19 073f 28e2 02be 337c 58bf
00000070: fb96 b3bf d11f 03bf 90ab 3a3f 11b1 9ebe
00000080: db7e 04c0 dabe 91bd 01c7 99be 152a c33f
00000090: a575 9ebe 3871 1f3f 93a2 883f e8ef 9d3f
000000a0: 1d31 b93d 6655 a1be fde9 543f 01f7 813f
000000b0: 76ca 04bc 5c59 0cbf f5db 7d3f 8be5 a3be
000000c0: c782 6f3f 28c2 febe c223 ed3e 496f 9f3e
000000d0: 3b04 bebf b2b4 423f 642f b63e 9030 a2be
000000e0: f5ba f0bd 1778 6dbf 65e2 f7bf e8d8 ff3e
000000f0: d646 2f3e f5a7 9c3f b9e4 0abf a331 02c0
00000100: 9e10 163f d09a 323f ee3b 1d3f de0b 65bd
00000110: 2d9a 1f3d c06f 64bf 5daa 00c0 5752 bd3e
00000120: 1414 4c3f 8266 03bf 83cf 3c3e dffb 49bd
00000130: 9dfd 413f 4ddd 3f3f 8d3c bebd 1072 a53e
00000140: 079e 09bf 84bc 57be f084 2b3e 2bcc 073f
00000150: c01b abbe fe55 00c0 3a97 99bf b550 d6be
00000160: baeb 64be f116 07bf 9825 a03f cc24 1bbf
00000170: 3df0 f13c 8f23 623f 6cb2 fcbf d0cb bcbe
00000180: a545 a5be 87bc 89bf 7da7 623e bd06 b5be
00000190: 41f9 84bf b408 043f 171f 293f be7d 85be
000001a0: d263 02c0 4473 523c 771c a4bf 8263 11bf
000001b0: 4785 e23d 4e00 923e 69f1 4b3f 37cf 013f
000001c0: 6fd1 4f3f c298 45be fe9c b53d 27a8 c6bf
000001d0: 1539 1abf 31f1 093f 6f88 d0bd 2339 553f
000001e0: 8b20 1d3f 164d e4bf 5101 853e 6586 85bf
000001f0: e2fc a3bf 31d4 053e bab4 97bd b601 97bf
00000200: 86b9 803e cf02 9f3f 7afe cf3f 9598 e6bf
00000210: d260 493e 2dc0 07bf a8dd 903d d359 9dbf
00000220: 40e8 0bbd d58c 3a3f d7aa 7c3f 7523 823e
00000230: c93f 393e af17 2cc0 0de2 1dbf 8183 f13e
00000240: b5ff 0b3e 3a18 05bf a856 d53d 0dc2 ab3c
00000250: 230e 163e 55aa 993f dea1 813f 1819 2c3f
00000260: 3ac6 bc3e 77fe 843f 1b77 793e fb15 593e
00000270: 573e b2bf b750 4fbf fabe 0bc0 6c21 ca3e
00000280: e5c0 11bf b60b bfbf 39e2 d83e 9f82 6f3f
00000290: 1fd4 c9be 985f 61bf df75 633f e11e d2be
000002a0: 841a 863e 2d0a 6c3f 7926 e43a b10e df3e
000002b0: 4b02 3b3e 144f 18bf 4fdd ffbd d930 89bf
000002c0: c2ac c03e 3b2d 17be 1bbb f3be 3314 f83c
000002d0: 3ac1 87be f542 b03e e24b 543f 5af6 f13e
000002e0: abf3 8f3f 49cc d13e 372e c2bc 7497 81bc
000002f0: b749 84bf ba76 5e3e ae5b 703f 8fcc c8bd
00000300: 9f83 9d3f a520 99bf 1e83 b3bf 3bde e3bf
00000310: 8e89 08be b19c 86bf 7b27 523f e078 c03e
00000320: 5199 0e3f ae44 813e 5d24 05bf 92b0 af3e
00000330: 1da2 d9be b30e b8bf 9bec 3fbc 5db2 213d
00000340: d9e6 0a3e 5310 24be 38e6 53bd ed38 1dbf
00000350: b45a 7cbf 1cf7 9e3e d7ce ed3d d30b cabf
00000360: 04b7 963f b394 06be ab07 d43e fadf ca3e
00000370: fa3d aa3d c83b 86bf 266e cd3d a5df 693f
00000380: 9091 1a3f ad03 b0bd 74df 93bf 63be 793e
00000390: b729 18bf 0686 093e 970e 98be 2593 223f
000003a0: 9ef4 35bf c9bd 483f 5e91 cc3e 3713 42be
000003b0: 1bfb e5bd ee3e d33e 59ad 4b3f bf3a dc3e
000003c0: 8741 1abe ef48 5dbf 186f 7e3f f31c f13e
000003d0: 72ef 3f3f eb31 18bd 880b 663f f436 ec3e
000003e0: a8f7 003f 8272 003f b058 53bf e8e5 d0bf
000003f0: 03b8 0f3f 39c3 d9bd 32a4 633f 5011 fe3d

model.classifier.bias f4 [54]
0.3288638 0.091172755 -0.21496594 -0.069771305 -0.0789214 0.0773761 0.2788142 -0.26742235
-0.4092977 0.21428561 0.7073891 -0.17322353 0.18139394 0.48556325 -0.29221058 -0.006556442
-0.027907133 -0.75709295 0.2664669 0.2349494 0.07807889 0.4710524 -0.459633 0.11484944
0.12122185 -0.5337779 -0.20772955 -0.4842059 -0.0019636445 0.036277056 -0.21781763 0.49469194
-0.39687982 -0.37900823 0.15448071 -0.43370312 0.07894141 -0.17706686 0.18212225 -0.14249158
-0.028521316 0.44026867 -0.13010532 0.025932807 0.17882566 0.53573906 -0.29533437 -0.08352884
0.2078065 -0.1055882 0.019936755 0.18011296 -0.74451816 0.0011574478
00000000: d660 a83e c8b8 ba3d 0820 5cbe 42e4 8ebd
00000010: 8ba1 a1bd 5c77 9e3d bcc0 8e3e 95eb 88be
00000020: 788f d1be b06d 5b3e 7417 353f 8261 31be
00000030: 55bf 393e bf9b f83e a09c 95be 6cd7 d6bb
00000040: 809d e4bc d8d0 41bf 596e 883e 9396 703e
00000050: d3e7 9f3d c82d f13e 0455 ebbe 2f36 eb3d
00000060: 2943 f83d aba5 08bf 0eb7 54be d6e9 f7be
00000070: 7db0 00bb 4097 143d 960b 5fbe 4348 fd3e
00000080: d533 cbbe 5e0d c2be 3130 1e3e 560e debe
00000090: 09ac a13d 0451 35be 417e 3a3e 50e9 11be
000000a0: 89a5 e9bc e56a e13e 543a 05be 0a71 d43c
000000b0: 131e 373e 3226 093f 1136 97be 2b11 abbd
000000c0: 3acb 543e a03e d8bd 6852 a33c 886f 383e
000000d0: be98 3ebf 81b5 973a
