dl/experiments/basic_cnn/runs/2024-05-19-11-51-55/checkpoints/epoch-050_0.866582.ckpt (torch, 321016 bytes, 9 tensors)

model.embedding.weight f4 [711, 32]
0	0x3f1ba9b5	0.6080583
1	0x3f63f691	0.89048105
2	0xbe183d9d	-0.14867254
3	0xbfb37dcb	-1.4022764
4	0xbedcba36	-0.43110818
5	0xbfc3edb8	-1.5306921
6	0x3e2a6f8e	0.16644117
7	0x40093c23	2.1442955
8	0x3e136560	0.1439414
9	0xbf09db21	-0.5384999
10	0xbfb37cce	-1.4022462
11	0xbe3d15b4	-0.1846531
12	0xbf27a1cf	-0.65481275
13	0x3fa60b58	1.2972212
14	0xbf0b95d3	-0.5452549
15	0x3f9331f0	1.1499615
16	0xbfa1eb25	-1.2649885
17	0x3ff5a22e	1.9190118
18	0x3f3c15a8	0.73470545
19	0x3f4d4d41	0.80196005
20	0xbfafe5ee	-1.3742044
21	0x3e154557	0.14577232
22	0x3d485174	0.048905805
23	0x3fc39410	1.527956
24	0xbf4a66d3	-0.7906315
25	0x3f5971d4	0.8493931
26	0xbe394fea	-0.18096891
27	0xbf929399	-1.1451293
28	0xbd873240	-0.06601381
29	0x3ef47a22	0.4774943
30	0xbf6668c8	-0.90003633
31	0xbf0b0b1d	-0.5431383
32	0xbebbef0e	-0.36705822
33	0xbed534d7	-0.41641876
34	0x3f9821ec	1.1885352
35	0xbe9c38cf	-0.30512092
36	0xbf30e081	-0.69092566
37	0x3fb28926	1.3948104
38	0xbf586bb7	-0.8453936
39	0xbecc81d3	-0.39942798
40	0xbe64e14c	-0.22351569
41	0x3f4ec9fe	0.80776966
42	0x3ed4f427	0.41592523
43	0x3f8e0425	1.1095015
44	0xbedfb5a8	-0.4369328
45	0xbf263c6f	-0.64935964
46	0xbffe7a39	-1.9881049
47	0x3e64916c	0.22321099
48	0x3fb42b41	1.40757
49	0xbf1eb919	-0.62001187
50	0xbfd001c6	-1.6250541
51	0x3f5c5a90	0.8607569
52	0xbe6bb43d	-0.23017974
53	0xbfd428aa	-1.657491
54	0xbf8089dc	-1.0042071
55	0x3fbb66e5	1.4640776
56	0xbf052850	-0.52014637
57	0xc00636ee	-2.0971026
58	0x3f981252	1.1880591
59	0x3f0cc896	0.5499357
60	0x3f73ba68	0.9520631
61	0x3f3840ec	0.7197406
62	0x3f69caad	0.91324884
63	0xbf63f2d7	-0.8904242
64	0x3fd1d604	1.6393437
65	0x3f1d6667	0.6148438
66	0x3f303921	0.6883717
67	0xbf4d7199	-0.8025146
68	0x3ebe798e	0.37202114
69	0xbf1bcd32	-0.6085998
70	0xc0150c2f	-2.3288686
71	0x3f5744d1	0.8408938
72	0xbfbc6325	-1.4717757
73	0xbe8e456e	-0.27787346
74	0xbf148d77	-0.5802836
75	0x3d2231c7	0.039598253
76	0x3ffa41d8	1.9551344
77	0x3f2663df	0.6499614
78	0x3f14673d	0.5797003
79	0xbf79b97d	-0.9754866
80	0x3fbbafbd	1.4663006
81	0x3eec527f	0.4615669
82	0xbfb2b698	-1.3961973
83	0xbfea0971	-1.8284131
84	0x3fd60ee9	1.67233
85	0x3ebc3e02	0.36766058
86	0x3ea0eca6	0.31430548
87	0xbe51b36f	-0.20478605
88	0x3e674b9d	0.22587438
89	0xbfcea03d	-1.6142651
90	0x3ca94267	0.020661546
91	0x40058e0d	2.086795
92	0xbfb7da6e	-1.4363534
93	0x3f8408eb	1.0315222
94	0x3f86ff7c	1.0546718
95	0x3e12f1c4	0.14350039
96	0x3eb7e6b1	0.3591819
97	0x3edc36fa	0.43010694
98	0x3f733d14	0.9501507
99	0xbf9c153d	-1.2193981
100	0xc02c0940	-2.6880646
101	0x3f16f841	0.58972555
102	0xbff98b78	-1.9495687
103	0xbf0d5322	-0.55204976
104	0xbd991c4b	-0.074760996
105	0xbf7fd6c0	-0.9993706
106	0x3ff02f9e	1.8764532
107	0x3de88f69	0.11355478
108	0xbf9b70ac	-1.214376
109	0x3ef976e4	0.4872352
110	0x3f651cd6	0.89497125
111	0x3fb026ec	1.3761878
112	0x3f903075	1.1264788
113	0xbda5f062	-0.0810249
114	0xbec04329	-0.3755124
115	0xbf2b6da3	-0.6696417
116	0xbf3b0c6c	-0.7306583
117	0x3e09c80e	0.13455221
118	0xbfeca45d	-1.848766
119	0x3fba479d	1.4553105
120	0xbf8a0d39	-1.0785285
121	0xbded9844	-0.11601308
122	0xbef149f2	-0.47126728
123	0xbeabae97	-0.3353164
124	0xbf7e3ca3	-0.99311274
125	0x3e503775	0.20333655
126	0xbf2fea3b	-0.6871678
127	0x3e14ac34	0.14518815
128	0xbf0728d5	-0.5279668
129	0x3eeea719	0.4661186
130	0x40049979	2.0718672
131	0xbe778d6b	-0.2417504
132	0x3f84c4c3	1.0372547
133	0xbfa96544	-1.3234029
134	0x3e3e0678	0.18557155
135	0x3e9a121b	0.30091938
136	0xbe068794	-0.13137656
137	0x3e84017d	0.25782385
138	0x3df28bcf	0.118430726
139	0x3f402400	0.7505493
140	0xbfc8b6d1	-1.5680791
141	0x3f45292f	0.77015966
142	0xbf725920	-0.94667244
143	0xbee58ca6	-0.4483387
144	0x3e9ef1be	0.3104381
145	0x3f4e7cad	0.8065899
146	0x3eb680f6	0.35645264
147	0xbf012642	-0.50449
148	0xbf3a1d2c	-0.7270076
149	0x3f158868	0.58411264
150	0x3f92af52	1.1459754
151	0x3e6da3cf	0.2320702
152	0x3f3e615a	0.74367297
153	0x3f9ad63d	1.209663
154	0xbf5e103c	-0.8674352
155	0x3ecc9c65	0.3996307
156	0xbfd51b55	-1.6648966
157	0x3e3cc659	0.18435039
158	0x3dff8803	0.12477114
159	0xbf182379	-0.59429127
160	0x3f7b2a57	0.9811148
161	0x3fa040da	1.2519791
162	0xbf561596	-0.8362669
163	0xbfb5cae5	-1.4202543
164	0x3f588c83	0.84589404
165	0x3ea568de	0.3230657
166	0x3f895b2b	1.0730947
167	0xbe254f08	-0.1614343
168	0x3f532bb2	0.8248855
169	0x3efff634	0.49992526
170	0xbf75e37f	-0.96050256
171	0x3f58a909	0.8463293
172	0x3f6bb065	0.9206603
173	0xbf6a207c	-0.9145582
174	0x3f27c9cf	0.6554231
175	0x3ea3ebc4	0.32015812
176	0x3ec22602	0.37919623
177	0x3f642fa5	0.891352
178	0xbc0e4dab	-0.00868551
179	0xbe890337	-0.26760265
180	0x3f442baa	0.76629126
181	0x3f7d1e68	0.9887452
182	0x3fcbd2b5	1.5923678
183	0xbf0f0d07	-0.55879253
184	0xbf01f7fd	-0.50769025
185	0x3ef685ca	0.48148948
186	0xbfd8a917	-1.6926602
187	0xbf1261a3	-0.5718023
188	0xbe7109a8	-0.2353884
189	0xbf4cf88a	-0.8006674
190	0x3fc2a8d5	1.5207773
191	0xbfa85e47	-1.3153771
192	0xbf90be62	-1.13081
193	0xbebe5f82	-0.37182242
194	0xbe293904	-0.16525656
195	0xbf66a4fa	-0.90095484
196	0x3f0fadee	0.5612477
197	0xbf579257	-0.8420767
198	0x3fe3e553	1.7804359
199	0xbfca18f6	-1.5788867
200	0x3ebb3a01	0.3656769
201	0xbea7a0b4	-0.32739794
202	0xbe104fd4	-0.14092952
203	0xbe4f2b43	-0.20231347
204	0x3ac9dc55	0.0015400747
205	0xbf80c245	-1.0059286
206	0x3f542001	0.82861334
207	0x3f0bbb98	0.5458312
208	0xbd08eeb2	-0.033430763
209	0xbf9665af	-1.1749781
210	0x3fa24865	1.2678343
211	0xbfc3df10	-1.5302448
212	0xbf46bb5d	-0.77629644
213	0xbf6fe9df	-0.93716234
214	0xbe645fa6	-0.22302112
215	0xbf238b0d	-0.6388405
216	0x3e1c5e8c	0.15270442
217	0x3f153ca0	0.5829563
218	0x3feaefb0	1.8354397
219	0x3f247761	0.6424466
220	0x3f92c95b	1.1467699
221	0xbfd0b7f3	-1.6306137
222	0xbefeafe2	-0.49743563
223	0x40065eb7	2.099531
224	0x3ec86687	0.39140722
225	0xbea42608	-0.32060266
226	0x3ed12afd	0.4085311
227	0x3f1db838	0.6160922
228	0xbf35c83c	-0.7100866
229	0xbe36c5c7	-0.17848884
230	0xbf86086b	-1.0471319
231	0xbec4d71d	-0.38445368
232	0x3f82003b	1.015632
233	0xbf54b4ae	-0.83088195
234	0xbbdb79a1	-0.006697849
235	0xbf85a606	-1.0441291
236	0xbe90ef40	-0.28307533
237	0xbfe3e69d	-1.7804753
238	0xbf2f3f77	-0.68456215
239	0xbf78f37e	-0.9724654
240	0x3efc3cf6	0.4926526
241	0xbf644712	-0.89170945
242	0xbf30abe2	-0.6901227
243	0xc00e4eab	-2.2235515
244	0xbfb80fcb	-1.437982
245	0xbf41c139	-0.7568546
246	0xbf640a76	-0.8907846
247	0xbed60073	-0.41797218
248	0x3d7fe770	0.062476575
249	0xbf4370f3	-0.7634422
250	0xbfcc62ef	-1.5967692
251	0x3ed34d34	0.4126984
252	0xbfa5e1bd	-1.2959515
253	0xc0151532	-2.3294187
254	0xbefd5b4e	-0.49483722
255	0x3fab734a	1.3394558

model.layers.block_0.conv.weight f4 [256, 32, 5]
0	0x3fdf05ff	1.7423705
1	0x3f912686	1.1339881
2	0x3f8ddc50	1.1082859
3	0xbe845874	-0.25848734
4	0xbf11dd40	-0.56978226
5	0x3f7bc397	0.9834532
6	0x3fab08bd	1.3362042
7	0x3ef29b8d	0.473843
8	0xbff44047	-1.9082116
9	0xc01a22f2	-2.408383
10	0xbe4de683	-0.20107464
11	0xbed699be	-0.4191417
12	0x3e98fcfc	0.29880512
13	0xbc664ab9	-0.014055901
14	0xbf8d06bf	-1.1017684
15	0x3ed2656c	0.41093004
16	0x3f7dd4a6	0.991526
17	0x3f54a71b	0.8306748
18	0x3f6ee65b	0.93320245
19	0xbf6ba247	-0.9204449
20	0x3dd671ea	0.10470946
21	0xbf875498	-1.0572691
22	0xbed40777	-0.41411945
23	0x3fcecd41	1.6156389
24	0x3f88b2d9	1.067958
25	0x3c60ebd1	0.013728098
26	0x3eac7cd5	0.3368899
27	0x400116e1	2.0170214
28	0x3f3ab5c7	0.7293362
29	0x3f0a1b8f	0.539483
30	0x3dbc5c6c	0.091973156
31	0x3efa8deb	0.489364
32	0xbec6b273	-0.3880802
33	0xbed20c03	-0.4102479
34	0x3f80fd22	1.007725
35	0x3eb945a9	0.3618596
36	0x3f2ff43f	0.68732065
37	0x3f64bc66	0.89349973
38	0x3f82feb8	1.0233984
39	0xc007a200	-2.1192627
40	0xbe96df67	-0.29467317
41	0x3f31b3d3	0.69415015
42	0x3e9f6e8d	0.3113903
43	0xbf25b256	-0.64725244
44	0x3eaa4bfe	0.33261102
45	0xbf05459f	-0.5205936
46	0xbea38b3a	-0.3194216
47	0x400f177a	2.235808
48	0x3f8c2f69	1.0951968
49	0x3e7d0360	0.24708319
50	0xbfa9eed1	-1.3276006
51	0xbd8bd98b	-0.068286024
52	0x3f9e5cc3	1.2372059
53	0x3fbd80e5	1.480496
54	0xbf47f088	-0.78101397
55	0xbe0c2b3e	-0.1368837
56	0x3eb29749	0.34881046
57	0xbfe99bf4	-1.8250718
58	0xbd0a9cd6	-0.033840977
59	0x3eb0ae0b	0.34507784
60	0x3f0f7e84	0.5605242
61	0xbf249497	-0.6428923
62	0xbec7f6ca	-0.39055473
63	0xbfca0894	-1.5783868
64	0xbf293761	-0.66100127
65	0xbeef6e2d	-0.46763745
66	0x3f0a28cd	0.5396851
67	0x3efe7c2f	0.4970412
68	0x3f9ce565	1.2257506
69	0x3f06d145	0.5266307
70	0xbfc1d9fc	-1.5144649
71	0xbfe18864	-1.7619748
72	0xbd8ec989	-0.069720335
73	0x3db56c2c	0.08858523
74	0x3e729943	0.23691277
75	0xbfb31ea3	-1.3993725
76	0xbffbb153	-1.966349
77	0xbdefa4b2	-0.11701335
78	0x3ffda4ea	1.9815953
79	0x3faa79c9	1.3318416
80	0xbf3660f3	-0.7124168
81	0xbe6f3daa	-0.23363367
82	0x3f7b29c3	0.981106
83	0x400ea061	2.2285388
84	0x38df81e2	0.00010657661
85	0x3dc63e99	0.09679908
86	0x3fb5b8b4	1.4196992
87	0x3f9a3537	1.204749
88	0xbed475eb	-0.41496214
89	0xbfcfb45f	-1.622692
90	0xbe0ab75a	-0.13546506
91	0xbf671d66	-0.90279233
92	0xbf87e124	-1.0615582
93	0xbf9d766f	-1.2301768
94	0x3bcc1cc5	0.0062290155
95	0x3e8a02e0	0.26955318
96	0x3e96c57e	0.2944755
97	0x3ea78325	0.32717243
98	0xbf0f6efc	-0.56028724
99	0x3f07eb04	0.5309298
100	0xbec94a38	-0.39314437
101	0xbf6164cd	-0.88044435
102	0xbf8c9db1	-1.0985624
103	0xbf869e27	-1.0517014
104	0x3f5c0332	0.85942376
105	0xbda79416	-0.08182542
106	0xbf69dc15	-0.91351444
107	0xbed4e6c0	-0.41582298
108	0x3d560eee	0.05226033
109	0x3fea8c36	1.8324039
110	0x3df00c5a	0.11721106
111	0xbf554d10	-0.83320713
112	0x3f34d6f4	0.7064049
113	0xbe880f78	-0.26574302
114	0x3eb4387c	0.35199344
115	0xbf89c308	-1.0762644
116	0xbfa2b5da	-1.2711747
117	0xbdf4c323	-0.11951282
118	0x3eaec506	0.34134692
119	0xbf301bb9	-0.687923
120	0x3e62972e	0.22127983
121	0x3f8fc936	1.123328
122	0x3fc0ea6c	1.507154
123	0x3f1e298c	0.61782146
124	0xbfbd0117	-1.4765958
125	0xbe8f8301	-0.28029636
126	0x3f6d6c9c	0.9274385
127	0x3cbebef4	0.023284413
128	0x3ede0dfd	0.43370047
129	0xbed0e633	-0.40800628
130	0xbebf9842	-0.3742085
131	0x3e085944	0.13315302
132	0xbf4db0d6	-0.80347955
133	0x3e28ff89	0.16503729
134	0xbed088d6	-0.40729398
135	0xbe1379c6	-0.14401922
136	0xbdd19992	-0.10234369
137	0xbf794f55	-0.97386676
138	0xbecaaed0	-0.39586496
139	0x3e5fd3ab	0.21858089
140	0x3da54fd4	0.08071867
141	0x3f852d9a	1.0404541
142	0xbebdf42b	-0.37100348
143	0x3faaae8f	1.3334521
144	0xbe78f091	-0.24310519
145	0xc007ee57	-2.123922
146	0xbfb93dfc	-1.4472041
147	0xbf3eebfd	-0.7457884
148	0x3f5db30c	0.8660133
149	0x3f96e46f	1.1788462
150	0xbda95501	-0.08268166
151	0x3e8b274c	0.2717842
152	0xbec08c82	-0.376072
153	0xbf84bf62	-1.0370905
154	0xbc9fa05f	-0.01948565
155	0xbe870165	-0.2636825
156	0xbf8be527	-1.0929307
157	0xbe88cb6d	-0.26717702
158	0x3fb39e0d	1.4032608
159	0xbedecf22	-0.43517405
160	0xbf1aacbd	-0.6041983
161	0xbfb7d903	-1.4363102
162	0xbf400b4d	-0.75017244
163	0xbf5320ec	-0.8247211
164	0xbf0fd3f4	-0.5618279
165	0xbf30822f	-0.68948644
166	0xbf28ff03	-0.66014117
167	0xbfa2885d	-1.2697865
168	0x3e22d3d0	0.15901113
169	0xbee67c2b	-0.45016608
170	0xbfb308b8	-1.3987036
171	0x3e096e59	0.13421
172	0x3fbec501	1.4903871
173	0x3e91a107	0.28443167
174	0x3fc5c53c	1.5450816
175	0x3faec339	1.3653327
176	0x4018a4ea	2.3850656
177	0x3f808d26	1.0043075
178	0xbf081616	-0.531587
179	0xbf9d04f0	-1.2267132
180	0x3cb90d99	0.022589492
181	0x3fd1ee3d	1.640083
182	0x3f0743ee	0.5283803
183	0x3e7c5b88	0.24644291
184	0x3fc049b6	1.5022495
185	0x3f8ae418	1.0850859
186	0x3e729880	0.23690987
187	0xbf15b008	-0.5847173
188	0xbfe2388d	-1.7673508
189	0xbfbb30ab	-1.4624227
190	0x3e4bbf27	0.19897138
191	0x3d5c1618	0.053732008
192	0xbe747a5c	-0.23874801
193	0xbd58cb9c	-0.052928552
194	0x3d98739d	0.074439265
195	0xbf26bccb	-0.65131825
196	0xbf5a9873	-0.8538887
197	0xbf2f8416	-0.6856092
198	0xbdb47f09	-0.088132925
199	0xbf07f531	-0.5310851
200	0xbeecc2e9	-0.46242455
201	0xbf05e922	-0.5230886
202	0x3dc760de	0.09735273
203	0x3e60cb48	0.21952546
204	0xbee26bad	-0.44222775
205	0xbf642e8c	-0.89133525
206	0x3ed1ccbe	0.40976518
207	0x3f88ad88	1.0677958
208	0xbf7515c3	-0.9573633
209	0x3e2a9e23	0.16661887
210	0x3f271210	0.65261936
211	0xbe6adf89	-0.22936834
212	0x3fb3913d	1.4028698
213	0xbe8ade79	-0.27122858
214	0x3f1bf145	0.60915023
215	0x3ee666a3	0.4500018
216	0x3f6f6938	0.93519926
217	0x3f0039b5	0.50088054
218	0x3e537566	0.20650253
219	0x3f83ad69	1.0287296
220	0x3e045784	0.1292401
221	0x3f814a0a	1.010072
222	0x3eadb2e1	0.33925536
223	0x3ead6d5f	0.33872506
224	0xbdfa0155	-0.12207285
225	0x3e16aa30	0.14713359
226	0xbedb5b95	-0.4284331
227	0xbfbd8b49	-1.4808131
228	0xc0021b42	-2.0329137
229	0xbf69bbf4	-0.9130242
230	0x3fc9d8b7	1.5769261
231	0x3e99e705	0.30059066
232	0x3f17fe1a	0.59372103
233	0x3f99111a	1.1958344
234	0x3ecf7f96	0.40527028
235	0x3e804bd8	0.25057864
236	0xbeec3453	-0.4613367
237	0x3f20b4ae	0.62775695
238	0xbf76e735	-0.96446544
239	0x3cef063f	0.029177783
240	0xbd714d1c	-0.058911428
241	0x3e57c72e	0.21072075
242	0xbe006855	-0.125398
243	0x3f4fe377	0.8120646
244	0x3c611ba0	0.0137394965
245	0xbef41c59	-0.47677878
246	0xbed1e0a3	-0.40991697
247	0xbf86127e	-1.0474393
248	0x3e1f14c2	0.15535262
249	0x3f1f8504	0.6231234
250	0x3e41236f	0.18861173
251	0x3ce68723	0.02814061
252	0x3f3d8a10	0.7403879
253	0xbea29d3b	-0.31760582
254	0xbf4809f0	-0.78140163
255	0x3efa1544	0.4884435

model.layers.block_0.conv.bias f4 [256]
0	0xbe4e121b	-0.20124094
1	0x3e218f49	0.15777315
2	0xbdb8d732	-0.0902542
3	0x3d9c7260	0.07639003
4	0x3d6c8a7f	0.057749268
5	0x3e12357e	0.14278218
6	0xbd215e24	-0.03939642
7	0x3e90186e	0.28143638
8	0xbd39124a	-0.045183457
9	0x3dd34863	0.10316541
10	0x3db87977	0.090075426
11	0xbc944d73	-0.018103337
12	0x3bb7905e	0.0056019267
13	0x3e7649e1	0.2405162
14	0xbdb9924a	-0.090611055
15	0x3e9747dc	0.29547012
16	0x3d975a11	0.07390226
17	0x3e476069	0.19470371
18	0xbdc278ce	-0.09495698
19	0xbdbf6a36	-0.0934643
20	0x3e9ab4c3	0.30216035
21	0xbe0016af	-0.12508653
22	0x3e6f6861	0.23379661
23	0x3e1174a4	0.14204651
24	0xbfa7810c	-1.3086257
25	0x3e400f62	0.18755868
26	0xbe70da3c	-0.2352075
27	0xbda5136c	-0.08060345
28	0xbdfe4a0d	-0.12416468
29	0x3debf54e	0.115213975
30	0x3dd57940	0.10423517
31	0x3db6f40d	0.08933268
32	0x3dcd86d7	0.10035484
33	0xbf1d447c	-0.61432624
34	0xbd857244	-0.06515935
35	0x3d8aaa53	0.06770768
36	0xbbd75c06	-0.0065722493
37	0x3e0d6364	0.13807446
38	0xba9e8562	-0.0012094195
39	0xba9e28b8	-0.0012066578
40	0x3e75d6d7	0.24007736
41	0x3de09a74	0.109669596
42	0x3d409bf6	0.047023736
43	0x3d0d822c	0.03454797
44	0x3cadef79	0.021232354
45	0xbc9da580	-0.019243956
46	0x3e4e4e67	0.20147096
47	0x3e0110bd	0.12604041
48	0x3e17724e	0.14789698
49	0xbd7b1f30	-0.06130904
50	0x3e00c3bf	0.12574671
51	0x3e1fd9c5	0.15610416
52	0xbe17a73c	-0.14809889
53	0xbe8c47d8	-0.27398562
54	0x3e8f4f05	0.27989975
55	0x3cc60d7f	0.024176357
56	0xbe12334d	-0.14277382
57	0x3d8a8032	0.067627326
58	0xbda2d72b	-0.07951196
59	0x3e19ef29	0.15032639
60	0x3e1bf81e	0.15231368
61	0x3db5d6bf	0.0887885
62	0x3d17013f	0.036866423
63	0xbc42b575	-0.011884083
64	0xba45ca58	-0.0007545105
65	0x3d929097	0.071564846
66	0x3bc383fe	0.0059666624
67	0x3e258d23	0.1616712
68	0xbe26ad7b	-0.16277115
69	0x3cb2dd9f	0.021834193
70	0xbe0260b9	-0.1273221
71	0xbba47d8e	-0.00501985
72	0x3e0bd97e	0.13657185
73	0x3e63ee95	0.2225898
74	0x3dfb087a	0.12257476
75	0x3e3b41e7	0.18286858
76	0xbe16f62b	-0.14742343
77	0x3e0b7ae5	0.136211
78	0x3d8fc54d	0.07020054
79	0x3e0f534a	0.13996616
80	0x3e15b6e5	0.1462055
81	0xbb3d4250	-0.0028878637
82	0x3ddba228	0.10724288
83	0xbe52e3fc	-0.20594782
84	0x3e51f3eb	0.20503204
85	0xbcba033a	-0.022706617
86	0xbe07303a	-0.1320199
87	0xbd768ca3	-0.060192715
88	0xbd9966b7	-0.074902944
89	0xbd410fa8	-0.04713407
90	0x3e1fd1b9	0.15607347
91	0xbc9063e7	-0.017625762
92	0x3ea93904	0.33051312
93	0x3c52e3da	0.012871707
94	0xbe2f5627	-0.17122708
95	0xbc88bf2d	-0.016692722
96	0xbc1bb4ee	-0.009503586
97	0xbe2b2da2	-0.16716626
98	0xbdad0979	-0.084490724
99	0x3e687807	0.22702037
100	0x3cd9e837	0.026599986
101	0xbd3fae8f	-0.04679733
102	0x3c511fcc	0.012763929
103	0x3e2fb1e8	0.1715771
104	0xbd1ee74a	-0.038794793
105	0xbdd1cc7b	-0.1024408
106	0xbdbc90b0	-0.092072845
107	0xbcefba60	-0.029263675
108	0x3e3ee4f2	0.18642023
109	0xbe26f8f8	-0.16305912
110	0x3decd295	0.11563603
111	0xbd805e04	-0.06267932
112	0xbe9b5fa3	-0.30346403
113	0x3e31e49a	0.17372361
114	0x3dee28ce	0.116288766
115	0xbd634a57	-0.055490818
116	0x3e76795c	0.24069732
117	0xbd3ac564	-0.045598403
118	0x3c526ac8	0.012842841
119	0x3dc83278	0.09775251
120	0x3f1636a2	0.58677113
121	0xbe6cddab	-0.23131435
122	0xbc02de21	-0.00798753
123	0xbb4e1700	-0.0031446815
124	0xbde5ae8c	-0.11214933
125	0x3e7bf444	0.24604899
126	0xbca8ccba	-0.020605434
127	0xbe62a67d	-0.22133823
128	0x3cbbe91e	0.022938307
129	0x3ec21155	0.37903848
130	0xbea29803	-0.317566
131	0x3e31c3a1	0.17359783
132	0x3de0edd1	0.1098286
133	0xbd3a216b	-0.045442026
134	0x3e62f1f8	0.22162616
135	0x3de6194e	0.11235295
136	0x3cea4986	0.028599512
137	0x3d158f2e	0.0365135
138	0x3d64dbe2	0.05587376
139	0xbe32722e	-0.17426369
140	0x3ddaf746	0.10691695
141	0x3d029d4e	0.0318883
142	0x3d596a5b	0.053079944
143	0x3e4c9f52	0.19982651
144	0x3e838ae1	0.25691894
145	0x3ca1aa12	0.019734416
146	0x3e3e0246	0.18555555
147	0x3d84cc0f	0.064842336
148	0xbccc6d5a	-0.024954487
149	0x3d75c6da	0.060004093
150	0x3d64785d	0.05577885
151	0xbd9286eb	-0.0715464
152	0x3cfb84f6	0.03070305
153	0x3e2aa926	0.16666088
154	0xbd49e99f	-0.049295064
155	0x3d897a79	0.06712813
156	0x3d3b0f31	0.045668785
157	0x3e4bb13a	0.19891825
158	0xbe328a2b	-0.1743552
159	0x3ec28d55	0.37998453
160	0x3e799601	0.24373628
161	0x3eea2968	0.45734715
162	0x3daa8f43	0.08328106
163	0x3e214e55	0.15752538
164	0xbdf114ba	-0.117715314
165	0x3d324d11	0.043530528
166	0x3df5ebf6	0.120078966
167	0x3d33ca0a	0.04389385
168	0x3bbbf479	0.0057359305
169	0x3e704416	0.23463473
170	0x3e02b5c8	0.12764657
171	0xbdc387f9	-0.09547419
172	0x3dbcacaa	0.092126206
173	0x3e2a30e4	0.16620213
174	0x3d79c924	0.06098284
175	0xbdbeb8e7	-0.09312611
176	0x3d48f404	0.049060836
177	0x3ed875b6	0.42277306
178	0x3e48b179	0.1959895
179	0x3e69fba4	0.228499
180	0xbcea9136	-0.028633695
181	0xbe33a372	-0.17542818
182	0xbe95820a	-0.29200774
183	0x3d1817b4	0.03713198
184	0x3ddd41ea	0.10803588
185	0xbdfa8f0b	-0.122343145
186	0x3d431660	0.04762876
187	0x3db07a92	0.086171284
188	0x3de29614	0.110637814
189	0xbddefa8b	-0.10887631
190	0xbd0393fc	-0.03212355
191	0x3e3cfcd3	0.1845582
192	0x3e136170	0.14392638
193	0x3bba3f3e	0.0056838086
194	0xbe2897b6	-0.16464123
195	0xbdd64aca	-0.10463484
196	0x3d8ffe7a	0.070309594
197	0xbdc38208	-0.09546286
198	0x3d180489	0.0371137
199	0x3e90ec21	0.28305152
200	0x3e5bc2cb	0.21461026
201	0x3e164e8e	0.14678404
202	0xbd31cef4	-0.043410257
203	0x3e4159c2	0.18881896
204	0x3dac6b13	0.0841886
205	0xbd345de0	-0.04403484
206	0x3e015321	0.12629367
207	0xbba37063	-0.004987763
208	0x3ddf3770	0.10899246
209	0x3e4ba0c7	0.1988555
210	0x3d1ae174	0.037812665
211	0x3d2281a9	0.039674435
212	0xbdfb81e0	-0.12280631
213	0x3df5fb09	0.12010772
214	0xbd65c569	-0.056096468
215	0x3e420c1f	0.18949936
216	0x3ebe6728	0.37188077
217	0x3e192282	0.1495457
218	0x3ebac526	0.36478537
219	0xbe362aba	-0.17789736
220	0xbde96e20	-0.11397958
221	0x3de05cc0	0.10955191
222	0x3e24c4a5	0.16090639
223	0x3eb02906	0.34406298
224	0x3da6ab8d	0.081381895
225	0x3f437541	0.7635079
226	0x3e220946	0.1582385
227	0x3e41eeb1	0.1893871
228	0xbdc8942d	-0.09793887
229	0x3ea599ef	0.32344005
230	0x3da25402	0.079261795
231	0xbcdb6bf1	-0.026784869
232	0x3c9d2073	0.019180512
233	0x3e5f972a	0.21835008
234	0x3eec8673	0.46196327
235	0x3d42a0e0	0.047516704
236	0xbdb50b18	-0.088400066
237	0xbefd69d1	-0.49494794
238	0xbda07b70	-0.07836044
239	0x3e40471b	0.18777125
240	0x3e2cc8f9	0.1687354
241	0x3d7b92ad	0.061419178
242	0xbc3171a8	-0.01083032
243	0x3d2da465	0.042393107
244	0xbdac0475	-0.083992876
245	0x3e857231	0.26063684
246	0x3db5eda7	0.08883219
247	0x3e1dd7e3	0.15414385
248	0x3d69ce36	0.057081424
249	0x3de20fa6	0.11038141
250	0x3cc36e28	0.023856238
251	0x3d399626	0.04530921
252	0x3e26faac	0.16306561
253	0x3c267cfd	0.0101616355
254	0x3e798be6	0.24369773
255	0x3d7bf980	0.06151724

model.layers.block_0.norm.weight f4 [256]
0	0x40bc287a	5.879941
1	0x40b47eb9	5.640469
2	0x40acd390	5.4008255
3	0x40ac3d8a	5.382512
4	0x40b2349d	5.5689225
5	0x409951d8	4.7912407
6	0x40b46052	5.636758
7	0x40b710ff	5.7208247
8	0x40bd0f09	5.9080853
9	0x40b753e4	5.7289906
10	0x40a8b09c	5.271559
11	0x40abd4ad	5.3697114
12	0x40aebe1c	5.4607067
13	0x40ada9f1	5.426995
14	0x40b0d74a	5.5262804
15	0x40a46567	5.137378
16	0x40b5e03b	5.683622
17	0x40a97dd1	5.2966084
18	0x40b6cb09	5.7122846
19	0x40bb9c6c	5.8628445
20	0x40a9d100	5.3067627
21	0x40a5c611	5.180428
22	0x408b8a2b	4.360616
23	0x40b6a342	5.707429
24	0x40922ec0	4.568207
25	0x40b8ee47	5.7790866
26	0x40b21955	5.5655923
27	0x4095e2df	4.683944
28	0x40b35a44	5.6047688
29	0x40b2ae7c	5.5837994
30	0x40b891d6	5.7678022
31	0x40b655f4	5.6979923
32	0x40b4b491	5.647042
33	0x4078df69	3.8886359
34	0x40bf4a50	5.9778214
35	0x40a7ada8	5.2399483
36	0x40a9a0d5	5.300883
37	0x40afbdbb	5.4919105
38	0x40a85800	5.260742
39	0x409c9dce	4.8942633
40	0x4094c133	4.648584
41	0x409fc0e5	4.9922967
42	0x40a7339c	5.22505
43	0x40abecec	5.372671
44	0x40b2ef21	5.5916905
45	0x40ca8fa1	6.330033
46	0x40b9a3cf	5.801246
47	0x408810e1	4.2520604
48	0x40a1c1d3	5.05491
49	0x40aef600	5.4675293
50	0x4090f55d	4.5299516
51	0x4094f5ac	4.6549892
52	0x40a67dbb	5.202848
53	0x40be469f	5.9461207
54	0x40af055a	5.4694033
55	0x40a2556e	5.0729284
56	0x40bb1270	5.8460007
57	0x40bc2bee	5.8803625
58	0x40b26b27	5.57558
59	0x4093503e	4.603545
60	0x40a7847c	5.2349224
61	0x40aa24c6	5.316989
62	0x40baa61b	5.8327765
63	0x40b2b6a4	5.584795
64	0x409cd5be	4.9010916
65	0x40c4e736	6.153224
66	0x40a85fcd	5.2616944
67	0x40a6f6de	5.217635
68	0x40ce50f7	6.4473834
69	0x40a89709	5.268437
70	0x40b55eba	5.6678133
71	0x40bba273	5.86358
72	0x40a734de	5.2252035
73	0x40aa142b	5.314962
74	0x40aa953d	5.3307176
75	0x40c1d55b	6.0572944
76	0x409772b4	4.732752
77	0x40c5b8bc	6.1788006
78	0x408a052d	4.313132
79	0x4077eba8	3.8737583
80	0x40ad9109	5.4239545
81	0x40bd4f3f	5.9159236
82	0x40a2c73f	5.086822
83	0x40b6d2c3	5.7132277
84	0x408be9ef	4.3723063
85	0x40b6dc8f	5.7144237
86	0x40c50b61	6.157639
87	0x40b395e9	5.6120496
88	0x40b6b6b4	5.7098026
89	0x40c4f831	6.155297
90	0x40a9fb33	5.311914
91	0x40b25eb7	5.574062
92	0x40a9f8c2	5.311616
93	0x40ba5e8c	5.8240414
94	0x40b278a0	5.5772247
95	0x40adf241	5.435822
96	0x40af259e	5.473342
97	0x40b4b5d9	5.647198
98	0x40bc9344	5.8929768
99	0x40a04bf5	5.009272
100	0x40c294c1	6.0806584
101	0x40af2c2e	5.474143
102	0x40b15409	5.541508
103	0x40a64118	5.195446
104	0x40bb6f37	5.857326
105	0x40ccb9ca	6.3976793
106	0x40b0e4a3	5.5279098
107	0x40c48a81	6.141907
108	0x40b02249	5.504185
109	0x40aa76ba	5.326993
110	0x407f57d1	3.989735
111	0x40ba5e0a	5.8239794
112	0x408b24fd	4.348265
113	0x409ec08c	4.9610043
114	0x40c44af7	6.134151
115	0x40b3d092	5.6192102
116	0x40a60f34	5.189356
117	0x40c5aac5	6.177096
118	0x40b13eec	5.538931
119	0x4097ed65	4.747729
120	0x40a0a203	5.019777
121	0x40bfff70	5.9999313
122	0x40aca163	5.3947005
123	0x40af4a23	5.4778
124	0x40a91196	5.2833967
125	0x40cbd617	6.369884
126	0x40ae28e4	5.4424915
127	0x40b03e73	5.507623
128	0x40aa86ae	5.3289404
129	0x40afab09	5.4896283
130	0x40c0a440	6.02005
131	0x4093aa4a	4.6145372
132	0x40ac1c62	5.3784647
133	0x40b53111	5.6622396
134	0x40b9b476	5.803279
135	0x40b02ad7	5.5052295
136	0x40b6f475	5.717341
137	0x40c3a245	6.1135583
138	0x40b60160	5.687668
139	0x40b64a6e	5.6965857
140	0x407bddd0	3.9354134
141	0x40b4a6fe	5.645385
142	0x40ae7d34	5.4527836
143	0x40b199e1	5.550034
144	0x40a54afc	5.1654034
145	0x40b8fefd	5.7811265
146	0x40aef25b	5.4670844
147	0x40a6bb14	5.2103367
148	0x40c5be59	6.179486
149	0x40bd4559	5.9147153
150	0x40bad4e4	5.8384876
151	0x40b5617a	5.668149
152	0x40add3e3	5.432115
153	0x40b42586	5.6295805
154	0x40b04a50	5.5090714
155	0x40acf9cf	5.405494
156	0x40b262d2	5.574563
157	0x40b20d14	5.5640965
158	0x40bf3576	5.975276
159	0x40bb2686	5.8484526
160	0x40ab7b20	5.35878
161	0x40a8a894	5.2705784
162	0x40dbee9b	6.8728766
163	0x40b91880	5.7842407
164	0x40b23c86	5.569888
165	0x40a5c2ad	5.180014
166	0x40ad2a92	5.4114466
167	0x40d14cea	6.540639
168	0x40b568b0	5.669029
169	0x40b1fffb	5.5624976
170	0x40bcae59	5.8962827
171	0x40a9c4a5	5.3052545
172	0x40ba1ad6	5.815776
173	0x40c33165	6.0997796
174	0x40ca494f	6.321449
175	0x40b94be1	5.7905126
176	0x40aa4749	5.321202
177	0x40bbce8f	5.8689647
178	0x40b39aaa	5.61263
179	0x40b30121	5.593888
180	0x40a97fb9	5.296841
181	0x40c4ddf3	6.1520934
182	0x40b97662	5.795701
183	0x40a6aeca	5.2088366
184	0x40a04abb	5.0091224
185	0x40b48adb	5.64195
186	0x40a5e81c	5.1845837
187	0x40bbb763	5.866136
188	0x40a44221	5.1330724
189	0x40c1b781	6.0536504
190	0x40b55c27	5.667499
191	0x409b66f0	4.8563156
192	0x40aa41af	5.320518
193	0x40aedda1	5.4645543
194	0x40be76a4	5.9519825
195	0x40c19c9a	6.0503664
196	0x408ef84b	4.467809
197	0x40c17413	6.045419
198	0x40900e54	4.501749
199	0x40bd3652	5.912881
200	0x40a8d065	5.275439
201	0x404df213	3.2179
202	0x40cba1dd	6.3635087
203	0x40ab6c5c	5.3569775
204	0x40be4b77	5.946712
205	0x40a62037	5.1914325
206	0x40af2f67	5.4745364
207	0x40ba311a	5.818494
208	0x40a1daf7	5.057979
209	0x40c32772	6.098565
210	0x40b4d143	5.6505446
211	0x40a4e756	5.1532393
212	0x40af3c5f	5.4761195
213	0x40bfefe1	5.998032
214	0x408c7b4f	4.3900523
215	0x40af7fec	5.4843655
216	0x40ae3c70	5.4448776
217	0x40a23810	5.0693436
218	0x40b62247	5.6916842
219	0x40a0e395	5.027781
220	0x40af06a6	5.4695616
221	0x40c51c43	6.1597
222	0x40b1ee53	5.5603423
223	0x40b7a5e1	5.738999
224	0x40b0f922	5.5304117
225	0x408117e1	4.034165
226	0x40c15e40	6.042755
227	0x40aabefc	5.3358135
228	0x40bacf7b	5.837827
229	0x40c21e4f	6.0662
230	0x40c29e15	6.081797
231	0x4093a557	4.613933
232	0x40b8532f	5.7601542
233	0x40a84c5e	5.259322
234	0x4099d19b	4.8068366
235	0x40b6c65b	5.7117133
236	0x40bd007f	5.9063106
237	0x40a10a83	5.032533
238	0x40a9c928	5.305805
239	0x40ac5be9	5.3862195
240	0x40a0637e	5.012145
241	0x40af1f7d	5.472594
242	0x409f633a	4.9808626
243	0x40aac4b0	5.3365097
244	0x40bf612b	5.9806113
245	0x40bd24d1	5.910744
246	0x40ae9720	5.455948
247	0x40b40299	5.625317
248	0x40cb25f4	6.348383
249	0x40c6b058	6.2090263
250	0x40c15a1d	6.04225
251	0x40c1bbb1	6.0541615
252	0x40b5ebf6	5.685054
253	0x40a3b832	5.116235
254	0x40a4f99e	5.155471
255	0x40a97db0	5.2965927

model.layers.block_0.norm.bias f4 [256]
0	0xbfaf32ca	-1.3687375
1	0xbfec0076	-1.8437641
2	0xbeeb4c58	-0.45956683
3	0xbfb67454	-1.425425
4	0xbfd208e5	-1.6408964
5	0xbf895f8b	-1.0732282
6	0xc000a6a0	-2.01017
7	0xbff1ceda	-1.8891251
8	0xbfe5d51e	-1.7955663
9	0xbfefaaf7	-1.8724049
10	0xbff1d12c	-1.8891959
11	0xc000f1d8	-2.014761
12	0xbfde3fbf	-1.7363204
13	0xbfa362da	-1.2764542
14	0xbff456df	-1.9089011
15	0xbffb7171	-1.9643995
16	0xbfe27ddb	-1.7694658
17	0xc00760af	-2.115276
18	0xc00e8129	-2.2266333
19	0xbfc71b47	-1.5555199
20	0xbff3a965	-1.903607
21	0xbfbca1fa	-1.4736931
22	0xc006cfbb	-2.1064289
23	0xbf99e7ab	-1.2023824
24	0xbf6beeff	-0.92161554
25	0xc012f687	-2.2962968
26	0xbfc206f6	-1.5158374
27	0xbf4ddb9d	-0.8041323
28	0xbfc86293	-1.5655082
29	0xbfe39d95	-1.7782465
30	0xbfc53717	-1.5407437
31	0xbfed0dd5	-1.8519846
32	0xbfaac7b3	-1.3342193
33	0xbf1eb9cc	-0.62002254
34	0xc004b014	-2.073247
35	0xbfd26000	-1.6435547
36	0xbfa585a8	-1.2931414
37	0xbfdd8e5b	-1.7309068
38	0xbfe8da6a	-1.8191655
39	0xbfc3d9a1	-1.530079
40	0xbfbb01a5	-1.4609877
41	0xbfbabcba	-1.4588845
42	0xbfdb6a69	-1.7141849
43	0xbff378d5	-1.902125
44	0xbff799e7	-1.9343842
45	0xbf824c7b	-1.017959
46	0xbffd049e	-1.9767034
47	0xbfda8f9d	-1.7075077
48	0xbfc75318	-1.5572233
49	0xbfa42ab4	-1.2825532
50	0xbfcaeb83	-1.5853122
51	0xbfb5750c	-1.4176345
52	0xbfd1f0b4	-1.6401582
53	0xbfb2c8fb	-1.3967584
54	0xbf9ae5ae	-1.2101343
55	0xbfb082f2	-1.3789961
56	0xbff49bad	-1.9110008
57	0xc001dec0	-2.0292206
58	0xbfb4c020	-1.4121132
59	0xbf3776e1	-0.7166577
60	0xbf9b1e6a	-1.2118657
61	0xbff502ba	-1.9141457
62	0xbfd9471a	-1.6974823
63	0xbf8565e6	-1.0421722
64	0xbff79af8	-1.9344168
65	0xbfe879dd	-1.816219
66	0xc00731fd	-2.112426
67	0xbfc41922	-1.532017
68	0xc00f19f6	-2.2359595
69	0xbfb1dcba	-1.3895485
70	0xc01508ad	-2.3286545
71	0xbfcbf45a	-1.5933945
72	0xbfcbb294	-1.5913873
73	0xbfc883d5	-1.5665232
74	0xbfe24690	-1.7677784
75	0xc00fab83	-2.2448432
76	0xbfd4e142	-1.6631243
77	0xbfeba4ba	-1.8409646
78	0xbfc5eae4	-1.5462308
79	0xbf6e78e6	-0.93153226
80	0xbf8015c3	-1.0006641
81	0xbf738421	-0.9512349
82	0xbfb47321	-1.4097635
83	0xc0053da0	-2.0818863
84	0xbfa1681c	-1.2609897
85	0xc00c8794	-2.195775
86	0xc004c930	-2.0747795
87	0xc017880b	-2.3676784
88	0xc019c75c	-2.402793
89	0xbfc9d90f	-1.5769366
90	0xbffd6f5c	-1.9799609
91	0xbfd6dcdc	-1.6786151
92	0xbfe684c3	-1.8009266
93	0xc0017e4a	-2.023333
94	0xbfd82995	-1.688769
95	0xbfcc0731	-1.5939695
96	0xbfaf1149	-1.367715
97	0xbfb36c47	-1.4017419
98	0xc004036f	-2.0627096
99	0xbfda93b2	-1.7076323
100	0xbff3c36f	-1.9044017
101	0xbfeb2475	-1.8370501
102	0xc006343f	-2.0969388
103	0xbfc13d23	-1.5096782
104	0xbfc0e0b0	-1.5068569
105	0xc01dc85c	-2.465354
106	0xbf9b3cef	-1.212797
107	0xc00df4dc	-2.21807
108	0xc0036bcc	-2.0534544
109	0xbfb39e5e	-1.4032705
110	0xbf80547c	-1.0025783
111	0xbfd9393f	-1.6970595
112	0xbf9d7751	-1.2302037
113	0xbf7b9190	-0.98268986
114	0xbfa3cbad	-1.2796532
115	0xbfe4ea58	-1.7884016
116	0xbfde4b7e	-1.7366788
117	0xbfedf936	-1.8591678
118	0xbfdda909	-1.731721
119	0xbf9614d0	-1.1725101
120	0xbfaa1ebe	-1.3290632
121	0xbfb5db52	-1.4207556
122	0xbffafc70	-1.9608288
123	0xbfee9238	-1.8638372
124	0xbfa214fb	-1.2662653
125	0xc0047cf2	-2.070126
126	0xbfc882dd	-1.5664936
127	0xc01dc6ca	-2.4652581
128	0xbfb8539a	-1.4400513
129	0xbf8d75ff	-1.1051635
130	0xbfa626da	-1.2980607
131	0xbfb72478	-1.4308004
132	0xbfb80941	-1.4377824
133	0xc00a8bfb	-2.1647937
134	0xbfce8381	-1.6133882
135	0xc000511a	-2.00495
136	0xbff759f6	-1.9324329
137	0xbf983595	-1.1891352
138	0xbfb319d3	-1.3992256
139	0xbfcf380a	-1.6188977
140	0xbfab42a9	-1.3379718
141	0xbfcac11d	-1.5840183
142	0xbfcc3c8f	-1.5955981
143	0xbfa93bcf	-1.3221377
144	0xbfe0ace5	-1.7552763
145	0xbffee614	-1.9913964
146	0xc01cda37	-2.4508188
147	0xbfe538a3	-1.7907909
148	0xbffb31cf	-1.9624575
149	0xbfec8a3b	-1.8479685
150	0xc0093bb8	-2.14427
151	0xc00de4c7	-2.2170885
152	0xc022b16f	-2.5420797
153	0xbfb4b14c	-1.4116607
154	0xbf8331f0	-1.0249615
155	0xc00fc2bf	-2.2462614
156	0xbfea05ae	-1.8282983
157	0xbfba8633	-1.4572204
158	0xbfc8e62c	-1.5695243
159	0xbfc5d24b	-1.5454801
160	0xbfdd1167	-1.7270936
161	0xbfb1f740	-1.390358
162	0xc01cde1e	-2.451057
163	0xc014345d	-2.315696
164	0xc008ab6b	-2.1354625
165	0xbfc1a860	-1.5129509
166	0xbf3d4725	-0.7393668
167	0xc00d17a9	-2.204569
168	0xbff11107	-1.8833321
169	0xbfae412a	-1.3613636
170	0xbff7d5ca	-1.9362118
171	0xbfb63687	-1.423539
172	0xbff1aece	-1.8881471
173	0xbfc87fa4	-1.5663953
174	0xbfdec15d	-1.740276
175	0xbfec8438	-1.847785
176	0xbfb0e67f	-1.3820342
177	0xbfdef3b3	-1.7418121
178	0xbfcd1f7e	-1.6025236
179	0xbfb0b459	-1.3805038
180	0xc00dc1be	-2.21495
181	0xbfdecaca	-1.7405636
182	0xc003df9d	-2.0605233
183	0xbffc4ab2	-1.9710295
184	0xc003b503	-2.057923
185	0xbfc84d2e	-1.5648553
186	0xbfc84df1	-1.5648786
187	0xbfc0ad7a	-1.5052941
188	0xbfadbf09	-1.3573924
189	0xc001f928	-2.0308323
190	0xbfd12527	-1.6339463
191	0xbfa64505	-1.2989813
192	0xbfe2e6a3	-1.7726635
193	0xbfb77de8	-1.4335299
194	0xc01d978d	-2.462375
195	0xc01a5ee7	-2.4120424
196	0xbf73e2d6	-0.95268
197	0xc010958e	-2.259128
198	0xbfa732d8	-1.3062391
199	0xbfbde9d4	-1.4836984
200	0xbfc079da	-1.5037186
201	0xbfc5248f	-1.5401782
202	0xbfeab139	-1.8335334
203	0xbf8baaa8	-1.0911455
204	0xbff698b0	-1.9265347
205	0xbfeaa3b8	-1.8331213
206	0xbf90fcb6	-1.1327121
207	0xc00e69b3	-2.2252014
208	0xbf4cc62b	-0.7998988
209	0xbfc85be4	-1.5653043
210	0xbfd5f98b	-1.671678
211	0xbfd81936	-1.6882694
212	0xbfdfe313	-1.7491173
213	0xbfffe44d	-1.9991547
214	0xbf84ff9f	-1.0390509
215	0xbfee4c30	-1.8617
216	0xbfd45f07	-1.65915
217	0xbfa2780e	-1.2692888
218	0xc0004db8	-2.0047436
219	0xbfbdd4e4	-1.4830594
220	0xbfdc93d3	-1.7232612
221	0xbfd92350	-1.6963902
222	0xbf868d59	-1.0511886
223	0xbfa622b5	-1.2979342
224	0xbfca9c75	-1.5828997
225	0xbf45861c	-0.7715776
226	0xbff1a014	-1.8876977
227	0xbfcf53aa	-1.6197407
228	0xbfb33f8b	-1.4003767
229	0xbfcad219	-1.5845367
230	0xc015200c	-2.330081
231	0xbfc189d7	-1.512019
232	0xbff24605	-1.8927618
233	0xbfe4f8ec	-1.7888465
234	0xbfb46e5f	-1.4096183
235	0xbfdfeab6	-1.7493503
236	0xbf2dffd6	-0.679685
237	0xbf75ad7e	-0.95967853
238	0xbff71793	-1.9304069
239	0xbfde1767	-1.7350892
240	0xbfae97fd	-1.3640133
241	0xbfaafd34	-1.3358521
242	0xc041b01e	-3.0263743
243	0xbf9e48ef	-1.2366008
244	0xc002a737	-2.041456
245	0xbfceda52	-1.6160376
246	0xc010d9e0	-2.263298
247	0xbfd893ea	-1.692014
248	0xc02677ce	-2.6010623
249	0xbffcf38c	-1.9761825
250	0xc00e68d9	-2.2251494
251	0xbfef0e5c	-1.8676257
252	0xbfbd9512	-1.4811118
253	0xbfdc9a28	-1.7234545
254	0xbfdf9f99	-1.747058
255	0xbffdf034	-1.9838929

model.layers.block_0.norm.running_mean f4 [256]
0	0xc0091525	-2.1419156
1	0xc0366b4f	-2.8502996
2	0xbf2d53c9	-0.6770597
3	0xbfd44376	-1.6583087
4	0xc024c746	-2.5746627
5	0xbff09e29	-1.8798267
6	0xc023532c	-2.5519514
7	0xbf949b91	-1.1609975
8	0xc04039e0	-3.0035324
9	0xc02f0c07	-2.735109
10	0xc050744b	-3.257098
11	0xc001fccd	-2.0310547
12	0xc044fce9	-3.0779364
13	0xbfc68fc5	-1.5512625
14	0xc046442b	-3.0979106
15	0xc05686e2	-3.3519826
16	0xc02a29eb	-2.6588085
17	0xc00ffef5	-2.2499363
18	0xc01abdca	-2.4178338
19	0xc020b2be	-2.5109096
20	0xbf9a0f59	-1.2035934
21	0xc0216bc0	-2.5222015
22	0x3da1c28a	0.078984335
23	0xbfe713c1	-1.8052903
24	0xc0696f84	-3.6474314
25	0xc0688bff	-3.6335447
26	0xc0073535	-2.1126225
27	0xbfaa1bfd	-1.3289791
28	0xc01eac45	-2.4792645
29	0xc008b58e	-2.1360812
30	0xc009914d	-2.1494935
31	0xc040dbdf	-3.0134199
32	0xbff74278	-1.931716
33	0xc054e8a2	-3.3266988
34	0xc0552134	-3.3301516
35	0xc03acf4f	-2.918903
36	0xc0081a03	-2.1265876
37	0xc0251bc5	-2.57982
38	0xbf639415	-0.8889783
39	0xc0426fe3	-3.038079
40	0xbf990f17	-1.195773
41	0xc02755cd	-2.6146119
42	0xc01c6248	-2.4434986
43	0xbfc300af	-1.5234584
44	0xbfddc646	-1.7326133
45	0xbf89025c	-1.0703845
46	0xc03e5fef	-2.9746053
47	0xbfe9dd88	-1.8270731
48	0xc01fa82b	-2.4946392
49	0xbfff93fe	-1.9967039
50	0xbef4a139	-0.47779253
51	0xc038fdd5	-2.8904927
52	0xc04650d5	-3.0986836
53	0xc019f010	-2.4052773
54	0xbfdf93f4	-1.7467027
55	0xc0010024	-2.0156336
56	0xc026ead2	-2.6080823
57	0xc03dcc16	-2.9655814
58	0xc01ab535	-2.41731
59	0xbf8918cc	-1.0710692
60	0xbefa0810	-0.48834276
61	0xc068a5bc	-3.6351156
62	0xc02b4feb	-2.6767528
63	0xbfda1642	-1.7038043
64	0xc069add4	-3.6512346
65	0xbf29dc35	-0.66351634
66	0xc07259ad	-3.7867234
67	0xc01acb87	-2.4186723
68	0xc02cfe14	-2.7030077
69	0xc020149a	-2.5012574
70	0xc04627e1	-3.096184
71	0xc01cd28f	-2.4503515
72	0xc0040a81	-2.063141
73	0xc01d60a1	-2.4590228
74	0xc0421fe4	-3.0331964
75	0xc042f05a	-3.04592
76	0xbfce0844	-1.6096272
77	0xbfcf21e1	-1.6182214
78	0xc0615a54	-3.5211382
79	0xc05c456d	-3.4417374
80	0xbfb7d773	-1.4362625
81	0xbf978b0c	-1.1839309
82	0xc0222cbf	-2.533981
83	0xc06e40ec	-3.7227125
84	0xc0183821	-2.3784258
85	0xbf106431	-0.5640288
86	0xc01f86a4	-2.4925928
87	0xbf12bd05	-0.5731967
88	0xc04a22df	-3.1583784
89	0xbfae3a0a	-1.3611462
90	0xc04e973f	-3.2279813
91	0xc030cd9d	-2.7625496
92	0xc02e2974	-2.72128
93	0xc05796fe	-3.3685908
94	0xc0394c28	-2.8952732
95	0xbfe03014	-1.7514672
96	0xbfe2d2c8	-1.7720575
97	0xc01bef1d	-2.4364693
98	0xc03eec08	-2.9831562
99	0xc01ff341	-2.499222
100	0xc02b9ba8	-2.6813755
101	0xc0424b92	-3.0358624
102	0xc065f699	-3.5931761
103	0xbf3b6f20	-0.7321644
104	0xc013436b	-2.3009899
105	0xc0845fc7	-4.1366916
106	0xbff53190	-1.915575
107	0xc0530198	-3.2969723
108	0xc0620f3d	-3.53218
109	0xc03779a7	-2.8668
110	0xc009641a	-2.1467347
111	0xc02fa9c5	-2.744737
112	0xc069d5c5	-3.6536725
113	0xbfbcb983	-1.4744114
114	0xbfc746c2	-1.5568469
115	0xc03c761f	-2.9447095
116	0xc03e5572	-2.9739652
117	0xc032cf60	-2.7939072
118	0xbfb9dfa3	-1.4521374
119	0xbf52103e	-0.82056034
120	0xbfcb5ee5	-1.5888335
121	0xc017702d	-2.3662217
122	0xbf724407	-0.9463505
123	0xc0495ce4	-3.1462946
124	0xbfde86b8	-1.7384863
125	0xc0354b90	-2.832737
126	0xc028079c	-2.6254644
127	0xbfdb5659	-1.7135726
128	0xc01ef24b	-2.4835384
129	0xbfaf1986	-1.3679664
130	0xbff851e5	-1.9399992
131	0xc026c8d4	-2.6060076
132	0xc0050cc9	-2.0789053
133	0xc06a554c	-3.661456
134	0xc017753f	-2.3665311
135	0xc0234bd7	-2.551504
136	0xbfd1ffb0	-1.6406155
137	0xbfd58b24	-1.6683087
138	0xbfc18126	-1.5117538
139	0xc02dd2ec	-2.7159986
140	0xbf8000c6	-1.0000236
141	0xc015d792	-2.3412824
142	0xc01e67b4	-2.4750795
143	0xbf6e1fe5	-0.9301742
144	0xbfdfdf1e	-1.7489965
145	0xc03786bf	-2.8675992
146	0xc0427a16	-3.0387015
147	0xc000afb3	-2.0107238
148	0xc0356fba	-2.8349442
149	0xc035a3dc	-2.8381262
150	0xc03fedf0	-2.9988976
151	0xc043d36b	-3.059779
152	0xbf17f725	-0.5936149
153	0xc005860d	-2.0863068
154	0xbfcfa2ee	-1.6221597
155	0xc0603765	-3.503381
156	0xc0268b7a	-2.602263
157	0xbfb630f9	-1.4233695
158	0xc00ee0fc	-2.232482
159	0xc005f3d9	-2.0930083
160	0xc02b0b21	-2.6725543
161	0xbf76fe9a	-0.9648224
162	0xc0689571	-3.6341212
163	0xc06f607d	-3.7402642
164	0xc04c2fe1	-3.1904223
165	0xbffa6747	-1.9562768
166	0xbe792e4b	-0.24334066
167	0xc04e0a0b	-3.219363
168	0xc03f41ba	-2.9883866
169	0xc000a58c	-2.0101042
170	0xc03bc028	-2.9336033
171	0xbfcd4813	-1.603762
172	0xbff9cf15	-1.9516321
173	0xc0062fb0	-2.0966606
174	0xc01c482d	-2.4419053
175	0xc0218e7f	-2.5243223
176	0xbfd8b9e8	-1.6931734
177	0xc006ed7f	-2.1082456
178	0xc017a605	-2.369508
179	0xbfa9aa1e	-1.3255041
180	0xc04d0bef	-3.2038534
181	0xc0300374	-2.7502108
182	0xc05d3132	-3.4561276
183	0xbf97d6a8	-1.1862383
184	0xc073da14	-3.8101854
185	0xc01c3ff3	-2.4414032
186	0xbfcdc7d5	-1.6076609
187	0xc0066cd9	-2.1003935
188	0xc0071556	-2.1106772
189	0xc03df301	-2.9679568
190	0xc029d11d	-2.6533883
191	0xbf74b2d9	-0.955854
192	0xc03f3423	-2.9875572
193	0xc01cb83d	-2.448745
194	0xc086ac2e	-4.208518
195	0xc0760950	-3.8443184
196	0xbfd01aec	-1.6258216
197	0xc06d39e6	-3.7066588
198	0xc0096707	-2.1469133
199	0xbfef7e14	-1.8710351
200	0xbfa11fcc	-1.2587829
201	0x4011651b	2.271796
202	0xc020a9d6	-2.510366
203	0xbfd86546	-1.6905906
204	0xc036d585	-2.8567822
205	0xc0125c95	-2.2869008
206	0xbf7af51a	-0.98030245
207	0xc0669549	-3.6028616
208	0xbf769145	-0.96315414
209	0xc005097c	-2.0787039
210	0xc014d6df	-2.3256147
211	0xc006f39f	-2.1086195
212	0xc0470fb4	-3.1103334
213	0xc03cc4c0	-2.9495087
214	0xc0066797	-2.1000726
215	0xc037c3bb	-2.8713214
216	0xbfecbf16	-1.8495815
217	0xbf9165d1	-1.1359197
218	0xc0382cb9	-2.8777297
219	0xbe72a858	-0.2369703
220	0xc04742ca	-3.1134515
221	0xc01e8986	-2.4771438
222	0xbf9daa5e	-1.2317617
223	0xbfdb25a6	-1.7120864
224	0x3cf43c19	0.029813813
225	0xbfae60f5	-1.3623339
226	0xc02ca58e	-2.6976047
227	0xbfb5c10c	-1.4199538
228	0xbfa6cd23	-1.3031353
229	0xbff110e3	-1.8833278
230	0xc06256b3	-3.5365417
231	0xbffb7882	-1.9646151
232	0xc03b64c5	-2.9280255
233	0xbf4000fe	-0.75001514
234	0xbfce3acf	-1.6111697
235	0xc028e6b2	-2.6390805
236	0xbf7d74eb	-0.9900653
237	0xbff17bd6	-1.8865917
238	0xc0580a69	-3.3756354
239	0xc03b272b	-2.9242656
240	0xbcbfefd7	-0.023429794
241	0xc00d0109	-2.2031882
242	0xbf6aadd8	-0.91671515
243	0xbf9d9450	-1.2310886
244	0xc0502dae	-3.252788
245	0xc00ecca5	-2.2312405
246	0x3ee26bea	0.44222957
247	0xc02f0f5b	-2.7353122
248	0xc07cf8a8	-3.9526768
249	0xc0360dd3	-2.8445938
250	0xc05dbff3	-3.4648407
251	0xc022e720	-2.5453568
252	0xbfe92b50	-1.8216343
253	0xc043faa1	-3.0621722
254	0xbfebe9dc	-1.8430743
255	0xbfef78ff	-1.87088

model.layers.block_0.norm.running_var f4 [256]
0	0x42b8028e	92.00499
1	0x42c099ad	96.30015
2	0x42a96de4	84.71463
3	0x42acfebc	86.49753
4	0x42c1658c	96.69833
5	0x42cf1fd4	103.562164
6	0x42dba6e8	109.82599
7	0x42bb732d	93.72495
8	0x42cb2153	101.56509
9	0x42bf7967	95.737114
10	0x42cad022	101.40651
11	0x42b7d4fd	91.91599
12	0x42cfdcf6	103.931564
13	0x42b58d17	90.775566
14	0x42b11a18	88.550964
15	0x42c8e2fd	100.44334
16	0x42c425fe	98.0742
17	0x42c08ec2	96.278824
18	0x42cf4938	103.643005
19	0x42bcfd6a	94.49495
20	0x42c122d8	96.568054
21	0x42bb3342	93.60011
22	0x42bb13b5	93.53849
23	0x42c56878	98.70404
24	0x42c77a26	99.73857
25	0x42d24bbc	105.14792
26	0x42b33922	89.61159
27	0x42b938c5	92.61088
28	0x42a6b632	83.35585
29	0x42bc5d90	94.18274
30	0x42bf7281	95.72364
31	0x42cad9a3	101.42507
32	0x42b73305	91.59965
33	0x42c7198b	99.54989
34	0x42d4afcd	106.34336
35	0x42d387cd	105.765236
36	0x42c02987	96.08111
37	0x42b36ee6	89.7166
38	0x42c24930	97.142944
39	0x42da3ac6	109.11479
40	0x42c2d89c	97.423065
41	0x42c3b70f	97.85754
42	0x42d47557	106.22918
43	0x42c74ac0	99.645996
44	0x42ccc7b5	102.39005
45	0x42b84bdf	92.148186
46	0x42c10700	96.51367
47	0x42bdd271	94.91102
48	0x42bd1835	94.54728
49	0x42afea26	87.95732
50	0x42a58521	82.76002
51	0x42e14948	112.64313
52	0x42c8cb5a	100.39717
53	0x42bcd20b	94.41024
54	0x42bb9c11	93.80482
55	0x42c1b26b	96.84847
56	0x42ce1d7c	103.05759
57	0x42ada73d	86.82664
58	0x42c16e2e	96.715195
59	0x42a5b435	82.85197
60	0x429a09ec	77.01938
61	0x42e7fb0f	115.99035
62	0x42d48d86	106.27641
63	0x42c6490b	99.14266
64	0x42d13a56	104.61394
65	0x42ca21f5	101.06632
66	0x42c9e47e	100.94627
67	0x42cc6228	102.19171
68	0x42b66286	91.19243
69	0x42d59283	106.786156
70	0x42c16308	96.69342
71	0x42b3713e	89.721176
72	0x42b80912	92.017715
73	0x42bceb7d	94.45994
74	0x42c8da07	100.425835
75	0x42b502be	90.505356
76	0x42a8fe08	84.496155
77	0x42c6339d	99.10081
78	0x42e95a9c	116.67697
79	0x42a51c1e	82.55492
80	0x42c706a6	99.512985
81	0x42abd4d4	85.91568
82	0x42c7b5df	99.85522
83	0x42cc5164	102.158966
84	0x42bee60f	95.44933
85	0x42c3f6cf	97.98205
86	0x42be22b2	95.067764
87	0x42abb6b8	85.85687
88	0x42c1d546	96.91655
89	0x42c38d63	97.776146
90	0x42c5197b	98.54977
91	0x42c01b29	96.05305
92	0x42b38cb0	89.77478
93	0x42cdeade	102.958725
94	0x42b2099a	89.01875
95	0x42a650a1	83.15748
96	0x42c56f9a	98.71797
97	0x42c6387a	99.110306
98	0x42a45026	82.15654
99	0x42b830db	92.09542
100	0x42bb2f1f	93.59203
101	0x42b3d35e	89.91283
102	0x42dba258	109.81708
103	0x42bd4716	94.63884
104	0x42ad2235	86.56681
105	0x42e4c0e7	114.37676
106	0x42bb9942	93.79933
107	0x42b9ae92	92.84096
108	0x42e25efe	113.18553
109	0x42d4190a	106.048904
110	0x42b2996c	89.29965
111	0x42d9d57e	108.91698
112	0x42bf011d	95.502174
113	0x42a9af99	84.842964
114	0x42b090a6	88.28252
115	0x42cdb3bf	102.85107
116	0x42cf35b3	103.60488
117	0x42ba7539	93.22895
118	0x42b3f61a	89.98067
119	0x42a8804b	84.25057
120	0x42adc234	86.8793
121	0x42bcad0a	94.33797
122	0x42bf5f58	95.68622
123	0x42c12bec	96.585785
124	0x42d6ec7f	107.46191
125	0x42ce0327	103.00616
126	0x42c37e30	97.74646
127	0x42c8f7aa	100.48372
128	0x42cd01e2	102.50368
129	0x42b172f1	88.724495
130	0x42c098f1	96.29871
131	0x42b10060	88.50073
132	0x42b5560d	90.66807
133	0x42cd8e04	102.777374
134	0x42ca4011	101.12513
135	0x42bbf5d9	93.98017
136	0x42c9180a	100.54695
137	0x42af7bf9	87.742134
138	0x42b4b009	90.34382
139	0x42b8196e	92.04967
140	0x42c5b840	98.85986
141	0x42ad97b4	86.796295
142	0x42c29c2d	97.30503
143	0x42a70785	83.51469
144	0x42c4243a	98.070755
145	0x42ca9b5e	101.30345
146	0x42cec1e8	103.37872
147	0x42bbbcf5	93.86906
148	0x42c2ea37	97.45745
149	0x42bd1f35	94.56095
150	0x42c5a823	98.82839
151	0x42bfde6a	95.9344
152	0x42cb9503	101.79104
153	0x42bcfc31	94.49256
154	0x42b4dbe9	90.42951
155	0x42d1dd7f	104.93261
156	0x42a95f00	84.68555
157	0x428ffdd3	71.99575
158	0x42dad598	109.417175
159	0x42ca28c0	101.07959
160	0x42c0cf66	96.405075
161	0x42b8acc4	92.33743
162	0x42ef7685	119.73148
163	0x42d0267d	104.07517
164	0x42c162b7	96.6928
165	0x42a12abb	80.58346
166	0x42a628de	83.07982
167	0x42d1e313	104.943504
168	0x42b0bde5	88.37089
169	0x42c5743e	98.727036
170	0x42ceeefb	103.46676
171	0x42b0f187	88.47173
172	0x42aa20c1	85.06397
173	0x42b79dce	91.80821
174	0x42c5e729	98.951485
175	0x42cb2feb	101.59359
176	0x42abe1a5	85.94071
177	0x429fc3c3	79.88235
178	0x42ba8db7	93.27679
179	0x42d0bf78	104.37396
180	0x42cc4276	102.12981
181	0x42c69017	99.281425
182	0x42b1ce4c	88.90292
183	0x42bec97b	95.39352
184	0x42cbd638	101.918396
185	0x42a81979	84.04975
186	0x42aa167b	85.04391
187	0x42ca399a	101.1125
188	0x42a79248	83.785706
189	0x42b42861	90.078865
190	0x42c7294d	99.580666
191	0x42a0bba2	80.36647
192	0x42bf460a	95.636795
193	0x42cc35e4	102.105255
194	0x42d2f469	105.47736
195	0x42bc2f03	94.09182
196	0x42b0ad94	88.33902
197	0x42ce553a	103.16646
198	0x42d44a0f	106.144646
199	0x42be04b7	95.00921
200	0x42a4fbb1	82.491585
201	0x42bc7afc	94.240204
202	0x42d35d8e	105.682724
203	0x42c26927	97.205376
204	0x42bc0868	94.01642
205	0x42c0ac56	96.33659
206	0x42aba996	85.83122
207	0x42d0e86e	104.453964
208	0x42d64664	107.13748
209	0x42b7b19c	91.84689
210	0x42b89fda	92.31221
211	0x42a2f677	81.48138
212	0x42c6b47d	99.352516
213	0x42c750d8	99.6579
214	0x42c0b38d	96.350685
215	0x42c3755b	97.72921
216	0x42d76f72	107.71767
217	0x42a65957	83.17449
218	0x42c37d90	97.74524
219	0x42b048f4	88.14249
220	0x42c31941	97.549324
221	0x42ca7444	101.22708
222	0x42b4ae54	90.340485
223	0x42d99f0d	108.810646
224	0x42d6f265	107.47343
225	0x42bc27bb	94.0776
226	0x42c2f54b	97.47909
227	0x42c073c8	96.226135
228	0x42be42a6	95.13017
229	0x42b388fa	89.76753
230	0x42c41adf	98.05248
231	0x42d7890c	107.76767
232	0x42ba2946	93.08061
233	0x42b48585	90.26078
234	0x42afc942	87.89308
235	0x42b0fde8	88.49591
236	0x42bb9f43	93.81106
237	0x42ae9c95	87.305824
238	0x42ba7579	93.22944
239	0x42cdaa95	102.83317
240	0x42b45701	90.16993
241	0x42babdda	93.370804
242	0x429a0aaf	77.02087
243	0x42ad3f2a	86.62337
244	0x42bf1ed9	95.56025
245	0x42bf345e	95.60228
246	0x42c1d4a9	96.91535
247	0x42cd2229	102.56672
248	0x42c76d6d	99.71372
249	0x42c51b8c	98.5538
250	0x42c1971c	96.795135
251	0x42ccd980	102.424805
252	0x42adae77	86.84075
253	0x42b5b7d1	90.85902
254	0x42ac2086	86.06352
255	0x42b51256	90.53581
