dl/experiments/basic_cnn/runs/2024-05-19-11-51-55/checkpoints/last.ckpt (torch, 321016 bytes, 9 tensors)

model.embedding.weight f4 [711, 32]
0.61472464 0.89087707 -0.14897911 -1.3907881 -0.42628062 -1.5329503 0.15723015 2.1534326
0.11090673 -0.5470616 -1.4088795 -0.18507287 -0.6666461 1.2947056 -0.55234796 1.1516713
-1.259787 1.9133018 0.74886215 0.78784937 -1.377622 0.1629581 0.043928217 1.5358391
-0.79789627 0.8451376 -0.17556606 -1.1563839 -0.07270337 0.4792921 -0.8885062 -0.54293555
-0.36705822 -0.41641876 1.1885352 -0.30512092 -0.69092566 1.3948104 -0.8453936 -0.39942798
-0.22351569 0.80776966 0.41592523 1.1095015 -0.4369328 -0.64935964 -1.9881049 0.22321099
1.40757 -0.62001187 -1.6250541 0.8607569 -0.23017974 -1.657491 -1.0042071 1.4640776
-0.52014637 -2.0971026 1.1880591 0.5499357 0.9520631 0.7197406 0.91324884 -0.8904242
1.6393437 0.6148438 0.6883717 -0.8025146 0.37202114 -0.6085998 -2.3288686 0.8408938
-1.4717757 -0.27787346 -0.5802836 0.039598253 1.9551344 0.6499614 0.5797003 -0.9754866
1.4663006 0.4615669 -1.3961973 -1.8284131 1.67233 0.36766058 0.31430548 -0.20478605
0.22587438 -1.6142651 0.020661546 2.086795 -1.4363534 1.0315222 1.0546718 0.14350039
0.3591819 0.43010694 0.9501507 -1.2193981 -2.6880646 0.58972555 -1.9495687 -0.55204976
-0.074760996 -0.9993706 1.8764532 0.11355478 -1.214376 0.4872352 0.89497125 1.3761878
1.1264788 -0.0810249 -0.3755124 -0.6696417 -0.7306583 0.13455221 -1.848766 1.4553105
-1.0785285 -0.11601308 -0.47126728 -0.3353164 -0.99311274 0.20333655 -0.6871678 0.14518815
-0.5279668 0.4661186 2.0718672 -0.2417504 1.0372547 -1.3234029 0.18557155 0.30091938
-0.13137656 0.25782385 0.118430726 0.7505493 -1.5680791 0.77015966 -0.94667244 -0.4483387
0.3104381 0.8065899 0.35645264 -0.50449 -0.7270076 0.58411264 1.1459754 0.2320702
0.74367297 1.209663 -0.8674352 0.3996307 -1.6648966 0.18435039 0.12477114 -0.59429127
0.9811148 1.2519791 -0.8362669 -1.4202543 0.84589404 0.3230657 1.0730947 -0.1614343
0.8248855 0.49992526 -0.96050256 0.8463293 0.9206603 -0.9145582 0.6554231 0.32015812
0.37919623 0.891352 -0.00868551 -0.26760265 0.76629126 0.9887452 1.5923678 -0.55879253
-0.50769025 0.48148948 -1.6926602 -0.5718023 -0.2353884 -0.8006674 1.5207773 -1.3153771
-1.13081 -0.37182242 -0.16525656 -0.90095484 0.5612477 -0.8420767 1.7804359 -1.5788867
0.3656769 -0.32739794 -0.14092952 -0.20231347 0.0015400747 -1.0059286 0.82861334 0.5458312
-0.033430763 -1.1749781 1.2678343 -1.5302448 -0.77629644 -0.93716234 -0.22302112 -0.6388405
0.15270442 0.5829563 1.8354397 0.6424466 1.1467699 -1.6306137 -0.49743563 2.099531
0.39140722 -0.32060266 0.4085311 0.6160922 -0.7100866 -0.17848884 -1.0471319 -0.38445368
1.015632 -0.83088195 -0.006697849 -1.0441291 -0.28307533 -1.7804753 -0.68456215 -0.9724654
0.4926526 -0.89170945 -0.6901227 -2.2235515 -1.437982 -0.7568546 -0.8907846 -0.41797218
0.062476575 -0.7634422 -1.5967692 0.4126984 -1.2959515 -2.3294187 -0.49483722 1.3394558
00000000: 985e 1d3f 8510 643f fb8d 18be 5805 b2bf
00000010: 7441 dabe b737 c4bf f100 213e d7d1 0940
00000020: 1123 e33d 3b0c 0cbf 2a56 b4bf be83 3dbe
00000030: 52a9 2abf eab8 a53f ad66 0dbf f769 933f
00000040: b340 a1bf 13e7 f43f 6eb5 3f3f 7fb0 493f
00000050: eb55 b0bf 7dde 263e 13ee 333d 6096 c43f
00000060: ee42 4cbf f05a 583f 97c7 33be 6304 94bf
00000070: 81e5 94bd c665 f53e 2475 63bf d3fd 0abf
00000080: 0eef bbbe d734 d5be ec21 983f cf38 9cbe
00000090: 81e0 30bf 2689 b23f b76b 58bf d381 ccbe
000000a0: 4ce1 64be fec9 4e3f 27f4 d43e 2504 8e3f
000000b0: a8b5 dfbe 6f3c 26bf 397a febf 6c91 643e
000000c0: 412b b43f 19b9 1ebf c601 d0bf 905a 5c3f
000000d0: 3db4 6bbe aa28 d4bf dc89 80bf e566 bb3f
000000e0: 5028 05bf ee36 06c0 5212 983f 96c8 0c3f
000000f0: 68ba 733f ec40 383f adca 693f d7f2 63bf
00000100: 04d6 d13f 6766 1d3f 2139 303f 9971 4dbf
00000110: 8e79 be3e 32cd 1bbf 2f0c 15c0 d144 573f
00000120: 2563 bcbf 6e45 8ebe 778d 14bf c731 223d
00000130: d841 fa3f df63 263f 3d67 143f 7db9 79bf
00000140: bdaf bb3f 7f52 ec3e 98b6 b2bf 7109 eabf
00000150: e90e d63f 023e bc3e a6ec a03e 6fb3 51be
00000160: 9d4b 673e 3da0 cebf 6742 a93c 0d8e 0540
00000170: 6eda b7bf eb08 843f 7cff 863f c4f1 123e
00000180: b1e6 b73e fa36 dc3e 143d 733f 3d15 9cbf
00000190: 4009 2cc0 41f8 163f 788b f9bf 2253 0dbf
000001a0: 4b1c 99bd c0d6 7fbf 9e2f f03f 698f e83d
000001b0: ac70 9bbf e476 f93e d61c 653f ec26 b03f
000001c0: 7530 903f 62f0 a5bd 2943 c0be a36d 2bbf
000001d0: 6c0c 3bbf 0ec8 093e 5da4 ecbf 9d47 ba3f
000001e0: 390d 8abf 4498 edbd f249 f1be 97ae abbe
000001f0: a33c 7ebf 7537 503e 3bea 2fbf 34ac 143e
00000200: d528 07bf 19a7 ee3e 7999 0440 6b8d 77be
00000210: c3c4 843f 4465 a9bf 7806 3e3e 1b12 9a3e
00000220: 9487 06be 7d01 843e cf8b f23d 0024 403f
00000230: d1b6 c8bf 2f29 453f 2059 72bf a68c e5be
00000240: bef1 9e3e ad7c 4e3f f680 b63e 4226 01bf
00000250: 2c1d 3abf 6888 153f 52af 923f cfa3 6d3e
00000260: 5a61 3e3f 3dd6 9a3f 3c10 5ebf 659c cc3e
00000270: 551b d5bf 59c6 3c3e 0388 ff3d 7923 18bf
00000280: 572a 7b3f da40 a03f 9615 56bf e5ca b5bf
00000290: 838c 583f de68 a53e 2b5b 893f 084f 25be
000002a0: b22b 533f 34f6 ff3e 7fe3 75bf 09a9 583f
000002b0: 65b0 6b3f 7c20 6abf cfc9 273f c4eb a33e
000002c0: 0226 c23e a52f 643f ab4d 0ebc 3703 89be
000002d0: aa2b 443f 681e 7d3f b5d2 cb3f 070d 0fbf
000002e0: fdf7 01bf ca85 f63e 17a9 d8bf a361 12bf
000002f0: a809 71be 8af8 4cbf d5a8 c23f 475e a8bf
00000300: 62be 90bf 825f bebe 0439 29be faa4 66bf
00000310: eead 0f3f 5792 57bf 53e5 e33f f618 cabf
00000320: 013a bb3e b4a0 a7be d44f 10be 432b 4fbe
00000330: 55dc c93a 45c2 80bf 0120 543f 98bb 0b3f
00000340: b2ee 08bd af65 96bf 6548 a23f 10df c3bf
00000350: 5dbb 46bf dfe9 6fbf a65f 64be 0d8b 23bf
00000360: 8c5e 1c3e a03c 153f b0ef ea3f 6177 243f
00000370: 5bc9 923f f3b7 d0bf e2af febe b75e 0640
00000380: 8766 c83e 0826 a4be fd2a d13e 38b8 1d3f
00000390: 3cc8 35bf c7c5 36be 6b08 86bf 1dd7 c4be
000003a0: 3b00 823f aeb4 54bf a179 dbbb 06a6 85bf
000003b0: 40ef 90be 9de6 e3bf 773f 2fbf 7ef3 78bf
000003c0: f63c fc3e 1247 64bf e2ab 30bf ab4e 0ec0
000003d0: cb0f b8bf 39c1 41bf 760a 64bf 7300 d6be
000003e0: 70e7 7f3d f370 43bf ef62 ccbf 344d d33e
000003f0: bde1 a5bf 3215 15c0 4e5b fdbe 4a73 ab3f

model.layers.block_0.conv.weight f4 [256, 32, 5]
1.7475777 1.1455092 1.1088629 -0.26565555 -0.5659372 0.97833157 1.347304 0.4860329
-1.9151455 -2.4170022 -0.17428857 -0.41146064 0.31406456 -0.012649604 -1.0907239 0.4435626
0.985887 0.83386105 0.9471077 -0.92403233 0.09776607 -1.064958 -0.41408297 1.6110134
1.0593214 0.00044862693 0.31312966 2.0203314 0.72204006 0.53802174 0.08957864 0.50742376
-0.37590963 -0.39585176 1.0055555 0.34271726 0.66954374 0.90732944 1.000014 -2.1227553
-0.3070652 0.67730653 0.31372422 -0.6660034 0.32856238 -0.5300037 -0.31597066 2.2202938
1.0758512 0.21357678 -1.3349934 -0.06860147 1.2180958 1.47458 -0.7962053 -0.15359187
0.3357741 -1.8181636 -0.038220257 0.34764633 0.5829365 -0.64242274 -0.4112661 -1.576478
-0.65481496 -0.46915546 0.5253885 0.5144175 1.2057647 0.52076477 -1.5376303 -1.7859544
-0.08065199 0.07435309 0.21922505 -1.4178734 -1.9840231 -0.13156027 1.967262 1.3451203
-0.6853021 -0.21295589 0.9903381 2.2328327 -0.005281734 0.07120869 1.4174263 1.2178793
-0.4112099 -1.6386636 -0.13089155 -0.89369196 -1.0432792 -1.2328742 0.018906614 0.28643352
0.3052064 0.3340753 -0.58573854 0.5337377 -0.39481434 -0.8761242 -1.1019671 -1.0385209
0.8645856 -0.07923289 -0.91411287 -0.41083062 0.05391224 1.8336742 0.11453679 -0.8421102
0.705596 -0.27226147 0.3474803 -1.092671 -1.2802244 -0.10182361 0.32583666 -0.68455285
0.23168693 1.1286823 1.5023515 0.6538939 -1.4742047 -0.26325575 0.93316907 0.030075578
0.44577116 -0.40936542 -0.38248244 0.11469474 -0.8204899 0.170181 -0.41090593 -0.14355476
-0.109360054 -0.9831187 -0.37686172 0.21899723 0.07705431 1.0371001 -0.37546945 1.3358465
-0.24662364 -2.134256 -1.4638426 -0.74321115 0.8621172 1.1947471 -0.075591885 0.27220282
-0.3840084 -1.0167286 -0.009284988 -0.27070817 -1.0797602 -0.24807811 1.4098281 -0.45006552
-0.58718723 -1.4547634 -0.7698656 -0.81796426 -0.5523625 -0.6469211 -0.6679544 -1.2958999
0.14234038 -0.44296467 -1.3739282 0.16804017 1.5085868 0.29301715 1.541439 1.3284072
2.387821 0.9938817 -0.5427326 -1.2407671 0.022551985 1.657457 0.53462565 0.26080722
1.5036099 1.0681398 0.21337731 -0.6116395 -1.7697681 -1.448582 0.21516578 0.055586915
-0.21157272 -0.0528885 0.093653 -0.6266054 -0.87394637 -0.6880998 -0.06860113 -0.5347281
-0.47083023 -0.5500842 0.076724134 0.21837117 -0.45355475 -0.8727904 0.41110468 1.082562
-0.94886595 0.18051054 0.65593344 -0.22233605 1.3954213 -0.2761537 0.60582393 0.46531126
0.93430144 0.49494812 0.20848669 1.0265019 0.10941679 1.007884 0.3199576 0.3257825
-0.119833395 0.16973868 -0.4283882 -1.4890484 -2.0497472 -0.9143748 1.5859014 0.28671843
0.62313974 1.199771 0.4043138 0.25890332 -0.47864234 0.6287529 -0.9638739 0.020711152
-0.04366254 0.21835044 -0.13229957 0.8202831 0.011981606 -0.46028677 -0.40488002 -1.0376223
0.15833694 0.6332714 0.21341245 0.03463746 0.7659718 -0.30222207 -0.78019613 0.49344528
00000000: a0b0 df3f 0ca0 923f 38ef 8d3f 0104 88be
00000010: 43e1 10bf f073 7a3f 7574 ac3f 4ed9 f83e
00000020: 7d23 f5bf 2ab0 1ac0 b478 32be f8aa d2be
00000030: 12cd a03e 4940 4fbc d79c 8bbf a31a e33e
00000040: 1763 7c3f eb77 553f a675 723f 628d 6cbf
00000050: 9439 c83d 8b50 88bf af02 d4be b035 ce3f
00000060: d897 873f b035 eb39 8852 a03e 1c4d 0140
00000070: 9ed7 383f cbbb 093f 0275 b73d 86e6 013f
00000080: 3a77 c0be 15ad cabe 0bb6 803f a378 af3e
00000090: 3867 2b3f be46 683f 7500 803f 39db 07c0
000000a0: a637 9dbe f663 2d3f 76a0 a03e 337f 2abf
000000b0: 5439 a83e 53ae 07bf e8c6 a1be 4b19 0e40
000000c0: 7eb5 893f dfb3 5a3e 10e1 aabf ed7e 8cbd
000000d0: 90ea 9b3f 0abf bc3f 1cd4 4bbf 3047 1dbe
000000e0: 95ea ab3e 96b9 e8bf d88c 1cbd b3fe b13e
000000f0: 543b 153f d175 24bf 7891 d2be 08ca c9bf
00000100: f4a1 27bf 2535 f0be dc7f 063f deb0 033f
00000110: 7f56 9a3f d750 053f 12d1 c4bf 279a e4bf
00000120: df2c a5bd 6f46 983d 887c 603e e07c b5bf
00000130: 78f4 fdbf bcb7 06be 3ecf fb3f e72c ac3f
00000140: f56f 2fbf 1c11 5abe cc86 7d3f bbe6 0e40
00000150: 6512 adbb ddd5 913d 3a6e b53f 78e3 9b3f
00000160: 1b8a d2be bbbf d1bf 6f08 06be ffc8 64bf
00000170: 2c8a 85bf d2ce 9dbf 0be2 9a3c 6aa7 923e
00000180: 0344 9c3e eb0b ab3e f6f2 15bf 09a3 083f
00000190: 1b25 cabe ad49 60bf 420d 8dbf 41ee 84bf
000001a0: 7b55 5d3f da44 a2bd 4d03 6abf 6458 d2be
000001b0: 15d3 5c3d d6b5 ea3f 4492 ea3d 8994 57bf
000001c0: f1a1 343f db65 8bbe f0e8 b13e a5dc 8bbf
000001d0: 65de a3bf e688 d0bd 10d4 a63e db3e 2fbf
000001e0: 573f 6d3e a978 903f 0e4d c03f 9765 273f
000001f0: bdb2 bcbf 75c9 86be 2be4 6e3f 0f61 f63c
00000200: 1e3c e43e 5898 d1be bdd4 c3be 13e5 ea3d
00000210: a00b 52bf ee43 2e3e 4362 d2be 0500 13be
00000220: 2af8 dfbd abad 7bbf 05f4 c0be cf40 603e
00000230: a6ce 9d3d b2bf 843f 883d c0be 05fd aa3f
00000240: e88a 7cbe a697 08c0 325f bbbf 1643 3ebf
00000250: b6b3 5c3f 79ed 983f ebcf 9abd 2b5e 8b3e
00000260: c09c c4be 2a24 82bf 1020 18bc 439a 8abe
00000270: 9535 8abf 3008 7ebe 3f75 b43f fd6e e6be
00000280: e751 16bf b035 babf e915 45bf 1b66 51bf
00000290: a167 0dbf 9f9c 25bf 0fff 2abf 0ce0 a5bf
000002a0: adc1 113e 44cc e2be e1dc afbf b912 2c3e
000002b0: 5f19 c13f 5806 963e e04d c53f 3f09 aa3f
000002c0: 0fd2 1840 086f 7e3f 86f0 0abf 75d1 9ebf
000002d0: f1be b83c 8d27 d43f 3add 083f 8688 853e
000002e0: 4a76 c03f ceb8 883f 957f 5a3e 6894 1cbf
000002f0: c387 e2bf 236b b9bf 6b54 5c3e 1baf 633d
00000300: 85a6 58be 9da1 58bd 25cd bf3d 3669 20bf
00000310: f3ba 5fbf 4f27 30bf c07e 8cbd f1e3 08bf
00000320: a910 f1be 51d2 0cbf 8b21 9d3d b19c 5f3e
00000330: 5438 e8be 316f 5fbf 507c d23e 6491 8a3f
00000340: e1e8 72bf c1d7 383e 41eb 273f 10ac 63be
00000350: 2a9d b23f 0564 8dbe 4717 1b3f 473d ee3e
00000360: 612e 6f3f d769 fd3e 897d 553e 6a64 833f
00000370: e915 e03d 5802 813f 7cd1 a33e f7cc a63e
00000380: 366b f5bd facf 2d3e b355 dbbe 2399 bebf
00000390: 0f2f 03c0 7814 6abf d1fe ca3f c2cc 923e
000003a0: 1686 1f3f 1992 993f 3802 cf3e fa8e 843e
000003b0: 9c10 f5be f3f5 203f 71c0 76bf 6faa a93c
000003c0: 7ed7 32bd 4297 5f3e 8a79 07be 13fe 513f
000003d0: 7f4e 443c b5aa ebbe 6f4c cfbe cfd0 84bf
000003e0: 1423 223e 131e 223f cb88 5a3e 02e0 0d3d
000003f0: ba16 443f dabc 9abe efba 47bf dca4 fc3e

model.layers.block_0.conv.bias f4 [256]
-0.20006196 0.16047095 -0.09464996 0.0761571 0.058079425 0.1416756 -0.040472932 0.28001156
-0.050477266 0.103321694 0.08763365 -0.020670822 0.005538073 0.24107711 -0.094229765 0.29665497
0.072898366 0.19673422 -0.098221846 -0.09716294 0.3026069 -0.12555288 0.23718333 0.13982382
-1.3177094 0.18421972 -0.23830314 -0.08289466 -0.12389783 0.11748431 0.10499682 0.08857262
0.10139687 -0.6217184 -0.065309025 0.07186499 -0.006789695 0.13735354 -0.008409978 0.0010968362
0.2429834 0.113301836 0.046760358 0.03477252 0.024026686 -0.019591432 0.20203769 0.12538366
0.14912207 -0.06533496 0.1255791 0.1575681 -0.15118301 -0.27004865 0.2807006 0.026911844
-0.14781524 0.0663834 -0.07727197 0.15721776 0.15005036 0.091503166 0.03460617 -0.014664154
-0.0039948844 0.07345647 0.006421788 0.16426924 -0.16143058 0.021183157 -0.12986292 -0.009636625
0.14284036 0.22392073 0.123237655 0.18001239 -0.1479001 0.13797666 0.07222163 0.12949298
0.15066202 -0.0044265795 0.10875833 -0.20812432 0.20597881 -0.023544097 -0.13940051 -0.06280426
-0.07542955 -0.04871063 0.15411307 -0.018061655 0.32892343 0.012011865 -0.16800228 -0.012876615
-0.00516945 -0.17195295 -0.08276608 0.22790916 0.027353643 -0.046708852 0.010394522 0.17040376
-0.03866877 -0.10016965 -0.09654621 -0.029263139 0.18505815 -0.16519573 0.115432344 -0.062912025
-0.31272337 0.1736794 0.12156014 -0.05267009 0.24308462 -0.0392903 0.011782742 0.10173805
0.58576375 -0.22737466 -0.0053531015 -0.0053888536 -0.113588125 0.2441245 -0.018321356 -0.22235474
0.020302111 0.375747 -0.32221988 0.17721444 0.108869664 -0.046764005 0.22681753 0.11052069
0.025881384 0.034114383 0.05500168 -0.17368455 0.10455901 0.02889806 0.053629626 0.20812085
0.2610335 0.017938005 0.18545488 0.066812426 -0.030264866 0.061761707 0.05527781 -0.069938466
0.031002646 0.16733149 -0.044979047 0.067972235 0.05091391 0.19585444 -0.17940262 0.38333046
0.24542259 0.45342243 0.081587136 0.15745772 -0.12287935 0.04557032 0.120594665 0.042347543
0.0043489463 0.23497315 0.12931952 -0.09716641 0.08988119 0.16575031 0.060411114 -0.094162144
0.04410473 0.42024252 0.19962326 0.22824971 -0.027559115 -0.17871934 -0.28887177 0.038544264
0.11170836 -0.12414255 0.048550848 0.08111887 0.115038574 -0.10779773 -0.03540466 0.18414485
0.1411374 0.006558418 -0.1645189 -0.11055597 0.06991197 -0.094858535 0.03508588 0.28106946
0.21816008 0.14925872 -0.044694267 0.19072232 0.08652755 -0.045129236 0.13070217 -0.0030709123
0.105424024 0.19718902 0.033810183 0.04118653 -0.12340938 0.12193564 -0.05804457 0.19289723
0.3736208 0.15003432 0.3692494 -0.179584 -0.11470118 0.10766445 0.16179852 0.34135354
0.08214726 0.76328385 0.1599378 0.1897873 -0.101104744 0.3284646 0.07949075 -0.029581508
0.017070374 0.22403364 0.46305677 0.04510224 -0.08967377 -0.49572375 -0.0800496 0.19008228
0.16643484 0.058893166 -0.014561622 0.036824327 -0.08109815 0.2624521 0.09083913 0.15912957
0.05875985 0.10816644 0.026173456 0.046260815 0.15881734 0.011427191 0.24445526 0.06400749
00000000: 0bdd 4cbe 7f52 243e d7d7 c1bd 41f8 9b3d
00000010: b1e4 6d3d 6913 113e f2c6 25bd ad5d 8f3e
00000020: 40c1 4ebd 539a d33d 4579 b33d db55 a9bc
00000030: b978 b53b ebdc 763e 89fb c0bd 29e3 973e
00000040: bd4b 953d b274 493e 8928 c9bd 5dfd c6bd
00000050: 4bef 9a3e ef90 00be 30e0 723e fa2d 0f3e
00000060: b4aa a8bf 18a4 3c3e bd05 74be adc4 a9bd
00000070: 25be fdbd 9d9b f03d 9308 d73d 9065 b53d
00000080: 2aa9 cf3d f028 1fbf bdc0 85bd f42d 933d
00000090: 177c debb 68a6 0c3e 01ca 09bc b7c3 8f3a
000000a0: a4d0 783e cb0a e83d ca87 3f3d a16d 0e3d
000000b0: 9dd3 c43c 367e a0bc f8e2 4e3e 9364 003e
000000c0: 75b3 183e 56ce 85bd cf97 003e 8859 213e
000000d0: b8cf 1abe d143 8abe fdb7 8f3e 3a76 dc3c
000000e0: e15c 17be 05f4 873d c440 9ebd b1fd 203e
000000f0: cda6 193e 0366 bb3d 33bf 0d3d eb41 70bc
00000100: 85e7 82bb 5970 963d dd6d d23b 3236 283e
00000110: 0f4e 25be 4d88 ad3c c9fa 04be efe2 1dbc
00000120: be44 123e 7a4b 653e 0664 fc3d 2b55 383e
00000130: 2073 17be c149 0d3e efe8 933d cf99 043e
00000140: 2547 1a3e d70c 91bb b0bc de3d 8b1e 55be
00000150: 1cec 523e 8ddf c0bc 02bf 0ebe 859f 80bd
00000160: cf7a 9abd cc84 47bd d1cf 1d3e 09f6 93bc
00000170: a768 a83e 6acd 443c ca08 2cbe 70f8 52bc
00000180: 7d64 a9bb 6f14 30be 4381 a9bd 0561 693e
00000190: bf14 e03c c851 3fbd c94d 2a3c 537e 2e3e
000001a0: 2563 1ebd bf25 cdbd 05ba c5bd 40b9 efbc
000001b0: e27f 3d3e 1229 29be cb67 ec3d 05d8 80bd
000001c0: 471d a0be 03d9 313e 86f4 f83d 98bc 57bd
000001d0: 2deb 783e deee 20bd 670c 413c 0a5c d03d
000001e0: 9df4 153f e7d4 68be 1269 afbb fb94 b0bb
000001f0: e4a0 e8bd c6fb 793e ab16 96bc f6b0 63be
00000200: 9d50 a63c e961 c03e 01fa a4be b477 353e
00000210: 0ff7 de3d 9d8b 3fbd db42 683e ac58 e23d
00000220: 3205 d43c 86bb 0b3d 7149 613d 5dda 31be
00000230: 0923 d63d a0bb ec3c bdaa 5b3d a21d 553e
00000240: 2fa6 853e b9f2 923c e2e7 3d3e f4d4 883d
00000250: 06ee f7bc d8f9 7c3d fc6a 623d e63b 8fbd
00000260: 43f9 fd3c f258 2b3e f33b 38bd 0735 8b3d
00000270: 1b8b 503d 118e 483e 52b5 37be e443 c43e
00000280: 0f50 7b3e fc26 e83e 2817 a73d 993c 213e
00000290: 2ba8 fbbd f2a7 3a3d 56fa f63d 9e74 2d3d
000002a0: 9b81 8e3b cd9c 703e 566c 043e 2fff c6bd
000002b0: a113 b83d 73ba 293e a571 773d 15d8 c0bd
000002c0: 29a7 343d 072a d73e 0a6a 4c3e 4bba 693e
000002d0: a7c3 e1bc 3402 37be 00e7 93be 97e0 1d3d
000002e0: 5ac7 e43d 733e febd 41dd 463d a621 a63d
000002f0: 5899 eb3d 0ec5 dcbd 7a04 11bd 7890 3c3e
00000300: 5386 103e ffe7 d63b a477 28be 2b6b e2bd
00000310: 022e 8f3d 3145 c2bd 36b6 0f3d 56e8 8f3e
00000320: 5b65 5f3e 47d7 183e 5611 37bd b64c 433e
00000330: 5b35 b13d 6fd9 38bd cad6 053e 5c41 49bb
00000340: 8de8 d73d ebeb 493e 8c7c 0a3d 35b3 283d
00000350: 0fbe fcbd 65b9 f93d 25c0 6dbd da86 453e
00000360: 3a4b bf3e 99a2 193e 420e bd3e dee4 37be
00000370: 74e8 eabd 2e7f dc3d 83ae 253e e4c5 ae3e
00000380: d33c a83d 9266 433f bcc6 233e 9a57 423e
00000390: 0110 cfbd 832c a83e 0ccc a23d eb54 f2bc
000003a0: 2bd7 8b3c 1369 653e c715 ed3e 20bd 383d
000003b0: e2a6 b7bd 81cf fdbe 0bf1 a3bd eea4 423e
000003c0: e56d 2a3e f639 713d df93 6ebc 1bd5 163d
000003d0: c916 a6bd 1f60 863e de09 ba3d ddf2 223e
000003e0: 2bae 703d 5e86 dd3d b769 d63c fb7b 3d3d
000003f0: 03a1 223e 1d39 3b3c 7b52 7a3e 5c16 833d

model.layers.block_0.norm.weight f4 [256]
5.8985405 5.646219 5.4154205 5.397345 5.5806065 4.8056674 5.652171 5.7335258
5.9178867 5.741257 5.2925253 5.3862944 5.4794135 5.437432 5.5365934 5.1579475
5.697426 5.3214374 5.7161517 5.8777795 5.324786 5.1868925 4.3727303 5.726906
4.5812793 5.7933517 5.582904 4.702547 5.6173615 5.605121 5.7845235 5.7178693
5.658809 3.903285 5.9960647 5.250735 5.3315315 5.5101924 5.2719903 4.9092193
4.663912 5.003449 5.2420936 5.387488 5.6051426 6.351661 5.818173 4.270023
5.0711846 5.4884205 4.551471 4.6611767 5.2209435 5.9621243 5.487862 5.083694
5.85879 5.8942127 5.585491 4.6237288 5.2426476 5.3258195 5.8435593 5.59383
4.908616 6.1665735 5.2865567 5.2335043 6.4646153 5.28579 5.6828732 5.8853292
5.249858 5.3317018 5.338771 6.0650144 4.744301 6.189323 4.331122 3.8804893
5.444517 5.9327235 5.099123 5.7337246 4.3853545 5.7225523 6.1806283 5.6099167
5.7248964 6.1723514 5.3287826 5.593809 5.334392 5.839563 5.58354 5.448841
5.495201 5.6634054 5.913073 5.0300193 6.0931334 5.486937 5.555695 5.21008
5.8697505 6.4095044 5.548865 6.1580296 5.518335 5.3289957 4.005525 5.8395853
4.3556004 4.974901 6.148089 5.632038 5.2088695 6.194624 5.5553913 4.7715445
5.0414653 6.0056486 5.40293 5.4877863 5.294064 6.380456 5.4462543 5.5192084
5.3499036 5.5045385 6.0379987 4.6241775 5.3889155 5.670836 5.8252244 5.51802
5.7275777 6.1330633 5.696303 5.710776 3.963002 5.662687 5.4683123 5.5594997
5.1759396 5.7818327 5.4735503 5.228334 6.1949677 5.927679 5.860086 5.6817727
5.4411635 5.644603 5.524274 5.42573 5.585744 5.57746 5.9810157 5.868872
5.384993 5.2795124 6.882341 5.8004837 5.5844097 5.205139 5.427537 6.5454636
5.692741 5.581698 5.9118495 5.3204403 5.82322 6.1162825 6.328911 5.8012934
5.336748 5.8752475 5.628051 5.615619 5.3024187 6.1660533 5.808534 5.2266498
5.0257154 5.661666 5.2006574 5.8827853 5.1537914 6.0670853 5.689252 4.872623
5.332045 5.4757032 5.958427 6.0666075 4.477923 6.0597973 4.5145817 5.932491
5.293438 3.2351282 6.3819 5.37039 5.9711 5.207814 5.4940853 5.8441772
5.0701647 6.123497 5.6753983 5.1614504 5.491511 6.017553 4.396999 5.50069
5.461605 5.0834465 5.715031 5.0426817 5.484242 6.176067 5.582105 5.7535257
5.5404944 4.0555015 6.051423 5.3499007 5.8482003 6.087707 6.0953903 4.626847
5.765372 5.27684 4.832079 5.7283506 5.923066 5.0469284 5.326222 5.4028296
5.0230184 5.4851685 4.991055 5.349408 6.000645 5.929377 5.4642982 5.6412673
6.3551145 6.2398825 6.0435176 6.05958 5.7021976 5.1347504 5.169175 5.3116255
00000000: d8c0 bc40 d3ad b440 204b ad40 0db7 ac40
00000010: 5494 b240 07c8 9940 96de b440 0b79 b740
00000020: 545f bd40 61b8 b740 5e5c a940 865c ac40
00000030: 5b57 af40 71ff ad40 c62b b140 e80d a540
00000040: 5051 b640 3749 aa40 b7ea b640 c516 bc40
00000050: a664 aa40 06fb a540 68ed 8b40 d042 b740
00000060: d799 9240 2363 b940 26a7 b240 447b 9640
00000070: 6dc1 b340 275d b340 d11a b940 c9f8 b640
00000080: f714 b540 6ccf 7940 c3df bf40 0506 a840
00000090: e89b aa40 7f53 b040 25b4 a840 5318 9d40
000000a0: c43e 9540 411c a040 3bbf a740 4d66 ac40
000000b0: 545d b340 cf40 cb40 792e ba40 07a4 8840
000000c0: 2547 a240 24a1 af40 a7a5 9140 5c28 9540
000000d0: f811 a740 b9c9 be40 919c af40 9fad a240
000000e0: 357b bb40 649d bc40 58bc b240 96f5 9340
000000f0: c5c3 a740 1d6d aa40 70fe ba40 a800 b340
00000100: 6213 9d40 9254 c540 792b a940 de78 a740
00000110: 21de ce40 3125 a940 19da b540 9e54 bc40
00000120: d6fe a740 4d9d aa40 36d7 aa40 9914 c240
00000130: 50d1 9740 ef0e c640 8d98 8a40 f059 7840
00000140: 7c39 ae40 dfd8 bd40 042c a340 ac7a b740
00000150: d354 8c40 261f b740 b5c7 c540 7084 b340
00000160: 5a32 b740 e783 c540 6385 aa40 7c00 b340
00000170: 57b3 aa40 b3dd ba40 5cac b240 e85c ae40
00000180: b0d8 af40 9e3a b540 e537 bd40 ebf5 a040
00000190: f3fa c240 fd94 af40 41c8 b140 fab8 a640
000001a0: ffd4 bb40 a91a cd40 4d90 b140 940e c540
000001b0: 3396 b040 2287 aa40 432d 8040 e2dd ba40
000001c0: 1461 8b40 6432 9f40 25bd c440 a839 b440
000001d0: 0faf a640 5c3a c640 c4c5 b140 7eb0 9840
000001e0: af53 a140 462e c040 cde4 ac40 f29b af40
000001f0: f968 a940 b22c cc40 b747 ae40 5b9d b040
00000200: 6932 ab40 2e25 b040 4937 c140 43f9 9340
00000210: ff71 ac40 7d77 b540 3d68 ba40 9f93 b040
00000220: 5148 b740 0e42 c440 1d48 b640 adbe b640
00000230: d3a1 7d40 bb34 b540 6afc ae40 6ce7 b140
00000240: 4ca1 a540 c604 b940 5327 af40 834e a740
00000250: 2d3d c640 8caf bd40 d385 bb40 15d1 b540
00000260: 031e ae40 96a0 b440 dac6 b040 959f ad40
00000270: 6abe b240 8d7a b240 7b64 bf40 cdcd bb40
00000280: dd51 ac40 c4f1 a840 233c dc40 909d b940
00000290: 7cb3 b240 8090 a640 62ae ad40 7074 d140
000002a0: ef2a b640 459d b240 df2d bd40 0c41 aa40
000002b0: d157 ba40 96b8 c340 7086 ca40 32a4 b940
000002c0: a4c6 aa40 0702 bc40 fe18 b440 27b3 b340
000002d0: 6aad a940 4f50 c540 83df b940 b740 a740
000002e0: a9d2 a040 5e2c b540 c96b a640 c73f bc40
000002f0: dceb a440 9025 c240 5a0e b640 87ec 9b40
00000300: 1da0 aa40 f638 af40 6fab be40 a621 c240
00000310: 254b 8f40 dce9 c140 7477 9040 f7d6 bd40
00000320: d863 a940 570c 4f40 8638 cc40 3cda ab40
00000330: 4013 bf40 6aa6 a640 8ccf af40 8003 bb40
00000340: ca3e a240 b0f3 c340 dd9c b540 9a2a a540
00000350: 75ba af40 cb8f c040 37b4 8c40 a705 b040
00000360: 78c5 ae40 98ab a240 89e1 b640 a65d a140
00000370: e97e af40 57a2 c540 9ba0 b240 e21c b840
00000380: bb4b b140 abc6 8140 42a5 c140 6332 ab40
00000390: 7524 bb40 7fce c240 700d c340 210f 9440
000003a0: ed7d b840 e0db a840 64a0 9a40 a64e b740
000003b0: c289 bd40 7080 a140 6970 aa40 fbe3 ac40
000003c0: 91bc a040 8086 af40 b9b6 9f40 5a2e ab40
000003d0: 4905 c040 75bd bd40 88db ae40 4385 b440
000003e0: 195d cb40 1ead c740 7f64 c140 14e8 c140
000003f0: 6778 b640 e04f a440 e269 a540 d6f8 a940

model.layers.block_0.norm.bias f4 [256]
-1.3644788 -1.8586062 -0.454962 -1.428799 -1.6410238 -1.0782347 -2.015457 -1.897431
-1.8041074 -1.8735515 -1.8888872 -2.0249696 -1.7498243 -1.275305 -1.9198631 -1.9740905
-1.7858057 -2.118237 -2.2456238 -1.5651394 -1.9061153 -1.4813544 -2.1127036 -1.2095138
-0.92033654 -2.2961037 -1.5131545 -0.79877424 -1.5716208 -1.7817703 -1.5419617 -1.860004
-1.3365306 -0.6167939 -2.072137 -1.650795 -1.2849334 -1.7343898 -1.8231479 -1.5255432
-1.4571549 -1.4656119 -1.7188497 -1.914637 -1.9371499 -1.0125116 -1.9799509 -1.7109073
-1.5614666 -1.2801096 -1.5826408 -1.422864 -1.6393497 -1.3936999 -1.2095214 -1.385074
-1.9161525 -2.0308857 -1.408974 -0.70922595 -1.2152038 -1.9255687 -1.6992548 -1.0438266
-1.9417394 -1.8255656 -2.109439 -1.5374627 -2.2415962 -1.3881338 -2.3333743 -1.5837463
-1.5910476 -1.5631821 -1.7929131 -2.2620344 -1.6661434 -1.8488207 -1.5455071 -0.93765247
-0.9908845 -0.94886494 -1.4226028 -2.0807989 -1.2646185 -2.2117064 -2.075934 -2.3869405
-2.4098294 -1.5789562 -1.9810507 -1.6799815 -1.7976527 -2.0246708 -1.698113 -1.596668
-1.3669927 -1.4008938 -2.05924 -1.7101225 -1.9093623 -1.8442055 -2.1046755 -1.5116156
-1.519662 -2.4747791 -1.2095313 -2.21762 -2.0592973 -1.4381005 -1.0175121 -1.7048472
-1.2361934 -0.9878151 -1.2740082 -1.7912866 -1.7368044 -1.8560029 -1.7375933 -1.174679
-1.3334461 -1.4250417 -1.9719785 -1.8712454 -1.2707686 -2.072222 -1.5812844 -2.4746382
-1.4244566 -1.0957834 -1.3041829 -1.4326565 -1.4413619 -2.1805105 -1.6031204 -2.0145888
-1.9408633 -1.1794072 -1.4021043 -1.6236526 -1.3345766 -1.5812405 -1.6003941 -1.3307394
-1.7646202 -2.0055885 -2.4635315 -1.7875553 -1.9687026 -1.8592709 -2.1464376 -2.2273636
-2.5545123 -1.4111412 -1.0260342 -2.2470427 -1.836398 -1.4606467 -1.5782213 -1.5464193
-1.7248012 -1.3935276 -2.46374 -2.3194287 -2.1403766 -1.51051 -0.7302966 -2.2174363
-1.8843603 -1.36013 -1.9408474 -1.423739 -1.8966548 -1.5601444 -1.7441902 -1.8554709
-1.3874618 -1.7590923 -1.597571 -1.3770843 -2.2347863 -1.7477753 -2.06162 -1.9774183
-2.0663533 -1.5631468 -1.5693655 -1.5055559 -1.3498733 -2.031832 -1.6246947 -1.3007115
-1.7906475 -1.4338568 -2.4704702 -2.4109595 -0.9645914 -2.2597191 -1.3063312 -1.4880934
-1.5020087 -1.543959 -1.8343577 -1.0926865 -1.9185357 -1.838067 -1.1317455 -2.2264946
-0.80374604 -1.5582608 -1.6702726 -1.691238 -1.7450966 -1.9953698 -1.0447007 -1.8556587
-1.6618279 -1.2720394 -2.007598 -1.4895526 -1.7274972 -1.6971388 -1.0504563 -1.298171
-1.5953368 -0.76392436 -1.8990208 -1.6239974 -1.405223 -1.5783248 -2.3297513 -1.5158368
-1.8994945 -1.7899728 -1.4038215 -1.7500204 -0.6719525 -0.9641337 -1.9285121 -1.7397654
-1.366423 -1.33528 -3.0343444 -1.237048 -2.0332243 -1.6124855 -2.27112 -1.6914026
-2.636216 -1.9728416 -2.2592714 -1.8846811 -1.481322 -1.7337359 -1.7475313 -1.9903299
00000000: 3ea7 aebf cfe6 edbf c7f0 e8be e3e2 b6bf
00000010: 110d d2bf 9803 8abf 3ffd 00c0 05df f2bf
00000020: feec e6bf 89d0 efbf 0ec7 f1bf 1a99 01c0
00000030: 3efa dfbf 323d a3bf 13be f5bf ffae fcbf
00000040: 4895 e4bf 3291 07c0 4db8 0fc0 7d56 c8bf
00000050: 96fb f3bf 059d bdbf 8936 07c0 59d1 9abf
00000060: 2d9b 6bbf 5df3 12c0 0caf c1bf 787c 4cbf
00000070: df2a c9bf 0d11 e4bf 005f c5bf 9c14 eebf
00000080: 6f13 abbf 34e6 1dbf e59d 04c0 404d d3bf
00000090: b378 a4bf 7c00 debf e95c e9bf 0045 c3bf
000000a0: 0d84 babf 2c99 bbbf 4403 dcbf d312 f5bf
000000b0: 87f4 f7bf fb99 81bf 086f fdbf 03ff dabf
000000c0: 23de c7bf a2da a3bf f993 cabf 6820 b6bf
000000d0: 36d6 d1bf c264 b2bf 99d1 9abf 1b4a b1bf
000000e0: 7c44 f5bf 08fa 01c0 4359 b4bf d58f 35bf
000000f0: cc8b 9bbf 0979 f6bf 2e81 d9bf 1c9c 85bf
00000100: eb8a f8bf 22ac e9bf 0c01 07c0 94cb c4bf
00000110: 5076 0fc0 5eae b1bf 0156 15c0 33b8 cabf
00000120: 73a7 cbbf 5a16 c8bf 2d7e e5bf 2cc5 10c0
00000130: 3044 d5bf 28a6 ecbf 2dd3 c5bf fe09 70bf
00000140: 9baa 7dbf d0e8 72bf d917 b6bf cf2b 05c0
00000150: 05df a1bf 998c 0dc0 1adc 04c0 a2c3 18c0
00000160: a53a 1ac0 3d1b cabf 1293 fdbf a209 d7bf
00000170: 7c19 e6bf 3594 01c0 c45b d9bf 9e5f ccbf
00000180: 9ef9 aebf 7d50 b3bf 97ca 03c0 4be5 dabf
00000190: fc65 f4bf ed0e ecbf 01b3 06c0 9f7c c1bf
000001a0: 4984 c2bf c862 1ec0 ecd1 9abf 7ced 0dc0
000001b0: 87cb 03c0 ad13 b8bf d63d 82bf 6f38 dabf
000001c0: 963b 9ebf 73e1 7cbf b312 a3bf e148 e5bf
000001d0: 9b4f debf 8191 edbf 7569 debf e25b 96bf
000001e0: 5dae aabf c467 b6bf cb69 fcbf f884 efbf
000001f0: 8ca8 a2bf 499f 04c0 8767 cabf 7960 1ec0
00000200: 9854 b6bf a142 8cbf 77ef a6bf 4a61 b7bf
00000210: 8c7e b8bf 7c8d 0bc0 0d33 cdbf 06ef 00c0
00000220: 356e f8bf d1f6 96bf 2778 b3bf d9d3 cfbf
00000230: 68d3 aabf 1766 cabf b7d9 ccbf ab55 aabf
00000240: 13df e1bf 905b 00c0 80aa 1dc0 9dce e4bf
00000250: 72fe fbbf 97fc edbf 3c5f 09c0 208d 0ec0
00000260: 217d 23c0 46a0 b4bf 1755 83bf 8ccf 0fc0
00000270: 170f ebbf 79f6 babf 2803 cabf 11f1 c5bf
00000280: 49c6 dcbf 1d5f b2bf ebad 1dc0 8571 14c0
00000290: eefb 08c0 6458 c1bf b8f4 3abf 7aea 0dc0
000002a0: b832 f1bf bd18 aebf b06d f8bf 143d b6bf
000002b0: 96c5 f2bf d0b2 c7bf a041 dfbf 1280 edbf
000002c0: 5998 b1bf f029 e1bf 357d ccbf 4c44 b0bf
000002d0: bd06 0fc0 1ab7 dfbf 95f1 03c0 0b1c fdbf
000002e0: 223f 04c0 3215 c8bf f8e0 c8bf 0eb6 c0bf
000002f0: a6c8 acbf 8909 02c0 fff5 cfbf b77d a6bf
00000300: f033 e5bf 9f88 b7bf 2f1c 1ec0 294d 1ac0
00000310: 76ef 76bf 3d9f 10c0 dc35 a7bf d879 bebf
00000320: d241 c0bf 73a0 c5bf 3ccc eabf 27dd 8bbf
00000330: 9492 f5bf c845 ebbf 09dd 90bf e37e 0ec0
00000340: 4dc2 4dbf 1775 c7bf 7ecb d5bf 7d7a d8bf
00000350: 535f dfbf 4768 ffbf c1b8 85bf 3986 edbf
00000360: c7b6 d4bf 30d2 a2bf 7c7c 00c0 a9a9 bebf
00000370: a11e ddbf d83b d9bf 5a75 86bf 782a a6bf
00000380: ff33 ccbf 8c90 43bf 1d13 f3bf 26df cfbf
00000390: 59de b3bf 8c06 cabf a51a 15c0 f106 c2bf
000003a0: a322 f3bf d41d e5bf 6cb0 b3bf ab00 e0bf
000003b0: 1405 2cbf 77d1 76bf 7cd9 f6bf a2b0 debf
000003c0: f3e6 aebf 74ea aabf b332 42c0 9757 9ebf
000003d0: 5920 02c0 ed65 cebf 085a 11c0 e17f d8bf
000003e0: c3b7 28c0 1386 fcbf e797 10c0 3b3d f1bf
000003f0: f69b bdbf 0feb ddbf 1baf dfbf 21c3 febf

model.layers.block_0.norm.running_mean f4 [256]
-2.0881884 -2.8549137 -0.65294224 -1.6230121 -2.6010315 -1.9078153 -2.6196246 -1.1559108
-3.030146 -2.6878376 -3.2442558 -2.0441568 -3.004068 -1.5289596 -3.1731737 -3.3036702
-2.6942577 -2.264937 -2.4776824 -2.4387128 -1.1320357 -2.5399997 0.13325387 -1.7102921
-3.611617 -3.6255481 -2.0731428 -1.3625956 -2.5609932 -2.145279 -2.1923974 -3.0110066
-1.9926739 -3.3666797 -3.376037 -2.9650013 -2.0348177 -2.6629064 -0.89223987 -3.0239584
-1.1389229 -2.683716 -2.4336452 -1.5678529 -1.7412094 -1.0574318 -2.972991 -1.8501923
-2.5375452 -2.0404434 -0.45730188 -2.9200187 -3.1108823 -2.4156034 -1.7283485 -2.034861
-2.656597 -3.0144634 -2.4227629 -1.0545624 -0.46401685 -3.605162 -2.701126 -1.6989319
-3.719867 -0.68032414 -3.778178 -2.3968651 -2.6818116 -2.4504669 -3.1322422 -2.4195487
-2.0650134 -2.528871 -3.0092735 -3.1273825 -1.6566917 -1.6203505 -3.5211825 -3.451825
-1.4465482 -1.1539205 -2.4814167 -3.7703788 -2.418826 -0.57217693 -2.4572926 -0.58045244
-3.173093 -1.3920882 -3.2207103 -2.8312743 -2.679827 -3.398512 -2.8800304 -1.7260393
-1.7594951 -2.4544652 -3.0434015 -2.525622 -2.696909 -3.0610716 -3.677545 -0.7597918
-2.269518 -4.110765 -1.9606203 -3.2887888 -3.5624478 -2.645151 -2.075112 -2.737013
-3.6365602 -1.4314795 -1.5649776 -3.0223682 -3.02105 -2.7858045 -1.4372785 -0.8451388
-1.5692666 -2.397734 -0.91784316 -3.1911619 -1.7598405 -2.879071 -2.6964467 -1.7167178
-2.5760705 -1.3557812 -1.921972 -2.5546508 -2.0711744 -3.753336 -2.4246476 -2.5732272
-1.6806495 -1.6716729 -1.5679563 -2.809868 -0.9645217 -2.389072 -2.4579778 -0.90171355
-1.7812245 -2.8931637 -3.0036788 -1.9769728 -2.838884 -2.814899 -3.0812674 -3.1287198
-0.5751299 -2.1272125 -1.5721402 -3.4918668 -2.747771 -1.4161614 -2.291764 -2.1154695
-2.6696804 -0.9965051 -3.5418568 -3.721084 -3.1905148 -1.9345528 -0.27194366 -3.1987534
-2.9608474 -2.0869944 -2.9414454 -1.5983142 -2.00651 -2.1105485 -2.5124953 -2.522693
-1.7210653 -2.1548686 -2.4115055 -1.3192347 -3.2632701 -2.8159993 -3.5261571 -1.171884
-3.8411913 -2.5191927 -1.5896864 -2.125179 -2.1371129 -2.9487221 -2.659152 -0.9508867
-3.0455039 -2.4582918 -4.308821 -3.809498 -1.7333477 -3.7572188 -2.126431 -2.0118246
-1.2420694 2.2921088 -2.5436728 -1.6434655 -2.8809257 -2.3282614 -0.97003794 -3.581421
-1.0284933 -2.019379 -2.3607712 -2.117044 -3.1035447 -2.9413264 -2.1646714 -2.882444
-1.882596 -1.1581836 -2.9239197 -0.18383352 -3.044943 -2.5180743 -1.2867566 -1.7223836
-0.069431014 -1.5051837 -2.6935446 -1.4021235 -1.3534678 -1.9437598 -3.5826585 -2.0068486
-2.9847827 -0.8148053 -1.5549216 -2.7352655 -1.0300853 -1.9199222 -3.428137 -2.908207
-0.04622792 -2.161577 -0.9566033 -1.18217 -3.3047338 -2.18618 0.44924363 -2.720427
-3.8369365 -2.8260717 -3.3242788 -2.6161456 -1.8712832 -3.0474641 -1.8783711 -1.897999
00000000: e1a4 05c0 e8b6 36c0 3927 27bf dcbe cfbf
00000010: 4d77 26c0 4b33 f4bf eea7 27c0 e3f4 93bf
00000020: e9ed 41c0 8805 2cc0 e3a1 4fc0 77d3 02c0
00000030: a642 40c0 f3b4 c3bf 4715 4bc0 556f 53c0
00000040: b86e 2cc0 baf4 10c0 5992 1ec0 df13 1cc0
00000050: 8ce6 90bf 5b8f 22c0 b473 083e daea dabf
00000060: bc24 67c0 fb08 68c0 5fae 04c0 8869 aebf
00000070: 50e7 23c0 404c 09c0 3d50 0cc0 55b4 40c0
00000080: f00f ffbf ae77 57c0 fd10 58c0 95c2 3dc0
00000090: 743a 02c0 0f6d 2ac0 d569 64bf 8988 41c0
000000a0: 3ac8 91bf 01c2 2bc0 d8c0 1bc0 67af c8bf
000000b0: f3df debf ed59 87bf 7c45 3ec0 1ad3 ecbf
000000c0: 2467 22c0 a096 02c0 7923 eabe 96e1 3ac0
000000d0: b218 47c0 3f99 1ac0 863a ddbf 2a3b 02c0
000000e0: af05 2ac0 f8ec 40c0 8c0e 1bc0 e7fb 86bf
000000f0: 9e93 edbe f9ba 66c0 40df 2cc0 9a76 d9bf
00000100: 4d12 6ec0 b929 2ebf abcd 71c0 3d66 19c0
00000110: cda2 2bc0 73d4 1cc0 a876 48c0 e3d9 1ac0
00000120: 2e29 04c0 06d9 21c0 f097 40c0 0927 48c0
00000130: 790e d4bf a567 cfbf 0e5b 61c0 b3ea 5cc0
00000140: 7e28 b9bf abb3 93bf 88cf 1ec0 e34d 71c0
00000150: 0cce 1ac0 307a 12bf 4844 1dc0 8898 14bf
00000160: f513 4bc0 f22f b2bf 1e20 4ec0 9933 35c0
00000170: 4982 2bc0 3881 59c0 6b52 38c0 dbee dcbf
00000180: 2337 e1bf f515 1dc0 17c7 42c0 caa3 21c0
00000190: 289a 2cc0 99e8 43c0 e65c 6bc0 b781 42bf
000001a0: c83f 11c0 638b 83c0 9bf5 fabf 847b 52c0
000001b0: 25ff 63c0 274a 29c0 a3ce 04c0 392b 2fc0
000001c0: 67bd 68c0 b83a b7bf 3051 c8bf 7b6e 41c0
000001d0: e258 41c0 9f4a 32c0 bef8 b7bf 045b 58bf
000001e0: badd c8bf 7974 19c0 c5f7 6abf ff3b 4cc0
000001f0: 7442 e1bf b342 38c0 9592 2cc0 69bd dbbf
00000200: 57de 24c0 3d8a adbf 2e03 f6bf 667f 23c0
00000210: 1f8e 04c0 a836 70c0 6d2d 1bc0 c1af 24c0
00000220: 861f d7bf 61f9 d5bf cbb2 c8bf e1d4 33c0
00000230: e5ea 76bf 8ee6 18c0 824f 1dc0 b3d6 66bf
00000240: 2aff e3bf 9829 39c0 463c 40c0 720d fdbf
00000250: 47b0 35c0 4e27 34c0 7c33 45c0 f23c 48c0
00000260: b73b 13bf 4024 08c0 e43b c9bf bf7a 5fc0
00000270: 7bdb 2fc0 c744 b5bf 43ac 12c0 da63 07c0
00000280: 0bdc 2ac0 f51a 7fbf c8ad 62c0 3e26 6ec0
00000290: 6531 4cc0 6d9f f7bf 333c 8bbe 60b8 4cc0
000002a0: 867e 3dc0 5191 05c0 a440 3cc0 8f95 ccbf
000002b0: a96a 00c0 3a13 07c0 b9cc 20c0 cd73 21c0
000002c0: de4b dcbf 5ee9 09c0 1b56 1ac0 afdc a8bf
000002d0: 6bd9 50c0 5539 34c0 8fac 61c0 4b00 96bf
000002e0: 14d6 75c0 743a 21c0 d87a cbbf ef02 08c0
000002f0: 75c6 08c0 ddb7 3cc0 8c2f 2ac0 506d 73bf
00000300: 89e9 42c0 a754 1dc0 dde1 89c0 d1ce 73c0
00000310: 56de ddbf 4676 70c0 7217 08c0 bcc1 00c0
00000320: 21fc 9ebf e9b1 1240 89cb 22c0 145d d2bf
00000330: 1661 38c0 3c02 15c0 6854 78bf 0036 65c0
00000340: aba5 83bf 813d 01c0 e016 17c0 a67d 07c0
00000350: 7aa0 46c0 b13e 3cc0 fa89 0ac0 f679 38c0
00000360: e8f8 f0bf 5c3f 94bf 8021 3bc0 db3e 3cbe
00000370: 59e0 42c0 2128 21c0 71b4 a4bf 1177 dcbf
00000380: d931 8ebd dca9 c0bf 0963 2cc0 c878 b3bf
00000390: 6f3e adbf 1fcd f8bf 474a 65c0 3570 00c0
000003a0: ae06 3fc0 1597 50bf ac07 c7bf 970e 2fc0
000003b0: d6d9 83bf 03c0 f5bf 9966 5bc0 1020 3ac0
000003c0: 7d59 3dbd 4757 0ac0 f4e3 74bf 5951 97bf
000003d0: c280 53c0 60ea 0bc0 4303 e63e 7a1b 2ec0
000003e0: 5e90 75c0 5cde 34c0 fcc0 54c0 ee6e 27c0
000003f0: 3586 efbf a709 43c0 776e f0bf a2f1 f2bf

model.layers.block_0.norm.running_var f4 [256]
91.94182 96.53622 84.305046 86.371414 97.371605 103.68428 109.64489 93.8915
101.65225 95.82802 101.76018 92.04275 103.94412 91.18713 88.662125 100.14178
97.86576 96.88063 103.12579 94.26037 96.99656 93.83731 93.077644 98.873924
99.547424 104.44701 89.4106 92.808846 83.42544 94.20515 95.8704 102.35139
91.990135 99.38344 106.87942 106.157265 95.855606 89.73758 97.29841 108.397606
97.7464 98.189545 106.35006 99.73822 102.06788 92.043274 96.17732 94.824776
94.88004 87.769295 83.313736 112.84353 100.39093 94.691 93.97374 97.77735
103.2297 87.18002 96.8171 82.809425 77.60392 116.37504 106.45759 98.251526
105.55467 100.61836 101.06659 102.18801 91.118385 107.59939 97.35236 89.542725
92.767555 94.71229 100.4724 90.962814 84.4847 99.18768 116.54252 82.59123
99.45001 85.73224 100.253746 102.43125 96.1598 98.43885 95.63688 86.40328
97.28195 97.99429 99.16438 97.00439 90.042404 102.77209 88.95845 83.638855
98.52024 98.82157 82.7978 92.25459 93.94279 89.899155 110.30963 94.06768
86.80914 113.98314 94.04216 92.8337 113.47696 105.301125 88.13055 108.93393
94.96311 85.0643 88.60139 102.85735 103.78528 92.91781 90.379036 84.19768
86.86099 94.35597 95.358795 96.98357 108.11685 102.47652 97.977875 100.51395
103.25155 88.68116 95.874115 87.38094 90.868645 103.31573 101.606804 93.756065
100.649475 87.57671 90.704346 92.5952 99.40741 87.43553 97.06753 83.47324
97.47523 101.8277 103.31707 93.49739 97.682655 94.729324 99.05413 96.6358
101.709465 94.92205 90.416885 104.670044 85.20053 72.02448 109.38476 101.43103
96.36464 92.63983 117.143684 104.05015 96.6979 81.01756 83.5291 105.349266
88.46669 99.18281 103.34138 88.5543 85.35171 92.45086 98.79841 102.03212
86.48155 80.378685 93.511826 103.79565 102.59167 99.28654 89.123726 95.210236
102.46984 84.57078 85.01877 101.00309 83.668175 90.31106 99.5532 80.4772
95.77935 101.82213 106.350555 93.87073 88.68822 104.25493 106.78497 95.182594
82.857506 95.088844 105.95939 97.28593 94.74606 96.43972 85.87241 104.854034
107.27533 91.38108 92.54646 82.27754 99.67196 99.35729 97.06063 97.99263
107.88795 83.77698 98.3229 88.20987 97.43102 101.06588 90.586174 109.06302
107.95526 94.56923 97.0924 96.11275 95.557846 90.21039 98.59739 108.12408
93.47154 90.09472 87.37054 89.41119 93.37494 87.223564 93.64038 102.580635
89.90847 93.55655 77.120735 86.51019 95.75945 95.676125 97.15368 102.71256
99.46484 98.443634 95.92016 102.32376 87.48767 90.78746 86.15192 90.91626
00000000: 36e2 b742 8b12 c142 2f9c a842 2abe ac42
00000010: 43be c242 5a5e cf42 2f4a db42 73c8 bb42
00000020: f44d cb42 f2a7 bf42 3685 cb42 e315 b842
00000030: 64e3 cf42 d05f b642 0253 b142 9748 c842
00000040: 45bb c342 e2c2 c142 6840 ce42 4f85 bc42
00000050: 3dfe c142 b4ac bb42 c127 ba42 73bf c542
00000060: 4818 c742 dee4 d042 3ad2 b242 219e b942
00000070: d3d9 a642 0969 bc42 a5bd bf42 e9b3 cc42
00000080: f3fa b742 52c4 c642 43c2 d542 8550 d442
00000090: 12b6 bf42 a479 b342 c998 c242 93cb d842
000000a0: 287e c342 0c61 c442 3bb3 d442 f879 c742
000000b0: c122 cc42 2816 b842 ca5a c042 49a6 bd42
000000c0: 95c2 bd42 e189 af42 a2a0 a642 e3af e142
000000d0: 28c8 c842 cb61 bd42 8ef2 bb42 018e c342
000000e0: 9b75 ce42 2c5c ae42 5ba2 c142 6d9e a542
000000f0: 3535 9b42 05c0 e842 49ea d442 c880 c442
00000100: fe1b d342 9a3c c942 1822 ca42 4360 cc42
00000110: 9d3c b642 e332 d742 69b4 c242 e015 b342
00000120: fd88 b942 b16c bd42 def1 c842 f6ec b542
00000130: 2bf8 a842 1860 c642 c515 e942 b62e a542
00000140: 68e6 c642 e876 ab42 eb81 c842 cddc cc42
00000150: d151 c042 b1e0 c442 1546 bf42 7bce ac42
00000160: 5c90 c242 14fd c342 2a54 c642 3f02 c242
00000170: b615 b442 4f8b cd42 baea b142 1847 a742
00000180: 5d0a c542 a5a4 c542 7998 a542 5a82 b842
00000190: b5e2 bb42 5ecc b342 889e dc42 a722 bc42
000001a0: 489e ad42 5ef7 e342 9615 bc42 dbaa b942
000001b0: 34f4 e242 2d9a d242 d742 b042 2cde d942
000001c0: 1ded bd42 ec20 aa42 e933 b142 f7b6 cd42
000001d0: 1092 cf42 ebd5 b942 11c2 b442 3665 a842
000001e0: d4b8 ad42 42b6 bc42 b4b7 be42 96f7 c142
000001f0: d43b d842 faf3 cc42 acf4 c342 2407 c942
00000200: cb80 ce42 c15c b142 8cbf bf42 0bc3 ae42
00000210: bfbc b542 a7a1 ce42 af36 cb42 1b83 bb42
00000220: 884c c942 4727 af42 a068 b542 be30 b942
00000230: 98d0 c642 fede ae42 9322 c242 4df2 a642
00000240: 51f3 c242 c8a7 cb42 57a2 ce42 aafe ba42
00000250: 855d c342 6a75 bd42 b71b c642 8845 c142
00000260: 3f6b cb42 17d8 bd42 72d5 b442 1057 d142
00000270: ac66 aa42 890c 9042 ffc4 da42 b0dc ca42
00000280: b2ba c042 9847 b942 9149 ea42 ad19 d042
00000290: 5365 c142 fe08 a242 e60e a742 d3b2 d242
000002a0: f2ee b042 995d c642 c9ae ce42 cd1b b142
000002b0: 13b4 aa42 d7e6 b842 c998 c542 7210 cc42
000002c0: 8ef6 ac42 e3c1 a042 0e06 bb42 5f97 cf42
000002d0: ef2e cd42 b592 c642 593f b242 a46b be42
000002e0: 8ff0 cc42 3d24 a942 9c09 aa42 9501 ca42
000002f0: 1b56 a742 439f b442 3d1b c742 54f4 a042
00000300: 078f bf42 eea4 cb42 7cb3 d442 d0bd bb42
00000310: 5e60 b142 8682 d042 e891 d542 7d5d be42
00000320: 0bb7 a542 7d2d be42 35eb d342 6592 c242
00000330: fc7d bd42 23e1 c042 adbe ab42 44b5 d142
00000340: f88c d642 1dc3 b642 ca17 b942 1a8e a442
00000350: 0b58 c742 efb6 c642 0b1f c242 3afc c342
00000360: a1c6 d742 d08d a742 53a5 c442 746b b042
00000370: afdc c242 bb21 ca42 1f2c b542 4420 da42
00000380: 18e9 d742 7223 bd42 4f2f c242 ba39 c042
00000390: 9e1d bf42 b86b b442 dd31 c542 873f d842
000003a0: 6ef1 ba42 7f30 b442 b7bd ae42 87d2 b242
000003b0: f8bf ba42 7772 ae42 e047 bb42 4929 cd42
000003c0: 23d1 b342 f41c bb42 d13d 9a42 3805 ad42
000003d0: d784 bf42 2d5a bf42 af4e c242 d56c cd42
000003e0: 00ee c642 24e3 c442 1fd7 bf42 c4a5 cc42
000003f0: b0f9 ae42 2e93 b542 c84d ac42 20d5 b542

model.classifier.weight f4 [54, 256]
0.22664484 -0.92547065 -1.5217689 1.6655343 1.2263852 0.4429925 -0.23792267 1.7990143
0.44105327 0.6646326 -1.9947985 0.50401604 0.00813641 0.52091455 -2.0629127 0.36408588
0.3129733 -0.28141406 0.07160354 -0.5387988 -0.616715 -1.0125786 1.5642736 0.5902286
0.09785177 0.64584583 -0.019777691 -1.4032972 -1.9685612 -1.0669037 1.0003433 -0.25086674
-3.023088 0.25647715 -0.009594325 1.8069916 -0.83285874 0.5877724 1.5756503 1.8316185
0.17588454 -0.35839602 1.6657022 1.1970565 0.048584577 -1.0393896 1.305665 -0.49522355
1.1425598 -0.5667017 0.8687159 0.5755982 -2.1712685 0.9565144 0.45478463 -0.18816936
0.30151278 -0.78198147 -2.8434088 0.63538194 0.109536506 1.8821913 -1.0456916 -2.86618
0.7758208 0.7150676 1.5075514 -0.08283579 0.06912556 -1.0821842 -3.0478601 0.3533454
1.2584716 -0.229402 0.22408763 0.028258152 1.2229342 1.1186655 -0.14983599 0.16196248
-0.7247891 -0.36820576 0.21188073 1.2201557 -0.391318 -3.0748096 -1.7777239 -0.55009526
-0.53525007 -1.0457723 2.0014057 -0.98127896 -0.37507865 1.1092929 -2.8215253 -0.37380734
-0.18016006 -1.5771037 0.4382723 -0.5111481 -1.6137825 1.6799982 0.9744285 -0.51188433
-2.6102955 0.26767907 -1.6850922 -0.76602054 0.17057987 0.951907 1.3741324 0.3526316
1.3668063 0.0005596072 -0.13391602 -2.103506 -1.361653 1.0210654 -0.29246107 1.3237658
1.0718163 -2.1688523 0.69282925 -1.9472661 -1.6655053 0.78658897 -0.11782117 -1.8399174
0.28379136 1.513341 2.3350177 -2.2926955 0.23226582 -0.77169085 0.015442091 -1.5249406
0.037363317 0.96223885 1.4587933 0.53197914 0.15187074 -3.749607 -0.6841747 0.6331004
0.22542252 -1.0353123 -0.18408762 0.1958225 0.14926794 1.791759 1.8959379 0.8006519
0.27792862 1.64739 -0.014002142 0.7001728 -1.8222263 -1.6054491 -2.9062974 0.75013363
-0.9581031 -1.9454758 0.3332387 1.2183902 -0.21591865 -1.1625562 1.3550863 -0.47160602
0.20918153 1.3450083 -0.6227719 0.3239851 0.38330004 -0.8516806 -0.15253083 -1.4725509
0.34059924 -0.07266761 -0.86546075 -0.016232451 -0.20094503 0.25420535 1.1927334 0.6800866
1.7424011 0.5844653 -0.47002384 -0.2686952 -1.0995644 0.075521074 1.1382271 -0.21187873
1.7077719 -1.7192106 -2.6640172 -2.507421 -0.6249375 -2.2078009 0.82558703 0.5923245
0.652911 -0.007124783 -0.28142717 0.3383294 -0.37997305 -2.386655 -0.18786067 0.09696968
0.2512798 0.20216098 -0.4517209 -0.73116904 -1.0178292 0.37803942 0.45500204 -2.5074537
2.0317156 -0.27194196 0.56376433 0.30825984 0.16385445 -1.3134836 0.0008279901 1.5649763
0.6261987 -0.41504145 -2.0256424 0.4533653 -0.7093546 0.58387667 -0.36676228 1.034179
-0.99305993 1.3009104 0.4382941 -0.14390177 -0.3599144 0.400433 1.0677714 0.3008742
-0.41614652 -1.5102592 0.9043351 0.6961993 1.2382603 -0.36311844 1.361335 0.79939646
0.83885884 0.95331097 -1.2198625 -2.4226058 0.8212473 -0.27337718 0.96366066 0.5111287
00000000: 9615 683e a5eb 6cbf 53c9 c2bf 3a30 d53f
00000010: 31fa 9c3f eacf e23e 00a2 73be 1a46 e63f
00000020: bcd1 e13e 5d25 2a3f 8f55 ffbf 3207 013f
00000030: 944e 053c a85a 053f c306 04c0 7769 ba3e
00000040: 093e a03e 8115 90be e0a4 923d b8ee 09bf
00000050: 09e1 1dbf 2d9c 81bf 1e3a c83f 3919 173f
00000060: 8266 c83d 2756 253f d304 a2bc 3e9f b3bf
00000070: d0f9 fbbf 4d90 88bf 400b 803f 9b71 80be
00000080: 467a 41c0 f950 833e 8431 1dbc 804b e73f
00000090: 3b36 55bf 4178 163f e9ae c93f 7a72 ea3f
000000a0: 141b 343e af7f b7be bb35 d53f 2639 993f
000000b0: 9f00 473d b80a 85bf 0820 a73f f18d fdbe
000000c0: 663f 923f 5d13 11bf 2a64 5e3f 675a 133f
000000d0: 10f6 0ac0 21de 743f 88d9 e83e 78af 40be
000000e0: e25f 9a3e f02f 48bf 69fa 35c0 64a8 223f
000000f0: ad54 e03d a5eb f03f 39d9 85bf 7e6f 37c0
00000100: 319c 463f ac0e 373f 72f7 c03f d0a5 a9bd
00000110: b491 8d3d 0385 8abf 2410 43c0 b0e9 b43e
00000120: 9915 a13f 5ce8 6abe 3a77 653e a47d e73c
00000130: 1c89 9c3f 6e30 8f3f 9b6e 19be 7ed9 253e
00000140: c78b 39bf 7785 bcbe 43f7 583e 102e 9c3f
00000150: d55a c8be aec9 44c0 758c e3bf 0bd3 0cbf
00000160: 2606 09bf dedb 85bf 0817 0040 1935 7bbf
00000170: 4f0a c0be 4ffd 8d3f df93 34c0 ad63 bfbe
00000180: e17b 38be 89de c9bf 3a65 e03e 9ada 02bf
00000190: 6d90 cebf 2e0a d73f 2574 793f da0a 03bf
000001a0: 150f 27c0 3b0d 893e 1ab1 d7bf ec19 44bf
000001b0: 7dac 2e3e 2db0 733f 92e3 af3f 218c b43e
000001c0: 82f3 ae3f 9ab2 123a 4821 09be d89f 06c0
000001d0: a54a aebf 45b2 823f 75bd 95be 2871 a93f
000001e0: 4731 893f 7ace 0ac0 425d 313f 0440 f9bf
000001f0: 472f d5bf e55d 493f 3a4c f1bd 6a82 ebbf
00000200: 1a4d 913e 28b5 c13f ee70 1540 86bb 12c0
00000210: 17d7 6d3e 888d 45bf d300 7d3c 4131 c3bf
00000220: 470a 193d 4955 763f bdb9 ba3f c92f 083f
00000230: 0184 1b3e 90f9 6fc0 1326 2fbf de12 223f
00000240: 29d5 663e 1d85 84bf 7781 3cbe b285 483e
00000250: b2d9 183e 5c58 e53f 18ae f23f 86f7 4c3f
00000260: a94c 8e3e addd d23f 3d69 65bc 863e 333f
00000270: b63e e9bf 5b7f cdbf c700 3ac0 c208 403f
00000280: 3f46 75bf 5a05 f9bf 439e aa3e 36f4 9b3f
00000290: c719 5dbe a4ce 94bf 7873 ad3f 5876 f1be
000002a0: af33 563e 3b29 ac3f fb6d 1fbf 60e1 a53e
000002b0: e73f c43e bd07 5abf 0b31 1cbe 8c7c bcbf
000002c0: 0663 ae3e c2d2 94bd d68e 5dbf ebf9 84bc
000002d0: 89c4 4dbe 3427 823e 7dab 983f 281a 2e3f
000002e0: 0007 df3f 859f 153f f7a6 f0be 6b92 89be
000002f0: 87be 8cbf cbaa 9a3d 6db1 913f bdf6 58be
00000300: 4598 da3f 180f dcbf 427f 2ac0 9679 20c0
00000310: e7fb 1fbf 9c4c 0dc0 ac59 533f 94a2 173f
00000320: 2d25 273f 0377 e9bb 3917 90be 8339 ad3e
00000330: d48b c2be f5be 18c0 8c5e 40be 0a98 c63d
00000340: bfa7 803e 4a03 4f3e f647 e7be e52d 3bbf
00000350: 3a48 82bf 628e c13e 07f6 e83e 1f7a 20c0
00000360: a107 0240 fa3b 8bbe dc52 103f 3cd4 9d3e
00000370: 76c9 273e 3b20 a8bf 7a0d 593a 2551 c83f
00000380: 8f4e 203f 5080 d4be 20a4 01c0 7f1f e83e
00000390: 4398 35bf f178 153f 44c8 bbbe fa5f 843f
000003a0: 2d39 7ebf 3b84 a63f 1668 e03e fc5a 13be
000003b0: b346 b8be 8e05 cd3e bcac 883f 2f0c 9a3e
000003c0: 2811 d5be 2c50 c1bf 8182 673f 1e3a 323f
000003d0: 507f 9e3f a9ea b9be 3a40 ae3f 3fa5 4c3f
000003e0: 74bf 563f 300c 743f 7424 9cbf f90b 1bc0
000003f0: 433d 523f 18f8 8bbe 77b2 763f 55d9 023f

model.classifier.bias f4 [54]
0.5978044 0.298184 -0.30147034 0.034741312 -0.04976652 -0.17713547 0.64792055 -0.3301322
-0.62706506 0.04002996 1.069072 -0.54970646 0.025625786 0.46073955 -0.26580077 0.3467893
-0.005874349 -0.9215136 0.120335504 0.021579416 0.46691877 0.43535802 -0.68200207 0.40109578
0.23545131 -0.98363936 0.03376208 -0.75034845 0.15515305 -0.23125643 -0.1734996 0.9318946
-1.1197978 -0.54995066 0.15894115 -0.8848574 0.42507017 -0.15141146 -0.0037807 0.054307308
-0.18163225 0.72103417 -0.48703668 -0.05534253 0.25316623 0.6515843 -0.5036647 0.078096636
0.020518146 -0.40165097 -0.07112613 0.29006827 -0.8885734 -0.017446436
00000000: b609 193f 93ab 983e 525a 9abe e84c 0e3d
00000010: fad7 4bbd 0063 35be 1fde 253f 1607 a9be
00000020: 5687 20bf 75f6 233d 5ad7 883f 90b9 0cbf
00000030: 2bed d13c 0ee6 eb3e 0a17 88be 5e8e b13e
00000040: 9c7d c0bb 51e8 6bbf 7672 f63d 51c7 b03c
00000050: fa0f ef3e 3fe7 de3e b097 2ebf 6d5c cd3e
00000060: 261a 713e cacf 7bbf 1b4a 0a3d d616 40bf
00000070: 71e0 1e3e 7cce 6cbe e1a9 31be a590 6e3f
00000080: 8955 8fbf 91c9 0cbf 78c1 223e 0486 62bf
00000090: cca2 d93e 9b0b 1bbe 9fc5 77bb 5771 5e3d
000000a0: cefd 39be b295 383f df5c f9be d9ae 62bd
000000b0: 019f 813e 3bce 263f 2bf0 00bf 21f1 9f3d
000000c0: ac15 a83c 32a5 cdbe 94aa 91bd d483 943e
000000d0: 8c79 63bf d4eb 8ebc
