mlp/experiments/basic_mlp/runs/2024-05-19-12-03-38/checkpoints/epoch-005_0.725612.ckpt (torch, 141508 bytes, 7 tensors)

model.embedding.weight f4 [711, 32]
00000000: 6c00 e2bc cbe1 a6bf 934c 12c0 b4f6 083e
00000010: 4063 52bd 9dbf e93e f54f 89bc d1a2 25c0
00000020: 8f3f 39be 73eb 393e 7b89 5f3e bfea 83bf
00000030: 0549 ec3e 3895 643e 17ed 46bf 520e 9ebf
00000040: 0d33 2abf 5e2c 32bf 959c c73f 9a10 763e
00000050: 3d78 10c0 4929 953f b332 8dbe 7d35 663f
00000060: 05d1 483f 6c43 66bf cbd3 65bf f5a4 f7be
00000070: 09ce eebf 79c9 7c3e aa60 3b3f edea a1bf
00000080: e521 31be f7b7 a3bf 3b40 6bbf ae95 57bf
00000090: 4545 99be 3daa b53f b68d b43d e786 b9bd
000000a0: c990 ea3e cc20 943f aecd 4f3f e0c2 41bf
000000b0: 7791 9fbf 2517 433f bbec aa3c 5ca7 203f
000000c0: 88b2 0ebe 883d a3be 98e4 8a3e 1509 80be
000000d0: 3928 bc3f 6b13 2bbf 0c4a ab3f 24de 7abf
000000e0: f660 73bf 9773 e0be 9838 a83e 6fa5 1ebf
000000f0: 81b6 fabf 75ec b3bf ea5b 8dbe 3222 a9bf
00000100: b129 b5be df89 8f3f 1a4d f73d 33fa 50bf
00000110: 9b3e 16c0 05a1 89be b5c5 c43f 658b 123e
00000120: 2310 043f d843 50bf ee2f 6d3f eb5c c53e
00000130: 8c0a 693d e5ec 233f 62b2 43bf 80e7 1abf
00000140: 521a 0b3f 67bf 28bf 8500 0ebf 3649 ba3e
00000150: 2066 523d 55d3 82bf fbc0 a63e 698c b33c
00000160: c922 4a3f cf56 553f 7042 5dbe 7d79 303f
00000170: b434 eabd 7568 bc3f cade cc3e e1c9 7fbf
00000180: e89e 4c3e 08e8 cebe 777d 12be bef0 733e
00000190: 5a93 22be 95ac d63c 49d4 383f 76f0 313f
000001a0: eef4 fa3d 20ed d6be 5f56 f83d 8431 153e
000001b0: 76d4 c83f dfdf aebe 3f47 fd3d d137 0140
000001c0: 88c2 353f a4e5 933f e658 86bf 05d9 2cbf
000001d0: c2f2 8f3e e509 9ebf dee5 5fbf 5df3 af3e
000001e0: 02de 85bf a106 1ebf 6f8f ba3e c531 9c3f
000001f0: 0a4a 973f fe1a a9bf efd8 72bf affb 45bf
00000200: 20b7 e5be 45ee ac3c 3806 223f 1ef4 4e3f
00000210: 0de2 823e 15bd b03e a9ac c63f 11aa a8bf
00000220: 2574 d1be 51fe 983e b190 1dbf 706c cb3f
00000230: a54a 2dc0 70bb 8fbf 087d d53f 7c54 b73c
00000240: 4589 38bf 66dc 9b3e 3267 04c0 c767 453e
00000250: 5c0a e8bd 85f0 4fbe ba4d d73f e482 2740
00000260: 2c17 893e 1d7e d43e d07a 8d3f 967c 3cbe
00000270: 4523 c13c 177f fbbe 8947 da3e 7f52 e23f
00000280: b768 dbbf 13b9 0b3f 4681 2a3d f308 be3e
00000290: 927d a43f 3535 053f c054 563f 438a f03f
000002a0: e5dc 90bb 587f 363e 4281 0cbf 8752 743f
000002b0: 12b3 ba3e 91f6 d0be f0ec 22bf 2919 09be
000002c0: 9a44 d4be db05 2740 2b25 1e3f 49dd e23f
000002d0: cf0f c93f 20c9 da3f 4c8b 8a3e 7a3b 06c0
000002e0: ca37 d93f cdfd d6be 2f89 463f 201a a03f
000002f0: e29c 47bf c264 f53f c5b5 34bf a0c5 abbf
00000300: 3c91 98bf 37dc 4d3f c01c d8bf 37ef 11bf
00000310: b463 ac3e 4575 033e e24c 0540 4160 afbe
00000320: 0189 10bf 5cd2 413f 51eb 22bf 095a 95bd
00000330: b781 f73d 49e2 703e 01da 983f 3f89 213f
00000340: e4c5 7abf d0ed 133f 64af 8a3f fc4a dc3d
00000350: ee6a df3f d580 933f 3923 8ebf e91e d3bc
00000360: 51aa dabf 59ae 553f 26d5 5a3d 05c2 7fbf
00000370: 70eb ebbe 6348 bc3d ab5c 2e3f 683f 0f3e
00000380: 70b2 373e f107 dcbd 136c f03e d03c e1be
00000390: 2d85 71bf 2b67 363e b521 a0be 26a3 33bf
000003a0: bf57 9d3f 58eb 6dbf c426 cabf bc48 443f
000003b0: b751 e5bf edfa b5bf c0a7 76bf c687 88bf
000003c0: d30e c93f 416e b0be 6568 95bf 8723 883f
000003d0: e709 3d3c 7471 c43f e4c2 2c40 e4e3 03bf
000003e0: cbfa 893f 2629 933f 4a30 733e 4993 b1be
000003f0: dc77 4bbf e682 d23e 3761 8fbe 64b8 ee3f
-0.027588092 -1.3037657 -2.2859237 0.1337536 -0.051364183 0.45654002 -0.01676176 -2.5880625
-0.18090652 0.18156223 0.21829788 -1.0306014 0.4614946 0.22322547 -0.7770552 -1.234812
-0.6648415 -0.6959895 1.559466 0.2402977 -2.2573388 1.1653224 -0.27577743 0.89925367
0.7844394 -0.8994663 -0.89776295 -0.4836804 -1.8656627 0.2468623 0.7319437 -1.2649819
-0.17298086 -1.2790517 -0.9189488 -0.8421277 -0.2993566 1.4192578 0.08816092 -0.09058934
0.45813587 1.1572509 0.8117322 -0.7568798 -1.2466267 0.7620719 0.020864835 0.6275537
-0.13935292 -0.31882882 0.27127528 -0.2500693 1.4699775 -0.66826504 1.3381972 -0.9799521
-0.95069826 -0.43838188 0.32855678 -0.6197118 -1.9586946 -1.4056536 -0.27609187 -1.321356
-0.3538337 1.121395 0.12075253 -0.81631774 -2.3475711 -0.2688066 1.5372835 0.14310987
0.5158712 -0.8135352 0.9265126 0.38547453 0.056894824 0.6403335 -0.76444066 -0.6050949
0.54337037 -0.65917057 -0.5546954 0.3638398 0.051366925 -1.0220743 0.32569107 0.021917539
0.7895933 0.83335584 -0.21607375 0.68935376 -0.114358336 1.4719378 0.40013725 -0.9991742
0.19982493 -0.404114 -0.14305674 0.23822305 -0.15876523 0.02620534 0.7219892 0.6950754
0.12253748 -0.41977787 0.12125849 0.1456967 1.5689838 -0.34155175 0.12367105 2.0190318
0.70999956 1.1554456 -1.049588 -0.67518646 0.28114897 -1.234677 -0.87460124 0.3436536
-1.0458376 -0.61728865 0.36437556 1.2202688 1.181947 -1.3211362 -0.94862264 -0.77337164
-0.44866276 0.02110971 0.6329074 0.80841243 0.25563088 0.34519258 1.5521442 -1.31769
-0.40908924 0.29881528 -0.61548907 1.5892467 -2.707681 -1.1229076 1.6678782 0.022379152
-0.72084457 0.30441588 -2.0687985 0.19277869 -0.11330101 -0.20306595 1.6820595 2.617364
0.2677549 0.41502467 1.1053104 -0.18406901 0.023576388 -0.491204 0.42632702 1.7681426
-1.7141331 0.54579276 0.04162719 0.37116203 1.2850821 0.5203431 0.8372307 1.8792194
-0.004420864 0.17822015 -0.5488473 0.95438427 0.36464745 -0.40813115 -0.6364279 -0.13388504
-0.4145859 2.6097324 0.61775464 1.7723781 1.5707949 1.7092628 0.270594 -2.0973802
1.697015 -0.4199051 0.77553076 1.2507973 -0.7797376 1.9171374 -0.7058986 -1.3419685
-1.1919322 0.80414146 -1.6883774 -0.5700564 0.33669817 0.12837704 2.0828176 -0.34253123
-0.5645905 0.7571161 -0.63640314 -0.072925635 0.12085288 0.23523821 1.194153 0.63100046
-0.9795821 0.5778475 1.0834775 0.1075649 1.7454507 1.1523691 -1.1104499 -0.025771575
-1.7083226 0.8346916 0.05342593 -0.99905425 -0.46078062 0.09193494 0.6811015 0.13989031
0.17939162 -0.10743702 0.46957454 -0.4399171 -0.94343835 0.17812793 -0.31275716 -0.7017082
1.2292403 -0.9293723 -1.579308 0.76673484 -1.7915562 -1.4217201 -0.96349716 -1.0666435
1.5707649 -0.34459117 -1.1672484 1.0635842 0.011538005 1.5347123 2.6993952 -0.5151961
1.0779661 1.1496933 0.2374889 -0.34682682 -0.79479766 0.41115493 -0.28003857 1.8650022

model.layers.block_0.linear.weight f4 [128, 32]
00000000: 65a6 d7be b430 ca3d 0fbe 0cbe 2cbe 223c
00000010: 2da6 253f 2be7 983e 1e3f b1be 066c 403d
00000020: 5476 6fbe 8608 83be 64d0 223d b9dc 1f3d
00000030: 09c4 4bbf 7457 be3d 59f1 803e 8221 89be
00000040: 805e a33d 0110 c1bd 0b04 833e 1114 b33d
00000050: 1c12 e2be 5237 ac3e 76e3 94bd 6705 babc
00000060: ceb6 68be ba8e bf3e 0e7d 3c3e 1cfd cbbe
00000070: e1d1 50be 7e21 7f3d 346e 9b3e 3efa 543e
00000080: 6d23 743d 2e07 ccbc 1b0f 87bd ea09 e33d
00000090: 2164 183f 1291 033f 6639 0abf e2fc dabe
000000a0: 3bc3 a0be 8896 febe fe06 e0be de30 583e
000000b0: 6876 5bbf 4271 153f 9c86 af3e 209b 203e
000000c0: 8021 f53e cd1d 993c 5b8a 503e f7d7 ff3e
000000d0: 263f 34bf 3715 9c3e 14a4 0b3e 01af ccbe
000000e0: 4d72 ddbd ea7a ddbd 03bc c3bd dd3e 2f3d
000000f0: 148a b0be 98cf 643d 8f0c 983e f80a 823d
00000100: 2fb7 18bc 2614 ad3c b958 30bf 2245 9d3f
00000110: 1c32 d6be 38ac 9e3e cac4 f63e 118d 033f
00000120: 4787 4e3c 583b 043f 3fd2 573e b452 a43e
00000130: 66f2 a4be e848 d8be 6d4c 163f 03ef 79be
00000140: e6c6 38bf b38a 8d3e 8eb7 1ebe b6f5 b4be
00000150: cb7e cb3e 0d37 893c 2589 f93e 9894 753e
00000160: 5a77 67bf 673b a93d f25b c33d c665 143f
00000170: ae58 34be 29a4 b03c fd40 e2be 3689 0b3e
00000180: 8b6d 113e 41a2 03bf 8c9f 7c3e be5c fd3a
00000190: fca7 c7be 9dc3 b4be 2753 9a3d 8a17 a0be
000001a0: 2208 bf3c d02e 273e 8f2d 053d 26cb d83e
000001b0: 264f 67bd 6a7d 0d3f 6fe3 11be 244e 743e
000001c0: 75fd 813e 3116 2fbf ddb5 79bf 1224 5cbe
000001d0: 94e9 ccbe 9633 d83d a29d a73e 4791 04bf
000001e0: 730f 6abb 80ab 07be f135 c93c 9ad5 91be
000001f0: 4e77 6c3d f61f 2fbe 3317 f83d ea36 56be
00000200: 1645 90bd c03f 43bd 7524 56be b9e8 82be
00000210: 16c3 243e 254c 28bd be74 a5be d027 45bd
00000220: 1841 a6be 9e73 9abe 6190 09be 3ea1 f4bd
00000230: 3f10 43be ad33 1b3f 394a f43e f2fb 88be
00000240: 069e 28be 1ace 15be 63a3 ebbd 74f2 cdbe
00000250: 9968 2ebd 533f 803e 49ca 25be 9500 a0bd
00000260: fc6c a7be b876 e83c d50e a7be db95 06bf
00000270: 4035 323e 2e4f b2be 7875 14be f141 c3bd
00000280: 7224 043f 6241 fb3e 083f ba3d b528 c5be
00000290: 5deb 96be 6d0e b2be c5da b73e b0a9 8abe
000002a0: d233 5fbe dc53 383d d13d 28bf 71eb a6bd
000002b0: 3b20 143e 41ba a0be 58e2 2b3c 12c2 193f
000002c0: e92a 9dbf a88e 49bc 4d12 03bf 1c0c e5be
000002d0: 7986 403f 873e 513f ec19 c43e e133 d03e
000002e0: 51cb e23e daa4 6e3f cae5 be3e 76e2 523e
000002f0: 440b ffbd 2f2f 843e 9a37 263e caaa 2fbe
00000300: 20ae ac3e a2d3 5c3e 7ed9 b3bc 6be8 62be
00000310: 7b6d 85be cee1 503e 4d4a adbe 191f 1b3f
00000320: bb47 c63e 0cde 7bbe 323b 35be aa38 c8bd
00000330: 1347 2e3f 3c76 85be d93c 3ebf 9afe febe
00000340: 99c2 ab3d 30bd 8a3e 3a24 c73e d747 7cbc
00000350: ff23 31bf 72de 3b3f eeb5 71bf 39fe 913e
00000360: 5007 4c3e 92bd 333f be41 15bf c1f9 1c3f
00000370: 6b9d 55be b801 b53e f533 c03e f1c7 2fbf
00000380: ffbd e9bc 3797 fdbd cd4a 413f c29b 0bbc
00000390: 5eab 84be 5e37 073f 8265 c33e f8f8 983f
000003a0: e789 0d3f 270f 013f 1ad5 3f3e c59a 3a3d
000003b0: 6363 763f db7e 813c 1dc9 e83e 69df 153f
000003c0: e421 923e fc20 68be 0f0f 7cbf cc78 2b3f
000003d0: 62e1 3ebf 28bb 8bbe 9bd3 79bf acc5 703e
000003e0: 70f3 863e ea3a 6c3f c245 6cbf d4c6 67be
000003f0: 4ae9 7ebe ae6a 823e ed9e e63d b821 2dbe
-0.42119136 0.09872571 -0.13744377 0.009933036 0.6470669 0.29863867 -0.34618467 0.04697802
-0.23384982 -0.2559244 0.039749518 0.039028857 -0.79596 0.09294024 0.25184134 -0.26783377
0.07977009 -0.09426881 0.25589022 0.08744062 -0.4415444 0.33635956 -0.07269947 -0.022707654
-0.22725984 0.3741358 0.1840708 -0.39841545 -0.20392562 0.0622878 0.30357516 0.20798585
0.059604097 -0.024905767 -0.06594678 0.11085875 0.59527785 0.51393235 -0.53993833 -0.4277106
-0.3139895 -0.4972422 -0.43755335 0.21112391 -0.8572755 0.5837594 0.34282386 0.15684175
0.4787712 0.018690968 0.20365278 0.49969456 -0.70408857 0.30484936 0.1363681 -0.39977267
-0.10812817 -0.108144596 -0.09557345 0.04278456 -0.34480345 0.05586204 0.2969708 0.063497484
-0.009321018 0.021127772 -0.6888538 1.2286723 -0.41835105 0.30990767 0.48197013 0.51387125
0.012605495 0.5165305 0.21076296 0.32094347 -0.32216185 -0.42243123 0.58710366 -0.24407582
-0.72178495 0.27644882 -0.15499708 -0.35343713 0.39745173 0.016749883 0.48737445 0.23982465
-0.9041649 0.08263283 0.095390216 0.57967794 -0.17611954 0.021562653 -0.44190207 0.1362656
0.14201944 -0.51419455 0.24670237 0.0019330007 -0.3899535 -0.3530549 0.07535391 -0.3126796
0.023319308 0.16326451 0.03251415 0.4234249 -0.056471966 0.5526949 -0.14246915 0.23857933
0.25388685 -0.68393236 -0.97543126 -0.21498135 -0.40021956 0.10556714 0.32737452 -0.51784176
-0.0035714775 -0.13249016 0.024561854 -0.28483278 0.057730965 -0.17102036 0.121138 -0.20919386
-0.07044427 -0.04766822 -0.20912345 -0.25568178 0.16090044 -0.041088242 -0.3231563 -0.04813367
-0.32471538 -0.30166334 -0.13433982 -0.11944817 -0.19049166 0.60625726 0.47712877 -0.2675472
-0.16466531 -0.14629403 -0.11505773 -0.4022404 -0.04258022 0.25048313 -0.16190447 -0.07812611
-0.32700336 0.028376922 -0.32628503 -0.5257241 0.17403126 -0.34826034 -0.14497936 -0.09534062
0.5161811 0.4907332 0.090940535 -0.3850762 -0.29476443 -0.3477663 0.35909095 -0.27082586
-0.21797112 0.04500185 -0.65719324 -0.08150376 0.1446542 -0.313921 0.010490976 0.6006175
-1.227872 -0.012302078 -0.511998 -0.447358 0.7520519 0.81736034 0.38301027 0.4066458
0.44295743 0.93220294 0.3728469 0.205942 -0.124533206 0.25817248 0.16232148 -0.17154995
0.33726597 0.21565107 -0.021954294 -0.22158973 -0.2606009 0.20398638 -0.3384575 0.60594326
0.387266 -0.24596423 -0.17698362 -0.09776433 0.680772 -0.26066768 -0.74311596 -0.4980362
0.08386726 0.27097464 0.38894826 -0.015397987 -0.6919555 0.733863 -0.9441823 0.2851427
0.19924664 0.70211136 -0.5830344 0.61318594 -0.20860831 0.35352874 0.3753964 -0.6866446
-0.02853298 -0.123823576 0.7550476 -0.008521022 -0.25911993 0.5281886 0.38163382 1.1950979
0.5528855 0.50413746 0.18733636 0.045557756 0.962454 0.01580756 0.45465937 0.5854402
0.28541481 -0.22668833 -0.9846048 0.66981196 -0.74562657 -0.27291226 -0.9758851 0.23512906
0.26357603 0.92277396 -0.9229394 -0.2263444 -0.2489368 0.25472015 0.112607814 -0.16907394

model.layers.block_0.linear.bias f4 [128]
00000000: 1096 0b3e d4d8 033f 5102 10bd 3e40 eebe
00000010: dcc9 ca3d dc75 8bbd ab4d 03bd 6a20 5a3d
00000020: 3518 1cbd a0e8 c8bc cbdd b7bd 54f7 96ba
00000030: 57da 253c cbb3 9a3c 2d28 c1bd 0073 adbc
00000040: 7e5d a23f e838 33be 918a cf3e 4e4e 063f
00000050: b5d6 963f 6956 3d3e 722e 90be 26b3 233f
00000060: 6b87 a33c b3c1 16bd 40ac f83b 5b9d 2a3f
00000070: 179a ffbb 4e0d 06bd db23 153d 7ef3 163f
00000080: e69d 273c f04d 82bc 1191 f2bc 818a 723b
00000090: 8087 f43c d3ef 853d 9b1c 423e 240a 933f
000000a0: 4904 08bd c89a 9cbd 43bd 2a3d 2cff e03b
000000b0: 8860 853f 993c 2dbd ba91 233f 2b38 2dbd
000000c0: 6860 ccbd 0ee8 36bc 1bee 7fbd f377 db3e
000000d0: f0c8 3d3d d2a2 2b3d 55c0 973d 13de 60bd
000000e0: a376 e0bc 8db8 43bd 28d9 a43f 2d71 a13c
000000f0: 27f0 a73c 213e 173f bc87 3e3d 2631 ffbd
00000100: ea19 bfbd 9232 20bc 506c 553f afcc d73c
00000110: 8db6 6fbb 3b6f bb3f 9afb ea3e 57d9 06be
00000120: db14 893e a11e 5a3f d043 8b3f 2f97 0a3f
00000130: ad61 903b 2b85 77be ae92 ce3b b6a8 333f
00000140: f46d 6ab9 0326 623c db0e b83e 560d 983a
00000150: d488 573f d698 7e3d 8eb7 a6bc 8d72 80bc
00000160: e160 89bc 5222 30be f464 073f b9c3 b5bd
00000170: 0006 5bbd 1f1d ccbd 3404 b8bd aab2 00bd
00000180: 71b1 5c3d 2450 033d 63a3 08be 0504 cbbd
00000190: ecc0 f03a 7f8a 6abc 0c80 2b3f 952d b8be
000001a0: 7b52 813d 7573 9dbe 8830 8cbc b8d5 d73c
000001b0: 96bf e03c cc00 e7bd 51c8 f7ba 8f25 90bd
000001c0: ef3e fabb 71fb 903c e0d6 3b3e 8e26 9ebc
000001d0: 0e60 5d3e c708 173f 293f 93be 55a6 b0bc
000001e0: bb30 763c 5000 2bbe 765e b7bc 8372 2e3c
000001f0: b071 8d3c 8a63 183f ce79 d2bc 8e24 ca3c
0.13631463 0.5150273 -0.03515846 -0.46533388 0.09901783 -0.06809589 -0.03205649 0.05325357
-0.038109023 -0.024524987 -0.089778505 -0.0011517801 0.010122857 0.01888456 -0.09431491 -0.021173
1.2684782 -0.17502177 0.40535405 0.52463233 1.1784273 0.18489994 -0.28160435 0.63945234
0.019962033 -0.03680582 0.007588893 0.66646355 -0.0078003514 -0.032727532 0.036411148 0.5896529
0.010230517 -0.015906304 -0.029610189 0.0037008824 0.029849768 0.065398835 0.18956225 1.148747
-0.03320721 -0.0764671 0.0416844 0.0068663564 1.0420084 -0.04229412 0.63894236 -0.042289894
-0.099793255 -0.011163725 -0.062482934 0.42864951 0.046334207 0.041903324 0.07409731 -0.054899286
-0.02740032 -0.047783423 1.2878771 0.019707287 0.020500256 0.59079176 0.046516165 -0.12460546
-0.093311146 -0.009777682 0.83368397 0.026342718 -0.0036577315 1.464332 0.45895082 -0.13168846
0.26773724 0.85202986 1.088007 0.5413694 0.004406175 -0.24171893 0.0063041067 0.7017931
-0.0002235694 0.013803008 0.35948834 0.0011600654 0.8419316 0.062157474 -0.020351198 -0.015679622
-0.016769828 -0.17200592 0.5288842 -0.08875222 -0.05347252 -0.09966492 -0.08985177 -0.031420387
0.05388016 0.03205885 -0.13343577 -0.09912876 0.0018368042 -0.014315247 0.6699226 -0.35972276
0.0631456 -0.3075215 -0.017112985 0.026347026 0.027435105 -0.11279449 -0.0018904303 -0.07038414
-0.007636897 0.017698022 0.18343687 -0.019305494 0.21618673 0.5899777 -0.28759125 -0.021563688
0.015026267 -0.16699338 -0.02238391 0.010647419 0.017266124 0.59526885 -0.025692847 0.024675634

model.layers.block_0.norm.weight f4 [128]
00000000: 892e bc3f af84 e83e e9bb d840 cbe4 8340
00000010: 1c4f e03f 4ecb d140 594e 6d40 a221 9540
00000020: dca0 cb40 826d 3e40 d913 4040 11ee 7640
00000030: 51ce 2540 d4de 8a40 8d81 b640 a00b 3f40
00000040: fd8c 843e 046f a140 a8f5 293f 3624 b53e
00000050: fc18 8b3e e4d7 2a3f a1d6 c340 e814 a93e
00000060: 4c27 7a40 61b4 6a40 c78f 8d40 96af 1b3f
00000070: b74b 1b40 9daf b840 05ff 5a40 9862 163f
00000080: 7288 2940 a9c7 6940 61fe c640 690c 9040
00000090: 7af8 8340 b7e1 5940 bff3 253f ce1c d53e
000000a0: 6d7b d740 e4f5 ce40 bb4d 5640 a555 4040
000000b0: 0092 a03e 3034 ec40 05b6 a83e 6050 b040
000000c0: ef4b 9040 224c 3240 8bed be40 f3c1 f43e
000000d0: 54a2 2a40 72a2 d33f 9cd3 dd3f 92f4 e640
000000e0: 6b00 4240 73ff d940 13da a03e 4b7a 2f40
000000f0: ef86 d740 6c60 e33e 7681 da3f 284e c840
00000100: bb87 3f40 f394 5d40 9c41 ef3e 84d2 7140
00000110: 4c0b 9b40 40a8 903e cd5e b83e b274 5340
00000120: cd31 0d3f bbab f83e 7123 d03e 73b7 003f
00000130: 6945 ab40 68a2 1a40 434f b740 f4cf ec3e
00000140: 6ace b840 555e 3d40 542e ed3e 8084 a740
00000150: 02bf ab3e b540 e040 171c 9540 1689 1041
00000160: 797e 2040 2971 a640 9748 4a3f 0eee 8340
00000170: d8d2 8a40 856d 9840 0442 c940 a486 d340
00000180: 7485 3b40 04ce e340 e61e 9d40 fbb8 d840
00000190: 064d 8640 9153 4a40 0db6 6e3e 2afb b240
000001a0: b69c 9540 cf3c 8e40 50df 9a40 959f a740
000001b0: 0eb9 3040 92a8 be40 1b89 2e40 cae7 c140
000001c0: bfc8 be40 6f2b bf40 e407 ba3f ddb3 8640
000001d0: 19e8 193f fdfc ec3e 5357 cd40 a641 7540
000001e0: b153 9d40 c03a be40 2bd7 3140 d2c7 6f40
000001f0: acdb 3240 4eb3 d33e 492e 5740 6571 1d40
1.4701701 0.4541373 6.7729383 4.121679 1.7524142 6.5560675 3.707907 4.6603556
6.363386 2.9754338 3.0012114 3.8582804 2.5907176 4.3397007 5.7033143 2.9850845
0.25888816 5.0448017 0.66390467 0.3537919 0.271675 0.6673567 6.11995 0.33023763
3.9086485 3.6672595 4.423801 0.608148 2.4264963 5.771437 3.4218152 0.5874419
2.648953 3.6528113 6.218552 4.501515 4.1240816 3.4044015 0.6482505 0.4162354
6.7338166 6.467516 3.3484943 3.0052273 0.3136139 7.3813705 0.3295137 5.5098114
4.509269 2.7858968 5.966497 0.47804222 2.6661577 1.6533949 1.7330203 7.217355
3.0312755 6.812433 0.31416377 2.7418392 6.7352214 0.44409502 1.7070758 6.2595406
2.9926593 3.4622161 0.46729743 3.7784739 4.845129 0.28253365 0.36009827 3.3039975
0.55154115 0.4856852 0.4065204 0.5027992 5.352223 2.4161625 5.7284255 0.46252406
5.775197 2.9588826 0.46324408 5.2349243 0.33544165 7.007899 4.659679 9.033468
2.5077193 5.2013135 0.79017013 4.1228094 4.338238 4.763369 6.2893085 6.6101856
2.9300203 7.1188984 4.910022 6.7725806 4.1969023 3.1613505 0.23311634 5.5931597
4.6753798 4.444923 4.83976 5.23823 2.7612948 5.9580774 2.7271183 6.0595446
5.962005 5.974052 1.4533658 4.209456 0.6011978 0.46286765 6.4169097 3.8321319
4.916466 5.9446716 2.7787578 3.746571 2.7946577 0.41347736 3.3622 2.460046

model.layers.block_0.norm.bias f4 [128]
00000000: 8443 a0be 251e adbe 1975 cc3f 4ec0 c03f
00000010: b1ca 193e 6946 ef3f 8b34 9d3f 1e9e 6d3f
00000020: b4a7 9e3f 3372 633f ed20 433f 3acb 633f
00000030: ceec 213f 085e 823f 6f98 b33f 8469 693f
00000040: 775b 1dbf e577 f33f c67c c1be e31e f1be
00000050: fd99 2cbf fe80 ccbe 04d2 0140 2bc6 09bf
00000060: 38f0 183f 9ff8 043f 54f8 5c3f 23ff cebe
00000070: 160f f33e baaa d03f ca34 363f f077 c4be
00000080: 327f 373f 5920 963f 2ce5 0d40 7c60 423f
00000090: f3bc 8b3f 16ba 0c3f 2789 afbe 3676 03bf
000000a0: 472f d13f 8a13 0940 c701 333f de1c 1b3f
000000b0: 427a 20bf 8a19 993f 1ab7 f7be 711c c53f
000000c0: 98e9 c13f e11f 063f 01d1 0240 ec37 a1be
000000d0: ad1c 1c3d 700f 853d f274 0b3e 1ca7 cd3f
000000e0: bc03 27be 2a04 b73f f14a 2bbf 81b3 323f
000000f0: dffa a93f c34b e1be 229e 4abd c3ea db3f
00000100: ffa5 4e3f ba69 553f 60ff f3be f8ef 183f
00000110: f28c 453f 8ccd 37bf 5474 eebe c3a9 9a3f
00000120: cc17 dcbe 7273 0abf 36f3 04bf 34b4 cdbe
00000130: c6e2 c13f e106 303f 9d04 923f 5661 debe
00000140: f583 803f a42e 513f 81a7 04bf 4611 c63f
00000150: b3ca ecbe 544b 9c3f de16 9b3f d519 a83f
00000160: 90a0 343f 6b5b ec3f f9cb 53be 48db db3f
00000170: f3af bc3f 9690 a03f 0dcf b73f 1f3a 2740
00000180: c9db 193f 4177 ab3f 9a1a d33f b8eb dd3f
00000190: ebb9 9c3f e3dc 3b3f 9609 00bf e988 e73f
000001a0: f9a8 613f b546 cc3f e3fc e83f 2d0d 8b3f
000001b0: 3a6b 2c3f bd4b f53f cf2c df3d 5b26 0f40
000001c0: b5b6 aa3f e68b af3f 0f25 15bf d2ef 553f
000001d0: c065 b8be 1f6a fcbe 1a01 0240 a69a 403f
000001e0: 682a 613f 2093 b53f baed 593f cb1f 803f
000001f0: aa48 4a3f 4656 e0be 317a 1e3f 61eb a03e
-0.3130151 -0.3381206 1.5973235 1.5058687 0.15018727 1.8693362 1.228166 0.9281939
1.2394929 0.8884613 0.76222116 0.88981974 0.6325196 1.0184946 1.4030894 0.9117663
-0.6146769 1.9020964 -0.37790507 -0.47093877 -0.6742247 -0.39942163 2.0284433 -0.53818005
0.59741545 0.51941866 0.8631642 -0.4042903 0.47472447 1.6302102 0.711743 -0.38372755
0.7167846 1.1728622 2.2171125 0.75928473 1.0917038 0.54971445 -0.34284326 -0.5135225
1.6342553 2.1418176 0.69924587 0.6059092 -0.6268655 1.1960919 -0.48381883 1.5399305
1.5149412 0.52392393 2.0440066 -0.31487978 0.038113285 0.06497085 0.1361883 1.6066623
-0.16310018 1.4298146 -0.66911227 0.6980515 1.3279685 -0.44003114 -0.049467213 1.7181019
0.8072204 0.8336445 -0.47655773 0.59741163 0.7716819 -0.71798015 -0.46573126 1.2083057
-0.42986906 -0.54082406 -0.5193361 -0.40176547 1.5147331 0.68760496 1.1407658 -0.43433636
1.004027 0.8171179 -0.5181809 1.5474021 -0.46248397 1.2210488 1.2116354 1.3132883
0.705575 1.8465399 -0.20683278 1.7176294 1.4741195 1.2544124 1.4360062 2.6129224
0.6010099 1.3395768 1.6492493 1.7337561 1.2244238 0.7338392 -0.50014627 1.8088657
0.88148457 1.5959078 1.8202175 1.0863396 0.67351115 1.9163738 0.108972184 2.236716
1.3337008 1.3714569 -0.5825967 0.8356906 -0.3601513 -0.49299714 2.0313172 0.75235975
0.8795533 1.4185524 0.85128367 1.0009702 0.79017127 -0.4381582 0.619052 0.3142958

model.classifier.weight f4 [54, 128]
00000000: 3b08 853e 300b f73c 5618 d53e 56e4 4a3f
00000010: d952 0f3e 63ff 1f3f 793c a33f 830d f93f
00000020: 17ee 90bf be11 593e b87e e2bd f93e a1bf
00000030: dbdc 2abf 364b 4e3d bdbd 6cbe 76a8 2ebd
00000040: f0f2 253d 0c06 c83e f81a 3a3d eaca 083d
00000050: f51d d63d 305e 3abd 7825 413e 888f 2d3c
00000060: 6a02 ecbf 3053 0cbf 0e64 8fbd 46c3 b03c
00000070: f58b 553e b0be 6a3f 4976 20bf 7a32 383d
00000080: 9dc2 e93e 9d81 f93d ffb4 c13d ec47 e23e
00000090: c8cd 053f 2ace 973e 0afb 123e 6c1a 093e
000000a0: 1c4e cf3e d5fd 6abe 020e 1f3d 48b6 bc3e
000000b0: 8e7a 943d f6bc 44be 3eb4 16bd cbbd 1dbf
000000c0: 0eb5 c3bd 89b1 e9be b5b0 80bf 9c0e 953d
000000d0: 0d0a a23e 2cde 143e e2f7 0a3e 729c 37bf
000000e0: f094 8c3e 2d4f cebf 717d 723d 3330 c43d
000000f0: a974 a1bf a741 d33c c00e 653e ac2b 6b3f
00000100: 600a 693e 5e6a 933e 710c c83d ba3a a03e
00000110: 347c f43e 6d81 d83d 674e ae3d 2971 ccbe
00000120: 88b7 18bd 09ab d03d 458d 9a3d 842c 92bc
00000130: 072e d5bf 98dc 073f d43b 8d3f 261d f73d
00000140: 9e60 b3bf 9d08 ac3d 0a51 3fbd e797 dbbe
00000150: 7c7d a73d 59c7 49be 60c6 cb3e ec24 31be
00000160: db4e ac3e 19da afbe 74c6 923d bc26 9c3f
00000170: 8ec6 1f3d 2bcb d33e ae66 c2bf 02e8 36bf
00000180: f130 693d b6be f0bf 29c8 8fbf 2d72 603d
00000190: 2760 64bd 64aa fd3e 4715 95bc 2a7e 58be
000001a0: 6a81 5ebe ddaa dbbe 6029 b13f 137a 223e
000001b0: d071 fd3d 8552 b1bf 77ed 16bf 1640 3dbf
000001c0: f958 933e 6dc1 f83f 9155 e63e 5944 7bbe
000001d0: cbad 6ebd e7a8 993d 0f9f 4fbf c267 d9be
000001e0: b952 9fbf 9877 8d3e 6c1f bcbe 3975 23bf
000001f0: 8187 223e c0de 913c 1a30 d93d 95d0 343e
00000200: 476d 0fbe 5491 473e c7ae 2a40 76c0 f7be
00000210: 3d17 623e d646 0f40 789f 32bf d497 febe
00000220: b52c 82bf 4c6e 4f3e 7f69 49bf 0b36 dc3d
00000230: a0b0 22be 0cb7 45bf d88b 2d3f f83a 203f
00000240: ef55 123e 8fea f23e 7b4a 873e 5f83 4f3e
00000250: 41a4 f83d e25e adbd ca5d ddbf bd6c d03d
00000260: a55d 4f3f f7e4 e23e 7dd1 19bf 8c74 b63e
00000270: 6e8e 08bf 6705 933f db10 2e3c a0cf 583e
00000280: e0ef 57bf 2234 1b3f 6da7 30bf e6f0 9abe
00000290: 010f 2c3f 823a 1b3f f5c1 3dbd 9b0f 8f3e
000002a0: 394d 44bf c75e 1040 2699 123f 7f65 a73d
000002b0: 129a 713e dd21 83bf 16ac 073e 314a 24bf
000002c0: bd5a f3be ffcd 21be d05e 9abf 7261 203e
000002d0: 502e 94be 7583 b33d dd45 53be c68e 53bf
000002e0: 8d8c 18bf b09b 2f3f 428b 6f3e df75 f63d
000002f0: 98e7 97bf bc03 303e 2d61 b2bd 1357 813d
00000300: 728c 3b3e 3965 933f 182d aa3e a341 6d3e
00000310: 8a05 8dbe d4ff 573e 1af2 623d 08d4 6ebe
00000320: 2c1a df3d 20c5 573e 63b5 9f3e 7930 483e
00000330: a8a0 b7bf 4333 103e c2f3 af3f 5432 8f3e
00000340: 0b4c 8abf 4ea1 703e 2b99 2bbd f397 fcbd
00000350: fef3 683e 2c13 d4bf bc0e 033e 90e3 403f
00000360: 1ac0 21be 4688 e8be 90c5 993e 5cd4 71be
00000370: 15c7 d83b 2226 18c0 eb1d 9abf 7f0c fc3a
00000380: dba5 4cbf 06fd 86be f35d 71bf 13ce 5e40
00000390: cfb1 7cbf 833c f7be 1bc6 363d 589c 5f3e
000003a0: 3774 9a3d b7d8 c6be a8a7 3dbf 9eb0 71bd
000003b0: 2876 2a3f d5ef 14c0 dc84 adbd b7e3 693f
000003c0: b764 f63d dd81 30bf 75dc 8ebd 48b8 653f
000003d0: ea96 c23d 22c8 5c3e 1a28 e4bf e1c6 2fbf
000003e0: dabf 0d3e 6eae c7bf 7067 13bf 877f cfbe
000003f0: bb92 a9bc f57a 393e 604d a8be 4a72 a3be
0.25982842 0.030156702 0.4162013 0.79254663 0.13996448 0.62499064 1.275283 1.9457248
-1.1322659 0.21198174 -0.11059326 -1.2597343 -0.6674325 0.050364695 -0.23119254 -0.042641126
0.040514886 0.39067113 0.045435876 0.03339664 0.104549326 -0.04549998 0.1886195 0.010593303
-1.8438237 -0.54814434 -0.07001506 0.021577489 0.2085417 0.91697216 -0.6268049 0.044970013
0.4565629 0.12182925 0.094583504 0.44195497 0.5226712 0.29649478 0.14353576 0.13388985
0.4048928 -0.22948392 0.03883172 0.3685782 0.07249938 -0.19212708 -0.036792986 -0.61617726
-0.09556018 -0.4564326 -1.0053927 0.07278177 0.31648293 0.14537877 0.13571122 -0.7172309
0.2745738 -1.6117913 0.05920166 0.09579506 -1.2613727 0.025788141 0.22368908 0.91863513
0.22757864 0.2879209 0.09767998 0.31294805 0.4775101 0.10571561 0.08511048 -0.39930084
-0.037284404 0.10188872 0.07546476 -0.017843492 -1.6654671 0.53070974 1.1033883 0.120661065
-1.401386 0.0840008 -0.046708144 -0.4288933 0.08178231 -0.19704951 0.39799786 -0.17299241
0.33653912 -0.34346083 0.07166758 1.2199321 0.039007716 0.41365942 -1.5187585 -0.71447766
0.05693144 -1.88082 -1.1232959 0.054796387 -0.05575576 0.4954406 -0.018198622 -0.21141878
-0.21729055 -0.42903796 1.3840752 0.1586688 0.12375224 -1.3853308 -0.5895609 -0.7392591
0.28778818 1.9434029 0.44987157 -0.24537791 -0.05827121 0.07502919 -0.8110208 -0.42461973
-1.244712 0.27630305 -0.36742723 -0.6385074 0.15872003 0.01780641 0.10604878 0.17657693
-0.1400653 0.19489032 2.6669176 -0.48389024 0.22079177 2.2386985 -0.6977458 -0.4972521
-1.0169894 0.20256919 -0.786766 0.107524954 -0.1588769 -0.7723243 0.6779151 0.6258998
0.14290594 0.4744458 0.26424012 0.20264958 0.12140704 -0.08465363 -1.7294247 0.1017699
0.81002265 0.4431531 -0.6008528 0.35635793 -0.5334233 1.1486024 0.010624136 0.21172953
-0.84350395 0.60626423 -0.6900547 -0.30261916 0.67210394 0.6063615 -0.04632755 0.27941594
-0.7668033 2.2557847 0.57264936 0.08173656 0.2359393 -1.0244709 0.1324924 -0.6417571
-0.47530165 -0.15801238 -1.2060184 0.15662172 -0.28941584 0.08765308 -0.2063212 -0.8263973
-0.59589463 0.68596935 0.23392966 0.12034201 -1.1867552 0.17188925 -0.08709941 0.06315436
0.18315294 1.1515266 0.3323753 0.2316957 -0.27543288 0.21093684 0.055406667 -0.23323071
0.10893664 0.21071291 0.31193075 0.19549741 -1.4345903 0.14082055 1.3746264 0.27968085
-1.0804456 0.23499033 -0.04189412 -0.123336695 0.22749326 -1.6568351 0.1279859 0.7534723
-0.15795937 -0.45416468 0.3003354 -0.23616165 0.0066155293 -2.3773274 -1.204038 0.0019229798
-0.79940575 -0.26364917 -0.9428398 3.4813278 -0.98708814 -0.48288354 0.04462252 0.21836984
0.075416975 -0.38837215 -0.7408395 -0.059006326 0.6658654 -2.3271382 -0.084726065 0.9136309
0.120309286 -0.68948156 -0.069756426 0.89734316 0.09501441 0.2156072 -1.7824738 -0.6866284
0.13842717 -1.5600107 -0.5757971 -0.40526983 -0.02069985 0.1811331 -0.32871532 -0.31923133

model.classifier.bias f4 [54]
00000000: 33c3 6b3d a0d9 b13e 4591 40be db5a 903d
00000010: 666d 0ebe eecf 0e3e 8bfd 2abc a59e 83be
00000020: d195 2dbe df01 3f3d b382 e63e b754 bbbd
00000030: ffaa 013d 0288 2b3e a9dc f3bd bcff e5bb
00000040: ce1c a7bd 2744 78be 1c3c a33c 418a 183c
00000050: b984 81bd d5ba a13e 0bc9 4bbe 9641 34be
00000060: b55f a7bc 4404 113d fdd4 1dbe 3ace b43b
00000070: b64f b5bd 56f9 593e 41f3 31be 7f04 953e
00000080: e0fa f4bd 35af 60be d4fe 2dbe 08f3 47bd
00000090: f765 90be 07c2 a7bc 93f5 c13d baa7 6cbd
000000a0: 9479 a8bd e2ad 45bc b301 bf3d 1178 1bbd
000000b0: 9b78 853d 17b5 d03e 5ece 82bd 0518 e13d
000000c0: 503d 213e 02c4 25be 16d0 8cbd 3e81 a63e
000000d0: 32ba 7cbd e66d 2c3e
0.057559203 0.34736347 -0.18805416 0.07048579 -0.1390892 0.13946506 -0.010436426 -0.25706974
-0.16951682 0.046632644 0.4502159 -0.091470174 0.031657215 0.16751102 -0.11907322 -0.0070190113
-0.08159791 -0.24244748 0.019926123 0.009310306 -0.06324143 0.31587854 -0.1990091 -0.17603144
-0.020431379 0.03540446 -0.1541328 0.005517748 -0.08853094 0.2128652 -0.1737795 0.29104993
-0.11961913 -0.21941836 -0.1699174 -0.048815757 -0.28202793 -0.020478262 0.09470668 -0.057777144
-0.08226314 -0.012065383 0.09326496 -0.0379563 0.06517144 0.4076316 -0.06387018 0.109909095
0.15746045 -0.16188052 -0.06875627 0.3252048 -0.061701007 0.16838798
