mlp/experiments/basic_mlp/runs/2024-05-19-12-03-38/checkpoints/last.ckpt (torch, 141508 bytes, 7 tensors)

model.embedding.weight f4 [711, 32]
000000 25 86 34 bd 40 1a a0 bf ac aa 10 c0 22 36 bc 3d
       -0.044073243 -1.2508011 -2.260417 0.091900125
000010 38 0f 56 bd 38 f4 d0 3e 4a c4 b2 bb 80 a3 1e c0
       -0.052260607 0.40811324 -0.0054555284 -2.4787292
000020 09 fb 1b be 92 88 31 3e 45 2e 83 3e 8c 34 84 bf
       -0.15232481 0.17337254 0.25621238 -1.0328536
000030 8b d4 05 3f fb 87 80 3e 1f 0f 4e bf 7e b1 9c bf
       0.5227744 0.25103745 -0.8049182 -1.2241666
000040 97 1b 2a bf 14 d3 38 bf 9b b2 b8 3f 02 df 60 3e
       -0.6644835 -0.7219708 1.4429506 0.2196007
000050 55 75 0f c0 13 8d 94 3f 12 5d 8b be ff 55 64 3f
       -2.2415364 1.1605552 -0.27219445 0.8919372
000060 9a 78 47 3f 67 2b 65 bf 02 67 70 bf 4c f5 fa be
       0.779184 -0.8951935 -0.9390718 -0.49015272
000070 5a 7f eb bf d7 8a 88 3e 87 47 48 3f 8b 35 9c bf
       -1.839824 0.26668426 0.7823414 -1.220384
000080 e5 21 31 be f7 b7 a3 bf 3b 40 6b bf ae 95 57 bf
       -0.17298086 -1.2790517 -0.9189488 -0.8421277
000090 45 45 99 be 3d aa b5 3f b6 8d b4 3d e7 86 b9 bd
       -0.2993566 1.4192578 0.08816092 -0.09058934
0000a0 c9 90 ea 3e cc 20 94 3f ae cd 4f 3f e0 c2 41 bf
       0.45813587 1.1572509 0.8117322 -0.7568798
0000b0 77 91 9f bf 25 17 43 3f bb ec aa 3c 5c a7 20 3f
       -1.2466267 0.7620719 0.020864835 0.6275537
0000c0 88 b2 0e be 88 3d a3 be 98 e4 8a 3e 15 09 80 be
       -0.13935292 -0.31882882 0.27127528 -0.2500693
0000d0 39 28 bc 3f 6b 13 2b bf 0c 4a ab 3f 24 de 7a bf
       1.4699775 -0.66826504 1.3381972 -0.9799521
0000e0 f6 60 73 bf 97 73 e0 be 98 38 a8 3e 6f a5 1e bf
       -0.95069826 -0.43838188 0.32855678 -0.6197118
0000f0 81 b6 fa bf 75 ec b3 bf ea 5b 8d be 32 22 a9 bf
       -1.9586946 -1.4056536 -0.27609187 -1.321356
000100 b1 29 b5 be df 89 8f 3f 1a 4d f7 3d 33 fa 50 bf
       -0.3538337 1.121395 0.12075253 -0.81631774
000110 9b 3e 16 c0 05 a1 89 be b5 c5 c4 3f 65 8b 12 3e
       -2.3475711 -0.2688066 1.5372835 0.14310987
000120 23 10 04 3f d8 43 50 bf ee 2f 6d 3f eb 5c c5 3e
       0.5158712 -0.8135352 0.9265126 0.38547453
000130 8c 0a 69 3d e5 ec 23 3f 62 b2 43 bf 80 e7 1a bf
       0.056894824 0.6403335 -0.76444066 -0.6050949
000140 52 1a 0b 3f 67 bf 28 bf 85 00 0e bf 36 49 ba 3e
       0.54337037 -0.65917057 -0.5546954 0.3638398
000150 20 66 52 3d 55 d3 82 bf fb c0 a6 3e 69 8c b3 3c
       0.051366925 -1.0220743 0.32569107 0.021917539
000160 c9 22 4a 3f cf 56 55 3f 70 42 5d be 7d 79 30 3f
       0.7895933 0.83335584 -0.21607375 0.68935376
000170 b4 34 ea bd 75 68 bc 3f ca de cc 3e e1 c9 7f bf
       -0.114358336 1.4719378 0.40013725 -0.9991742
000180 e8 9e 4c 3e 08 e8 ce be 77 7d 12 be be f0 73 3e
       0.19982493 -0.404114 -0.14305674 0.23822305
000190 5a 93 22 be 95 ac d6 3c 49 d4 38 3f 76 f0 31 3f
       -0.15876523 0.02620534 0.7219892 0.6950754
0001a0 ee f4 fa 3d 20 ed d6 be 5f 56 f8 3d 84 31 15 3e
       0.12253748 -0.41977787 0.12125849 0.1456967
0001b0 76 d4 c8 3f df df ae be 3f 47 fd 3d d1 37 01 40
       1.5689838 -0.34155175 0.12367105 2.0190318
0001c0 88 c2 35 3f a4 e5 93 3f e6 58 86 bf 05 d9 2c bf
       0.70999956 1.1554456 -1.049588 -0.67518646
0001d0 c2 f2 8f 3e e5 09 9e bf de e5 5f bf 5d f3 af 3e
       0.28114897 -1.234677 -0.87460124 0.3436536
0001e0 02 de 85 bf a1 06 1e bf 6f 8f ba 3e c5 31 9c 3f
       -1.0458376 -0.61728865 0.36437556 1.2202688
0001f0 0a 4a 97 3f fe 1a a9 bf ef d8 72 bf af fb 45 bf
       1.181947 -1.3211362 -0.94862264 -0.77337164
000200 20 b7 e5 be 45 ee ac 3c 38 06 22 3f 1e f4 4e 3f
       -0.44866276 0.02110971 0.6329074 0.80841243
000210 0d e2 82 3e 15 bd b0 3e a9 ac c6 3f 11 aa a8 bf
       0.25563088 0.34519258 1.5521442 -1.31769
000220 25 74 d1 be 51 fe 98 3e b1 90 1d bf 70 6c cb 3f
       -0.40908924 0.29881528 -0.61548907 1.5892467
000230 a5 4a 2d c0 70 bb 8f bf 08 7d d5 3f 7c 54 b7 3c
       -2.707681 -1.1229076 1.6678782 0.022379152
000240 45 89 38 bf 66 dc 9b 3e 32 67 04 c0 c7 67 45 3e
       -0.72084457 0.30441588 -2.0687985 0.19277869
000250 5c 0a e8 bd 85 f0 4f be ba 4d d7 3f e4 82 27 40
       -0.11330101 -0.20306595 1.6820595 2.617364
000260 2c 17 89 3e 1d 7e d4 3e d0 7a 8d 3f 96 7c 3c be
       0.2677549 0.41502467 1.1053104 -0.18406901
000270 45 23 c1 3c 17 7f fb be 89 47 da 3e 7f 52 e2 3f
       0.023576388 -0.491204 0.42632702 1.7681426
000280 b7 68 db bf 13 b9 0b 3f 46 81 2a 3d f3 08 be 3e
       -1.7141331 0.54579276 0.04162719 0.37116203
000290 92 7d a4 3f 35 35 05 3f c0 54 56 3f 43 8a f0 3f
       1.2850821 0.5203431 0.8372307 1.8792194
0002a0 e5 dc 90 bb 58 7f 36 3e 42 81 0c bf 87 52 74 3f
       -0.004420864 0.17822015 -0.5488473 0.95438427
0002b0 12 b3 ba 3e 91 f6 d0 be f0 ec 22 bf 29 19 09 be
       0.36464745 -0.40813115 -0.6364279 -0.13388504
0002c0 9a 44 d4 be db 05 27 40 2b 25 1e 3f 49 dd e2 3f
       -0.4145859 2.6097324 0.61775464 1.7723781
0002d0 cf 0f c9 3f 20 c9 da 3f 4c 8b 8a 3e 7a 3b 06 c0
       1.5707949 1.7092628 0.270594 -2.0973802
0002e0 ca 37 d9 3f cd fd d6 be 2f 89 46 3f 20 1a a0 3f
       1.697015 -0.4199051 0.77553076 1.2507973
0002f0 e2 9c 47 bf c2 64 f5 3f c5 b5 34 bf a0 c5 ab bf
       -0.7797376 1.9171374 -0.7058986 -1.3419685
000300 3c 91 98 bf 37 dc 4d 3f c0 1c d8 bf 37 ef 11 bf
       -1.1919322 0.80414146 -1.6883774 -0.5700564
000310 b4 63 ac 3e 45 75 03 3e e2 4c 05 40 41 60 af be
       0.33669817 0.12837704 2.0828176 -0.34253123
000320 01 89 10 bf 5c d2 41 3f 51 eb 22 bf 09 5a 95 bd
       -0.5645905 0.7571161 -0.63640314 -0.072925635
000330 b7 81 f7 3d 49 e2 70 3e 01 da 98 3f 3f 89 21 3f
       0.12085288 0.23523821 1.194153 0.63100046
000340 e4 c5 7a bf d0 ed 13 3f 64 af 8a 3f fc 4a dc 3d
       -0.9795821 0.5778475 1.0834775 0.1075649
000350 ee 6a df 3f d5 80 93 3f 39 23 8e bf e9 1e d3 bc
       1.7454507 1.1523691 -1.1104499 -0.025771575
000360 51 aa da bf 59 ae 55 3f 26 d5 5a 3d 05 c2 7f bf
       -1.7083226 0.8346916 0.05342593 -0.99905425
000370 70 eb eb be 63 48 bc 3d ab 5c 2e 3f 68 3f 0f 3e
       -0.46078062 0.09193494 0.6811015 0.13989031
000380 70 b2 37 3e f1 07 dc bd 13 6c f0 3e d0 3c e1 be
       0.17939162 -0.10743702 0.46957454 -0.4399171
000390 2d 85 71 bf 2b 67 36 3e b5 21 a0 be 26 a3 33 bf
       -0.94343835 0.17812793 -0.31275716 -0.7017082
0003a0 bf 57 9d 3f 58 eb 6d bf c4 26 ca bf bc 48 44 3f
       1.2292403 -0.9293723 -1.579308 0.76673484
0003b0 b7 51 e5 bf ed fa b5 bf c0 a7 76 bf c6 87 88 bf
       -1.7915562 -1.4217201 -0.96349716 -1.0666435
0003c0 d3 0e c9 3f 41 6e b0 be 65 68 95 bf 87 23 88 3f
       1.5707649 -0.34459117 -1.1672484 1.0635842
0003d0 e7 09 3d 3c 74 71 c4 3f e4 c2 2c 40 e4 e3 03 bf
       0.011538005 1.5347123 2.6993952 -0.5151961
0003e0 cb fa 89 3f 26 29 93 3f 4a 30 73 3e 49 93 b1 be
       1.0779661 1.1496933 0.2374889 -0.34682682
0003f0 dc 77 4b bf e6 82 d2 3e 37 61 8f be 64 b8 ee 3f
       -0.79479766 0.41115493 -0.28003857 1.8650022

model.layers.block_0.linear.weight f4 [128, 32]
000000 fa 53 c1 be f3 f5 9e 3d b5 41 07 be 26 56 aa 3c
       -0.37759382 0.07761755 -0.13208659 0.020793032
000010 4f 62 1a 3f 62 07 94 3e 42 4f 98 be 20 06 a7 3d
       0.60306257 0.28911883 -0.2974797 0.08155465
000020 f9 d6 2f be 34 34 81 be c9 ab f1 3b 9f 4a b5 3b
       -0.1717185 -0.2523514 0.0073752147 0.005532577
000030 cc 37 41 bf be de 27 3d aa c9 5c 3e f1 d5 5d be
       -0.75475764 0.040983908 0.21561304 -0.21663643
000040 3c 4a ca 3d 8f 45 7c bd 8b d1 63 3e 17 ea 19 3e
       0.0987744 -0.061589774 0.22247903 0.15030704
000050 14 5c d1 be 72 4e a5 3e 8a b8 fd bd 6e 74 e9 3b
       -0.40890563 0.32286412 -0.12388714 0.007124475
000060 a5 8a 02 be 03 e6 a6 3e 4e 36 29 3e c8 07 a8 be
       -0.12748201 0.3259736 0.16524622 -0.32818437
000070 6a b1 1a be 7c 59 c3 3d 8b 8f 8e 3e 4d d1 60 3e
       -0.1510674 0.09538552 0.2784389 0.21954842
000080 af 21 ca ba 64 10 da bc bb a7 5f bd f9 77 86 3d
       -0.0015421415 -0.026619144 -0.05460332 0.06565852
000090 81 02 0c 3f 88 1e ef 3e c2 7d f5 be 0b eb ad be
       0.5469132 0.4670298 -0.47947508 -0.33968386
0000a0 aa da 8d be e1 59 ef be df ce c9 be 55 fc 47 3e
       -0.2770589 -0.4674826 -0.39415643 0.19529851
0000b0 12 10 54 bf 30 0f 00 3f 1e 99 90 3e 1a 0f f0 3d
       -0.8283702 0.50023174 0.2824182 0.117216304
0000c0 bc aa dc 3e 60 2d b0 3c 99 2e 23 3e 24 99 00 3f
       0.4309901 0.021506011 0.15935744 0.50233674
0000d0 2d fa 25 bf 6e b9 83 3e a6 a8 99 3d fd e6 bf be
       -0.6483486 0.2572741 0.0750287 -0.37480918
0000e0 c9 19 04 be 33 92 a1 bd d8 a8 99 bb fb d8 fe 3c
       -0.12900461 -0.078892134 -0.004689317 0.031109324
0000f0 6c b6 a4 be f1 33 76 3d 4d b1 85 3e e3 5f 2a 3d
       -0.32170427 0.06010813 0.26111832 0.04159535
000100 66 7d 20 bd 38 4f 20 bc 14 52 2a bf 1a d8 90 3f
       -0.03918209 -0.009784512 -0.6653149 1.1315949
000110 a8 9c c7 be 20 85 a1 3e e2 92 05 3f af 14 af 3e
       -0.38986707 0.3154688 0.5217725 0.34195468
000120 29 0b 3a 3d f8 1d fa 3e 86 3e 43 3e 3f 21 a2 3e
       0.0454208 0.4885099 0.1906682 0.3166599
000130 c8 d1 88 be 0b 41 e3 be eb 85 f2 3e a5 ed 5b be
       -0.2672255 -0.4438556 0.47367796 -0.21477373
000140 7c a2 43 bf 61 6b 7b 3e 86 fe e0 bd 79 ea a8 be
       -0.76419806 0.2455268 -0.109860465 -0.32991388
000150 ce 8b ca 3e 5e b2 9e 3c f2 fe d1 3e 04 d5 46 3e
       0.39559788 0.019372161 0.4101482 0.19417197
000160 48 23 65 bf de c1 d1 3d 7a 26 90 3d 80 fc 03 3f
       -0.8950696 0.10242055 0.07038589 0.5155716
000170 05 64 75 be 4f 2f dd 3c be d5 d5 be b0 13 9e 3d
       -0.23963936 0.027000098 -0.41764635 0.07718599
000180 18 8b 94 3d e6 fd e3 be 68 4f 88 3e f6 e1 82 bd
       0.072530925 -0.44529647 0.26623082 -0.06390755
000190 85 1d 87 be 49 fd aa be 9c 56 00 3d f8 ec 9b be
       -0.2638971 -0.33396366 0.031332597 -0.3045423
0001a0 d8 43 01 3d ee 3b 39 3e 97 c0 7d 3d af 0d db 3e
       0.03155884 0.18089268 0.061951246 0.42783877
0001b0 67 21 70 bd 7c 92 01 3f 2d 09 22 be b0 46 81 3e
       -0.058625605 0.5061414 -0.15823813 0.25249243
0001c0 e4 2a 9f 3e 30 88 1d bf 45 98 75 bf ce 92 f2 bd
       0.3108741 -0.6153593 -0.9593547 -0.11844407
0001d0 a3 15 c2 be 01 a0 58 3e ff 89 a9 3e 70 9c fd be
       -0.37907133 0.21154787 0.33113095 -0.49533415
0001e0 5f 90 3a 3b 8f c2 19 bc 84 57 03 3e 29 7b 8e be
       0.00284674 -0.009384765 0.12826353 -0.2782834
0001f0 1b 32 09 bc fb dd b1 bd 5b df 32 3e 16 a7 5d be
       -0.0083737625 -0.086849175 0.17468016 -0.2164577
000200 29 ee 8f bd 38 1b 4a bd 02 91 f2 bd b4 b5 2b be
       -0.07027847 -0.049342364 -0.11844064 -0.16768533
000210 c3 0e 29 3e 3c 14 20 3d c9 fe b0 be b9 47 ed 3b
       0.16509537 0.039081797 -0.34569386 0.007241216
000220 7e 9b 92 be 15 a8 a6 be 8b ba 14 be 56 a2 13 be
       -0.28634256 -0.3255011 -0.14524285 -0.14417395
000230 e3 ed 88 be 55 d1 16 3f 06 1d f8 3e a9 d5 3f be
       -0.26743993 0.58913165 0.48459643 -0.18733849
000240 3f f1 18 be d9 e5 12 be b5 a2 1d be 39 af e3 be
       -0.14935778 -0.14345492 -0.15394099 -0.44469622
000250 15 32 5a bd 18 c5 87 3e 7f 04 72 be fe df e4 bd
       -0.05327042 0.26517558 -0.23634528 -0.111755356
000260 4f fe 71 be c4 2b ac 3d 38 1a ab be 5a 92 0a bf
       -0.23632167 0.08406785 -0.3341844 -0.54129565
000270 3a c0 6b 3e 69 1f 9a be 28 5b 12 be 1b d6 b4 bc
       0.23022547 -0.3010209 -0.14292586 -0.02207475
000280 ff 30 fe 3e 7b 8a 01 3f 34 b7 97 3d ad 98 c0 be
       0.49646756 0.5060193 0.0740799 -0.37616482
000290 6d 56 8f be fe 6b ad be cd 92 b3 3e 8b 45 56 be
       -0.27995625 -0.33871454 0.35072938 -0.20924966
0002a0 9e 4a 2b be 69 8c 16 3d 9a 25 27 bf 46 77 9b bd
       -0.16727683 0.036755 -0.6529175 -0.07591109
0002b0 45 ac cc 3d 4e ce b7 be f1 70 6e bd da 55 19 3f
       0.09993795 -0.35899585 -0.058213178 0.59896624
0002c0 b7 53 91 bf 1d 74 54 3b af 31 fd be 8a 18 cc be
       -1.1353673 0.0032417842 -0.49451968 -0.39862472
0002d0 33 bc 48 3f be b9 45 3f ef 4c d7 3e 72 9f d0 3e
       0.7841217 0.77236545 0.42050883 0.40746647
0002e0 cc d0 d4 3e 90 a9 5b 3f 23 ed 96 3e af d5 30 3e
       0.4156555 0.85805607 0.29477796 0.17269014
0002f0 9a 35 e6 bd 4f 07 5d 3e 0e 70 94 3d bb d3 1e be
       -0.112406924 0.2158482 0.07247935 -0.15510456
000300 04 c7 b4 3e a4 68 1d 3e 7a 61 06 3d 73 78 59 be
       0.35308087 0.15371948 0.032807805 -0.21237354
000310 e0 a0 50 be 0c 35 78 3e cf 31 9f be 9d d6 0d 3f
       -0.20373869 0.24238986 -0.31092688 0.554056
000320 28 18 c5 3e 11 41 61 be 98 fa 59 be 32 be ba ba
       0.38494992 -0.21997477 -0.21287 -0.0014247356
000330 bd f0 13 3f 81 10 20 be b6 ee 26 bf 4a c7 fb be
       0.5778921 -0.15631296 -0.65207994 -0.49175483
000340 df 7e c6 3d e9 3c 58 3e 62 8a b4 3e 40 0d 91 3c
       0.096921675 0.21116985 0.35261828 0.017706513
000350 e3 8a 21 bf 9f 28 39 3f cb 19 75 bf 58 6d 8f 3e
       -0.6310255 0.7232761 -0.9574248 0.2801311
000360 bd cf 06 3e 00 20 22 3f cc e8 0a bf 66 61 1d 3f
       0.13165183 0.6333008 -0.5426147 0.61476743
000370 1e 3d 4f be 38 50 ae 3e fb fe b8 3e 67 a5 28 bf
       -0.20238158 0.34045577 0.36132035 -0.65877384
000380 ad 21 fd bc 14 3d e2 bd 2c 4b 26 3f dd 00 8f bc
       -0.030899847 -0.11046806 0.64958453 -0.017456466
000390 94 4c 72 be 10 46 0e 3f 52 25 d9 3e 6e ed 85 3f
       -0.23662025 0.55575657 0.42411286 1.0463083
0003a0 d7 3a 18 3f 3e 8a d8 3e 1c c3 f2 3d 5d 73 04 3e
       0.5946478 0.4229297 0.118536204 0.12934633
0003b0 6b e3 50 3f a1 ca 51 3d 8b 54 ef 3e 85 0d f0 3e
       0.8159701 0.051218633 0.4674419 0.46885315
0003c0 31 e4 a8 3e 21 21 26 be 07 ba 4d bf fb fc 17 3f
       0.32986596 -0.16223575 -0.8036198 0.5937039
0003d0 85 c8 25 bf 76 5b 43 be c1 f0 59 bf ee 05 49 3e
       -0.64759094 -0.19077858 -0.85132986 0.19631168
0003e0 58 b4 38 3e c7 11 52 3f 2f 08 77 bf 20 bf 6f be
       0.18037546 0.82058376 -0.9649686 -0.23412752
0003f0 aa ed 9e be be 31 8a 3e 2c 14 f1 3d 14 00 5c be
       -0.31040698 0.26991075 0.117714256 -0.21484405

model.layers.block_0.linear.bias f4 [128]
000000 d0 f2 fe 3d 8d 3d f1 3e 29 05 d6 bc c5 79 e5 be
       0.124486566 0.47117272 -0.026125507 -0.44819465
000010 16 c9 bc 3d 0a 66 b3 bd 8b 22 a5 bc 63 64 5b 3d
       0.092180416 -0.08759697 -0.020158073 0.053562533
000020 a2 ac 97 bc e6 94 8b bc 69 79 6e bd 15 cc 3b 3a
       -0.018514935 -0.017038774 -0.058221254 0.00071638945
000030 99 be 5d 3c 84 b6 ca 3c f7 79 e5 bd c6 a9 00 bc
       0.013534212 0.024745233 -0.112049036 -0.007852977
000040 25 14 9a 3f 97 48 14 be fa 1a ba 3e 91 b5 f4 3e
       1.2037398 -0.14480816 0.36348706 0.47794774
000050 6f 4d 8e 3f d2 c4 26 3e aa e3 88 be b8 ca 13 3f
       1.1117381 0.16286018 -0.26736194 0.577312
000060 5f 67 da 3c bc 3c a1 bc fe 32 90 3c 3e b4 17 3f
       0.02666062 -0.01968228 0.01760244 0.592594
000070 d0 c4 66 3b 7b ee 14 bd 3c df 01 3d 42 c3 0b 3f
       0.0035212524 -0.036360245 0.031707034 0.54594815
000080 38 37 4f 3c 86 fb 96 bc 1f 14 87 bc 31 8c 46 ba
       0.0126474425 -0.018430483 -0.016489087 -0.0007573991
000090 2c f4 9f 3c 84 b2 6e 3d e5 5d 2c 3e 2d ed 87 3f
       0.01952561 0.058275715 0.16832693 1.0619255
0000a0 5d c0 fd bc 27 ca 82 bd f4 64 20 3d d2 1b 44 3c
       -0.030975515 -0.06386214 0.039158776 0.0119695235
0000b0 1b 9e 76 3f 2a 88 42 bd 51 66 16 3f 90 2d 3c bd
       0.96335 -0.047493137 0.5874987 -0.04594189
0000c0 96 fc 9a bd 86 87 2d 3a 87 28 80 bd aa d9 c4 3e
       -0.07567708 0.0006619621 -0.0625773 0.38447315
0000d0 be 58 68 3d d2 dc 3a 3d 27 ba 8a 3d e1 6e 37 3d
       0.056725256 0.045620747 0.06773787 0.044783477
0000e0 57 a5 0c 3a a1 81 67 bd a8 88 9b 3f 45 1d c0 3c
       0.0005365214 -0.056520108 1.2151079 0.023451457
0000f0 c6 ae a2 3c 4b ba 08 3f 5b 4a 41 3d b4 35 1b be
       0.01985873 0.5340926 0.04719005 -0.15157205
000100 51 fc 7a bd f0 6a 6e bc c8 01 44 3f f3 4d 02 3d
       -0.061275784 -0.014551863 0.7656522 0.03181262
000110 03 d4 9a 3b 18 21 b1 3f 95 66 d8 3e f9 f9 df bd
       0.004724981 1.3838224 0.42265764 -0.109363504
000120 17 7f 77 3e 3b 16 47 3f 12 cc 80 3f ad 5d 03 3f
       0.24169575 0.77768296 1.0062277 0.5131481
000130 d9 c0 1a 38 eb 52 53 be 55 a6 1a 3b 5b 88 24 3f
       3.6896065e-05 -0.206371 0.0023597677 0.6427056
000140 ba 71 12 3a 6d d3 97 3c a7 50 a2 3e d4 11 23 bc
       0.00055864046 0.018533433 0.31702158 -0.009952981
000150 8e bc 45 3f ec 12 72 3d 7a d4 2c bd 19 50 25 bb
       0.77240837 0.059100077 -0.04219482 -0.0025224744
000160 42 25 34 bc db c5 08 be d5 0d f9 3e ff 66 b1 bd
       -0.010995211 -0.13356726 0.48643366 -0.08662223
000170 b3 81 64 bd 27 60 83 bd a9 3a 9f bd f5 c0 74 bd
       -0.055787753 -0.06414824 -0.077748604 -0.05975433
000180 d6 57 4f 3d f0 96 d8 3c 73 cf 0a be b3 a7 05 be
       0.050620876 0.02643916 -0.13555698 -0.13052253
000190 9f 52 94 bb b7 c4 4d bb e3 ac 1b 3f 9f 16 b3 be
       -0.0045264508 -0.0031397769 0.6081068 -0.34978196
0001a0 39 f8 71 3d 43 e1 75 be b8 4c e4 bc cc 71 dd 3c
       0.059074614 -0.24011712 -0.027868614 0.027031802
0001b0 56 bf f7 3c 1d aa e1 bd 62 52 14 3c 44 61 a0 bd
       0.030242603 -0.11018775 0.009052845 -0.07831052
0001c0 58 79 12 bd 7b c0 45 3c 11 1f 32 3e 46 a8 3e 3b
       -0.035760254 0.012069817 0.17394663 0.0029091998
0001d0 89 b5 41 3e 7a 77 0b 3f b8 b8 91 be a8 a1 50 bc
       0.18916906 0.5447918 -0.28461242 -0.012733854
0001e0 96 f7 af 3c 99 f8 11 be 2b 36 86 bc 19 28 50 3c
       0.021480363 -0.14254989 -0.016383251 0.0127048725
0001f0 22 23 9d 3c 7b 4f 0a 3f cc c4 6b bc d9 b2 fb 3c
       0.019181792 0.5402753 -0.014390182 0.03072493

model.layers.block_0.norm.weight f4 [128]
000000 ba 27 b2 3f 2b 7f fe 3e 69 45 cf 40 c9 4f 80 40
       1.3918374 0.49706396 6.477223 4.0097394
000010 ec 80 de 3f b6 3b c9 40 2a 62 64 40 5d a4 8c 40
       1.7383094 6.288539 3.5684915 4.395064
000020 50 17 c2 40 e2 44 36 40 d7 05 39 40 97 82 6b 40
       6.065346 2.8479543 2.8909814 3.6798456
000030 2f b8 20 40 4b 17 84 40 f0 12 b1 40 16 54 3a 40
       2.5112417 4.1278434 5.5335617 2.9113822
000040 b7 f2 86 3e 69 ec 99 40 c9 a9 31 3f f7 b9 c1 3e
       0.26357052 4.8101087 0.69399697 0.37837192
000050 21 90 8c 3e 52 22 38 3f 47 23 b9 40 20 5a b1 3e
       0.27453712 0.7192737 5.7855563 0.34639072
000060 6c 1b 6d 40 96 8c 5f 40 c4 a5 86 40 5e f9 17 3f
       3.7047987 3.4929557 4.207735 0.5936488
000070 fd 2e 1a 40 98 22 b3 40 c4 b5 50 40 74 ad 1d 3f
       2.409118 5.597973 3.261094 0.61592793
000080 a3 26 27 40 48 b4 60 40 b2 8b bf 40 13 e3 85 40
       2.6117332 3.5110035 5.9858027 4.183969
000090 16 29 7b 40 84 86 4d 40 20 d0 38 3f bd 17 d5 3e
       3.9243827 3.2113352 0.72192574 0.41619673
0000a0 8f 20 cf 40 79 fc c3 40 c0 bd 4d 40 8d c3 37 40
       6.4727244 6.1245694 3.2147064 2.8713105
0000b0 27 b7 a4 3e 4c 44 e0 40 e5 1d b8 3e dd cc a9 40
       0.32170984 7.008337 0.35960308 5.3062577
0000c0 4e 07 8b 40 bf eb 2c 40 27 dc b8 40 b9 bc 06 3f
       4.3446417 2.7018888 5.776874 0.5263172
0000d0 27 99 23 40 1e 2d d7 3f 8a 10 d9 3f 9d 9d de 40
       2.5562227 1.6810644 1.6958172 6.95674
0000e0 71 c4 37 40 21 d1 d2 40 5b 6a 9e 3e ea 63 2c 40
       2.8713648 6.5880284 0.30940518 2.6935983
0000f0 b1 a8 cd 40 af 16 f3 3e 4a f4 d9 3f cc 76 c1 40
       6.426842 0.47478244 1.7027676 6.0457516
000100 11 e1 38 40 53 78 53 40 f4 53 f6 3e a6 8e 65 40
       2.888737 3.304219 0.48110926 3.5868316
000110 32 c3 94 40 84 58 85 3e d8 03 d2 3e 81 f1 4d 40
       4.6488276 0.26044095 0.41018558 3.2178652
000120 ee b7 17 3f e6 d8 f8 3e bf eb d0 3e e3 92 0d 3f
       0.5926503 0.4860298 0.4080486 0.55302256
000130 2b a1 a4 40 62 4a 18 40 08 8f af 40 23 30 fb 3e
       5.144674 2.37954 5.48621 0.49060163
000140 02 1c b0 40 ad d4 32 40 21 69 0b 3f bb 38 a1 40
       5.503419 2.7942307 0.5445729 5.038175
000150 6a 6a b3 3e c8 a6 d7 40 b9 19 8e 40 0b 36 09 41
       0.35042125 6.739109 4.44064 8.575694
000160 aa f4 1d 40 ce 53 9e 40 fb b6 4c 3f 2d 65 7c 40
       2.468058 4.94773 0.79966706 3.9436753
000170 2e fb 84 40 d2 88 90 40 ba ba bf 40 79 57 c8 40
       4.1556616 4.5167017 5.991544 6.260678
000180 66 02 37 40 bd e8 d8 40 03 e6 97 40 06 8a d1 40
       2.8595214 6.7784104 4.7468276 6.5480986
000190 94 52 82 40 bf b6 43 40 48 1b 6f 3e f7 82 aa 40
       4.0725803 3.058029 0.2335025 5.328487
0001a0 a5 1e 8f 40 e7 39 85 40 bf df 96 40 be 20 a3 40
       4.472491 4.163318 4.7148128 5.097747
0001b0 8b dd 28 40 78 04 b5 40 47 b3 17 40 7a fd b7 40
       2.638522 5.6567955 2.3703172 5.749692
0001c0 ef 9e b8 40 16 08 b8 40 1c 94 b3 3f 3c 32 7b 40
       5.769401 5.750987 1.4029574 3.924941
0001d0 d0 06 2b 3f d4 9b fe 3e b1 59 c5 40 9f 95 6b 40
       0.6680727 0.49728262 6.1671987 3.6810071
0001e0 73 d7 95 40 21 e3 b2 40 9d ec 2b 40 c9 ca 66 40
       4.68255 5.5902257 2.6863167 3.606127
0001f0 94 e1 2c 40 f7 d6 e0 3e f2 21 50 40 ed 00 19 40
       2.7012682 0.43914005 3.2520719 2.3906815

model.layers.block_0.norm.bias f4 [128]
000000 98 f0 8a be 70 a0 9e be 5d ed c3 3f 3f cf bf 3f
       -0.27136683 -0.3098178 1.5306813 1.4985121
000010 c6 b7 39 3e 79 f7 e1 3f 96 23 9c 3f fa c9 64 3f
       0.1813651 1.7653648 1.219836 0.8937069
000020 a5 d0 98 3f ad 6e 61 3f 2b cc 4f 3f aa 1d 58 3f
       1.1938673 0.880595 0.8117091 0.84420264
000030 97 e1 20 3f 14 70 7f 3f f0 62 aa 3f 4b 60 72 3f
       0.6284422 0.9978039 1.3311443 0.9467818
000040 66 ee 14 bf 5c 5a ef 3f ab 31 b7 be 56 27 e7 be
       -0.5817627 1.869945 -0.3578008 -0.45147198
000050 37 eb 26 bf 42 f5 b6 be 4d b8 fa 3f 3b f6 05 bf
       -0.6520266 -0.35733992 1.9587494 -0.5232884
000060 14 d4 0e 3f 32 9e 06 3f ef 36 5a 3f 18 4b cb be
       0.55792356 0.52585137 0.8524007 -0.3970573
000070 5c 71 00 3f 46 83 c9 3f fd d7 2b 3f de 1f b2 be
       0.5017297 1.5743186 0.67126447 -0.34789938
000080 8a 67 3b 3f 00 06 92 3f 04 df 0b 40 15 01 35 3f
       0.73204863 1.1408081 2.1854868 0.70704776
000090 65 fa 83 3f d2 f5 05 3f 60 c1 94 be ef 58 f5 be
       1.0310789 0.5232822 -0.29053783 -0.47919413
0000a0 03 c6 c4 3f 50 6f 05 40 55 93 33 3f 03 08 1b 3f
       1.5372928 2.084919 0.70146686 0.605591
0000b0 d0 5e 1a bf b6 c9 8e 3f 02 ee eb be fc 0f bd 3f
       -0.6030092 1.1155307 -0.46080023 1.4770503
0000c0 fa de c0 3f 6d 59 0d 3f 13 0d fd 3f 42 8a 93 be
       1.5068047 0.5521458 1.9769615 -0.2881642
0000d0 1d 7f f7 3d 43 12 ec 3d d5 1b 1e 3e fb 5a c4 3f
       0.12084792 0.11526921 0.15440305 1.5340265
0000e0 1a 43 95 bd 67 f5 ac 3f 11 6c 26 bf 1f b5 30 3f
       -0.07288189 1.3512391 -0.65008646 0.6902637
0000f0 3b 33 a3 3f 09 86 d1 be 80 aa 8d b9 7d ba d0 3f
       1.2750009 -0.40922573 -0.00027020648 1.6306912
000100 cd 60 54 3f b3 d8 4a 3f 5e 93 df be f1 ee 1b 3f
       0.82960206 0.79236907 -0.4366712 0.6091147
000110 10 28 44 3f 51 cf 33 bf a9 b8 db be bd f6 9a 3f
       0.7662363 -0.70238215 -0.42914322 1.2106549
000120 2c 5f c9 be 57 35 04 bf 53 98 f6 be f3 8b b9 be
       -0.39330423 -0.5164389 -0.4816309 -0.36239585
000130 e6 45 b6 3f 85 3a 40 3f da ae 8a 3f 5f 63 c8 be
       1.4240081 0.75089294 1.083461 -0.39138314
000140 d3 9d 75 3f 80 af 50 3f 4d 17 e8 be 9e fe b8 3f
       0.95943946 0.8151779 -0.45330277 1.4452703
000150 c9 f9 df be da a3 92 3f b5 47 91 3f ee 84 a1 3f
       -0.43745258 1.1456254 1.1350008 1.2618692
000160 48 1e 38 3f a6 7b e8 3f 4d 70 38 be 4c f9 d7 3f
       0.71921206 1.8162735 -0.1801159 1.6872954
000170 5c d1 b5 3f 11 08 a0 3f bf a6 af 3f bf 5c 1f 40
       1.4204516 1.2502462 1.3722762 2.4900358
000180 92 fa 1c 3f 5b 14 9f 3f a8 b5 cb 3f 7b 10 cf 3f
       0.6131984 1.2428087 1.5914812 1.6176904
000190 af 5c 99 3f 67 68 3f 3f 80 fc ff be 54 33 e3 3f
       1.198141 0.7476868 -0.4999733 1.7750039
0001a0 c3 67 55 3f 3e 7f cc 3f 04 e7 e2 3f c6 a9 84 3f
       0.8336145 1.5976331 1.772675 1.0364311
0001b0 22 93 2c 3f 9a 50 ec 3f 37 24 0d 3e 5a 37 07 40
       0.67412007 1.8462098 0.13783346 2.1127534
0001c0 d0 21 9d 3f 51 15 a3 3f 5e 39 fd be bf 75 58 3f
       1.2275944 1.274088 -0.4945783 0.84554666
0001d0 2b 18 a2 be c8 63 ec be 8b 46 fe 3f 23 08 44 3f
       -0.31659064 -0.46169877 1.9865278 0.76574916
0001e0 b8 65 60 3f 94 13 b1 3f dc 00 5e 3f 1a 03 80 3f
       0.8765521 1.38341 0.8672006 1.0000947
0001f0 fa 59 48 3f 28 d2 d2 be bd f0 20 3f ae ea a8 3e
       0.78262293 -0.41175961 0.6286734 0.32991546

model.classifier.weight f4 [54, 128]
000000 9e b6 62 3e 86 25 98 3c 1e a2 df 3e 68 d8 46 3f
       0.22139975 0.01857258 0.43678373 0.7767396
000010 8c 5f 05 3e cf 28 24 3f cd 51 9c 3f c2 2a e2 3f
       0.1302473 0.6412477 1.2212464 1.7669299
000020 80 fe 8a bf f1 a9 4d 3e df 13 eb bd 07 48 a3 bf
       -1.0858917 0.20084359 -0.114783995 -1.2756356
000030 c1 b7 19 bf 2b 0a a1 3d c8 8b 4a be 74 fd 19 bd
       -0.6004601 0.078632675 -0.19779885 -0.037595227
000040 38 d1 35 3d 67 54 9f 3e 99 e1 20 3d c0 58 bd 3c
       0.04438898 0.3111908 0.039277647 0.023113608
000050 00 0d d5 3d a8 3b 7d bd b9 39 5b 3e 82 3a c2 ba
       0.1040287 -0.06182447 0.21408738 -0.0014818462
000060 12 03 d9 bf ec 0c f3 be f0 d2 a0 bd 51 77 97 3c
       -1.6954062 -0.47470796 -0.07852733 0.018489512
000070 6b 67 72 3e 2f f1 67 3f 9e a5 0f bf 1e 58 1e 3d
       0.23672263 0.9060239 -0.56112087 0.038658254
000080 9c 84 db 3e c2 16 11 3e 26 16 a5 3d cc 89 c8 3e
       0.4287461 0.14168838 0.08060865 0.3916763
000090 d8 23 02 3f 62 83 81 3e 3b 7c 12 3e a0 e2 07 3e
       0.50835943 0.2529555 0.14305203 0.13270044
0000a0 d4 28 8c 3e b3 3d 49 be 15 20 de 3c 1d 56 b9 3e
       0.273749 -0.19652443 0.027114907 0.36198512
0000b0 27 33 92 3d a3 e3 e7 bd f2 39 52 bd ed 32 11 bf
       0.07138663 -0.11322715 -0.051324792 -0.5671833
0000c0 f8 73 80 bd 45 7c e8 be b4 1a 81 bf 87 63 92 3d
       -0.06272119 -0.4540731 -1.0086274 0.071478896
0000d0 26 7b 7d 3e 26 f6 f4 3d 67 3a e0 3d c9 19 2e bf
       0.24754009 0.119610116 0.10948639 -0.68008095
0000e0 83 40 50 3e 11 f8 bc bf f9 68 45 3d c5 f5 c6 3d
       0.2033711 -1.4763204 0.048195813 0.097148456
0000f0 01 bc 94 bf 4c 24 8f 3c 45 94 36 3e 28 b6 6e 3f
       -1.1619874 0.017473362 0.17829998 0.932467
000100 28 17 7b 3e 03 d6 3a 3e ed 47 c7 3d bf 31 91 3e
       0.24520552 0.18245701 0.09730516 0.28358266
000110 f2 7a eb 3e fc 51 ce 3d ec 00 ad 3d f0 35 c1 be
       0.45992237 0.10074231 0.084474415 -0.37736464
000120 34 6f 0a bd 5e be c3 3d e2 a5 94 3d 81 aa e2 bc
       -0.033797458 0.09557794 0.07258202 -0.027669193
000130 57 9c c8 bf 8e df fb 3e 0b 9b 8d 3f 25 fc f7 3d
       -1.5672711 0.49193996 1.106294 0.1210864
000140 64 87 af bf 42 9b ac 3d 04 b5 77 bd c1 14 bb be
       -1.3713193 0.084280506 -0.060475364 -0.3653927
000150 f7 5f 9c 3d 94 8d 72 be 2e 30 b4 3e 10 cb 9d be
       0.07635491 -0.2368682 0.35193008 -0.30818987
000160 9b f7 aa 3e 04 dd a4 be 7c d8 8f 3d a7 20 9c 3f
       0.33392033 -0.32199872 0.07023713 1.2197465
000170 44 04 aa 3a 79 d3 c7 3e af fb b7 bf 4f 67 3a bf
       0.0012971242 0.39028528 -1.4373683 -0.72813886
000180 83 d7 54 3d be f2 d9 bf e7 58 88 bf cd 9a 8f 3d
       0.05196334 -1.7027204 -1.0652131 0.07011948
000190 98 60 15 be cf 4c d5 3e 1c 0d 95 bc 5b 62 5d be
       -0.14587629 0.41660163 -0.018194728 -0.21619551
0001a0 45 d0 89 be c2 47 c3 be 4d 9b a4 3f 6c 88 2a 3e
       -0.2691671 -0.38140684 1.2859894 0.16653603
0001b0 71 62 d5 3d 0c 4b a9 bf e4 0b e8 be 98 b0 3f bf
       0.10419167 -1.3226027 -0.45321572 -0.74878836
0001c0 cf ca 93 3e 25 e1 e9 3f d9 c5 b6 3e 56 fc 58 be
       0.28865668 1.8271834 0.3569782 -0.21190009
0001d0 5a 80 9b bd fb 0e 98 3d 21 a2 4c bf d5 91 e3 be
       -0.075928405 0.07424732 -0.7993489 -0.444472
0001e0 e1 1e 8a bf 03 f9 16 3e 12 50 9c be 9a 00 1b bf
       -1.0790673 0.14743428 -0.3052984 -0.6054779
0001f0 37 58 df 3d 2c 44 06 3b 5a 0e ca 3d 23 8c 64 3e
       0.109054975 0.002048741 0.098660186 0.22319083
000200 be 96 e5 bd d0 25 49 3e 14 29 1e 40 e2 1b f8 be
       -0.112103924 0.1964333 2.4712572 -0.48458773
000210 a9 f3 65 3e 2d d7 0b 40 0d b7 13 bf 0c 42 e6 be
       0.2245623 2.1850083 -0.5770119 -0.44972265
000220 68 e1 73 bf f7 3c 51 3e 16 0a 35 bf c8 ad de 3d
       -0.9526582 0.20433412 -0.70718515 0.1087299
000230 d0 2b 2e be 5c 5b 2b bf b7 f0 0e 3f fc 31 2d 3f
       -0.170089 -0.6693628 0.5583605 0.67654395
000240 a2 22 03 3e dc 64 04 3f c6 d7 86 3e 4b bb 54 3e
       0.1280618 0.517164 0.26336497 0.20774572
000250 71 4b 03 3e 39 92 94 bd af 19 d2 bf 1f 7e e1 3d
       0.12821747 -0.07254452 -1.6414088 0.11010384
000260 74 31 35 3f 78 21 ee 3e f3 af 23 bf 8d 76 ab 3e
       0.70778584 0.4650991 -0.6394035 0.33488885
000270 39 46 fb be bc 61 92 3f 8a 21 09 bd 17 b5 4b 3e
       -0.49077013 1.1436076 -0.03347925 0.19893299
000280 2c 36 57 bf fb 74 16 3f 14 59 1a bf d1 92 68 be
       -0.84067035 0.5877225 -0.6029217 -0.22712256
000290 8e 03 05 3f 68 9a 21 3f 78 67 13 bd 00 4b 84 3e
       0.5195855 0.6312623 -0.035987347 0.2583847
0002a0 ac 6d 30 bf 8d 7b 08 40 00 57 e3 3e 88 76 e4 3c
       -0.68917346 2.132541 0.44402313 0.027888551
0002b0 d6 79 77 3e 2b 16 6f bf 8f 70 14 3e 63 b8 1b bf
       0.2416757 -0.933932 0.14496063 -0.60828227
0002c0 a1 ce fb be 3c 63 16 be 45 70 9c bf f5 65 24 3e
       -0.49181083 -0.14686292 -1.2221762 0.16054519
0002d0 61 0d 5a be 65 5c ce 3d 78 1c 38 be 45 2d 59 bf
       -0.21294166 0.100762166 -0.1797961 -0.848347
0002e0 c4 93 02 bf 76 52 2d 3f e2 6f 5b 3e 3c 1b d9 3d
       -0.5100672 0.6770395 0.21429399 0.10600898
0002f0 21 69 94 bf 9b 34 34 3e 42 41 98 bd dc 5e 28 3e
       -1.1594583 0.17598192 -0.07434322 0.16442436
000300 ea a4 88 3e ea c4 8e 3f 08 85 a1 3e 5c ec 84 3e
       0.2668832 1.1153843 0.31546807 0.25961578
000310 15 d0 a0 be d0 59 48 3e cd c7 64 3d 7d a4 30 be
       -0.31408754 0.19565511 0.055854607 -0.17250247
000320 5e 44 e1 3d 1d d1 45 3e e8 dc 93 3e 89 84 47 3e
       0.10999368 0.19318052 0.28879476 0.19484152
000330 7f 28 b5 bf c2 7e 07 3e 52 e4 a8 3f 5c ff 89 3e
       -1.4152983 0.13231948 1.3194678 0.26952636
000340 ac b3 80 bf e8 f7 f7 3d 93 3e eb bc e0 bb 03 be
       -1.0054832 0.12107831 -0.028716361 -0.12864637
000350 19 0f 67 3e 20 7e c9 bf e4 b2 5d 3e 9d f3 36 3f
       0.22564353 -1.5741615 0.21650273 0.71465474
000360 92 12 12 be 74 bb ce be 53 b4 86 3e 95 15 15 be
       -0.14264897 -0.4037739 0.2630945 -0.14559014
000370 84 2c 86 bd b0 4b 0b c0 d1 a7 8c bf 49 d6 7f bd
       -0.065514594 -2.1764946 -1.0988714 -0.062460218
000380 60 f8 36 bf e8 d4 8d be 65 0a 66 bf 63 f4 55 40
       -0.7147274 -0.27701497 -0.8985961 3.3430412
000390 15 84 80 bf 66 db e3 be 07 cc 36 3d d8 b4 89 3e
       -1.0040308 -0.44503325 0.04462817 0.26895785
0003a0 80 5f 63 3d 48 3c a6 be 81 6b 2f bf b5 fd 5d bd
       0.055510998 -0.32467866 -0.6852341 -0.054197032
0003b0 02 74 28 3f 8b 2a 17 c0 9a 26 b9 bd ad d7 5c 3f
       0.65802014 -2.3619716 -0.09040566 0.86266595
0003c0 39 7f b0 3d c0 dc 1d bf c4 bc ab bc ba 76 65 3f
       0.08618016 -0.6166496 -0.020964034 0.8963429
0003d0 93 4d d2 3d 9e eb 6c 3e 08 ef d2 bf 0e 39 26 bf
       0.10268702 0.23136756 -1.6479197 -0.6493081
0003e0 80 c0 0e 3e 3f 50 c3 bf 86 12 0d bf a3 8f dc be
       0.1394062 -1.5258864 -0.5510639 -0.43078336
0003f0 28 1e 51 3c c3 90 38 3e cd 9e 91 be 16 7f a5 be
       0.0127635375 0.18023972 -0.28441468 -0.3232352

model.classifier.bias f4 [54]
000000 32 7a 3c 3d ac 9d 9c 3e a6 19 23 be 0c 39 5c 3d
       0.046014972 0.30589044 -0.15927753 0.05376534
000010 12 71 1c be 35 87 b7 3d 62 65 79 bc f8 8b 5f be
       -0.15277508 0.089613356 -0.015221925 -0.21830738
000020 5d ec 16 be 11 0f 2a 3d 2f 6b d8 3e 49 99 8d bd
       -0.14738603 0.041518275 0.42269275 -0.069140024
000030 29 4c 22 3c 51 8b 0c 3e 56 28 a2 bd 4f 29 2d 3d
       0.009905853 0.1372502 -0.0791785 0.042275723
000040 58 20 b5 bd b4 83 55 be 3f 7d 0e 3c 8f ad 29 3d
       -0.0884406 -0.20851022 0.008696853 0.041425284
000050 bb 01 94 bd 19 f0 89 3e 40 cc 23 be b0 2e 10 be
       -0.072268926 0.26940992 -0.15995884 -0.1408031
000060 93 ec 17 bc b0 89 2c 3d 46 28 06 be 1d 08 84 3c
       -0.009272712 0.042123497 -0.131013 0.01611715
000070 2e cf 88 bd bb 05 4f 3e af f4 1f be 2c b8 83 3e
       -0.066801414 0.2021703 -0.15620683 0.2572645
000080 9c 5c e5 bd 22 bd 31 be f9 0b 27 be eb d1 0d bd
       -0.111993045 -0.17357305 -0.16313161 -0.03462402
000090 0e 2e 6a be 11 18 1b 3c 59 a9 8d 3d ff 7a 6e bd
       -0.22869131 0.009466187 0.06917066 -0.058222767
0000a0 5e 4d a5 bd f8 f7 0f bd 14 54 e5 3d 3e 8b 2d bd
       -0.08071397 -0.03514859 0.11197677 -0.04236912
0000b0 69 ad 8e 3d 12 61 b1 3e 86 3d 34 bd 46 48 cc 3d
       0.06966669 0.3464437 -0.044003986 0.099747226
0000c0 a4 1b 09 3e 33 20 31 be 34 87 8c bd de 7a 8e 3e
       0.1338945 -0.1729744 -0.068617254 0.27828115
0000d0 9e 54 5c bd 82 02 01 3e
       -0.053791635 0.12598613
