dl/experiments/basic_cnn/runs/2024-05-19-15-58-30/checkpoints/epoch-043_0.910158.ckpt (torch, 917116 bytes, 8 tensors)

model.embedding.weight f4 [2049, 64]
-1.2417657 0.43824425 -0.815492 -0.25322133 1.3365105 0.0027693955 0.42424017 -0.3661175
1.1397866 -0.23629107 -0.216638 -0.10235507 -0.011660041 -0.3515114 0.51453346 -0.67250794
-1.0900537 1.5066713 -0.5616489 -0.39600244 -0.071525306 -0.6304117 0.020377506 0.25280467
0.8462511 0.40854087 0.60389525 0.60973597 1.2400976 -0.31346148 -1.0766554 0.44504058
-0.57455677 0.27347356 0.46686274 0.36107433 0.0829475 -0.46376067 -0.22253543 0.2255447
0.8925747 -0.15380475 1.6373858 -0.25053027 -0.25749615 0.27889556 0.7470299 -0.17487258
0.7853957 -0.11380497 -0.35561365 0.30359986 1.0898 0.4869037 -0.9670189 -0.82502437
1.7880579 0.18846348 -0.65216076 -0.011183065 -0.46674255 0.90382147 0.20767935 0.024532089
-0.17980157 1.8808122 -0.82655776 1.2165145 -0.8678088 1.174255 0.49112555 -0.37622958
-0.1945635 1.3453362 -0.011100327 -0.19806848 -1.6299537 0.46986812 1.2969693 0.55312073
-0.44997302 -1.28902 -1.4339119 -0.84213895 -0.39479357 -0.7209265 0.71994704 1.4321427
-0.33840948 0.10193319 -0.20852832 0.92478174 0.4628451 -0.1702546 -1.39498 -1.9127228
-0.17247348 -1.6133347 0.32108617 -0.50674534 -1.3978684 0.08397268 -0.23491155 0.2409993
0.06512955 0.5310088 0.08591239 0.78456455 0.2529828 -0.89424026 0.6386001 0.8084072
1.1061118 1.7906219 0.21126461 0.10900735 0.2255115 0.4869777 1.0873553 0.902501
0.055208523 -0.11564726 1.5396595 0.15251246 0.05221674 -0.6604917 0.22729939 -0.33906484
0.80535907 -0.57331204 0.17309995 -0.011894346 -0.4141912 0.17370386 -0.12790067 -1.4130657
1.4343337 0.61484903 2.022664 -0.17443535 1.4987645 0.39600185 0.5705119 -1.167327
-2.6030047 1.825666 -1.0761702 -0.3289659 0.8945158 -0.28165662 -0.44663253 1.4282649
0.17827958 -0.43825284 -0.9148458 0.10039495 -0.70136213 1.1572193 0.03684519 -0.6706577
0.6440196 -1.8418893 1.2418736 -1.5576041 0.15644112 0.82349056 0.6257435 -1.4524
-0.6447837 -0.24392232 -0.737155 -0.12606382 -0.26895162 -0.44614354 -0.6415553 0.37881932
-1.2840432 -0.3418687 1.4678276 -0.76603764 -0.09857819 0.8837102 -0.6554354 0.18439977
-0.41833112 -1.3845886 -0.69543386 -0.57714504 1.3034179 -0.5393469 -0.33978435 0.7491117
-1.0479362 -1.5705307 -0.88704956 -1.9309388 1.2912477 1.1001711 -1.0378168 -1.8499339
1.6833472 1.2928381 -0.10454848 0.2986417 -0.39134976 -0.39486143 1.224057 -0.5531638
-1.1918632 -0.5516519 0.13399552 1.9421885 -0.35822967 -0.7657957 -2.0650268 -1.5717173
-0.3613538 -1.4037534 0.32775426 -1.24044 -1.0566634 0.54575235 0.30556223 -0.85264736
-1.5035185 -1.0528324 1.9101329 -1.9590485 -0.66636646 -0.76980036 1.1458726 -0.1523555
-1.0124153 1.8919398 -0.14530835 0.3694039 1.2706435 0.06715676 -0.5128644 -0.29863164
-0.4389765 0.29394832 0.10419875 0.7985324 -1.4752816 0.4546759 0.038826503 -0.6966065
0.48910585 -0.4055231 0.40229258 0.023875967 -0.40300196 1.3277301 0.3595019 -0.7332378
00000000: 2ef2 9ebf 8d61 e03e 15c4 50bf 3aa6 81be
00000010: c712 ab3f bf7e 353b 0236 d93e c173 bbbe
00000020: 87e4 913f 49f6 71be 5ad6 5dbe 899f d1bd
00000030: c209 3fbc 4df9 b3be 77b8 033f 7b29 2cbf
00000040: e186 8bbf 9bda c03f 39c8 0fbf d5c0 cabe
00000050: dc7b 92bd a962 21bf baee a63c 9d6f 813e
00000060: e9a3 583f 452c d13e e198 1a3f a817 1c3f
00000070: 85bb 9e3f 067e a0be d8cf 89bf 5cdc e33e
00000080: 2716 13bf ba04 8c3e a208 ef3e bcde b83e
00000090: 61e0 a93d 0a72 edbe 54e0 63be 31f5 663e
000000a0: c77f 643f fe7e 1dbe dc95 d13f 8145 80be
000000b0: 89d6 83be 66cb 8e3e 5a3d 3f3f cc11 33be
000000c0: b10f 493f 9512 e9bd fe12 b6be 7171 9b3e
000000d0: 917e 8b3f 714b f93e 8d8e 77bf cc34 53bf
000000e0: 15df e43f 92fc 403e 02f4 26bf 2d39 37bc
000000f0: e1f8 eebe d860 673f e5a9 543e 85f7 c83c
00000100: e71d 38be 74be f03f 4a99 53bf bfb6 9b3f
00000110: b828 5ebf fd4d 963f cf74 fb3e 2aa1 c0be
00000120: a73b 47be fa33 ac3f 25de 35bc 77d2 4abe
00000130: 53a2 d0bf 8e92 f03e 1703 a63f 5299 0d3f
00000140: dd62 e6be 9bfe a4bf 6d8a b7bf 6b96 57bf
00000150: 6222 cabe a48e 38bf 734e 383f 7450 b73f
00000160: 0244 adbe 59c2 d03d 7388 55be 7fbe 6c3f
00000170: 08fa ec3e 3957 2ebe b48e b2bf 1ad4 f4bf
00000180: e39c 30be c081 cebf 6865 a43e 10ba 01bf
00000190: 5aed b2bf def9 ab3d a78c 70be 85c8 763e
000001a0: a462 853d 31f0 073f d6f2 af3d 39d9 483f
000001b0: f686 813e eeec 64bf 4c7b 233f c6f3 4e3f
000001c0: 1295 8d3f 1933 e53f c055 583e 3f3f df3d
000001d0: 7dec 663e 2455 f93e 752e 8b3f 4e0a 673f
000001e0: 5522 623d 78d8 ecbd 9013 c53f 3a2c 1c3e
000001f0: 38e1 553d fc15 29bf 2cc1 683e e899 adbe
00000200: 032c 4e3f 94c4 12bf 1d41 313e 81e0 42bc
00000210: de10 d4be 6ddf 313e 65f8 02be 56df b4bf
00000220: 3f98 b73f bf66 1d3f 5473 0140 2e9f 32be
00000230: 84d7 bf3f c1c0 ca3e 110d 123f f96a 95bf
00000240: a197 26c0 6caf e93f f2bf 89bf 386e a8be
00000250: fdfe 643f 4c35 90be 05ad e4be 62d1 b63f
00000260: ec8e 363e ad62 e0be 5633 6abf de9b cd3d
00000270: 788c 33bf c31f 943f fbea 163d 39b0 2bbf
00000280: 78de 243f 07c3 ebbf b7f5 9e3f 925f c7bf
00000290: 1a32 203e 47d0 523f ba30 203f 3ee8 b9bf
000002a0: 8b10 25bf c6c6 79be 31b6 3cbf e016 01be
000002b0: 07b4 89be ed6c e4be f83c 24bf 9bf4 c13e
000002c0: 875b a4bf 6a09 afbe c6e1 bb3f 0b1b 44bf
000002d0: 5de3 c9bd d53a 623f 9dca 27bf 4bd3 3c3e
000002e0: 7f2f d6be 333a b1bf f407 32bf c7bf 13bf
000002f0: 66d6 a63f a312 0abf 37f8 adbe c9c5 3f3f
00000300: c622 86bf 2607 c9bf ae15 63bf 0129 f7bf
00000310: 9b47 a53f 68d2 8c3f 2ed7 84bf a2ca ecbf
00000320: ec77 d73f b87b a53f 831d d6bd 91e7 983e
00000330: ff5e c8be 472b cabe e6ad 9c3f 259c 0dbf
00000340: f98e 98bf 0f39 0dbf 1f36 093e a299 f83f
00000350: e169 b7be 300b 44bf 6629 04c0 082e c9bf
00000360: 5e03 b9be 31ae b3bf 68cf a73e bdc6 9ebf
00000370: bf40 87bf 6db6 0b3f a772 9c3e 1947 5abf
00000380: 4b73 c0bf 36c3 86bf 3c7f f43f 1ac2 fabf
00000390: fe96 2abf a311 45bf f4ab 923f 1503 1cbe
000003a0: d396 81bf 152b f23f b6cb 14be 8222 bd3e
000003b0: 72a4 a23f 7c89 893d 154b 03bf 3fe6 98be
000003c0: 87c1 e0be 6580 963e 2766 d53d 9f6c 4c3f
000003d0: 07d6 bcbf 48cb e83e 8a08 1f3d ce54 32bf
000003e0: 156c fa3e b9a0 cfbe 4bf9 cd3e 8897 c33c
000003f0: 4656 cebe 0ff3 a93f a210 b83e 79b5 3bbf

model.layers.block_0.conv.weight f4 [256, 64, 5]
-1.1601063 -0.634767 -1.2604089 0.20062377 -0.26212084 -0.37497327 0.9695818 1.4780916
0.9670179 -0.08724019 -1.0357783 -0.2136861 -1.6033355 0.5176917 0.22809589 0.9187647
0.62525463 1.264589 0.99043834 0.9989984 0.56329525 0.8324605 0.43379852 -0.4226505
0.1680645 -0.9513897 0.028731111 0.14095238 -0.685226 1.0490174 -0.8769389 -0.44068325
-0.51939833 -0.16236569 -0.5606234 -0.53708535 -1.033521 -1.5073152 -2.1511436 -0.32355645
-1.6275569 -0.32331064 -0.047715537 -0.67760235 -0.5277719 -1.320645 -1.1742797 -0.8240532
-1.075234 0.2575466 -1.214701 0.47797173 -0.36620396 0.16762343 0.2728048 0.11830589
0.44675305 0.062118653 0.9589008 0.51898295 0.64229095 -1.4937812 -0.71298593 0.5401905
-1.0843363 -0.0023608408 -2.0648775 -1.8617176 -1.2433676 -0.38357562 -2.3367612 -0.30769485
0.014571229 -0.3548595 0.625268 -0.14089824 -0.22687691 0.018520309 -1.7347033 -1.8898871
-0.7748337 0.69059485 -0.024405645 0.6736598 1.035524 0.634851 1.2288234 0.87909645
-0.09077457 0.0029212034 -0.046744388 -0.5503344 -1.0568982 -0.91692495 0.31542927 0.8832595
-0.3703758 -0.77296066 -0.3753009 -0.4879962 -0.2966389 -0.8556836 -0.5038214 0.45674428
0.20617108 0.70347136 0.55169517 0.23303528 -1.1415523 -0.41262633 -0.13430372 -0.38864046
-0.47161505 0.32685432 1.4604905 0.81756365 0.9421415 0.93646336 0.18873967 1.0321348
-1.7314332 -1.4755372 -0.927725 -0.41025895 0.9116982 -1.3594799 -1.3783402 -0.0040679006
0.36785552 -0.2264451 1.652347 -0.88407266 0.5426622 0.5406696 -0.8909772 0.47311047
-0.18583475 -0.3581486 1.2824231 0.367183 1.4439992 1.4075314 0.54334986 0.43943152
-0.19995125 0.40700418 2.1059458 1.5410271 0.31351626 0.13643344 0.07983961 -0.1966043
0.33358404 1.442971 -0.798165 0.4314275 0.17881943 -0.26635927 -0.20096134 -1.5774022
1.0505425 -0.1212175 -1.0077528 -1.7065139 -0.041329093 -0.26668945 0.59488887 0.7508894
0.6551554 -0.5111084 -0.13303946 1.3220106 0.9616415 0.78735447 1.2266384 1.5695657
0.43740398 -0.35686404 -1.0202873 -0.30300456 -0.47787908 0.76525044 0.767704 -0.9505904
0.17142884 1.4244009 0.7919064 0.83116287 2.5726829 -0.65868807 0.32709348 0.9185917
0.48737556 0.36160398 1.1856656 0.10620331 0.40455762 0.42415202 0.97224593 0.15300387
0.08475835 0.46904963 0.48810297 -0.47738433 -2.0199862 -0.58639294 -0.027027376 -0.9756529
-0.96011496 -1.2638259 -0.10095871 0.65163094 0.64387137 -0.39308867 0.3776507 -0.5309881
-1.0208877 -0.4555002 0.38255152 -0.5917637 0.4678834 0.9428992 1.1511304 0.20498699
0.29861486 0.16413957 0.96385914 0.6964143 -0.067758866 0.32636717 -0.9432907 -0.703803
-0.25871444 0.071714565 -0.65742487 1.2059336 1.386569 1.618164 0.40328845 -0.5125608
-1.1694341 -0.80542505 -1.047282 -0.28769106 0.4216444 -0.58892864 -1.0493058 -1.5857396
-0.8364766 -0.8730379 -1.3659786 -1.0506755 -0.7642849 -1.6987679 -0.16805398 -1.2073529
00000000: 5d7e 94bf 1780 22bf 1455 a1bf 5170 4d3e
00000010: b434 86be 7ffc bfbe 8336 783f 1b32 bd3f
00000020: 7c8e 773f fcaa b2bd 6294 84bf 87d0 5abe
00000030: 193a cdbf 7187 043f f891 693e 2a34 6b3f
00000040: b010 203f 0dde a13f 5e8d 7d3f 5cbe 7f3f
00000050: 1e34 103f 221c 553f d71a de3e a565 d8be
00000060: 1a19 2c3e 468e 73bf 825d eb3c d255 103e
00000070: f96a 2fbf 3446 863f 117f 60bf 3ca1 e1be
00000080: 4af7 04bf 3143 26be 0485 0fbf 6d7e 09bf
00000090: 6b4a 84bf b4ef c0bf 56ac 09c0 31a9 a5be
000000a0: c953 d0bf f988 a5be 5e71 43bd 5977 2dbf
000000b0: 0f1c 07bf e50a a9bf cc4e 96bf 27f5 52bf
000000c0: 45a1 89bf 26dd 833e 537b 9bbf b6b8 f43e
000000d0: 167f bbbe 7aa5 2b3e 12ad 8b3e 5c4a f23d
000000e0: d1bc e43e 2170 7e3d 867a 753f 11dc 043f
000000f0: 2e6d 243f 3934 bfbf 3f86 36bf ed49 0a3f
00000100: 88cb 8abf 56b8 1abb f426 04c0 c34c eebf
00000110: ab26 9fbf 0664 c4be 7f8d 15c0 2e8a 9dbe
00000120: 2abc 6e3c 25b0 b5be 9011 203f a147 10be
00000130: 6c52 68be e7b7 973c c20a debf d2e7 f1bf
00000140: 805b 46bf d3ca 303f 59ee c7bc f874 2c3f
00000150: 0d8c 843f 9885 223f 164a 9d3f 770c 613f
00000160: 05e8 b9bd a971 3f3b 0b77 3fbd b7e2 0cbf
00000170: 7148 87bf 98bb 6abf f27f a13e 4b1d 623f
00000180: e6a1 bdbe c0e0 45bf 7127 c0be a3da f9be
00000190: 0ee1 97be 150e 5bbf 70fa 00bf 63da e93e
000001a0: 831e 533e b316 343f e53b 0d3f cda0 6e3e
000001b0: 631e 92bf c243 d3be ea86 09be e2fb c6be
000001c0: 8777 f1be 7359 a73e 5af1 ba3f da4b 513f
000001d0: 2f30 713f 10bc 6f3f f944 413e fe1c 843f
000001e0: 9a9f ddbf 67de bcbf 637f 6dbf 760d d2be
000001f0: 0e65 693f 7003 aebf 746d b0bf 064c 85bb
00000200: 8f57 bc3e 39e1 67be 1b80 d33f 9652 62bf
00000210: e9eb 0a3f 5369 0a3f 1517 64bf 893b f23e
00000220: 774b 3ebe 415f b7be 7126 a43f 69ff bb3e
00000230: f7d4 b83f fd29 b43f fa18 0b3f 2bfd e03e
00000240: 05c0 4cbe da62 d03e d1c7 0640 6040 c53f
00000250: 3485 a03e 35b5 0b3e f382 a33d a352 49be
00000260: 87cb aa3e 46b3 b83f 8b54 4cbf 11e4 dc3e
00000270: 711c 373e 3e60 88be cfc8 4dbe 51e8 c9bf
00000280: 2d78 863f e140 f8bd 0bfe 80bf 0c6f dabf
00000290: b248 29bd 858b 88be a34a 183f 4a3a 403f
000002a0: 44b8 273f 00d8 02bf 7f3b 08be a537 a93f
000002b0: 232e 763f 1090 493f 7d02 9d3f 87e7 c83f
000002c0: 6af3 df3e e2b6 b6be c698 82bf 6a23 9bbe
000002d0: 91ac f4be 74e7 433f 4088 443f e459 73bf
000002e0: 0b8b 2f3e c552 b63f 61ba 4a3f 17c7 543f
000002f0: d6a6 2440 c89f 28bf cc78 a73e d328 6b3f
00000300: 4a89 f93e 2824 b93e e4c3 973f 1f81 d93d
00000310: 2d22 cf3e 742a d93e 1ce5 783f 0cad 1c3e
00000320: c995 ad3d 4627 f03e a2e8 f93e b86b f4be
00000330: 7447 01c0 d91d 16bf 8468 ddbc 63c4 79bf
00000340: 18ca 75bf 0cc5 a1bf 71c3 cebd 49d1 263f
00000350: c1d4 243f eb42 c9be 6f5b c13e d6ee 07bf
00000360: 73ac 82bf 5237 e9be cbdd c33e d37d 17bf
00000370: 6a8e ef3e d861 713f 3e58 933f 1ce8 513e
00000380: 0ce4 983e 3414 283e 79bf 763f 3548 323f
00000390: 29c5 8abd 9919 a73e 807b 71bf 6f2c 34bf
000003a0: 3876 84be 16df 923d ff4c 28bf 085c 9a3f
000003b0: 187b b13f ff1f cf3f d37b ce3e 2f37 03bf
000003c0: 04b0 95bf 5630 4ebf 560d 86bf 3e4c 93be
000003d0: c6e1 d73e 07c4 16bf a74f 86bf 84f9 cabf
000003e0: 5523 56bf 697f 5fbf 63d8 aebf 897c 86bf
000003f0: 2da8 43bf 3a71 d9bf 5816 2cbe 8a8a 9abf

model.layers.block_0.norm.weight f4 [256]
6.003407 7.465134 6.630629 6.627985 6.601818 6.8196745 5.152344 6.7978616
7.464829 6.85995 4.6464868 6.423284 6.049533 6.8346114 6.592393 6.318876
5.8608274 6.297143 5.7503157 6.8223453 6.383328 6.547322 5.6101737 6.717688
7.0106945 7.431133 6.140267 5.5916348 5.9164195 6.301238 6.458338 6.348592
7.0121408 6.95912 6.4519525 6.9398413 6.1582813 6.6197166 6.212335 6.382901
6.706908 6.1494718 6.6658487 6.2975802 7.019429 6.628163 6.5975046 6.57686
4.1192646 6.250165 6.209453 6.796313 6.467097 7.2467337 5.10947 7.2635794
6.499822 6.2533407 5.294847 6.099229 5.6910152 6.4470725 6.55723 6.9147267
5.9939756 6.2932734 6.704529 6.177943 6.427047 6.9177084 5.952057 5.672711
7.1557 4.702128 5.9204426 7.179722 6.2766743 5.718015 6.8857284 6.2347193
6.599239 6.6193137 6.902152 5.5173817 6.683415 6.425871 6.8915453 6.170816
5.141846 5.492694 7.8532467 7.1219273 6.233734 7.2462463 6.066737 6.710224
6.591722 6.344918 6.2651153 6.4095864 6.708012 6.2242236 7.2426605 7.5277185
6.204583 6.970385 7.01125 7.361133 6.5828695 5.2135844 6.9062347 6.514917
6.604994 6.198836 6.810212 6.5533977 6.146737 5.74337 7.654089 5.9540544
6.0685687 7.024092 6.687498 7.367143 6.989953 5.8743134 6.0102816 6.2353225
6.4433794 7.2538834 7.068463 6.930107 6.9024453 6.7514577 6.3831244 6.968201
4.299459 6.388467 6.8731475 7.048063 6.330401 6.7625675 7.414096 6.465409
6.1610503 6.685522 8.031721 4.3139205 6.4396887 6.795253 6.7247043 5.933077
6.023512 5.6472664 6.3710146 5.496791 6.1017394 6.335486 4.779133 5.786659
8.23333 7.4080224 6.2200913 6.889418 5.948553 7.043044 5.27723 8.126621
6.2184362 6.2906394 6.1130676 5.2822595 4.51662 5.1580424 7.5846634 5.4608455
6.795303 7.898552 6.345658 5.414653 4.310377 6.842111 6.4927588 7.6116567
6.3460584 6.342948 6.197944 5.3573804 5.4636545 6.0981135 6.884597 6.519366
4.699137 6.0789413 5.632041 4.9979753 6.750746 6.3595204 7.9063163 6.247043
6.624637 5.977706 7.0292835 6.270696 6.6235027 5.661034 6.0847898 6.8005357
6.6857963 6.4651346 5.9373307 7.4581656 7.6932383 6.264952 5.610438 6.096492
5.901784 7.681531 6.4018393 6.2848907 5.6135926 6.701242 6.2281704 5.3683834
6.2616477 6.208945 7.418936 6.088207 6.1851964 7.151148 5.774755 6.629276
6.2843204 6.116298 6.508965 6.2167625 6.971289 6.602688 6.0917764 7.057819
6.9560733 5.793338 6.431895 3.9131129 7.1710715 6.5168295 6.8499713 7.0941844
6.9324384 7.1364126 7.3987617 7.1278086 6.501157 5.562959 7.162897 7.198277
00000000: e91b c040 61e2 ee40 1d2e d440 7418 d440
00000010: 1842 d340 c63a da40 01e0 a440 1588 d940
00000020: e1df ee40 b684 db40 05b0 9440 8b8b cd40
00000030: c695 c140 23b5 da40 e2f4 d240 3b34 ca40
00000040: e68b bb40 3282 c940 9602 b840 a750 da40
00000050: 3944 cc40 a983 d140 8b86 b340 4df7 d640
00000060: 9c57 e040 d7cb ed40 117d c440 acee b240
00000070: 4f53 bd40 bea3 c940 b4aa ce40 aa27 cb40
00000080: 7563 e040 1cb1 de40 6576 ce40 2e13 de40
00000090: a410 c540 b8d4 d340 73cb c640 ba40 cc40
000000a0: fe9e d640 79c8 c440 a24e d540 c785 c940
000000b0: 2a9f e040 e919 d440 c21e d340 a375 d240
000000c0: 04d1 8340 5a01 c840 d7b3 c640 657b d940
000000d0: 75f2 ce40 3ee5 e740 c780 a340 3e6f e840
000000e0: 8bfe cf40 5e1b c840 636f a940 e22c c340
000000f0: cc1c b640 6b4e ce40 d4d4 d140 7145 dd40
00000100: a6ce bf40 7f62 c940 808b d640 b6b1 c540
00000110: 5eaa cd40 de5d dd40 4077 be40 d986 b540
00000120: 7ffb e440 d577 9640 4474 bd40 48c0 e540
00000130: 84da c840 fbf9 b640 e357 dc40 d282 c740
00000140: f72c d340 6bd1 d340 6ede dc40 648e b040
00000150: 89de d540 bca0 cd40 8a87 dc40 5377 c540
00000160: 018a a440 26c4 af40 cc4d fb40 d4e6 e340
00000170: c07a c740 40e1 e740 b622 c240 28ba d640
00000180: 63ef d240 9109 cb40 d37b c840 551b cd40
00000190: 09a8 d640 d72c c740 e0c3 e740 12e3 f040
000001a0: f28b c640 650d df40 295c e040 678e eb40
000001b0: dea6 d240 afd5 a640 e0ff dc40 337a d040
000001c0: 1c5c d340 dd5c c640 42ed d940 6fb5 d140
000001d0: 12b2 c440 b0c9 b740 4cee f440 9d87 be40
000001e0: b731 c240 5dc5 e040 fcff d540 a3bf eb40
000001f0: b2ad df40 60fa bb40 3a54 c040 c387 c740
00000200: 2a30 ce40 d01f e840 d930 e240 70c3 dd40
00000210: d5e0 dc40 f10b d840 8e42 cc40 81fb de40
00000220: 2b95 8940 526e cc40 d3f0 db40 bb89 e140
00000230: a592 ca40 f466 d840 4640 ed40 a1e4 ce40
00000240: 5327 c540 ccef d540 ee81 0041 a30b 8a40
00000250: ee11 ce40 b672 d940 c730 d740 c4db bd40
00000260: 9cc0 c040 68b6 b440 5adf cb40 b6e5 af40
00000270: 7341 c340 4dbc ca40 a8ee 9840 4f2c b940
00000280: b8bb 0341 850e ed40 fd0a c740 1d76 dc40
00000290: 8c5a be40 9e60 e140 11df a840 a406 0241
000002a0: 6efd c640 eb4c c940 409e c340 4508 a940
000002b0: 2788 9040 af0e a540 90b5 f240 3fbf ae40
000002c0: 1f73 d940 f0c0 fc40 a10f cb40 d644 ad40
000002d0: 9cee 8940 93f2 da40 aec4 cf40 b192 f340
000002e0: e912 cb40 6ef9 ca40 8f55 c640 a96f ab40
000002f0: 42d6 ae40 bf23 c340 9e4e dc40 a59e d040
00000300: 555f 9640 b086 c240 ae39 b440 6aef 9f40
00000310: 1c06 d840 3181 cb40 8b00 fd40 c7e7 c740
00000320: 07fd d340 5e49 bf40 e4ef e040 8ba9 c840
00000330: bcf3 d340 3127 b540 99b6 c240 fd9d d940
00000340: 0bf2 d540 62e2 ce40 9dfe bd40 4ba9 ee40
00000350: 022f f640 7d7a c840 b588 b340 7616 c340
00000360: 6adb bc40 1acf f540 dedb cc40 d31d c940
00000370: 8da2 b340 9370 d640 2c4d c740 ccc9 ab40
00000380: 6b5f c840 adaf c640 ec67 ed40 97d2 c240
00000390: 21ed c540 34d6 e440 cbca b840 0723 d440
000003a0: 2719 c940 b7b8 c340 7149 d040 b8ef c640
000003b0: cd14 df40 3849 d340 d5ef c240 a7d9 e140
000003c0: 2798 de40 0663 b940 15d2 cd40 7170 7a40
000003d0: 6b79 e540 de89 d040 f732 db40 8f03 e340
000003e0: 89d6 dd40 7e5d e440 a8c2 ec40 0217 e440
000003f0: 7a09 d040 c303 b240 7436 e540 4958 e640

model.layers.block_0.norm.bias f4 [256]
-1.8760357 -1.9197026 -2.0348194 -1.9005224 -2.5627408 -2.4148107 -1.6126245 -2.0113826
-2.9140754 -2.399678 -0.75039405 -1.8223323 -2.230557 -2.4418392 -2.075287 -2.3191884
-1.902644 -1.8764212 -1.6094745 -2.6662123 -2.3439353 -1.930705 -1.3807292 -2.6507707
-2.4870558 -2.4699855 -1.8135475 -1.6797643 -2.1100683 -1.6618383 -1.5472435 -1.562011
-2.1641657 -2.4725325 -2.21939 -2.4244514 -1.9163681 -1.9726937 -2.1170168 -2.3128393
-2.5142355 -1.5547519 -2.2095428 -1.2993593 -1.4605126 -1.5030301 -1.9277616 -2.0147173
-1.0018837 -2.0464308 -1.747745 -2.2869608 -1.9067283 -1.8899132 -1.1978179 -1.9485401
-2.1162276 -2.355875 -1.4601876 -2.1580393 -1.446575 -1.613632 -2.441326 -2.283662
-1.5927293 -2.2742004 -2.2057247 -2.0510726 -1.6638347 -1.8124483 -1.762007 -1.8714329
-2.3189976 -1.3263143 -1.8776307 -2.2709002 -1.5359179 -1.5128127 -1.8226378 -1.5395647
-2.2954516 -2.1128285 -2.4628296 -1.1784124 -1.9270425 -1.9829332 -2.3728535 -2.0966697
-1.4134898 -1.6776743 -2.2192333 -2.793446 -2.2775698 -2.209717 -1.8112458 -2.2249148
-1.9506229 -2.0707145 -1.6105955 -1.8333422 -1.5041867 -2.0089123 -2.6437924 -1.6387887
-1.6262782 -1.9584212 -2.1106818 -2.1353865 -2.2805681 -1.1942432 -1.9909155 -1.8488809
-2.06731 -1.6712222 -2.0750346 -1.9221232 -1.9422232 -1.6960926 -2.4693954 -1.6554341
-1.8194244 -1.7968649 -2.1270144 -2.1751049 -2.2073984 -1.1327776 -1.8795372 -1.7307423
-2.0396402 -1.8566868 -2.3495493 -2.3720133 -1.9573176 -2.0638316 -1.5609953 -1.9349581
-1.5661197 -2.2925515 -2.5506258 -2.4701703 -2.3367138 -2.136311 -2.6368272 -1.9622283
-1.5780016 -2.7233186 -1.9636574 -1.4839122 -1.706068 -1.6838014 -2.5283883 -2.1048198
-2.0956216 -1.5608535 -1.5649453 -1.890616 -1.6028109 -1.8089787 -1.5297507 -1.445349
-1.9100162 -2.2683327 -2.1331844 -1.8697014 -1.8829248 -1.9212617 -1.1013871 -2.17845
-1.9220223 -1.8763393 -1.9175814 -0.6607988 -1.4685131 -0.98481935 -2.6190767 -1.6085025
-2.1497362 -3.093466 -1.7663617 -1.4243906 -1.1199596 -2.2943995 -1.4069804 -2.278753
-1.5409461 -2.0303855 -1.7533172 -1.8368466 -1.8719177 -1.8132937 -1.6923425 -1.9167793
-2.0555508 -1.8389322 -1.7367845 -0.96132696 -2.444648 -2.0694432 -2.6697805 -2.0779774
-2.4043996 -1.4517705 -1.9031848 -1.936458 -1.7919943 -2.0430791 -2.8309104 -2.0073478
-1.8594218 -1.9885455 -1.7216226 -2.475817 -2.7845497 -1.8516583 -2.0170958 -1.4364281
-2.2005658 -2.3041284 -1.6935945 -1.8051647 -1.3779187 -1.8449622 -2.2783654 -1.3805621
-1.4132987 -2.0525966 -1.8703792 -2.090039 -1.9217414 -2.3302438 -1.6370499 -2.8121626
-1.9577838 -1.1450281 -1.4793645 -1.4554983 -2.2912447 -1.4431335 -1.8348314 -1.6417053
-1.9044632 -1.8359734 -1.4111067 -0.66336715 -2.3965807 -2.0043602 -1.7817605 -2.0315356
-1.8718632 -2.2356622 -2.7152205 -1.7656192 -1.9965699 -1.3181914 -1.5385541 -2.0608203
00000000: f021 f0bf d1b8 f5bf 7b3a 02c0 5144 f3bf
00000010: f203 24c0 428c 1ac0 7b6a cebf 7eba 00c0
00000020: 3680 3ac0 5394 19c0 d319 40bf 2f42 e9bf
00000030: 72c1 0ec0 1847 1cc0 81d1 04c0 956d 14c0
00000040: d789 f3bf 922e f0bf 4303 cebf 39a3 2ac0
00000050: 0903 16c0 5721 f7bf bcbb b0bf 3aa6 29c0
00000060: ec2b 1fc0 3e14 1ec0 5322 e8bf 8402 d7bf
00000070: 5c0b 07c0 1eb7 d4bf 130c c6bf faef c7bf
00000080: b181 0ac0 f93d 1ec0 7c0a 0ec0 362a 1bc0
00000090: 8d4b f5bf 3a81 fcbf 347d 07c0 8f05 14c0
000000a0: 3ce9 20c0 1c02 c7bf 2669 0dc0 6851 a6bf
000000b0: 14f2 babf 4a63 c0bf e4c0 f6bf 21f1 00c0
000000c0: ba3d 80bf b9f8 02c0 1cb6 dfbf 915d 12c0
000000d0: ac0f f4bf ade8 f1bf 1952 99bf c369 f9bf
000000e0: 4670 07c0 a8c6 16c0 6de7 babf 511d 0ac0
000000f0: 5f29 b9bf 7e8b cebf af3e 1cc0 8527 12c0
00000100: 8ede cbbf 808c 11c0 982a 0dc0 c644 03c0
00000110: 89f8 d4bf 4efe e7bf 7289 e1bf 1d8b efbf
00000120: 756a 14c0 abc4 a9bf 3456 f0bf 6e56 11c0
00000130: f598 c4bf d9a3 c1bf 324c e9bf 7510 c5bf
00000140: aee8 12c0 9538 07c0 009f 1dc0 38d6 96bf
00000150: 54a9 f6bf c1d0 fdbf d5dc 17c0 d62f 06c0
00000160: 3ced b4bf 08be d6bf eb07 0ec0 d2c7 32c0
00000170: b4c3 11c0 016c 0dc0 e7d6 e7bf 0165 0ec0
00000180: 03ae f9bf 9686 04c0 fe27 cebf f5aa eabf
00000190: 3189 c0bf 0592 00c0 e533 29c0 d4c3 d1bf
000001a0: e229 d0bf 8cad fabf 6915 07c0 2caa 08c0
000001b0: d4f4 11c0 f6dc 98bf 52d6 febf 21a8 ecbf
000001c0: cf4e 04c0 9cea d5bf 5ecd 04c0 2208 f6bf
000001d0: c59a f8bf 9019 d9bf 930a 1ec0 44e5 d3bf
000001e0: e6e2 e8bf abff e5bf 0121 08c0 eb34 0bc0
000001f0: 0446 0dc0 dbfe 90bf ad94 f0bf f788 ddbf
00000200: 7789 02c0 eaa7 edbf 045f 16c0 11cf 17c0
00000210: 6289 fabf d115 04c0 b2ce c7bf b5ac f7bf
00000220: 9c76 c8bf 2ab9 12c0 743d 23c0 4517 1ec0
00000230: b88c 15c0 52b9 08c0 c7c1 28c0 4c2a fbbf
00000240: f5fb c9bf da4a 2ec0 2059 fbbf d6f0 bdbf
00000250: 7060 dabf ce86 d7bf 1dd1 21c0 5eb5 06c0
00000260: aa1e 06c0 0cca c7bf 2150 c8bf b5ff f1bf
00000270: e828 cdbf 9d8c e7bf dfce c3bf 3201 b9bf
00000280: 697b f4bf 5d2c 11c0 1886 08c0 6052 efbf
00000290: ae03 f1bf e7eb f5bf 41fa 8cbf ba6b 0bc0
000002a0: d404 f6bf e32b f0bf 4f73 f5bf 1c2a 29bf
000002b0: 3df8 bbbf 1f1d 7cbf f49e 27c0 69e3 cdbf
000002c0: 4795 09c0 59fb 45c0 2418 e2bf 6e52 b6bf
000002d0: d65a 8fbf 71d7 12c0 ef17 b4bf 17d7 11c0
000002e0: b93d c5bf d6f1 01c0 b36c e0bf ca1d ebbf
000002f0: 009b efbf 021a e8bf ae9e d8bf 0659 f5bf
00000300: 258e 03c0 2162 ebbf f44e debf 8619 76bf
00000310: 1d75 1cc0 c271 04c0 afdd 2ac0 95fd 04c0
00000320: afe1 19c0 9ed3 b9bf 8f9b f3bf dbdd f7bf
00000330: 1260 e5bf cfc1 02c0 a32d 35c0 6378 00c0
00000340: 8901 eebf a988 febf 215e dcbf c973 1ec0
00000350: 1036 32c0 2403 edbf 1918 01c0 e0dc b7bf
00000360: 12d6 0cc0 d776 13c0 b4c7 d8bf a30f e7bf
00000370: a45f b0bf b927 ecbf bdd0 11c0 42b6 b0bf
00000380: f9e6 b4bf be5d 03c0 9668 efbf 33c3 05c0
00000390: 9ffb f5bf b722 15c0 da8a d1bf 79fa 33c0
000003a0: a998 fabf 4890 92bf d15b bdbf c54d babf
000003b0: c1a3 12c0 99b8 b8bf c1db eabf 6623 d2bf
000003c0: 73c5 f3bf 2d01 ebbf 259f b4bf 6ed2 29bf
000003d0: 9461 19c0 7047 00c0 ba10 e4bf ae04 02c0
000003e0: 3799 efbf 1715 0fc0 2cc6 2dc0 cfff e1bf
000003f0: 9a8f ffbf 7fba a8bf 57ef c4bf 7be4 03c0

model.layers.block_0.norm.running_mean f4 [256]
-3.754686 -3.1328635 -3.324527 -3.3587189 -4.5957937 -3.1371112 -2.016953 -3.5382035
-4.9171968 -2.9072013 -3.1503224 -3.534268 -1.2579485 -2.736434 -3.8217108 -4.3798356
-4.1042423 -1.8589721 -3.2225544 -4.867402 -4.5609727 -3.3237717 0.641374 -4.689516
-4.4557533 -3.9735992 -3.753418 -3.5298634 -4.7556734 -2.624275 -2.8016167 -2.5049043
-3.79899 -4.2673745 -4.187642 -4.119548 -3.6933124 -3.4708774 -4.096013 -4.149445
-2.4918125 -2.6740847 -3.8355305 -2.2353652 -1.4672086 -2.404989 -3.5021138 -3.7234948
-2.3198895 -3.6407855 -3.2390423 -3.8677769 -3.4294052 -3.1491091 -1.4567937 -3.4419746
-3.7031858 -3.9866142 -3.0085678 -4.177519 -2.850533 -1.9971008 -4.5196466 -3.8787718
-2.203359 -4.6377187 -3.4471629 -3.022197 -1.5700855 -2.8940961 -3.5406797 -3.670439
-4.1007166 -0.3623719 -3.293187 -3.4566388 -2.5137963 -3.13771 -2.9806533 -2.6633065
-4.067504 -3.7316248 -3.5098224 -1.6473312 -3.1437552 -3.3226829 -3.3165598 -3.5584517
-3.2761092 -3.5253785 -3.6179225 -4.8798575 -4.539093 -3.6639931 -3.2933385 -4.034498
-2.9258225 -2.4635835 -1.5981625 -3.4777753 -2.6105654 -3.713643 -4.281724 -2.277389
-2.7905493 -3.2816021 -3.4358768 -3.5350335 -4.1684866 -2.0987232 -3.405207 -3.462434
-3.8732362 -3.1745243 -2.2915394 -3.690823 -3.7120566 -3.0264995 -3.8685687 -3.3963685
-2.9259806 -2.8991203 -4.0035243 -3.7213986 -3.8028698 -1.2390888 -2.538987 -2.807735
-2.9017472 -2.820222 -3.7033029 -3.9123747 -3.3634028 -3.0136044 -2.4704545 -2.5444572
-1.61943 -4.3137126 -4.6373672 -3.561069 -4.8206797 -3.8489416 -4.4563313 -1.9741418
-2.6144044 -5.3220325 -2.6001136 -4.3408375 -2.8462522 -2.8214443 -4.7227774 -4.251095
-3.7583396 -1.9776441 -2.8294153 -2.8032196 -2.748435 -2.9171023 -3.4362755 -2.8105695
-2.874647 -3.7641325 -4.0042324 -2.5475452 -3.8680446 -3.0067444 -2.258652 -3.2291703
-3.4852765 -0.9996536 -3.9703348 -2.1962297 -3.912967 -2.2124522 -4.2619843 -3.3025963
-3.672628 -5.119989 -0.045554277 -3.0944476 -4.037137 -4.0589705 -2.1311786 -3.3594005
-2.3983386 -2.9042864 -2.8172653 -3.685763 -4.469399 -3.6775405 -2.688572 -3.168866
0.6171903 -3.3556638 -3.6723034 -2.9711535 -0.7868216 -3.7073529 -4.043085 -4.2355547
-4.5376573 -2.8441563 -2.3876245 -3.5525095 -3.093676 -4.009293 -2.188503 -3.1394753
-3.2642918 -3.6133337 -3.1466522 -3.9509962 -4.634963 -3.4264066 -2.579216 -2.7066426
-4.1336527 -3.7087746 -3.0755424 -3.3136322 -2.1889563 -3.0761209 -4.5255547 -2.7626302
-2.3083975 -2.1919844 -2.8835573 -4.1246567 -3.5666268 -3.7850485 -3.5153883 -1.8711681
-3.7589934 -1.867927 -2.5161977 -2.608681 -3.6998105 -2.195471 -3.4469197 -2.1660705
-3.0966544 -3.4059296 -2.4467645 -2.805006 -2.5023568 -3.8367212 -2.8802652 -3.1645737
-3.09644 -2.2965868 -4.415275 -2.9296584 -3.7529998 -2.7485406 -2.1191978 -2.9626153
00000000: c74c 70c0 d680 48c0 0dc5 54c0 40f5 56c0
00000010: be10 93c0 6ec6 48c0 c215 01c0 ed71 62c0
00000020: ad59 9dc0 960f 3ac0 e29e 49c0 7231 62c0
00000030: 7504 a1bf bc21 2fc0 e996 74c0 9d27 8cc0
00000040: f455 83c0 ccf2 edbf 553e 4ec0 c2c1 9bc0
00000050: 7df3 91c0 adb8 54c0 1631 243f 8410 96c0
00000060: 8895 8ec0 734f 7ec0 0038 70c0 48e9 61c0
00000070: 7a2e 98c0 1ff4 27c0 b04d 33c0 5a50 20c0
00000080: a722 73c0 558e 88c0 2a01 86c0 56d3 83c0
00000090: 3b5f 6cc0 db22 5ec0 8a12 83c0 41c8 84c0
000000a0: db79 1fc0 3424 2bc0 5579 75c0 3910 0fc0
000000b0: 7ecd bbbf 57eb 19c0 a222 60c0 bd4d 6ec0
000000c0: 1279 14c0 a102 69c0 784c 4fc0 a889 77c0
000000d0: 607b 5bc0 018b 49c0 3778 babf 5049 5cc0
000000e0: ff00 6dc0 b024 7fc0 608c 40c0 3cae 85c0
000000f0: 226f 36c0 00a1 ffbf f2a0 90c0 cc3d 78c0
00000100: d503 0dc0 3168 94c0 519e 5cc0 ad6b 41c0
00000110: 90f8 c8bf df38 39c0 7f9a 62c0 79e8 6ac0
00000120: 1239 83c0 cf88 b9be 93c3 52c0 9239 5dc0
00000130: 0ae2 20c0 3ed0 48c0 06c3 3ec0 9d73 2ac0
00000140: fe28 82c0 f1d2 6ec0 eea0 60c0 c0db d2bf
00000150: 4933 49c0 d6a6 54c0 8442 54c0 acbd 63c0
00000160: c6ab 51c0 cd9f 61c0 0b8c 67c0 cb27 9cc0
00000170: 4040 91c0 dd7e 6ac0 0fc6 52c0 9c1a 81c0
00000180: ad40 3bc0 5aab 1dc0 9790 ccbf df93 5ec0
00000190: 8113 27c0 54ac 6dc0 e203 89c0 bec0 11c0
000001a0: 5c98 32c0 c505 52c0 68e5 5bc0 fd3d 62c0
000001b0: 3e64 85c0 7b51 06c0 e9ee 59c0 8598 5dc0
000001c0: 1ae3 77c0 682b 4bc0 95a8 12c0 7236 6cc0
000001d0: 5692 6dc0 2bb2 41c0 a196 77c0 1a5e 59c0
000001e0: 4443 3bc0 308b 39c0 df1c 80c0 652b 6ec0
000001f0: 3862 73c0 769a 9ebf c37e 22c0 eeb1 33c0
00000200: 3ab6 39c0 847e 34c0 ea02 6dc0 5964 7ac0
00000210: fe41 57c0 e5de 40c0 ed1b 1ec0 63d8 22c0
00000220: 7b49 cfbf ef09 8ac0 5065 94c0 8ee8 63c0
00000230: 0243 9ac0 0f55 76c0 449a 8ec0 aeb0 fcbf
00000240: 6752 27c0 174e aac0 4368 26c0 24e8 8ac0
00000250: ff28 36c0 8b92 34c0 fe20 97c0 f808 88c0
00000260: a388 70c0 7123 fdbf 2415 35c0 f367 33c0
00000270: 5ce6 2fc0 ceb1 3ac0 f0eb 5bc0 5fe0 33c0
00000280: 37fa 37c0 8ce7 70c0 ac22 80c0 fb0a 23c0
00000290: 0b8e 77c0 806e 40c0 c18d 10c0 baaa 4ec0
000002a0: c50e 5fc0 4ce9 7fbf f719 7ec0 078f 0cc0
000002b0: 0d6e 7ac0 d198 0dc0 2d62 88c0 bd5d 53c0
000002c0: 560c 6bc0 f3d6 a3c0 1f97 3abd 6e0b 46c0
000002d0: 3a30 81c0 16e3 81c0 3b65 08c0 6b00 57c0
000002e0: 617e 19c0 d4df 39c0 134e 34c0 8ae3 6bc0
000002f0: 5105 8fc0 d35c 6bc0 9011 2cc0 b3ce 4ac0
00000300: 2f00 1e3f 32c3 56c0 0507 6bc0 6127 3ec0
00000310: 246d 49bf 4545 6dc0 f460 81c0 aa89 87c0
00000320: 7d34 91c0 a806 36c0 d7ce 18c0 515c 63c0
00000330: cafe 45c0 214c 80c0 6f10 0cc0 2aed 48c0
00000340: 28ea 50c0 dc40 67c0 c062 49c0 1fdd 7cc0
00000350: 9e51 94c0 3f4a 5bc0 e011 25c0 a239 2dc0
00000360: e246 84c0 905c 6dc0 b0d5 44c0 8d12 54c0
00000370: dc17 0cc0 2adf 44c0 58d1 90c0 efce 30c0
00000380: c9bc 13c0 7949 0cc0 348c 38c0 30fd 83c0
00000390: 9d43 64c0 3c3e 72c0 1ffc 60c0 7082 efbf
000003a0: 5993 70c0 3b18 efbf 6209 21c0 a1f4 26c0
000003b0: b2c9 6cc0 9982 0cc0 559a 5cc0 e6a0 0ac0
000003c0: 962f 46c0 c0fa 59c0 ca97 1cc0 3885 33c0
000003d0: 9d26 20c0 d78c 75c0 4456 38c0 6088 4ac0
000003e0: 132c 46c0 47fb 12c0 ef49 8dc0 867f 3bc0
000003f0: 2631 70c0 17e8 2fc0 f0a0 07c0 7d9b 3dc0

model.layers.block_0.norm.running_var f4 [256]
186.01437 179.8053 176.55681 170.43616 174.80858 163.50375 162.90714 175.88655
191.93808 186.89708 193.36142 194.0173 163.79941 161.59885 173.41968 174.6103
195.4967 166.32602 171.97403 192.8055 185.25972 165.16039 177.08337 169.9725
193.56377 171.9453 210.39485 168.5457 211.2026 175.39445 164.12068 157.55492
171.84189 180.47012 181.73131 172.27425 177.9965 176.71788 177.15169 171.24263
176.99342 163.31691 160.97186 156.2808 171.20471 178.32874 170.42383 169.91241
173.96625 203.31393 166.21442 169.2775 165.68399 164.02208 143.03813 183.45804
165.80782 181.56642 173.38885 167.69067 153.16887 181.35423 174.92943 168.50655
169.61034 197.76575 166.14476 161.82085 184.59647 165.01892 207.03688 168.90283
182.30666 168.18181 162.41122 178.34126 172.50267 174.3266 159.95921 156.28026
179.95932 166.55472 169.60776 142.47127 141.85107 156.9471 170.7678 163.53076
193.8288 159.51953 207.20999 182.07278 183.07275 181.5198 159.23817 173.87898
173.65504 154.39345 166.52931 184.86899 179.82599 166.4646 173.20497 188.72687
152.12775 166.03194 171.86737 177.1609 184.9615 164.30545 191.40102 171.19296
192.96605 188.90384 171.63637 197.33408 158.88004 162.2293 166.15161 189.48494
174.19284 174.93512 177.29538 190.70392 169.07762 168.6813 167.91074 181.85239
162.92055 191.3774 180.05444 158.4965 179.76547 171.15858 153.21912 163.8822
128.30188 170.61475 169.21614 163.12027 197.18535 171.81833 188.26799 171.03493
157.6278 204.35406 168.42755 175.81319 146.3109 184.17061 187.7273 168.81541
188.45424 154.67482 156.57768 152.614 159.67177 168.85678 162.8347 160.14693
188.84668 179.9549 171.9356 163.39032 186.04971 174.55458 149.4159 183.23494
171.96945 169.39012 193.01593 162.15422 173.3724 166.48999 190.66927 167.43352
176.03421 203.57222 170.51422 161.47394 181.73308 180.32254 166.07043 183.93642
158.29259 150.5349 159.02684 182.1905 203.54915 190.44183 183.22644 180.95596
159.1945 161.14365 169.15196 180.17722 175.18524 171.07262 179.2147 187.08289
177.42319 183.1001 182.08405 180.83725 167.0488 164.15155 160.90129 168.92596
185.46654 164.09212 160.51051 177.59952 195.25949 191.50313 159.01254 180.28938
170.15427 198.53261 175.67316 162.33939 170.233 166.67368 187.5974 157.95778
159.4356 172.72786 176.20792 170.96404 195.61497 178.37498 181.29721 157.05
197.84694 162.3823 165.96109 166.72957 166.62831 169.6413 164.41081 161.42299
162.29979 167.36086 173.77184 164.9647 175.54697 191.50595 172.20671 151.30812
167.47609 169.87538 183.26959 170.38469 190.83095 173.75557 154.59082 171.09476
00000000: ae03 3a43 28ce 3343 8b8e 3043 a86f 2a43
00000010: ffce 2e43 f680 2343 3ae8 2243 f5e2 2f43
00000020: 26f0 3f43 a7e5 3a43 865c 4143 6e04 4243
00000030: a6cc 2343 4e99 2143 706b 2d43 3d9c 2e43
00000040: 287f 4343 7653 2643 5af9 2b43 35ce 4043
00000050: 7d42 3943 0f29 2543 5815 3143 f6f8 2943
00000060: 5390 4143 fff1 2b43 1565 5243 b38b 2843
00000070: de33 5343 fb64 2f43 e51e 2443 0f8e 1d43
00000080: 86d7 2b43 5a78 3443 37bb 3543 3546 2c43
00000090: 1bff 3143 c7b7 3043 d526 3143 1d3e 2b43
000000a0: 51fe 3043 2151 2343 ccf8 2043 e347 1c43
000000b0: 6834 2b43 2854 3243 806c 2a43 94e9 2943
000000c0: 5cf7 2d43 5e50 4b43 e436 2643 0a47 2943
000000d0: 1aaf 2543 a705 2443 c309 0f43 4275 3743
000000e0: cdce 2543 0191 3543 8c63 2d43 d0b0 2743
000000f0: 3b2b 1943 af5a 3543 efed 2e43 ad81 2843
00000100: 3f9c 2943 08c4 4543 0f25 2643 23d2 2143
00000110: b298 3843 d804 2543 7109 4f43 20e7 2843
00000120: 814e 3643 8b2e 2843 4669 2243 5d57 3243
00000130: af80 2c43 9c53 2e43 8ff5 1f43 bf47 1c43
00000140: 96f5 3343 028e 2643 969b 2943 a578 0e43
00000150: e0d9 0d43 75f2 1c43 8fc4 2a43 e087 2343
00000160: 2cd4 4143 0085 1f43 c235 4f43 a212 3643
00000170: a012 3743 1285 3543 f93c 1f43 05e1 2d43
00000180: b1a7 2d43 b964 1a43 8187 2643 76de 3843
00000190: 74d3 3343 f076 2643 7934 2d43 14ba 3c43
000001a0: b420 1843 2d08 2643 0cde 2b43 3129 3143
000001b0: 25f6 3843 324e 2443 a966 3f43 6631 2b43
000001c0: 4ff7 4043 62e7 3c43 e9a2 2b43 8655 4543
000001d0: 4ae1 1e43 b33a 2243 d026 2643 257c 3d43
000001e0: 5e31 2e43 64ef 2e43 9e4b 3143 34b4 3e43
000001f0: df13 2943 6aae 2843 26e9 2743 36da 3543
00000200: a9eb 2243 9d60 3f43 f00d 3443 1b7f 1e43
00000210: f6c3 3343 9928 2b43 1838 1943 d8e1 2343
00000220: 484d 0043 609d 2a43 5537 2943 ca1e 2343
00000230: 732f 4543 7ed1 2b43 9b44 3c43 f108 2b43
00000240: b8a0 1d43 a45a 4c43 746d 2843 2dd0 2f43
00000250: 974f 1243 ad2b 3843 30ba 3b43 bfd0 2843
00000260: 4974 3c43 c1ac 1a43 e393 1c43 2f9d 1843
00000270: f9ab 1f43 56db 2843 afd5 2243 9d25 2043
00000280: c0d8 3c43 74f4 3343 83ef 2b43 ec63 2343
00000290: ba0c 3a43 f98d 2e43 786a 1543 253c 3743
000002a0: 2ef8 2b43 df63 2943 1404 4143 7b27 2243
000002b0: 565f 2d43 707d 2643 55ab 3e43 fb6e 2743
000002c0: c208 3043 7d92 4b43 a483 2a43 5479 2143
000002d0: abbb 3543 9252 3443 0812 2643 b9ef 3743
000002e0: e74a 1e43 ef88 1643 df06 1f43 c530 3643
000002f0: 958c 4b43 1c71 3e43 f839 3743 baf4 3443
00000300: cb31 1f43 c624 2143 e726 2943 5e2d 3443
00000310: 6c2f 2f43 9712 2b43 f736 3343 3815 3b43
00000320: 566c 3143 a019 3743 8415 3643 56d6 3443
00000330: 7e0c 2743 cc26 2443 bbe6 2043 0ced 2843
00000340: 6f77 3943 9517 2443 b182 2043 7a99 3143
00000350: 6e42 4343 cd80 3f43 3603 1f43 154a 3443
00000360: 7e27 2a43 5988 4643 54ac 2f43 e256 2243
00000370: a63b 2a43 76ac 2643 ef98 3b43 31f5 1d43
00000380: 836f 1f43 55ba 2c43 3a35 3043 cbf6 2a43
00000390: 6f9d 4343 ff5f 3243 164c 3543 cd0c 1d43
000003a0: d1d8 4543 de61 2243 0af6 2543 c5ba 2643
000003b0: d9a0 2643 2ca4 2943 2b69 2443 496c 2143
000003c0: bf4c 2243 615c 2743 97c5 2d43 f7f6 2443
000003d0: 068c 2f43 8681 3f43 eb34 2c43 e14e 1743
000003e0: e179 2743 19e0 2943 0445 3743 7b62 2a43
000003f0: b9d4 3e43 6dc1 2d43 4097 1a43 4218 2b43

model.classifier.weight f4 [54, 256]
0.71106577 0.5292022 1.0764371 0.3830843 -2.1947508 -2.254706 -0.26651844 -1.3813238
-4.308578 -0.6637671 -0.26727933 -0.39576718 0.5901476 1.1690743 0.70287824 1.183707
-0.0692695 0.9028443 -1.5384427 -0.5791726 1.3550203 -2.2906802 0.8332904 1.6729288
-1.1506386 1.3945423 -0.96999663 -2.4698377 -0.39524204 0.2107017 0.24128126 -0.44475964
-1.1525482 1.7909098 -1.6290636 0.96875095 0.563158 0.20768355 -3.1542883 -0.19338278
-2.2672222 1.978832 1.4927827 0.120968126 -2.4305236 0.08261764 -2.9762187 -2.2065167
0.0057281274 0.73089767 1.14804 0.97510016 -0.4849039 1.5341146 1.1780688 0.60130274
0.42992732 -2.4862914 0.88327944 0.55474 0.24201412 1.4756407 0.070608936 -2.7117739
-0.25584295 -0.5462103 2.4198928 1.4538498 -0.51357245 3.122804 -0.36777705 1.949278
-1.9715321 0.47747496 1.7295456 -0.5459656 -0.014653707 0.6030562 0.6019724 0.18049286
-0.79489416 -4.5009103 1.2183552 0.23678733 1.3225683 0.3509219 0.6882902 0.21402587
-0.4445706 -1.2378627 -4.5683517 2.2883396 1.9816316 -2.1361594 0.91238153 -0.45357662
-3.796422 0.8437382 1.1325593 -2.7378843 0.68547356 0.1385167 0.29433262 -1.5357343
2.007522 -0.7616186 -4.1045084 -1.2128088 -0.6540653 -2.398458 -2.2802334 -1.5510038
1.0063215 -0.4275299 0.12186223 1.3428195 -2.2215145 1.1754314 -1.1333979 0.28483582
1.103992 -2.814212 0.3724918 -0.6556697 -1.5133775 0.36894354 -1.9943843 -0.11600188
1.1880028 -0.6200057 -0.2494242 1.023673 -0.34233934 -2.6128292 -0.34547147 -1.8278785
-1.1216122 1.3099704 1.0083188 -2.133928 0.70001525 0.15556136 1.0098959 1.6133215
0.030618427 1.8183768 0.7616648 1.3410964 -1.0155883 1.9531437 -0.6731837 2.50722
0.60410213 -0.69125664 0.028220117 0.31043774 1.3150197 -1.9671512 0.2741517 0.11701653
0.42020872 1.9624443 1.5594845 0.508386 1.5172839 -1.8844383 -0.4298382 0.60716504
-1.5789578 0.30147964 0.7109057 0.7608218 0.45269436 0.08459308 -0.31763342 0.27013907
-1.134594 -1.4499087 1.8749568 -0.6661539 2.2278018 -0.8277451 -0.6363095 -1.7920319
1.0015091 -1.4955577 -1.4823924 0.98000973 -0.78855854 0.32384682 1.1387792 0.06102413
-1.6964502 0.48360372 0.7466954 -0.56264484 -0.11425792 -1.0530928 -1.1779802 -0.59955305
-1.287205 1.828761 -0.38684142 2.2928896 -0.6647762 1.0535532 -0.18167669 -1.7319742
-0.06550468 -0.798414 0.6108025 1.2723066 -0.2771575 1.0515671 -0.020785378 -0.79965436
-0.40740785 -0.14290568 0.2754075 -0.69493014 -1.8739222 2.804081 1.3511262 -0.20121013
1.0632234 -0.6607139 1.032307 -0.7666975 -2.3192797 1.4635289 -0.050858613 -0.16315432
-1.3919148 0.45696217 0.33830053 -0.88819164 1.0381109 1.0659379 -1.9179946 3.0829563
0.92113864 -1.6895429 1.1365325 0.59667665 0.08809775 -2.089994 -0.06261996 -3.4907987
-1.8803988 -2.8367977 -2.5861585 -0.56079644 1.6138147 0.8457449 -1.1033366 0.005829471
00000000: 6808 363f cc79 073f b1c8 893f a023 c43e
00000010: cc76 0cc0 1a4d 10c0 1b75 88be 38cf b0bf
00000020: dfdf 89c0 a4ec 29bf d6d8 88be ffa1 cabe
00000030: ea13 173f 3aa4 953f d4ef 333f b683 973f
00000040: 2bdd 8dbd ce20 673f b1eb c4bf a844 14bf
00000050: 4e71 ad3f 819a 12c0 8552 553f 8822 d63f
00000060: 2048 93bf 5d80 b23f b351 78bf d211 1ec0
00000070: 2a5d cabe 30c2 573e 6f12 773e 89b7 e3be
00000080: b386 93bf 883c e53f 2885 d0bf 1000 783f
00000090: 1f2b 103f ffaa 543e dcdf 49c0 2306 46be
000000a0: 2b1a 11c0 5e4a fd3f 8113 bf3f 23be f73d
000000b0: b38d 1bc0 7033 a93d 5e7a 3ec0 9237 0dc0
000000c0: 04b3 bb3b 1c1c 3b3f faf2 923f 2aa0 793f
000000d0: 5345 f8be de5d c43f f5ca 963f faee 193f
000000e0: 6f1f dc3e 661f 1fc0 9a1e 623f 7103 0e3f
000000f0: 8dd2 773e cbe1 bc3f 6b9b 903d b48d 2dc0
00000100: d9fd 82be 70d4 0bbf 86df 1a40 c017 ba3f
00000110: 7c79 03bf 05dc 4740 464d bcbe f181 f93f
00000120: 2a5b fcbf 9977 f43e c061 dd3f 67c4 0bbf
00000130: 1a16 70bc e461 1a3f dd1a 1a3f 1fd3 383e
00000140: 2f7e 4bbf 7507 90c0 10f3 9b3f 6178 723e
00000150: eb49 a93f 09ac b33e c933 303f 9929 5b3e
00000160: c29e e3be 4972 9ebf f02f 92c0 2874 1240
00000170: 1ba6 fd3f d6b6 08c0 d691 693f 323b e8be
00000180: 94f8 72c0 3aff 573f b4f7 903f 7f39 2fc0
00000190: 327b 2f3f 52d7 0d3e c4b2 963e f192 c4bf
000001a0: 3e7b 0040 70f9 42bf 2258 83c0 523d 9bbf
000001b0: d370 27bf 5680 19c0 58ef 11c0 4b87 c6bf
000001c0: 25cf 803f 33e5 dabe e892 f93d 82e1 ab3f
000001d0: 4b2d 0ec0 8974 963f 2f13 91bf 00d6 913e
000001e0: 9c4f 8d3f 0d1c 34c0 3fb7 be3e f8d9 27bf
000001f0: 5bb6 c1bf 2be6 bc3e fc47 ffbf 6592 edbd
00000200: 7a10 983f b2b8 1ebf 0f69 7fbe b807 833f
00000210: 1a47 afbe 9838 27c0 a3e1 b0be ecf7 e9bf
00000220: fd90 8fbf 1cad a73f 9710 813f 4792 08c0
00000230: 3334 333f 7a4b 1f3e 4544 813f 5281 ce3f
00000240: 7fd3 fa3c 92c0 e83f 77fc 423f 0ca9 ab3f
00000250: ccfe 81bf 9d00 fa3f c455 2cbf 4b76 2040
00000260: 70a6 1a3f 32f6 30bf e02d e73c b2f1 9e3e
00000270: 9152 a83f 9ccb fbbf 9d5d 8c3e 5da6 ef3d
00000280: 9925 d73e 6031 fb3f 309d c73f 9625 023f
00000290: 5c36 c23f 4635 f1bf c113 dcbe 2b6f 1b3f
000002a0: 4a1b cabf 8a5b 9a3e eafd 353f 38c5 423f
000002b0: 8ec7 e73e 233f ad3d d9a0 a2be ab4f 8a3e
000002c0: 603a 91bf 9c96 b9bf 96fe ef3f 1089 2abf
000002d0: 4e94 0e40 1ae7 53bf 2ee5 22bf 4d61 e5bf
000002e0: 7331 803f 6f6e bfbf 09bf bdbf ebe1 7a3f
000002f0: f9de 49bf 40cf a53e 84c3 913f 70f4 793d
00000300: 4825 d9bf e89a f73e 6e27 3f3f 7e09 10bf
00000310: 0e00 eabd bfcb 86bf 0ec8 96bf 4f7c 19bf
00000320: 22c3 a4bf d714 ea3f 1410 c6be b4be 1240
00000330: c62e 2abf d5da 863f 7409 3abe 55b1 ddbf
00000340: 5127 86bd dc64 4cbf 8d5d 1c3f f1da a23f
00000350: 96e7 8dbe c099 863f 1946 aabc 26b6 4cbf
00000360: c397 d0be de55 12be 3602 8d3e f1e6 31bf
00000370: afdc efbf 1076 3340 b4f1 ac3f 070a 4ebe
00000380: b417 883f 8c24 29bf a322 843f 4a46 44bf
00000390: 146f 14c0 ea54 bb3f 1f51 50bd ed11 27be
000003a0: 442a b2bf f2f6 e93e ba35 ad3e 8760 63bf
000003b0: d1e0 843f a770 883f d980 f5bf 284f 4540
000003c0: becf 6b3f f142 d8bf e679 913f cdbf 183f
000003d0: 986c b43d 76c2 05c0 e53e 80bd 3f69 5fc0
000003e0: e8b0 f0bf 188e 35c0 9f83 25c0 5b90 0fbf
000003f0: 7b91 ce3f bd82 583f 223a 8dbf 2605 bf3b

model.classifier.bias f4 [54]
0.49238205 0.8859199 -0.15380514 -0.35743144 -0.06457659 -0.06850579 0.4897094 -0.68616354
-0.6579153 0.022197595 1.3697538 -0.19689354 -0.59615326 0.4659359 -0.21651077 -0.7314537
-0.12932281 -0.9697306 -0.40120587 -0.29721302 -0.10764802 0.5603484 -0.8890161 0.22613175
0.3541456 -1.2579588 -0.4344292 -0.40759984 -0.09982549 -0.29452088 -0.35007882 1.4959204
-0.8173589 -0.4224017 0.13864909 -0.8148642 -0.5775327 -0.09452468 0.40128154 0.2491015
0.14731973 0.0416231 0.054273754 -0.15252574 0.061635714 0.50211906 -0.737776 0.045021217
-0.21844423 -0.24210973 0.23305364 0.51474833 -0.50177866 -0.10170971
00000000: 8019 fc3e a6cb 623f 187f 1dbe 4101 b7be
00000010: bb40 84bd c34c 8cbd 31bb fa3e 6aa8 2fbf
00000020: 236d 28bf bbd7 b53c 1854 af3f 769e 49be
00000030: 809d 18bf 268f ee3e 00b5 5dbe 8d40 3bbf
00000040: 336d 04be 4440 78bf db6a cdbe 4e2c 98be
00000050: 9176 dcbd fe72 0f3f 8f96 63bf 158f 673e
00000060: 9252 b53e cb04 a1bf 816d debe edb0 d0be
00000070: 4e71 ccbd 71cb 96be 883d b3be 527a bf3f
00000080: 6f3e 51bf 0945 d8be 07fa 0d3e f19a 50bf
00000090: 2fd9 13bf 2896 c1bd c674 cd3e 7714 7f3e
000000a0: fcda 163e fc7c 2a3d 284e 5e3d b52f 1cbe
000000b0: bb75 7c3d e08a 003f e3de 3cbf 2b68 383d
000000c0: d8af 5fbe 9deb 77be 9da5 6e3e 8cc6 033f
000000d0: 9174 00bf 2e4d d0bd
