dl/experiments/basic_cnn/runs/2024-05-19-15-58-30/checkpoints/last.ckpt (torch, 917116 bytes, 8 tensors)

model.embedding.weight f4 [2049, 64]
000000 70 b1 9e bf 3c 61 d8 3e e6 ad 52 bf 28 cb 96 be
       -1.23979 0.42261684 -0.822966 -0.2945187
000010 04 4a a5 3f f0 8e 14 3c a4 f7 d9 3e 63 38 b0 be
       1.2913213 0.009067282 0.42571747 -0.3441802
000020 77 77 94 3f d7 1a 7d be 95 49 55 be 96 41 ee bd
       1.1598958 -0.2471727 -0.2082885 -0.11633603
000030 24 50 a9 bc 05 d4 bc be 72 1a 07 3f 9b a3 2a bf
       -0.020668097 -0.36880508 0.5277473 -0.6665589
000040 37 96 87 bf 98 1e bb 3f bc db 12 bf e7 b4 d3 be
       -1.0592717 1.4618711 -0.5736654 -0.41348955
000050 e3 4c 80 bd 07 01 1b bf e2 9e a7 bc 5f 5c 88 3e
       -0.06264665 -0.6054844 -0.020461503 0.26632974
000060 33 18 56 3f 8d 0d d9 3e 76 bc 18 3f 32 b7 16 3f
       0.83630675 0.4239315 0.5966257 0.58873284
000070 6d ce a0 3f af 03 ae be 81 d0 8a bf 28 58 ce 3e
       1.2562996 -0.33987185 -1.084488 0.40301633
000080 10 f6 0f bf 9e a6 8d 3e 1d 02 ef 3e 28 a9 c9 3e
       -0.56234837 0.2766618 0.466813 0.39386868
000090 52 61 2e 3d a0 55 e0 be c0 ca 53 be 21 1c 79 3e
       0.04257328 -0.43815327 -0.20682812 0.24327137
0000a0 ba 7d 65 3f 5a aa 24 be 43 44 ce 3f a4 00 6c be
       0.8964497 -0.16080609 1.6114582 -0.2304712
0000b0 6d 0a 81 be 9a 2b a2 3e 2d d1 3b 3f a2 a1 23 be
       -0.25203267 0.3167389 0.7336605 -0.15979627
0000c0 ff b0 46 3f a4 0d 03 be cf 74 b6 be 58 b1 95 3e
       0.77613825 -0.12798172 -0.35635993 0.29236865
0000d0 6c ea 89 3f 69 87 fd 3e ee ee 78 bf 11 eb 55 bf
       1.0774665 0.49517372 -0.9723958 -0.8356181
0000e0 23 ae e0 3f db ff 65 3e 31 28 22 bf ea c6 fc 3c
       1.7553142 0.22460882 -0.6334258 0.030856568
0000f0 d7 e9 f4 be f9 a4 5a 3f e7 a7 5e 3e dd 0e 22 3d
       -0.47834656 0.8540798 0.21743737 0.039564956
000100 e7 1d 38 be 74 be f0 3f 4a 99 53 bf bf b6 9b 3f
       -0.17980157 1.8808122 -0.82655776 1.2165145
000110 b8 28 5e bf fd 4d 96 3f cf 74 fb 3e 2a a1 c0 be
       -0.8678088 1.174255 0.49112555 -0.37622958
000120 a7 3b 47 be fa 33 ac 3f 25 de 35 bc 77 d2 4a be
       -0.1945635 1.3453362 -0.011100327 -0.19806848
000130 53 a2 d0 bf 8e 92 f0 3e 17 03 a6 3f 52 99 0d 3f
       -1.6299537 0.46986812 1.2969693 0.55312073
000140 dd 62 e6 be 9b fe a4 bf 6d 8a b7 bf 6b 96 57 bf
       -0.44997302 -1.28902 -1.4339119 -0.84213895
000150 62 22 ca be a4 8e 38 bf 73 4e 38 3f 74 50 b7 3f
       -0.39479357 -0.7209265 0.71994704 1.4321427
000160 02 44 ad be 59 c2 d0 3d 73 88 55 be 7f be 6c 3f
       -0.33840948 0.10193319 -0.20852832 0.92478174
000170 08 fa ec 3e 39 57 2e be b4 8e b2 bf 1a d4 f4 bf
       0.4628451 -0.1702546 -1.39498 -1.9127228
000180 e3 9c 30 be c0 81 ce bf 68 65 a4 3e 10 ba 01 bf
       -0.17247348 -1.6133347 0.32108617 -0.50674534
000190 5a ed b2 bf de f9 ab 3d a7 8c 70 be 85 c8 76 3e
       -1.3978684 0.08397268 -0.23491155 0.2409993
0001a0 a4 62 85 3d 31 f0 07 3f d6 f2 af 3d 39 d9 48 3f
       0.06512955 0.5310088 0.08591239 0.78456455
0001b0 f6 86 81 3e ee ec 64 bf 4c 7b 23 3f c6 f3 4e 3f
       0.2529828 -0.89424026 0.6386001 0.8084072
0001c0 12 95 8d 3f 19 33 e5 3f c0 55 58 3e 3f 3f df 3d
       1.1061118 1.7906219 0.21126461 0.10900735
0001d0 7d ec 66 3e 24 55 f9 3e 75 2e 8b 3f 4e 0a 67 3f
       0.2255115 0.4869777 1.0873553 0.902501
0001e0 55 22 62 3d 78 d8 ec bd 90 13 c5 3f 3a 2c 1c 3e
       0.055208523 -0.11564726 1.5396595 0.15251246
0001f0 38 e1 55 3d fc 15 29 bf 2c c1 68 3e e8 99 ad be
       0.05221674 -0.6604917 0.22729939 -0.33906484
000200 03 2c 4e 3f 94 c4 12 bf 1d 41 31 3e 81 e0 42 bc
       0.80535907 -0.57331204 0.17309995 -0.011894346
000210 de 10 d4 be 6d df 31 3e 65 f8 02 be 56 df b4 bf
       -0.4141912 0.17370386 -0.12790067 -1.4130657
000220 3f 98 b7 3f bf 66 1d 3f 54 73 01 40 2e 9f 32 be
       1.4343337 0.61484903 2.022664 -0.17443535
000230 84 d7 bf 3f c1 c0 ca 3e 11 0d 12 3f f9 6a 95 bf
       1.4987645 0.39600185 0.5705119 -1.167327
000240 a1 97 26 c0 6c af e9 3f f2 bf 89 bf 38 6e a8 be
       -2.6030047 1.825666 -1.0761702 -0.3289659
000250 fd fe 64 3f 4c 35 90 be 05 ad e4 be 62 d1 b6 3f
       0.8945158 -0.28165662 -0.44663253 1.4282649
000260 ec 8e 36 3e ad 62 e0 be 56 33 6a bf de 9b cd 3d
       0.17827958 -0.43825284 -0.9148458 0.10039495
000270 78 8c 33 bf c3 1f 94 3f fb ea 16 3d 39 b0 2b bf
       -0.70136213 1.1572193 0.03684519 -0.6706577
000280 78 de 24 3f 07 c3 eb bf b7 f5 9e 3f 92 5f c7 bf
       0.6440196 -1.8418893 1.2418736 -1.5576041
000290 1a 32 20 3e 47 d0 52 3f ba 30 20 3f 3e e8 b9 bf
       0.15644112 0.82349056 0.6257435 -1.4524
0002a0 8b 10 25 bf c6 c6 79 be 31 b6 3c bf e0 16 01 be
       -0.6447837 -0.24392232 -0.737155 -0.12606382
0002b0 07 b4 89 be ed 6c e4 be f8 3c 24 bf 9b f4 c1 3e
       -0.26895162 -0.44614354 -0.6415553 0.37881932
0002c0 87 5b a4 bf 6a 09 af be c6 e1 bb 3f 0b 1b 44 bf
       -1.2840432 -0.3418687 1.4678276 -0.76603764
0002d0 5d e3 c9 bd d5 3a 62 3f 9d ca 27 bf 4b d3 3c 3e
       -0.09857819 0.8837102 -0.6554354 0.18439977
0002e0 7f 2f d6 be 33 3a b1 bf f4 07 32 bf c7 bf 13 bf
       -0.41833112 -1.3845886 -0.69543386 -0.57714504
0002f0 66 d6 a6 3f a3 12 0a bf 37 f8 ad be c9 c5 3f 3f
       1.3034179 -0.5393469 -0.33978435 0.7491117
000300 c6 22 86 bf 26 07 c9 bf ae 15 63 bf 01 29 f7 bf
       -1.0479362 -1.5705307 -0.88704956 -1.9309388
000310 9b 47 a5 3f 68 d2 8c 3f 2e d7 84 bf a2 ca ec bf
       1.2912477 1.1001711 -1.0378168 -1.8499339
000320 ec 77 d7 3f b8 7b a5 3f 83 1d d6 bd 91 e7 98 3e
       1.6833472 1.2928381 -0.10454848 0.2986417
000330 ff 5e c8 be 47 2b ca be e6 ad 9c 3f 25 9c 0d bf
       -0.39134976 -0.39486143 1.224057 -0.5531638
000340 f9 8e 98 bf 0f 39 0d bf 1f 36 09 3e a2 99 f8 3f
       -1.1918632 -0.5516519 0.13399552 1.9421885
000350 e1 69 b7 be 30 0b 44 bf 66 29 04 c0 08 2e c9 bf
       -0.35822967 -0.7657957 -2.0650268 -1.5717173
000360 5e 03 b9 be 31 ae b3 bf 68 cf a7 3e bd c6 9e bf
       -0.3613538 -1.4037534 0.32775426 -1.24044
000370 bf 40 87 bf 6d b6 0b 3f a7 72 9c 3e 19 47 5a bf
       -1.0566634 0.54575235 0.30556223 -0.85264736
000380 4b 73 c0 bf 36 c3 86 bf 3c 7f f4 3f 1a c2 fa bf
       -1.5035185 -1.0528324 1.9101329 -1.9590485
000390 fe 96 2a bf a3 11 45 bf f4 ab 92 3f 15 03 1c be
       -0.66636646 -0.76980036 1.1458726 -0.1523555
0003a0 d3 96 81 bf 15 2b f2 3f b6 cb 14 be 82 22 bd 3e
       -1.0124153 1.8919398 -0.14530835 0.3694039
0003b0 72 a4 a2 3f 7c 89 89 3d 15 4b 03 bf 3f e6 98 be
       1.2706435 0.06715676 -0.5128644 -0.29863164
0003c0 87 c1 e0 be 65 80 96 3e 27 66 d5 3d 9f 6c 4c 3f
       -0.4389765 0.29394832 0.10419875 0.7985324
0003d0 07 d6 bc bf 48 cb e8 3e 8a 08 1f 3d ce 54 32 bf
       -1.4752816 0.4546759 0.038826503 -0.6966065
0003e0 15 6c fa 3e b9 a0 cf be 4b f9 cd 3e 88 97 c3 3c
       0.48910585 -0.4055231 0.40229258 0.023875967
0003f0 46 56 ce be 0f f3 a9 3f a2 10 b8 3e 79 b5 3b bf
       -0.40300196 1.3277301 0.3595019 -0.7332378

model.layers.block_0.conv.weight f4 [256, 64, 5]
000000 4a 40 93 bf a8 7f 22 bf 77 72 99 bf f8 dd 42 3e
       -1.1503994 -0.6347604 -1.1988057 0.19029987
000010 9a 64 37 be 0d b2 dc be 34 4d 7a 3f eb a4 c3 3f
       -0.1790947 -0.43104592 0.9777405 1.5284704
000020 e5 7b 82 3f ec 60 c5 bd 8e cc 8e bf 43 44 70 be
       1.019406 -0.09637627 -1.1156175 -0.2346354
000030 06 a2 d2 bf 47 6d f6 3e 58 4e 4c 3e 53 76 82 3f
       -1.6455696 0.48130247 0.19951761 1.019236
000040 e6 2a 19 3f 4b 8b 99 3f ae 8f 87 3f 94 8f 8b 3f
       0.5983108 1.1995634 1.0590723 1.0903192
000050 64 c4 f6 3e 31 8e 56 3f 16 e4 ca 3e 5e e0 9b be
       0.4819671 0.83810717 0.3962714 -0.30444616
000060 ef b4 fd 3d b7 0d 80 bf df 86 b2 3c 15 67 42 3e
       0.12388026 -1.0004185 0.021792827 0.18984635
000070 1e 9e 28 bf fd 03 8a 3f 78 50 5b bf 0f 18 da be
       -0.6586627 1.0782467 -0.8566966 -0.4259648
000080 b2 1b 0d bf fe e3 bc bd c4 85 00 bf c1 9b dd be
       -0.55120385 -0.092231736 -0.5020411 -0.43282893
000090 fe 0c 81 bf 6e 74 c2 bf 83 96 0c c0 61 36 89 be
       -1.008209 -1.5191782 -2.1966865 -0.267993
0000a0 fa 06 d6 bf a2 0d 72 be c1 a2 d7 bc 2c ea 28 bf
       -1.6720879 -0.23638013 -0.026322724 -0.6598232
0000b0 75 63 ed be 7c 9c af bf 62 9f 9a bf 77 c6 56 bf
       -0.46364942 -1.371963 -1.207989 -0.83896583
0000c0 a6 49 7f bf 85 5c 8c 3e 4c 53 a5 bf e2 d9 f4 3e
       -0.99721754 0.27414337 -1.2916045 0.4782248
0000d0 dd f2 cc be 48 81 ec 3d 19 d8 9f 3e a8 d7 21 3e
       -0.4002904 0.11548096 0.31219557 0.15804923
0000e0 5e da e4 3e bb 6f b9 3d 98 9e 7a 3f 66 2d f8 3e
       0.4469785 0.09054514 0.97898245 0.48472136
0000f0 23 bd 2b 3f b7 c4 c4 bf e7 21 47 bf 09 52 09 3f
       0.67085475 -1.5372533 -0.77786106 0.536408
000100 27 5d 81 bf e4 8a b9 3d e1 33 03 c0 3e e9 f8 bf
       -1.0106553 0.090596944 -2.0500414 -1.944618
000110 05 0c b1 bf 3b 52 d1 be 18 be 14 c0 ec 6a 95 be
       -1.3831793 -0.4088305 -2.3241024 -0.29183137
000120 3d c7 71 3d 28 ed ca be d8 31 14 3f d0 11 0c be
       0.0590279 -0.3963406 0.57888556 -0.1367867
000130 ba 38 8a be 0b 01 bf 3d db 49 db bf c0 fc f1 bf
       -0.26996404 0.09326371 -1.7131914 -1.8905258
000140 6c 8a 50 bf ec 8b 46 3f 0b 1d 94 bd d7 d1 34 3f
       -0.81461215 0.77557254 -0.07232102 0.7063269
000150 ed 9d 86 3f 6d 42 1c 3f 6f 02 a0 3f 31 47 51 3f
       1.0516945 0.6103886 1.2500743 0.81749254
000160 a7 16 e7 bd 3b fc 58 bc 5a 29 23 be 16 83 22 bf
       -0.112836175 -0.01324373 -0.15933743 -0.6348127
000170 a0 45 8e bf 7b 30 7e bf c7 db 80 3e 0f 4b 67 3f
       -1.1114998 -0.99292725 0.25167677 0.90348905
000180 e3 ac aa be d5 fc 54 bf df 6d b4 be 98 71 f2 be
       -0.33335027 -0.8319829 -0.35240075 -0.4735229
000190 10 9b 7c be d6 23 6d bf fc a7 e6 be e6 75 04 3f
       -0.24668527 -0.92632806 -0.45050037 0.517424
0001a0 c9 da 74 3e 6c 9c 42 3f 08 9a 15 3f 2b 1d ae 3e
       0.23911585 0.7601993 0.5843816 0.34006628
0001b0 72 de 97 bf f4 0b b8 be 8c 90 10 be 66 d6 cb be
       -1.186476 -0.3594662 -0.1411764 -0.3981201
0001c0 d2 9f f9 be 16 1e ad 3e 38 5e b7 3f d1 e0 69 3f
       -0.48754746 0.33812016 1.4325628 0.9135867
0001d0 44 98 82 3f fd c4 5b 3f 2e 6d 17 3e 80 d0 82 3f
       1.0202718 0.85847455 0.14787742 1.0219879
0001e0 d5 4c df bf 97 c5 b4 bf 2f cf 63 bf 76 12 a3 be
       -1.7445322 -1.41228 -0.8898801 -0.31850022
0001f0 cc 3d 64 3f ca b1 a9 bf b2 fd ae bf 7f 8d 93 bd
       0.89156795 -1.3257382 -1.3671172 -0.072047226
000200 87 43 bd 3e 29 4b 52 be 35 dc d9 3f 27 cf 67 bf
       0.36965582 -0.20536484 1.7020327 -0.90550464
000210 9d 05 02 3f 08 99 fc 3e 4f f5 72 bf 6a 16 06 3f
       0.50789815 0.49335504 -0.9490556 0.5237795
000220 8b ee 42 be 70 a5 c9 be 58 6d ad 3f de 9d b7 3e
       -0.1903631 -0.3938403 1.3548994 0.3586263
000230 aa 75 bb 3f ae 45 ad 3f 5c 3d f5 3e cf 61 ba 3e
       1.4645283 1.353689 0.47898376 0.36402747
000240 54 f9 72 be 8f 89 f2 3e 45 5e 0c 40 b2 fa c1 3f
       -0.23727924 0.47370574 2.1932538 1.5154631
000250 c8 97 76 3e a8 03 31 3e cd ca 29 3d 75 9a ff bd
       0.24081337 0.17286551 0.04145317 -0.12480632
000260 2e 15 b4 3e 69 35 c0 3f e1 cd 4b bf 03 e2 e4 3e
       0.3517241 1.50163 -0.7961102 0.44703683
000270 07 a4 44 3e 75 fd 74 be 1f 03 5b be c7 bb c9 bf
       0.19203196 -0.23924811 -0.2138791 -1.576043
000280 bc f8 8a 3f 55 67 a0 bd 1e d5 81 bf 98 56 de bf
       1.0857158 -0.07832209 -1.0143163 -1.7370176
000290 15 cd 2e 3d 54 ff 82 be f1 70 1e 3f 18 52 4c 3f
       0.04267605 -0.25585425 0.61891085 0.79812765
0002a0 2a 5d 2f 3f f4 b7 10 bf 0f de b1 be 79 40 a6 3f
       0.6850153 -0.5653069 -0.3473973 1.2988425
0002b0 43 d2 6f 3f 7c cd 49 3f 14 02 9e 3f cb 9f cf 3f
       0.9368021 0.7882917 1.2344384 1.622064
0002c0 30 42 06 3f 2b bb ab be 8d 33 7c bf b4 78 95 be
       0.52444744 -0.33541235 -0.9851616 -0.29193652
0002d0 9e 3a f0 be 11 30 43 3f b0 0e 39 3f da e2 7e bf
       -0.4691972 0.7624522 0.72288036 -0.995649
0002e0 ae 22 02 3e 74 aa b2 3f ab ff 53 3f 07 72 58 3f
       0.12708542 1.3958268 0.82811993 0.8454899
0002f0 b0 a7 2a 40 23 65 25 bf cf 59 ae 3e 78 68 72 3f
       2.6664848 -0.6460745 0.34052894 0.94690657
000300 f9 3a e8 3e bf 33 a1 3e 28 d7 9c 3f 19 1e aa 3d
       0.45357493 0.31484792 1.225316 0.08306522
000310 6e f5 e2 3e 33 ee d3 3e da 3e 88 3f d7 e5 a5 3d
       0.44327873 0.4139267 1.0644181 0.08100479
000320 98 7f 11 3e bf ac 08 3f 42 fa fc 3e b6 2b ec be
       0.1420883 0.5338859 0.49409682 -0.461271
000330 85 db 03 c0 de 14 12 bf e0 af de bb 37 46 77 bf
       -2.0602734 -0.5706309 -0.0067958683 -0.96591514
000340 da 8d 84 bf 2b 05 a4 bf 0b 29 33 bd 4c 85 1c 3f
       -1.035579 -1.2814077 -0.043740314 0.61140895
000350 bd 79 1e 3f 1e 0d bf be 92 69 96 3e e6 82 0f bf
       0.6190451 -0.37314695 0.2937742 -0.5605911
000360 03 92 7a bf bb cb e3 be b5 a1 b4 3e 0e e7 23 bf
       -0.97879046 -0.44491372 0.35279623 -0.64024436
000370 f3 91 06 3f 7b 5e 72 3f ea b2 87 3f aa f3 bd 3d
       0.5256645 0.94675416 1.0601475 0.09274991
000380 3f da 7b 3e a7 bc 09 3e c4 14 7c 3f 52 f9 40 3f
       0.24594973 0.13450871 0.98469186 0.7538043
000390 33 4d df bd 90 0d b4 3e 06 51 72 bf 1a a2 43 bf
       -0.109033965 0.35166597 -0.9465488 -0.7641922
0003a0 85 21 af be 59 0e d9 3d 6d 07 1e bf f1 a2 9f 3f
       -0.3420526 0.1059844 -0.6173008 1.2471601
0003b0 f9 22 a9 3f 73 76 ca 3f f5 7f 8f 3e 4a 9a 08 bf
       1.3213798 1.5817398 0.2802731 -0.53360426
0003c0 cc 95 92 bf f8 fb 42 bf 28 4e 79 bf 9b 39 9a be
       -1.1451964 -0.76165724 -0.9738488 -0.30122074
0003d0 f9 65 e5 3e c2 05 fa be 1c f8 82 bf a9 0d d1 bf
       0.4480436 -0.48832518 -1.0231967 -1.6332294
0003e0 94 89 5d bf de ed 66 bf ab cc a7 bf 6c 78 76 bf
       -0.8653805 -0.90206707 -1.3109335 -0.962775
0003f0 0d c6 2c bf 2c 19 dc bf 2e 06 dd bd 40 b3 a4 bf
       -0.674897 -1.7195182 -0.10792194 -1.2867203

model.layers.block_0.norm.weight f4 [256]
000000 88 c3 c7 40 34 16 f8 40 2d 3e dc 40 87 60 db 40
       6.2426186 7.7527103 6.88259 6.855533
000010 31 a2 dd 40 af 2a e1 40 79 d8 aa 40 8c 79 e1 40
       6.9260488 7.0364604 5.338925 7.0460873
000020 0c 87 f7 40 20 4d e4 40 62 94 99 40 84 23 d6 40
       7.735235 7.1344147 4.799363 6.6918354
000030 89 26 c9 40 87 f4 e1 40 67 ce db 40 61 b8 d2 40
       6.285954 7.0610995 6.8689456 6.585007
000040 41 f9 c2 40 95 92 d1 40 e1 c9 bd 40 f9 ed e2 40
       6.0929265 6.5491433 5.9308934 7.0915494
000050 75 25 d4 40 13 c0 d9 40 f4 50 ba 40 60 7b e0 40
       6.6295724 6.8046966 5.822382 7.0150604
000060 10 89 e8 40 56 ea f5 40 a1 30 cc 40 ee 36 ba 40
       7.2667313 7.6848555 6.380936 5.8192053
000070 77 a3 c5 40 8f 00 d0 40 bb ae d6 40 79 a0 d3 40
       6.176204 6.500068 6.7088294 6.613339
000080 15 6f e8 40 04 0f e7 40 a9 f0 d5 40 67 01 e7 40
       7.26356 7.220583 6.6856275 7.218921
000090 32 38 cc 40 af 88 db 40 66 bd cf 40 8b e0 d3 40
       6.38186 6.860435 6.49187 6.62116
0000a0 c0 f3 de 40 26 9e cd 40 9c 84 dd 40 30 93 d1 40
       6.9672546 6.425555 6.9224377 6.549217
0000b0 fc 19 e7 40 a6 c8 dc 40 65 66 db 40 cd ce da 40
       7.221922 6.899493 6.8562493 6.837744
0000c0 ac 17 8a 40 6e 4a d0 40 ac f8 cd 40 0b 13 e3 40
       4.3153896 6.5090857 6.4366055 7.0960746
0000d0 0f 87 d6 40 ba 0a f1 40 7f 05 ab 40 ba 01 f1 40
       6.7039866 7.5325594 5.344421 7.531461
0000e0 9d d1 d8 40 98 91 d0 40 b6 05 b1 40 2d 05 cb 40
       6.7755876 6.5177727 5.531947 6.344382
0000f0 9f 80 bf 40 0b 14 d6 40 0e c9 da 40 69 f2 e5 40
       5.984451 6.6899467 6.837043 7.185841
000100 95 2d c8 40 a3 f7 d0 40 24 ec de 40 03 e5 cd 40
       6.255564 6.530229 6.9663258 6.4342055
000110 98 74 d3 40 c3 e5 e5 40 0c 1a c5 40 87 cd bd 40
       6.6079826 7.184297 6.1594296 5.931339
000120 74 19 ed 40 df d0 9c 40 b8 44 c5 40 b1 3c ee 40
       7.409357 4.900497 6.1646385 7.4449086
000130 a4 f7 d0 40 05 98 c0 40 c5 dd e3 40 e1 7c d0 40
       6.5302296 6.018557 7.1208215 6.515244
000140 1f 45 db 40 a4 a1 dc 40 db d2 e5 40 3c ba b9 40
       6.8521876 6.8947315 7.181989 5.8039837
000150 cc d1 de 40 ef 6b d5 40 10 97 e4 40 f6 17 cc 40
       6.96311 6.6694255 7.1434402 6.377925
000160 12 d0 aa 40 74 73 b6 40 31 73 01 41 0a e2 eb 40
       5.337899 5.7015934 8.090623 7.3713427
000170 55 c4 cf 40 00 eb ef 40 55 d1 c9 40 b6 a5 de 40
       6.4927163 7.4974365 6.306803 6.9577284
000180 a8 19 da 40 40 bb d1 40 df e1 d0 40 e3 e6 d4 40
       6.815632 6.5541077 6.527572 6.6531844
000190 56 e5 de 40 7a 18 d0 40 97 fe f0 40 1c 2e f8 40
       6.965495 6.502988 7.531078 7.7556286
0001a0 61 e6 cd 40 a4 c5 e7 40 09 93 e8 40 e8 3d f4 40
       6.4343724 7.242876 7.2679486 7.632557
0001b0 a0 1d da 40 d9 c5 ae 40 78 b8 e4 40 ea 47 d9 40
       6.8161163 5.4616513 7.147518 6.7900286
0001c0 07 a0 db 40 07 92 cd 40 e0 74 e1 40 bb 6d da 40
       6.8632846 6.4240756 7.045517 6.825895
0001d0 74 3f cd 40 bf 1e c0 40 b0 e8 fc 40 aa 0a c8 40
       6.4139957 6.003753 7.903404 6.251302
0001e0 77 77 ca 40 4e 9f e8 40 f8 3e de 40 18 f4 f3 40
       6.327083 7.2694464 6.9451866 7.6235466
0001f0 c3 5a e8 40 be db c3 40 f7 a8 c6 40 cc 08 cd 40
       7.2610793 6.120574 6.2081256 6.407324
000200 98 5e d6 40 8c 1d f0 40 a6 77 ea 40 b5 23 e5 40
       6.699047 7.503607 7.3271055 7.160609
000210 43 37 e6 40 2e b8 e0 40 62 dd d3 40 35 80 e7 40
       7.194246 7.022483 6.6207743 7.2344003
000220 03 8f 90 40 bf 6b d4 40 fb 28 e4 40 82 25 e9 40
       4.5174575 6.6381526 7.1300025 7.2858286
000230 5b 6f d3 40 39 95 e1 40 19 ea f4 40 98 6a d6 40
       6.607343 7.0494657 7.6535764 6.700512
000240 63 cf cb 40 6e 6b df 40 a7 f8 04 41 70 c0 90 40
       6.3690658 6.981864 8.310706 4.523491
000250 4e d8 d5 40 06 36 e2 40 98 8a e0 40 25 ab c4 40
       6.6826544 7.0690947 7.016918 6.1458917
000260 5c 90 c7 40 e6 a0 bb 40 a8 e2 d4 40 f1 4e b6 40
       6.236372 5.863391 6.652668 5.6971364
000270 07 89 ca 40 35 6d d2 40 44 03 a1 40 24 ec bf 40
       6.329227 6.575831 5.0316486 5.9975758
000280 cc e9 07 41 7a e0 f4 40 e0 7d cf 40 ca cc e4 40
       8.494579 7.652402 6.4841156 7.1499987
000290 a7 f6 c4 40 db a1 e9 40 88 ea af 40 b8 f2 05 41
       6.155109 7.3010077 5.4973793 8.3717575
0002a0 bb 1f cf 40 af 43 d1 40 05 fc ca 40 1c 30 af 40
       6.4726233 6.539512 6.343264 5.4746227
0002b0 d9 a1 98 40 fc 7e ac 40 32 b4 fb 40 33 43 b7 40
       4.769757 5.390501 7.8657465 5.726953
0002c0 c8 69 e0 40 0a 5a 03 41 a7 96 d3 40 b6 ac b5 40
       7.0129128 8.209482 6.61214 5.677333
0002d0 46 d9 8c 40 4c 62 e3 40 46 32 d8 40 a8 dc fc 40
       4.4015226 7.105749 6.756137 7.9019356
0002e0 eb 6f d3 40 29 50 d2 40 35 2a cd 40 21 8a b4 40
       6.607412 6.572285 6.411402 5.6418614
0002f0 da 5c b7 40 94 b3 ca 40 6f d2 e4 40 eb 5d d9 40
       5.7300844 6.334421 7.1506877 6.7927146
000300 4a 0f 9d 40 b2 f6 ca 40 78 df bc 40 4e 5b a4 40
       4.9081163 6.342614 5.902279 5.1361456
000310 26 7b df 40 c2 6f d5 40 4e 55 03 41 88 f0 cf 40
       6.983783 6.6698923 8.208326 6.4981117
000320 a5 de db 40 1a 43 c6 40 4f 28 ea 40 01 ea cf 40
       6.8709283 6.195691 7.3174205 6.497315
000330 c0 8c dd 40 cc 22 bd 40 f3 43 c9 40 2b cd e2 40
       6.9234314 5.9104977 6.2895446 7.087545
000340 9f 62 de 40 cf 70 d8 40 08 15 c7 40 26 f5 f6 40
       6.9495387 6.7637706 6.2213173 7.7174253
000350 54 d8 fe 40 39 1e cf 40 ce 4a bc 40 90 6a ca 40
       7.9639072 6.4724393 5.8841314 6.325508
000360 d4 89 c4 40 74 4e fe 40 ac 03 d6 40 09 14 cf 40
       6.1418247 7.947077 6.687948 6.4711957
000370 f1 93 bb 40 42 5a df 40 f9 ec ce 40 38 b5 b3 40
       5.8618093 6.979768 6.4664273 5.6158714
000380 07 f6 cf 40 86 21 cd 40 54 8c f5 40 eb f2 cb 40
       6.4987826 6.410342 7.67338 6.373403
000390 75 33 cd 40 3b a4 ed 40 bd 75 c2 40 8e 67 db 40
       6.4125314 7.4262977 6.0768723 6.856391
0003a0 1d d4 d1 40 d0 46 cb 40 e6 df d7 40 4e 44 d0 40
       6.5571427 6.352394 6.7460814 6.508338
0003b0 de 4e e8 40 bc 41 db 40 52 21 cb 40 fd f9 e8 40
       7.2596273 6.851774 6.3478174 7.280516
0003c0 3a ac e6 40 b6 d8 c1 40 ed 37 d6 40 c0 da 80 40
       7.2085238 6.057704 6.694327 4.026703
0003d0 fc 37 ed 40 a9 39 d8 40 dc 40 e3 40 74 27 ec 40
       7.413084 6.7570386 7.1016674 7.379816
0003e0 a9 1c e5 40 5e 40 ec 40 af cd f4 40 38 8a ec 40
       7.1597486 7.3828573 7.650108 7.3918724
0003f0 c8 15 d8 40 b9 23 ba 40 58 78 ef 40 bb f0 ed 40
       6.752659 5.8168607 7.4834404 7.435636

model.layers.block_0.norm.bias f4 [256]
000000 41 a4 f3 bf b2 ba fa bf 66 d8 03 c0 52 c8 f5 bf
       -1.9034501 -1.9588225 -2.060083 -1.9201758
000010 32 41 24 c0 4e 73 1f c0 05 58 d7 bf 2b 72 fe bf
       -2.5664792 -2.4914126 -1.6823736 -1.9878591
000020 bf 53 3c c0 bc 93 1c c0 e4 83 3b bf eb a0 e4 bf
       -2.9426115 -2.446517 -0.73248124 -1.7861608
000030 4c c5 11 c0 84 10 20 c0 a4 32 03 c0 29 f9 17 c0
       -2.277667 -2.501008 -2.0499659 -2.3745825
000040 c2 6d f8 bf 9d da f4 bf 02 f7 d3 bf 04 0e 2c c0
       -1.9408495 -1.9129215 -1.6559756 -2.6883554
000050 d8 b3 14 c0 50 a8 f6 bf c0 1d b1 bf d5 86 29 c0
       -2.3234768 -1.9270115 -1.3837204 -2.6488545
000060 d2 49 1e c0 eb 72 1e c0 2d b3 e4 bf 0e b6 d8 bf
       -2.4732556 -2.475764 -1.786718 -1.6930559
000070 a6 c7 07 c0 bb f8 d7 bf 41 42 c6 bf 06 f2 c6 bf
       -2.1215606 -1.6872782 -1.5488969 -1.554261
000080 6b 23 0d c0 fe 08 1c c0 82 39 0c c0 fc 8a 1c c0
       -2.2052867 -2.4380488 -2.19101 -2.445983
000090 be c2 f4 bf 5e 56 ff bf bf b3 07 c0 b3 86 17 c0
       -1.9121931 -1.9948232 -2.1203458 -2.3675964
0000a0 f2 a6 28 c0 dd 33 c8 bf a6 07 0d c0 27 80 a6 bf
       -2.6351895 -1.5640827 -2.2035918 -1.3007859
0000b0 9a f0 bb bf 3d 61 c2 bf e6 de f7 bf 7e d8 01 c0
       -1.4682801 -1.5185925 -1.9364898 -2.0288386
0000c0 f0 37 81 bf 02 40 07 c0 34 2e de bf 49 42 14 c0
       -1.0095196 -2.1132817 -1.735785 -2.3165457
0000d0 40 db fa bf 41 cb f5 bf 29 d6 9a bf bf 95 f8 bf
       -1.959816 -1.9202653 -1.2096606 -1.9420699
0000e0 6a ba 07 c0 5b db 19 c0 60 dd ba bf df 2f 0d c0
       -2.1207528 -2.4040134 -1.4598808 -2.2060468
0000f0 99 04 b9 bf 16 54 d5 bf a0 16 1e c0 78 70 13 c0
       -1.4454528 -1.6666286 -2.470131 -2.3037395
000100 28 2e d1 bf 74 90 12 c0 21 6c 0f c0 eb b8 05 c0
       -1.6342211 -2.2900667 -2.2409747 -2.0894115
000110 c1 c5 d9 bf 56 38 e9 bf b4 7d e1 bf ec 2d f2 bf
       -1.7013475 -1.8220317 -1.7616487 -1.8920264
000120 78 95 15 c0 0c 5b aa bf de cb f5 bf 1a b9 0d c0
       -2.3372478 -1.3309035 -1.920284 -2.2144227
000130 6f 1d c5 bf 38 9b c2 bf 76 cd eb bf 00 58 c8 bf
       -1.5399607 -1.5203619 -1.8422077 -1.5651855
000140 22 76 13 c0 4b e4 09 c0 90 52 21 c0 e6 4d 9b bf
       -2.3040853 -2.154559 -2.5206642 -1.2133148
000150 3a dd f1 bf 8a a6 fe bf 60 30 1c c0 e9 31 09 c0
       -1.8895638 -1.9894574 -2.4404526 -2.1436713
000160 aa 99 b4 bf 86 14 d8 bf e8 e0 0d c0 92 c9 35 c0
       -1.4109395 -1.6881263 -2.2168522 -2.8404279
000170 0b 86 10 c0 f9 07 0e c0 5a 76 e7 bf 6f 27 10 c0
       -2.2581813 -2.2192366 -1.8082993 -2.2524068
000180 7c d0 00 c0 b5 f1 09 c0 de fc d5 bf 81 9a ed bf
       -2.0127249 -2.1553776 -1.6717794 -1.8562776
000190 a3 fb bb bf d0 4d 01 c0 38 39 29 c0 4f 03 d1 bf
       -1.4686168 -2.0203743 -2.6441174 -1.6329135
0001a0 60 7c d2 bf ad 95 f9 bf a2 5a 08 c0 de a8 09 c0
       -1.6444206 -1.9498802 -2.1305318 -2.1509318
0001b0 ea e8 12 c0 ef 75 99 bf 36 20 fc bf fc 3b ea bf
       -2.295466 -1.1989115 -1.969733 -1.8299556
0001c0 5c aa 07 c0 66 a3 d7 bf 59 ab 06 c0 69 42 f6 bf
       -2.119773 -1.684674 -2.1042082 -1.9239017
0001d0 4f 1e fb bf ef 83 e0 bf f0 95 1f c0 52 63 da bf
       -1.9618624 -1.7540263 -2.4935265 -1.706156
0001e0 22 4f ef bf b1 de e9 bf 5b 8b 0a c0 eb bb 0b c0
       -1.8696024 -1.8271085 -2.1647556 -2.1833446
0001f0 99 6f 0d c0 11 a8 8d bf 80 d1 f6 bf 29 76 e4 bf
       -2.2099364 -1.1066915 -1.9282684 -1.784856
000200 e6 b5 06 c0 de 5e f0 bf ca 22 15 c0 9b 92 1b c0
       -2.1048522 -1.8778951 -2.3302484 -2.430823
000210 2d 3f f7 bf c9 df 05 c0 55 74 c6 bf 0d 17 fd bf
       -1.9316155 -2.0917838 -1.5504252 -1.977266
000220 17 d5 d0 bf 8a 8c 14 c0 b0 17 29 c0 2c ea 24 c0
       -1.631503 -2.3210778 -2.6420708 -2.5767927
000230 4f 35 17 c0 24 11 08 c0 41 50 29 c0 29 6d 00 c0
       -2.3626287 -2.1260462 -2.6455233 -2.0066626
000240 fa cc ca bf f3 33 32 c0 e4 22 fa bf 16 3f c3 bf
       -1.5843804 -2.7844207 -1.9541898 -1.5253627
000250 82 63 d5 bf 74 0a d2 bf ab cf 21 c0 81 43 06 c0
       -1.6670992 -1.640944 -2.5283 -2.09787
000260 49 ab 0b c0 1c e8 cb bf 06 de cb bf 4a 90 f5 bf
       -2.1823294 -1.5930209 -1.5927131 -1.9184659
000270 ff aa cf bf c0 d8 ef bf 20 e3 c2 bf 45 ec bb bf
       -1.6224059 -1.8738022 -1.5225563 -1.4681479
000280 68 92 f0 bf b1 17 15 c0 27 3e 0b c0 4e f3 f7 bf
       -1.879468 -2.329571 -2.1756685 -1.9371126
000290 92 72 f1 bf 28 fd fb bf aa 3f 8c bf ad d9 0a c0
       -1.8863089 -1.9686632 -1.0956929 -2.1695359
0002a0 8a 35 f5 bf 75 65 f3 bf b4 87 fd bf 04 5a 27 bf
       -1.9156964 -1.9015337 -1.9807038 -0.6537173
0002b0 12 3c bf bf 4a ff 7b bf 2d a1 2b c0 55 bc ca bf
       -1.4940207 -0.98436415 -2.6817124 -1.5838724
0002c0 85 84 0a c0 b2 ad 45 c0 7c 75 e1 bf e6 64 b3 bf
       -2.1643384 -3.0887265 -1.7613978 -1.4015167
0002d0 de 16 8f bf 26 29 13 c0 5a e8 b3 bf f9 fe 12 c0
       -1.1178854 -2.2993865 -1.4055283 -2.2968123
0002e0 23 d2 c5 bf 46 f7 04 c0 e8 aa e2 bf 1d fa eb bf
       -1.5454754 -2.0775924 -1.7708406 -1.8435704
0002f0 e5 70 f2 bf ee 6b e6 bf cf ea d7 bf 60 5f fd bf
       -1.8940703 -1.8001688 -1.6868533 -1.9794731
000300 ae ee 05 c0 03 4e ed bf e9 ba e2 bf 1f 62 77 bf
       -2.0926929 -1.8539432 -1.771329 -0.96634096
000310 5b b7 1d c0 64 97 05 c0 37 52 2d c0 e9 d8 06 c0
       -2.4643161 -2.0873652 -2.708143 -2.1069891
000320 a2 03 1f c0 7e e5 bc bf 86 16 f9 bf 81 a3 fd bf
       -2.4845967 -1.4757535 -1.9459999 -1.9815522
000330 50 2f e8 bf 00 ae 00 c0 d4 b3 39 c0 42 41 03 c0
       -1.8139439 -2.01062 -2.9016008 -2.050858
000340 d9 00 ee bf 0a df 00 c0 1c 82 df bf 8f 2f 21 c0
       -1.8594009 -2.0136132 -1.7461581 -2.5185277
000350 5d 50 36 c0 e8 10 e9 bf 3c 21 05 c0 ca f3 bb bf
       -2.848655 -1.8208284 -2.0801535 -1.4683774
000360 06 08 0a c0 de 9e 14 c0 63 26 d4 bf d4 89 e6 bf
       -2.1567397 -2.3221965 -1.6574215 -1.8010812
000370 ab e0 ab bf 7a b9 ec bf 20 13 14 c0 8c 05 ae bf
       -1.3427938 -1.8494103 -2.3136673 -1.3595443
000380 a0 9a b8 bf 45 85 06 c0 bf 65 ef bf 2c 25 07 c0
       -1.4422188 -2.1018841 -1.8702925 -2.1116438
000390 c7 11 f9 bf ad 6c 16 c0 9d 53 d3 bf 5a c9 39 c0
       -1.945855 -2.350383 -1.6509892 -2.9029145
0003a0 4a 1a f9 bf de 51 95 bf f2 07 c0 bf 53 71 b3 bf
       -1.9461148 -1.1665609 -1.5002425 -1.4018959
0003b0 99 5a 14 c0 1c ca bd bf 4c f1 ec bf 53 05 d0 bf
       -2.3180296 -1.4827304 -1.8511138 -1.6251625
0003c0 7c 54 f5 bf a5 69 eb bf f4 e7 b2 bf 24 8f 27 bf
       -1.9166408 -1.8391615 -1.3977036 -0.6545279
0003d0 cf 04 1c c0 f6 ce fd bf 98 03 e4 bf af bd 04 c0
       -2.4377935 -1.9828784 -1.7813597 -2.0740774
0003e0 5e d6 f5 bf 1b 90 12 c0 1f f4 2d c0 e7 f9 e6 bf
       -1.9206045 -2.2900455 -2.718025 -1.8045014
0003f0 7b 70 02 c0 ff 69 ac bf 1e fd c3 bf ab 23 06 c0
       -2.0381153 -1.3469847 -1.531162 -2.095927

model.layers.block_0.norm.running_mean f4 [256]
000000 a7 a9 6f c0 5d c0 49 c0 ea 6e 50 c0 46 08 5f c0
       -3.7447298 -3.152366 -3.2567697 -3.48488
000010 c4 7e 8f c0 1d 4c 41 c0 87 44 d6 bf 78 c9 65 c0
       -4.4842243 -3.0202706 -1.6739663 -3.5904217
000020 8f 31 a0 c0 5d 03 2a c0 8a 41 46 c0 07 9d 5d c0
       -5.0060496 -2.6564553 -3.0977502 -3.4627092
000030 f5 b9 88 bf 09 ff 28 c0 47 8e 6a c0 24 11 89 c0
       -1.068175 -2.640566 -3.664934 -4.2833424
000040 1b ba 81 c0 8f c6 e6 bf 30 43 50 c0 24 20 9f c0
       -4.053968 -1.8029345 -3.2541008 -4.9726734
000050 42 5a 91 c0 c0 70 52 c0 a2 5b 4a 3f 27 fc 97 c0
       -4.542268 -3.2881317 0.7904607 -4.7495303
000060 9c ba 92 c0 d1 a4 7a c0 ce d4 61 c0 90 6b 62 c0
       -4.5852795 -3.9163096 -3.5286136 -3.537815
000070 c1 a8 95 c0 bb 3c 1e c0 68 69 31 c0 b8 59 19 c0
       -4.67685 -2.4724567 -2.7720585 -2.396101
000080 42 99 73 c0 19 6a 89 c0 8e df 88 c0 fc 2b 87 c0
       -3.806229 -4.2942014 -4.2772894 -4.224119
000090 b0 cf 62 c0 b2 f9 56 c0 aa 01 80 c0 2f 42 86 c0
       -3.5439262 -3.3589902 -4.000203 -4.195579
0000a0 ca c3 13 c0 2d 64 25 c0 09 36 6d c0 17 ad 06 c0
       -2.308825 -2.5842392 -3.706423 -2.1043146
0000b0 d8 35 ae bf a4 77 0f c0 47 41 5c c0 9a 3d 66 c0
       -1.3610182 -2.2416773 -3.4414842 -3.5975099
0000c0 0f f9 12 c0 30 80 63 c0 49 c3 4b c0 75 53 77 c0
       -2.2964513 -3.554699 -3.1837943 -3.8644688
0000d0 9a 8f 5a c0 7b 2a 43 c0 8a 3e ac bf a5 4e 4f c0
       -3.4150147 -3.0494678 -1.3456585 -3.239175
0000e0 cf a3 6a c0 00 b4 72 c0 c5 f5 3c c0 a8 17 85 c0
       -3.666248 -3.7922363 -2.9525006 -4.1591377
0000f0 e5 5e 2f c0 af 85 e6 bf 68 34 8d c0 f1 1d 63 c0
       -2.740167 -1.8009547 -4.4126472 -3.5487025
000100 62 38 03 c0 11 d6 8f c0 61 9a 4b c0 20 bc 3a c0
       -2.0503163 -4.494881 -3.1812975 -2.9177322
000110 97 08 98 bf 52 fe 3f c0 a1 9e 5b c0 3f 3f 5f c0
       -1.1877621 -2.9998975 -3.431557 -3.4882352
000120 b8 1d 7c c0 90 45 9c be ba b4 49 c0 57 4d 6c c0
       -3.939314 -0.30521822 -3.1516557 -3.6922204
000130 2e ad 1a c0 28 81 38 c0 af 77 2a c0 c6 05 30 c0
       -2.41682 -2.882883 -2.663555 -2.7503524
000140 95 73 84 c0 06 91 61 c0 30 c8 5d c0 47 ec bf bf
       -4.139109 -3.5244765 -3.4653435 -1.4993981
000150 b2 b0 42 c0 45 3d 4b c0 3d 18 48 c0 61 d9 5d c0
       -3.0420346 -3.1756146 -3.1264794 -3.4663928
000160 68 a7 52 c0 8e 9f 63 c0 51 24 6a c0 97 75 9a c0
       -3.2914677 -3.5566134 -3.6584666 -4.826854
000170 8a 3f 95 c0 f5 ed 67 c0 2d cb 4a c0 75 e6 82 c0
       -4.664006 -3.6238987 -3.1686509 -4.090632
000180 ae b1 36 c0 3e de 1a c0 80 af b1 bf b7 85 5a c0
       -2.8545947 -2.4198146 -1.3881683 -3.4144113
000190 22 73 1e c0 44 52 74 c0 58 2b 8c c0 a9 86 f5 bf
       -2.4757771 -3.817521 -4.380291 -1.918172
0001a0 72 f5 21 c0 1c 2b 4e c0 48 29 5c c0 c8 e9 5f c0
       -2.5306058 -3.2213812 -3.4400196 -3.4986439
0001b0 74 10 82 c0 6c 67 fc bf f2 c6 5e c0 68 01 57 c0
       -4.0645084 -1.9719062 -3.4808927 -3.3594608
0001c0 36 96 6e c0 2b 32 4b c0 e1 06 07 c0 e7 49 6d c0
       -3.7279181 -3.174937 -2.1097949 -3.7076356
0001d0 c7 ca 63 c0 6a 72 30 c0 12 dd 71 c0 18 56 55 c0
       -3.5592515 -2.7569833 -3.779118 -3.3333797
0001e0 8e 87 2f c0 25 97 2b c0 7b 50 7b c0 2f 83 67 c0
       -2.7426486 -2.6811001 -3.9267871 -3.6173818
0001f0 93 7e 64 c0 ea 8e 8a bf 48 83 1c c0 17 6d 31 c0
       -3.5702255 -1.0824864 -2.4455128 -2.7722833
000200 11 4a 36 c0 8e db 2b c0 71 a0 7d c0 62 10 71 c0
       -2.8482707 -2.6852756 -3.9629176 -3.766625
000210 0f 3d 56 c0 51 5f 2d c0 4f bb 0c c0 04 4c 13 c0
       -3.3474767 -2.7089427 -2.1989324 -2.3015146
000220 6c d4 bf bf b5 25 89 c0 b1 16 94 c0 70 a5 60 c0
       -1.4986701 -4.285853 -4.62777 -3.5100975
000230 5a 9d 98 c0 c5 7c 69 c0 a7 88 8f c0 ff a8 e6 bf
       -4.769208 -3.6482403 -4.485431 -1.8020324
000240 a1 4f 25 c0 e0 c1 b6 c0 2a e8 2f c0 66 cb 86 c0
       -2.5829852 -5.7111664 -2.7485452 -4.212329
000250 46 78 33 c0 83 b9 31 c0 ac 2c 96 c0 5b 64 87 c0
       -2.804216 -2.7769477 -4.692953 -4.2310004
000260 6a bc 67 c0 43 e1 06 c0 b2 d7 2d c0 a1 2e 26 c0
       -3.620875 -2.107499 -2.71629 -2.596596
000270 dd b1 31 c0 4e e6 2a c0 50 65 57 c0 63 2d 36 c0
       -2.776481 -2.6703067 -3.3655586 -2.8465202
000280 6d 0f 34 c0 b6 51 67 c0 6e e6 74 c0 33 19 24 c0
       -2.8134415 -3.6143622 -3.8265643 -2.564038
000290 05 b2 7d c0 3c 73 3e c0 00 25 11 c0 70 fd 4e c0
       -3.9639904 -2.9757833 -2.2678833 -3.2342186
0002a0 e7 e4 5c c0 05 bb 60 bf 4c 80 6f c0 62 e6 08 c0
       -3.451471 -0.8778537 -3.7422056 -2.1390615
0002b0 ac a3 75 c0 cb cb 0e c0 72 a6 8b c0 f7 78 55 c0
       -3.8381147 -2.2311885 -4.364068 -3.335508
0002c0 63 2f 64 c0 8d f4 a2 c0 78 01 75 3e 21 55 3a c0
       -3.5653923 -5.0923524 0.23926342 -2.9114459
0002d0 77 c1 76 c0 1f a7 81 c0 a5 6f ea bf 7c 8e 5d c0
       -3.8555582 -4.0516505 -1.8315321 -3.4618216
0002e0 eb 16 15 c0 79 ae 30 c0 c3 d6 27 c0 74 64 7f c0
       -2.3295238 -2.760649 -2.622483 -3.9905062
0002f0 50 21 8a c0 62 ba 66 c0 6f e0 29 c0 cb e1 49 c0
       -4.3165665 -3.605126 -2.6543233 -3.1544063
000300 78 c6 54 3f 84 d9 50 c0 d7 01 6e c0 bc 75 31 c0
       0.8311534 -3.263276 -3.7188623 -2.772811
000310 50 e9 3f bf a7 05 7c c0 a2 eb 7b c0 90 1a 82 c0
       -0.7496538 -3.937845 -3.936257 -4.0657425
000320 c9 bd 8d c0 7b 83 2d c0 09 d3 09 c0 e6 d9 64 c0
       -4.429417 -2.71115 -2.1535056 -3.5757995
000330 b5 3f 46 c0 6d f4 83 c0 4c 71 f0 bf aa 70 3e c0
       -3.0976384 -4.123587 -1.8784575 -2.9756265
000340 db 38 4a c0 a4 a0 65 c0 db 54 47 c0 08 ed 78 c0
       -3.1597202 -3.5879297 -3.1145542 -3.8894672
000350 b7 6c 90 c0 4c 6b 61 c0 d5 0b 1e c0 6f c4 24 c0
       -4.513271 -3.522174 -2.4694722 -2.5744894
000360 22 4d 88 c0 7a fd 70 c0 d5 40 41 c0 6a 9d 4b c0
       -4.2594156 -3.765471 -3.019582 -3.1814828
000370 e7 f4 0d c0 ea 8d 41 c0 46 2b 92 c0 ab dc 1c c0
       -2.2180727 -3.0242867 -4.5677824 -2.4509685
000380 0a f4 11 c0 04 e4 07 c0 6f 3b 2e c0 fd c2 86 c0
       -2.28052 -2.123292 -2.7223775 -4.2113023
000390 8a 85 66 c0 76 12 70 c0 f8 e1 5e c0 6b 08 df bf
       -3.6019006 -3.7511268 -3.482542 -1.7424444
0003a0 d9 ac 7b c0 2f c0 df bf fc 44 14 c0 05 c9 21 c0
       -3.9324248 -1.7480525 -2.3167105 -2.5278943
0003b0 f6 7c 6a c0 af b9 00 c0 34 a7 59 c0 d3 06 08 c0
       -3.663877 -2.0113332 -3.4008303 -2.1254165
0003c0 e6 75 4b c0 fa b3 59 c0 02 91 17 c0 59 48 33 c0
       -3.179071 -3.40161 -2.3682256 -2.8012908
0003d0 a4 81 17 c0 1d dd 80 c0 f6 2d 31 c0 36 1f 40 c0
       -2.3672876 -4.0269914 -2.7684302 -3.001905
0003e0 ef 60 49 c0 24 94 06 c0 b5 27 92 c0 a0 c0 29 c0
       -3.1465414 -2.1027918 -4.567347 -2.652382
0003f0 49 a7 64 c0 44 77 2a c0 3b 9a 06 c0 8e 87 3f c0
       -3.5727103 -2.6635294 -2.1031635 -2.9926486

model.layers.block_0.norm.running_var f4 [256]
000000 37 d9 3c 43 2f 9f 34 43 67 d6 30 43 8b e3 2d 43
       188.8485 180.62181 176.83751 173.88884
000010 40 71 2e 43 70 71 25 43 15 ed 24 43 3a c8 30 43
       174.44238 165.44312 164.9261 176.78214
000020 7e af 42 43 72 95 3a 43 45 c0 41 43 b3 40 43 43
       194.68552 186.58377 193.75105 195.25273
000030 cd 91 25 43 54 6d 22 43 4f 63 2c 43 be d7 30 43
       165.56953 162.42706 172.38792 176.84274
000040 a0 6b 40 43 ba ac 25 43 70 e8 2b 43 a6 3a 43 43
       192.42041 165.67471 171.90796 195.2291
000050 03 64 3c 43 57 2e 26 43 c9 95 30 43 97 46 2d 43
       188.39067 166.18102 176.5851 173.27574
000060 e9 05 42 43 82 ff 2b 43 20 f1 4f 43 a5 1e 2a 43
       194.02309 171.99808 207.9419 170.1197
000070 65 be 51 43 7d 97 2e 43 56 4a 26 43 d4 cf 1e 43
       209.74373 174.59175 166.29037 158.81183
000080 29 e2 2d 43 f7 be 33 43 2a b1 38 43 26 5f 30 43
       173.88344 179.74596 184.69205 176.37167
000090 cd aa 30 43 76 a1 30 43 ac a6 33 43 9c 06 2d 43
       176.66719 176.6307 179.65106 173.02582
0000a0 84 73 2f 43 3f 09 23 43 ea 96 21 43 77 e5 1d 43
       175.45123 163.03612 161.58951 157.89635
0000b0 94 9e 2b 43 4d f5 32 43 f4 4f 2c 43 51 d5 2a 43
       171.61945 178.9582 172.31232 170.83327
0000c0 fa 8d 2f 43 78 0f 4a 43 01 fc 28 43 23 93 28 43
       175.5546 202.06042 168.98439 168.57475
0000d0 a8 5f 27 43 ce 56 26 43 ea 90 11 43 3a 7c 37 43
       167.37366 166.33908 145.56607 183.48526
0000e0 a5 96 26 43 b3 5c 35 43 c8 35 2f 43 ef 98 28 43
       166.58846 181.3621 175.21008 168.5974
0000f0 ae 88 19 43 1c 21 35 43 f3 e2 2e 43 47 6e 26 43
       153.5339 181.12933 174.88652 166.43077
000100 a0 89 29 43 84 81 44 43 5a 97 26 43 15 1a 22 43
       169.5376 196.50592 166.59122 162.10188
000110 5c 4d 3a 43 21 32 27 43 39 4b 4e 43 f0 3d 29 43
       186.30219 167.19582 206.29384 169.24194
000120 fa f6 36 43 80 bd 28 43 34 7a 22 43 a2 71 34 43
       182.96475 168.74023 162.47736 180.44388
000130 11 2f 2e 43 1f b6 2d 43 72 19 20 43 83 b1 1e 43
       174.18385 173.71141 160.0994 158.6934
000140 b3 8d 36 43 27 af 26 43 af 68 2a 43 7f 09 11 43
       182.55351 166.68419 170.40892 145.0371
000150 a5 96 0e 43 06 f4 1d 43 6a 90 2b 43 c0 fb 23 43
       142.58846 157.95322 171.56412 163.9834
000160 eb 19 42 43 09 42 21 43 d4 18 4f 43 91 66 35 43
       194.10124 161.25795 207.09698 181.40065
000170 89 34 39 43 9f 00 36 43 1d 78 1e 43 dd c9 2f 43
       185.20522 182.00243 158.4692 175.78853
000180 97 b6 2e 43 48 d9 1b 43 53 dc 27 43 45 71 38 43
       174.71324 155.84875 167.86064 184.44246
000190 25 2f 35 43 6c c0 28 43 64 51 2f 43 cd 32 3e 43
       181.18416 168.75165 175.31793 190.19844
0001a0 f4 19 18 43 5d d4 26 43 d5 22 2d 43 0a 3e 33 43
       152.10138 166.82954 173.13606 179.24234
0001b0 28 6c 3c 43 fe ca 25 43 3c 38 3f 43 68 c5 2b 43
       188.42249 165.79294 191.21967 171.77112
0001c0 50 e4 40 43 cd 95 3e 43 6d 6e 2c 43 72 38 47 43
       192.89185 190.58516 172.43135 199.22049
0001d0 a7 c1 1e 43 7d 20 23 43 d9 ad 25 43 cc 02 41 43
       158.75645 163.1269 165.6791 193.01093
0001e0 0f 56 2f 43 6c 06 30 43 2b f6 31 43 ce 3f 3e 43
       175.33617 176.02509 177.9616 190.24924
0001f0 8b 84 29 43 c7 d0 29 43 10 03 27 43 2e 0b 38 43
       169.51775 169.81554 167.01196 184.04367
000200 7a 15 25 43 44 30 40 43 74 36 37 43 6f 9f 1d 43
       165.0839 192.18854 183.2127 157.62279
000210 a9 79 34 43 e5 00 2c 43 86 cb 18 43 76 14 26 43
       180.47523 172.0035 152.79501 166.07993
000220 0b ae 02 43 57 3e 2c 43 86 16 2a 43 7b fa 23 43
       130.67986 172.24352 170.08798 163.97844
000230 6b 45 46 43 e0 39 2c 43 54 df 39 43 ec 11 2d 43
       198.27116 172.22607 185.87238 173.07
000240 43 77 1e 43 88 8c 50 43 4d 09 2b 43 55 b4 30 43
       158.46587 208.54895 171.03633 176.70442
000250 a8 83 14 43 1e 03 3b 43 c1 79 3c 43 dc c6 2a 43
       148.51428 187.01218 188.4756 170.7768
000260 bd e5 3d 43 f5 9b 1c 43 73 d4 1c 43 a5 77 19 43
       189.89742 156.6092 156.82988 153.46736
000270 39 a8 1f 43 d5 af 28 43 ad 95 24 43 8c 8b 21 43
       159.65712 168.68684 164.58467 161.5451
000280 54 f6 3c 43 19 3c 33 43 c7 59 2c 43 e7 22 25 43
       188.96222 179.23476 172.3507 165.13634
000290 3e b9 3d 43 7c 02 31 43 c1 b0 16 43 47 ad 37 43
       189.7236 177.0097 150.69044 183.67686
0002a0 f8 b2 2c 43 86 89 29 43 6c d2 41 43 6a 8a 22 43
       172.6991 169.5372 193.82196 162.54068
0002b0 4c b1 2b 43 d5 d4 27 43 9f 0c 41 43 f5 45 27 43
       171.69257 167.83138 193.0493 167.27327
0002c0 12 9b 31 43 a2 97 4c 43 3b 4b 2b 43 97 4b 21 43
       177.60574 204.59232 171.29387 161.29527
0002d0 10 27 35 43 75 fa 35 43 06 80 26 43 fd c8 39 43
       181.15259 181.97835 166.50009 185.78511
0002e0 af 48 20 43 7f c6 18 43 bb 4a 20 43 ee 57 39 43
       160.28392 152.77538 160.29192 185.34348
0002f0 3e c3 4b 43 0e f0 3c 43 9c 49 38 43 a8 f6 36 43
       203.76266 188.93771 184.28754 182.9635
000300 92 17 20 43 bf c4 21 43 49 58 2b 43 ec 7c 33 43
       160.09207 161.76854 171.34486 179.48798
000310 ca 85 2f 43 f3 f5 2d 43 93 eb 32 43 dc ad 3b 43
       175.52261 173.96074 178.92021 187.67914
000320 ee a4 2f 43 81 15 38 43 bb 8b 35 43 2a 04 36 43
       175.64426 184.084 181.54582 182.01627
000330 19 09 29 43 f5 ba 26 43 87 dd 20 43 37 9b 28 43
       169.03554 166.7303 160.86534 168.60631
000340 3d 0c 3a 43 f3 36 27 43 5f de 22 43 58 ab 32 43
       186.0478 167.21465 162.86864 178.66931
000350 68 7a 44 43 1b 31 41 43 5a 43 1f 43 e2 28 35 43
       196.47815 193.19182 159.26309 181.1597
000360 7f f2 2c 43 08 5d 48 43 13 2b 30 43 92 7a 23 43
       172.94725 200.3634 176.16826 163.47879
000370 5e bb 2c 43 4c 1c 27 43 ef 11 3d 43 44 c6 1d 43
       172.7319 167.11053 189.07005 157.77448
000380 dd f8 1e 43 0c 12 2d 43 eb 6f 31 43 ea 9c 2e 43
       158.97212 173.0705 177.43718 174.61295
000390 1b 96 44 43 03 e3 32 43 44 b7 35 43 12 2d 1e 43
       196.58635 178.88676 181.71588 158.17606
0003a0 b9 4f 48 43 ee b3 22 43 23 01 26 43 cf 9c 28 43
       200.31142 162.70285 166.00444 168.61253
0003b0 c3 b0 27 43 c5 53 2b 43 18 d2 24 43 93 e2 22 43
       167.69048 171.32722 164.82068 162.88506
0003c0 18 65 24 43 59 a6 28 43 d1 e7 2d 43 39 bf 25 43
       164.3949 168.6498 173.90553 165.74696
0003d0 6c 1b 31 43 9b e9 40 43 45 e5 2c 43 62 ec 17 43
       177.10712 192.91252 172.89558 151.92337
0003e0 31 0a 29 43 68 ba 2a 43 93 eb 37 43 6c 5c 2b 43
       169.03981 170.72815 183.92021 171.36102
0003f0 c6 ac 3f 43 30 2b 2f 43 64 eb 1c 43 44 47 2c 43
       191.6749 175.1687 156.9195 172.27838

model.classifier.weight f4 [54, 256]
000000 f8 3a 39 3f e2 6b 14 3f 4f a5 88 3f 15 79 c6 3e
       0.72355604 0.57977116 1.0675448 0.38764253
000010 a2 6d 15 c0 48 be 17 c0 dd f3 95 be cf 27 b5 bf
       -2.3348165 -2.3709888 -0.29287615 -1.4152774
000020 c7 31 8f c0 18 97 2e bf 0b b8 82 be bb 85 cc be
       -4.4748263 -0.681993 -0.2553104 -0.39945778
000030 0a e4 1a 3f bf 40 99 3f 32 5c 37 3f 41 db a0 3f
       0.6050421 1.1972884 0.71625054 1.2566911
000040 01 2d a7 bd ef ed 7b 3f 30 74 ca bf 0c 63 12 bf
       -0.08162881 0.9840993 -1.5816708 -0.57182384
000050 9c b5 b4 3f 4a 50 17 c0 ee 17 5d 3f 03 8d db 3f
       1.4117923 -2.3642755 0.8636464 1.7152408
000060 8a 1a 9a bf 87 49 b8 3f 5b 25 86 bf 60 e8 23 c0
       -1.2039349 1.4397439 -1.048015 -2.561058
000070 e1 9b e3 be f8 9d 75 3e cc 39 84 3e b7 44 ea be
       -0.44454864 0.23986042 0.25825346 -0.4575555
000080 57 1c 97 bf b9 62 f2 3f 3d 6c da bf 49 0a 79 3f
       -1.1805524 1.8936378 -1.7064282 0.9728132
000090 9b 52 19 3f 36 83 5b 3e 7e 29 5a c0 bd 59 36 be
       0.5989167 0.21436772 -3.4087825 -0.1780767
0000a0 f3 f0 19 c0 b0 55 05 40 58 f4 c6 3f 3e 08 f1 3d
       -2.4053314 2.083355 1.5543318 0.1176915
0000b0 b0 1f 20 c0 c2 b2 d8 3d 06 90 47 c0 69 95 13 c0
       -2.501934 0.1058097 -3.1181655 -2.3059943
0000c0 ee da 0c bd 3b 4a 38 3f a4 87 97 3f 1d ec 89 3f
       -0.034388475 0.71988267 1.1838269 1.0775181
0000d0 cb 1b 01 bf 9b 57 d2 3f 16 06 97 3f dc 58 1b 3f
       -0.50433034 1.6432985 1.1798732 0.60682464
0000e0 28 a0 f4 3e c4 3b 24 c0 9d 46 62 3f 8c 26 21 3f
       0.4777844 -2.5661478 0.88389 0.6294944
0000f0 fc ab 81 3e f9 d8 bf 3f 5f e2 1b 3d e8 48 34 c0
       0.25326526 1.498809 0.03805768 -2.8169498
000100 aa 5e 97 be 94 7d 0c bf 75 a9 20 40 6b 8b c1 3f
       -0.2956441 -0.54879117 2.5103428 1.5120672
000110 78 78 04 bf af 2c 50 40 c5 c0 a9 be 75 f3 00 40
       -0.5174632 3.2527273 -0.33154884 2.0148594
000120 92 50 04 c0 50 d1 07 3f a4 01 eb 3f 66 f5 0b bf
       -2.0674176 0.5305376 1.8359876 -0.54671323
000130 c6 1c a1 3c 62 14 21 3f 80 3a 1c 3f cc 7d 6f 3e
       0.01966704 0.62921727 0.61026764 0.23387831
000140 8d c9 46 bf 5e 05 96 c0 b6 3d a4 3f 72 2d 73 3e
       -0.7765129 -4.688155 1.2831333 0.23747805
000150 d9 26 b3 3f 4d 43 b6 3e 45 0e 45 3f bb fc 71 3e
       1.399623 0.3559822 0.769749 0.23631565
000160 a7 96 e1 be e1 7d a2 bf d3 32 95 c0 9c aa 1e 40
       -0.4406025 -1.2694665 -4.662454 2.4791632
000170 ce d8 04 40 bc c8 0c c0 9a bd 71 3f 68 49 ec be
       2.0757327 -2.1997519 0.94429934 -0.46149755
000180 e6 36 7c c0 3c bb 61 3f 41 04 95 3f 9a 5c 36 c0
       -3.9408507 0.8817632 1.1641923 -2.849402
000190 c1 97 37 3f e5 be 28 3e e7 66 b9 3e 12 a2 c7 bf
       0.71715933 0.1647907 0.3621132 -1.5596335
0001a0 cd fd 06 40 06 4c 49 bf b2 9a 88 c0 19 b0 a0 bf
       2.1092408 -0.7863163 -4.2688837 -1.2553741
0001b0 4d 67 35 bf 20 56 20 c0 df fa 18 c0 50 a4 cd bf
       -0.7086075 -2.5052567 -2.390312 -1.6065769
0001c0 68 af 82 3f 40 3e e6 be 6b 71 ed 3d b0 2e b6 3f
       1.020978 -0.44969368 0.115938984 1.4232998
0001d0 a6 7f 13 c0 79 22 9e 3f a1 46 91 bf b5 90 99 3e
       -2.304666 1.235427 -1.1349679 0.29993215
0001e0 41 88 9a 3f 57 fd 3a c0 0a ef d3 3e 37 b3 26 bf
       1.2072831 -2.9217126 0.4139331 -0.6511721
0001f0 8c 8f c6 bf 49 2a c4 3e 26 47 02 c0 bd 46 12 be
       -1.5512557 0.3831351 -2.0355926 -0.14284797
000200 a7 0d a3 3f ba ec 24 bf d8 a1 75 be 25 95 8b 3f
       1.2738541 -0.64423716 -0.2398752 1.090489
000210 4f 43 9f be 07 86 30 c0 24 fb c3 be 68 cd f5 bf
       -0.3110604 -2.7581804 -0.38277543 -1.920331
000220 53 38 97 bf fb a0 aa 3f 51 7b 86 3f 1b 96 0c c0
       -1.1814064 1.3330377 1.0506383 -2.1966617
000230 f5 68 4f 3f f2 85 0d 3e 2e b8 86 3f 45 25 d9 3f
       0.81019527 0.13820627 1.0524957 1.6964499
000240 42 8d 68 3d 5b ff f5 3f 04 bf 47 3f c6 1c b3 3f
       0.05677534 1.9218553 0.7802584 1.3993156
000250 ad a0 88 bf f6 9a 04 40 3b 47 32 bf 6c 2b 26 40
       -1.0674034 2.071958 -0.6963994 2.5964003
000260 6e 00 2c 3f 07 66 3e bf d0 93 5c 3d 9b ab aa 3e
       0.67188156 -0.7437443 0.053851902 0.3333405
000270 81 62 ae 3f 5a 81 03 c0 4f ad 88 3e 0e 06 03 3e
       1.3623811 -2.05477 0.26694724 0.12795278
000280 01 79 df 3e 1e f4 02 40 f0 97 cc 3f b5 9a 0a 3f
       0.43647006 2.0461497 1.5983868 0.54142314
000290 e6 52 c5 3f 11 01 f6 bf 68 53 e9 be ea 39 25 3f
       1.5415924 -1.9219075 -0.45571446 0.64541495
0002a0 1c cb ce bf 48 3a 9e 3e 8a 58 3f 3f 40 57 4e 3f
       -1.6155734 0.3090384 0.74744475 0.8060188
0002b0 80 b3 eb 3e b9 22 89 3d e2 90 ac be a2 fc 85 3e
       0.46035385 0.06696076 -0.33704287 0.26169306
0002c0 96 dc 9b bf 70 77 c6 bf b8 3f fc 3f d8 4e 38 bf
       -1.2176692 -1.55052 1.9706945 -0.71995306
0002d0 1d 76 14 40 8f c5 58 bf c7 c7 2a bf f2 68 ee bf
       2.319709 -0.8467645 -0.66711086 -1.8625777
0002e0 6c 1e 84 3f 3f 3f c3 bf 60 4b be bf 01 fc 82 3f
       1.0321784 -1.5253676 -1.4866753 1.0233155
0002f0 c6 28 58 bf 05 77 97 3e f1 65 99 3f f6 92 8e 3d
       -0.84437215 0.29582992 1.1984235 0.06961624
000300 dd 6c e3 bf 24 f5 0c 3f 70 58 54 3f 63 76 16 bf
       -1.7767597 0.55061555 0.82947445 -0.58774394
000310 fe 42 11 be e7 fa 96 bf ab 4a 98 bf 14 55 23 bf
       -0.14185712 -1.1795319 -1.1897787 -0.63801694
000320 97 af a7 bf 76 f4 f3 3f f8 f8 c7 be 58 0d 1c 40
       -1.3100461 1.9058979 -0.39057136 2.4383144
000330 df 9d 2f bf b6 ef 87 3f b0 7a 43 be 7a f4 e8 bf
       -0.6860027 1.0620029 -0.1908977 -1.8199608
000340 45 f5 05 bd 8c d0 54 bf a3 31 2c 3f 3c 9f ac 3f
       -0.03270461 -0.8313072 0.6726324 1.3486094
000350 be 60 9b be b6 fa 8b 3f 6e 73 24 bd 1d 47 50 bf
       -0.30347246 1.0935886 -0.040149145 -0.8135851
000360 09 1e e3 be 47 ff 04 be 70 db 97 3e f5 6b 3d bf
       -0.44358853 -0.12988006 0.29659605 -0.73992854
000370 4c 2d fc bf dd f2 3c 40 ff f3 b8 3f e7 09 64 be
       -1.9701324 2.9523232 1.4449462 -0.22269402
000380 e9 74 8e 3f 6c 80 32 bf 68 4c 8c 3f 3a fb 59 bf
       1.1129428 -0.69727206 1.0960817 -0.85148966
000390 79 cf 19 c0 ae 85 c6 3f 32 68 61 bd f1 68 0b be
       -2.4032881 1.5509546 -0.05503101 -0.1361425
0003a0 ba 3d bb bf 34 2d fd 3e bb da a9 3e 98 02 73 bf
       -1.4628212 0.4944855 0.3317469 -0.9492583
0003b0 33 70 8a 3f 0e b2 8f 3f 09 8d 00 c0 56 88 4c 40
       1.081549 1.1226213 -2.008608 3.1958213
0003c0 aa ea 7c 3f 80 94 dc bf 5b 55 99 3f 6d bd 1f 3f
       0.9879557 -1.7232819 1.1979173 0.62398416
0003d0 40 f7 d8 3d b4 a6 0a c0 e2 a6 97 bd 38 7b 68 c0
       0.10594034 -2.1664248 -0.07404877 -3.6325207
0003e0 e9 6a fb bf de fc 3d c0 29 99 2d c0 25 ab 14 bf
       -1.9642001 -2.9685588 -2.7124732 -0.58073646
0003f0 fd 58 d9 3f 00 4e 6d 3f 35 a3 96 bf 37 45 bf 3c
       1.6980282 0.92697144 -1.1768557 0.023348434

model.classifier.bias f4 [54]
000000 fc aa fd 3e 37 15 6c 3f 98 a6 1a be 4b 5a c0 be
       0.49544513 0.9221987 -0.15102613 -0.37568888
000010 ac e1 ad bd 48 05 07 be f0 8a 06 3f e3 c4 2c bf
       -0.08490309 -0.13185608 0.5255575 -0.67487925
000020 1c 62 33 bf 72 b1 95 bc 7e 2d b6 3f 73 04 4d be
       -0.7007158 -0.01827309 1.4232633 -0.20021228
000030 44 20 1e bf c8 18 de 3e c2 d8 5a be 44 45 4b bf
       -0.61767983 0.43378282 -0.21371749 -0.79402566
000040 83 e6 01 be 16 42 6c bf 8d 2b e3 be bd dd a2 be
       -0.1268559 -0.9228834 -0.44369164 -0.31809798
000050 ab fc cc bd 22 b4 01 3f d8 55 6d bf 6b cf 86 3e
       -0.1000913 0.50665486 -0.9270911 0.26330122
000060 60 51 a4 3e 0b 80 a6 bf 75 dc e8 be 19 49 dc be
       0.32093334 -1.3007826 -0.45480695 -0.4302452
000070 60 5b e7 bd 51 7c bd be da db b5 be 29 4e cf 3f
       -0.11296725 -0.37008908 -0.35519296 1.6195728
000080 4f 23 5c bf 14 b1 d5 be ab e5 17 3e d9 d6 43 bf
       -0.85991377 -0.41736662 0.14833705 -0.76499707
000090 7b ff 0d bf 9e bc f6 bd 35 27 d0 3e 93 3f 95 3e
       -0.5546796 -0.120476946 0.40654913 0.29150066
0000a0 91 19 0c 3e 85 1c 5d 3d 44 14 ad 3d 29 e6 36 be
       0.13681628 0.053982276 0.08451131 -0.17861237
0000b0 be 63 2e 3d 1a c0 f5 3e 4c a5 45 bf 0e d3 09 3d
       0.04257559 0.47998124 -0.7720535 0.033648543
0000c0 6e 52 96 be 0c c0 78 be 50 9b 91 3e d7 e6 0e 3f
       -0.29359764 -0.2429201 0.28438807 0.55820984
0000d0 91 3f f8 be 48 2e 15 be
       -0.48485997 -0.14568436
